data/trained_models/base_rho_a_resnet.pth (torch, 201902 bytes, 15 tensors)

net.0.weight f4 [64, 374]
000000 f0 bd a0 3d 2b 23 20 3d 7c 33 f4 3c cb 32 8a bb
       0.07848728 0.03909604 0.029809706 -0.004217481
000010 d2 8d 19 3c 7e ef 22 3d 28 cf b6 3c 04 3e e4 3a
       0.0093721915 0.03977918 0.022315577 0.0017413502
000020 bc 3a 62 bc 3f 3d 13 3c b0 5d d0 3c 66 53 90 3d
       -0.013807949 0.00898677 0.025435299 0.07047157
000030 5e c7 a6 bc 65 c8 87 3c 19 10 7a 3d 6e 1b 95 3d
       -0.020358738 0.016575048 0.06105051 0.072806224
000040 a1 ce 27 3d ec e0 56 3d ae 9c 42 3c 4b 53 b0 bc
       0.04096854 0.052460596 0.011878176 -0.021524092
000050 90 65 b6 bc cd 0c d3 3c c4 cd af 3c cc 27 2b 3d
       -0.022265226 0.02576294 0.021460421 0.041786
000060 03 e2 4e 3d d5 1e d2 bc 54 5f bb 3c 3d 16 91 bb
       0.05050851 -0.025649467 0.022872604 -0.0044277
000070 37 47 50 bd 31 92 49 bd e8 ca b5 3c ef 92 5c bb
       -0.050849166 -0.049211685 0.02219148 -0.0033656915
000080 0b 62 5e 3b 9b b3 5f 3d 1d 42 04 bb b6 8c 01 bd
       0.003393295 0.054614644 -0.0020181008 -0.031628333
000090 87 28 e5 3c b8 dc b8 3c 38 cd 9e 3c 4f 30 3a bd
       0.027973427 0.022566184 0.019384965 -0.045456227
0000a0 92 e5 9a bc 28 4f be bc 82 15 3e 3c 33 88 d3 bb
       -0.018908296 -0.023231104 0.011601808 -0.006455445
0000b0 70 88 98 3c fb f7 51 3d a5 35 0e bd 45 4f 4b bc
       0.018619746 0.051261883 -0.03471913 -0.012409036
0000c0 61 52 8f bc f3 7e 1d bc 85 1d 44 bd cf d7 64 3d
       -0.017495336 -0.009612787 -0.047879715 0.055869874
0000d0 5c 10 53 3d e9 ad 10 bd b7 f2 07 3d 98 85 ba 3c
       0.051529273 -0.035322104 0.033190455 0.02276878
0000e0 15 b7 4d 3d bf b5 22 bc 9b 2e 09 3d fb 17 45 3d
       0.05022343 -0.009931027 0.033491712 0.048118573
0000f0 ce 15 4d 3c 79 46 0b bd 34 52 10 bd 4b 5b 20 3d
       0.012517406 -0.034002755 -0.035234645 0.039149564
000100 02 9f da 3c c7 f1 28 bc d1 e3 8c bc b3 5c 8c 3c
       0.026687149 -0.01031155 -0.017198475 0.017134046
000110 fa c2 8f bb 22 62 2c bd f0 54 2b 3d 7e 11 14 bd
       -0.0043872567 -0.042085774 0.04182905 -0.036149494
000120 e6 2d ab bb a6 9c 3a bc ee 3e 5a bd 64 04 ad 3c
       -0.0052239774 -0.011389887 -0.05328267 0.021120258
000130 b1 34 86 bc 10 52 a4 3d 2d 95 df 3c 01 00 60 3d
       -0.016382547 0.08023465 0.027292812 0.054687504
000140 74 45 c9 3b 23 a5 17 3c 32 90 d6 bc 52 bf 09 3d
       0.0061423127 0.00925568 -0.026191805 0.033629723
000150 7e 82 cb bc 33 4a a5 3c 1a 7d 6e 3c 82 c5 2a 3d
       -0.024842497 0.020176983 0.014556194 0.041692264
000160 b8 4c bc bc 1a 9b 23 3c 27 9d c5 bc 52 49 3a bd
       -0.022985801 0.00998571 -0.024122788 -0.04548008
000170 ff 75 b8 bc 0a 92 03 bd 6a 83 97 3a df 51 3b 3d
       -0.022517202 -0.032121696 0.001155955 0.045732375
000180 f8 95 06 bd 83 8e 31 bd d5 c1 6a 3d 4d 5f 1b 3d
       -0.032857865 -0.0433488 0.05731376 0.037932683
000190 fe 27 db bb 08 b1 93 3c 96 ed a5 3d f3 c7 42 3d
       -0.006688117 0.018028751 0.081019565 0.047553968
0001a0 1e 76 1f bc cc 25 3f bb ac b1 9c bb 56 45 68 3d
       -0.009732751 -0.0029166816 -0.0047819223 0.05670675
0001b0 12 e0 17 bd 01 78 e0 3c f8 08 b2 bc 64 50 c0 3c
       -0.037078924 0.027400972 -0.021732792 0.023475833
0001c0 d6 61 21 bd 6a a1 b4 3b d2 b5 e1 bc b6 46 2c 3d
       -0.039399944 0.005512406 -0.027552519 0.042059623
0001d0 8d fd ef 3c f0 d1 b3 3d 8a db 28 bc 56 d5 59 3c
       0.029295707 0.08780277 -0.010306248 0.013295492
0001e0 22 1d 17 3d 91 39 6f bc 11 79 0e bd 21 31 40 bd
       0.036893018 -0.014601127 -0.034783427 -0.046921853
0001f0 0b 70 75 bc aa 92 07 ba c1 bf 24 3d 69 7d 16 3d
       -0.014980326 -0.0005171696 0.040221933 0.036740694
000200 4f 77 43 bc 67 3c 3b 3d 0f 8a 61 3b 21 4a 84 3b
       -0.011930301 0.0457119 0.0034414565 0.004037157
000210 95 bc 8b bc fe b4 44 3c c6 26 1e bd 53 e7 58 3c
       -0.017057696 0.0120060425 -0.038611196 0.013238746
000220 33 89 7e bc 87 59 f3 bc f0 d7 9a 3b 02 27 27 bd
       -0.0155356405 -0.029705776 0.004725449 -0.040808685
000230 09 da 80 bd 0a 66 67 bc a6 a7 3d bc 13 58 79 3c
       -0.06291587 -0.014123449 -0.011575615 0.015218752
000240 46 38 90 bb 3f 69 ba bc c2 47 52 bc 9d c3 96 3c
       -0.0044012396 -0.022755263 -0.012834491 0.018403823
000250 bf 6c 55 3d b5 cf ed bc e4 c6 05 bd 0c 0a 8a 3c
       0.05210566 -0.029029706 -0.03266038 0.016850494
000260 fd 4c 47 3d 93 bd 1e 3d 18 e2 f4 3b 38 1a 95 bc
       0.048657406 0.03875501 0.0074732415 -0.018200979
000270 54 26 21 bd f8 7b 25 3c 20 09 a5 bc b9 38 12 bd
       -0.039343193 0.010100357 -0.020145953 -0.035698626
000280 03 8a 5f bc 1c f6 b9 3c 28 4f e3 3b 89 83 01 3d
       -0.013643744 0.022700362 0.0069369264 0.031619582
000290 3f 32 c6 3c 24 56 01 bd 23 ac 0d 3d 6a be 06 3c
       0.024193881 -0.03157629 0.03458799 0.008224109
0002a0 66 c6 08 bc 32 28 4c bd 10 8a c3 3c 4d 5c 46 3d
       -0.008348083 -0.04984302 0.023869544 0.04842787
0002b0 58 ad a1 3c a4 55 42 bd 86 3f 06 3c ea 13 8d b9
       0.019735977 -0.047444955 0.008193856 -0.00026908453
0002c0 38 e2 9f 3c e0 e0 ab bc c6 8b 0b 3c 61 1e f1 3c
       0.01951705 -0.020981252 0.008517211 0.029433431
0002d0 8c be 93 3c 41 de 03 bd 45 b2 04 3d 34 3a 76 3c
       0.018035196 -0.03219438 0.032396574 0.015028525
0002e0 97 cf e5 bb e6 36 4c bc 75 92 be bc 65 8c 30 bd
       -0.007013272 -0.012464261 -0.023263196 -0.04310264
0002f0 d0 63 bb 3c a8 10 85 3c 4b dd 6f 3c 2e 7e 93 bc
       0.022874743 0.016243294 0.014640163 -0.018004503
000300 8f 73 f9 3b d0 e5 cc bc a5 23 33 3d ab 4c 6c 3c
       0.0076126526 -0.025011927 0.043735165 0.014422576
000310 52 51 d1 3b 6a bf 42 37 a7 a5 22 bd 85 6a dd bc
       0.006387868 1.1607868e-05 -0.03970876 -0.027028332
000320 c6 66 f6 bc 84 88 25 3d 1a a7 75 3d d9 ae 44 bd
       -0.030078303 0.040413395 0.059973814 -0.04801831
000330 a6 dd 56 bd a8 9e aa bd d9 f6 55 bd e2 79 e8 bc
       -0.052457474 -0.083310425 -0.052237365 -0.02837843
000340 c0 e6 b8 3c 07 f1 ae 3c 03 9c d2 bc 0f 53 68 bb
       0.022570968 0.021355165 -0.025709158 -0.0035449897
000350 fe 66 50 3c 32 a8 8b bc 15 c9 11 3d 29 02 7b 3d
       0.012719868 -0.017047975 0.035592157 0.061281357
000360 de d8 31 3c b6 54 44 3b 75 16 89 bc c9 5a 45 bc
       0.010854928 0.0029957718 -0.016734341 -0.012045571
000370 3f a4 07 bd 51 84 e2 ba be f6 72 3d 5c 8b 5d 3c
       -0.03311562 -0.0017281865 0.059317343 0.013521995
000380 49 07 2b bd e3 5f 7b 3c 44 c0 29 bd 78 ba b8 bc
       -0.041754995 0.015342685 -0.041443124 -0.022549853
000390 9a a8 9d bc 75 ac 1a 3d 79 a4 12 bd 37 36 20 bc
       -0.019245435 0.037762124 -0.035801385 -0.009778551
0003a0 80 87 58 3d ac ed f0 bb 89 cc 20 3d 70 9e 2f bc
       0.052863598 -0.0073525514 0.03925756 -0.010718927
0003b0 86 d1 3a 3b 53 ca 3c bd 2d 3a a2 3a 7f aa 55 3b
       0.0028506233 -0.04609139 0.0012376957 0.0032602844
0003c0 75 bc 8a bc 3b b7 25 bd 89 06 9d bc 54 9f f2 bc
       -0.016935566 -0.040457945 -0.019168155 -0.02961699
0003d0 a6 45 55 3d a0 a7 2b 3d 57 78 93 bb c3 55 12 3d
       0.052068375 0.041907907 -0.0045004296 0.03572632
0003e0 f5 45 48 3d 67 ec 27 bd e2 d0 3f 3d 66 8e 34 3d
       0.04889484 -0.040996935 0.046830066 0.044081114
0003f0 4e b3 43 3c 36 99 92 3c 90 83 94 3c 13 ac 0a 3d
       0.011944605 0.017895322 0.01812914 0.03385551

net.0.bias f4 [64]
000000 78 1a a4 3c 9a 2b e0 bc e2 fd 03 bd 5a 16 30 3b
       0.020032153 -0.02736454 -0.032224543 0.0026868791
000010 22 f0 db ba 4e 2d 13 bd 29 ad 13 bd 7a 50 1e bd
       -0.0016779939 -0.035931878 -0.03605381 -0.038650967
000020 9b e9 4f bd 8b 8b 3f 3d dd 3e 56 3d bb a5 85 3d
       -0.050759893 0.046763938 0.052306045 0.06525751
000030 66 d4 58 3d e3 47 2b bd 3c d0 eb bc b8 78 0c bd
       0.052936934 -0.041816603 -0.028785817 -0.034294814
000040 86 89 53 3c 82 ea fd 3c 84 2d d0 bc 16 9a fe bc
       0.012911206 0.030995611 -0.025412329 -0.031079333
000050 1b a0 b7 bc 8d 4c 89 3a 9e 3e b4 3b dd 4b 11 bb
       -0.022415211 0.0010475084 0.0055006286 -0.0022170462
000060 aa 51 9e bc 25 cf 06 3d 0f 9d 4b 3d 8e 22 c1 ba
       -0.01932605 0.032912392 0.04971033 -0.001473503
000070 65 25 23 3d 77 3e 2c bd 7a ea 15 bd 37 c1 cc bc
       0.039830584 -0.04205176 -0.036600567 -0.024994476
000080 3f 65 18 3d ae 12 c4 bc 32 08 3d 3d 55 bb 6f bd
       0.03720593 -0.023934688 0.046150394 -0.058528263
000090 48 8c 21 3b aa 0a 93 3c 62 b0 8a bc ce 22 36 bd
       0.0024650265 0.017949421 -0.016929809 -0.044466786
0000a0 a9 2a f9 3c 55 7d 4b bc f5 0c 44 3d ca b4 77 bc
       0.03041585 -0.012420018 0.04786392 -0.015118787
0000b0 9a 2f 2d 3d 0d e1 0f 3d bc 44 ce bc bf eb a8 bc
       0.042281725 0.035126735 -0.02517926 -0.020620225
0000c0 42 49 e6 3c 8f 80 2a bd 51 51 10 3d fb 64 a7 3c
       0.028111104 -0.04162651 0.0352338 0.020433893
0000d0 3a 2c 4f bd bf 70 db bc bf 1c 69 3c a5 48 3a 3c
       -0.050579287 -0.02678716 0.014228045 0.011369859
0000e0 f4 3b da 3b d0 cc 08 bd f4 51 df 3c 8f 66 00 bd
       0.006659979 -0.03339845 0.027260758 -0.031347807
0000f0 f6 54 41 3d fc ce 12 bd a6 6b 9c bc 27 0f e3 bc
       0.047200166 -0.035841927 -0.0190943 -0.027717186

net.2.lin1.weight f4 [64, 64]
000000 09 47 72 bd 68 dc ea 3c 89 df 60 3b ba 15 99 3d
       -0.059149776 0.028669551 0.0034312925 0.07474847
000010 6c 67 9f bd 92 64 66 3d 1b 37 a6 bd b6 77 e3 3d
       -0.07783398 0.056248255 -0.08115979 0.111068174
000020 73 4e 01 3c 8c 1f ad bc c8 a8 ce b9 af 7b cb bd
       0.007892239 -0.021133207 -0.00039417134 -0.099357
000030 5a a6 c2 3d 7c 17 8b bd 34 9b 36 bd 9b 6a 29 3c
       0.09504385 -0.06791589 -0.044581607 0.010340358
000040 63 02 72 3b 03 f0 03 3c 3d 40 e6 3d cb 85 05 3e
       0.0036927692 0.008052829 0.11242721 0.13039319
000050 d3 77 09 3e 10 77 c5 3d 0a 90 d4 bd 9e 61 c4 bd
       0.13424616 0.0964185 -0.10379036 -0.095889315
000060 f1 91 65 bd 30 9a e3 3d b0 5e 80 bd 8b a2 f0 3d
       -0.056047384 0.11113393 -0.0626806 0.117497526
000070 e8 0a bc 3d 26 01 f1 bd c2 db c7 3c 31 71 3f 3d
       0.09181768 -0.11767797 0.02439678 0.046738807
000080 18 3b 21 3d dd 47 dd 3d 7b e7 90 bd 59 31 c4 3b
       0.039362997 0.108047225 -0.070754014 0.005987328
000090 9b 31 12 3e 9b 5a 3c bd 5d 28 94 3c fb 20 cf 3d
       0.14276735 -0.045984846 0.018085653 0.101137124
0000a0 a9 bc a6 3d 39 ba b7 3d ec 04 ad bd ea ea 05 3d
       0.08141453 0.08971066 -0.084482044 0.032694735
0000b0 da ef 8d bd 63 9c 9d 3b fc 1a 19 bd f7 38 aa 3d
       -0.06930514 0.0048099025 -0.03737925 0.083116464
0000c0 53 e2 4d 3d 0f e6 90 3c 66 10 5e 3c f0 4e 5d bb
       0.050264668 0.017687825 0.013553714 -0.0033768974
0000d0 66 2c 46 3d 28 60 e2 3c 1d 30 82 3d 7e 2d f5 3c
       0.048382185 0.027633741 0.06356833 0.029928919
0000e0 1c 09 09 3d d1 55 03 3e 85 88 3f 3d 63 dc 08 3e
       0.033455953 0.12825705 0.046761055 0.13365321
0000f0 96 29 b7 3d bd 23 d4 3d f3 a9 8f 3c 22 1c 91 3d
       0.08943479 0.10358379 0.017537093 0.07085444
000100 b6 5a eb 3d 06 d4 b4 bd b3 95 97 3d 23 c1 da bb
       0.11491911 -0.08829503 0.074016 -0.0066758557
000110 31 30 d2 bd b0 8a dc 3b b9 33 cd 3d ee b4 e5 bc
       -0.10263098 0.0067304 0.10019631 -0.028040376
000120 3b 9c 84 3c 45 38 a9 bd b1 c9 7c 3d 7c d8 0c 3d
       0.016187778 -0.08262686 0.061715785 0.034386143
000130 fb 74 e6 3d fe 9e d4 bc ba bd f2 bd 3d 45 5e 3d
       0.11252781 -0.02595472 -0.11852594 0.05426525
000140 b1 1e 87 bd b3 ac f4 bd dd be 6d bd c0 fc ad bd
       -0.06597651 -0.11947002 -0.05804335 -0.08495474
000150 b7 5c d1 3d f5 69 ea bd e6 b5 d5 bd 73 6e aa bd
       0.10222762 -0.11445991 -0.10435085 -0.08321848
000160 b3 95 b9 bd a5 34 f4 3d e2 d6 ba 3d 72 0b fe bc
       -0.09061756 0.11924104 0.09123017 -0.031011317
000170 1e f9 38 bd 6e bc df 3d e9 9a 40 3d fe 51 59 bd
       -0.04515945 0.10924612 0.047022734 -0.05305671
000180 d3 ae ef 3b be f0 e0 3d 8e d6 af 3c 0f e4 ce bd
       0.007314542 0.10983418 0.021464612 -0.101020925
000190 1d 4a 71 3c 54 a6 9d 3d ae 5d 84 bd d8 09 a5 bd
       0.014727143 0.0769774 -0.064631805 -0.08058518
0001a0 15 d8 80 bc fb a3 c3 bd 16 cf 38 bd 3d 39 92 3d
       -0.015728036 -0.09552761 -0.045119368 0.071398236
0001b0 7b 9f 1d 3e a4 c5 d5 3c 15 b1 d7 bd fe 9f 0d 3d
       0.15392868 0.026095219 -0.105318226 0.03457641
0001c0 98 11 c6 3b ca 89 80 3d b7 3d 8a bd 4c 0e 66 3d
       0.006044578 0.06276281 -0.067500524 0.05616598
0001d0 ea ab d3 bd 63 34 34 3d cb 19 82 3b d2 65 c1 bc
       -0.103355244 0.043995272 0.00397036 -0.023608122
0001e0 9b 2d d8 bd 93 3f a1 3d a7 7e eb bc 63 75 20 bc
       -0.105555736 0.07873454 -0.028746916 -0.009793612
0001f0 96 49 1f bd 27 3b c3 bd fa ac 58 3d a3 2d 02 bd
       -0.038888536 -0.09532767 0.05289934 -0.031781804
000200 3a 00 f8 bc cd 46 28 bd 07 3f dc 3d ed 37 62 bd
       -0.030273546 -0.041083146 0.10754209 -0.055229116
000210 8d 35 c0 3d 42 5f da 3d f3 9e 95 3d 4c 7e c2 3c
       0.09385214 0.106627 0.07305708 0.023741864
000220 53 35 b4 bd 4b 09 af 3d 12 61 f8 3d be 17 85 3d
       -0.08799233 0.08546694 0.1212789 0.06498669
000230 eb a3 68 3c f4 d5 b4 bd 11 1c 04 be 11 17 97 bc
       0.014199237 -0.08829871 -0.12901331 -0.018443616
000240 4f ce 17 bd 9e ca 33 bc 9c a2 c9 3c 8a ad 93 bd
       -0.037061986 -0.010973601 0.024613671 -0.07210834
000250 01 f2 f9 bd f6 39 9c 3d ac b4 a6 3d f6 61 ac 3b
       -0.12204362 0.07628243 0.08139929 0.0052607013
000260 1b ec 05 bd b6 c1 0f bd 96 40 e1 bd 76 a4 a5 3d
       -0.03269587 -0.035096847 -0.10998647 0.08088009
000270 50 64 83 3d 48 bb b9 bd 4f d2 31 bd 1c d2 31 3d
       0.064156175 -0.09068924 -0.043413457 0.043413267
000280 ca 4f ea bd 99 84 87 bd 60 0b 84 bd 47 1e af 3d
       -0.11441 -0.06617088 -0.06447482 0.08550697
000290 cc fd 61 bd 87 8b a9 bd 90 0b df 3d 83 9f d0 3d
       -0.05517368 -0.08278566 0.10890877 0.101866744
0002a0 ee dd 61 bd 44 20 d6 3d 45 b9 fc bb 12 1d aa 3d
       -0.05514329 0.10455373 -0.0077125155 0.08306326
0002b0 f9 de c7 3d 2d 04 e9 3d a8 e0 a2 3d 6d d7 4c 3d
       0.097593255 0.113777496 0.07953006 0.050010134
0002c0 60 83 bd bd f9 1c d0 bd a7 da 62 3d 7f 98 ff 3c
       -0.092535734 -0.10161776 0.055384304 0.031200645
0002d0 86 d3 fa 3d 61 08 04 be 6d 78 86 bd 5a cd c5 bd
       0.12247376 -0.12893821 -0.06565938 -0.09658308
0002e0 a3 13 c4 bb ff 1e 48 3d 27 4a e1 bd 62 1c fd 3c
       -0.005983786 0.048857685 -0.110004716 0.030897323
0002f0 1c 86 bd 3d 41 3a c2 bd 01 a8 8b bd 2f 6f e2 3d
       0.09254095 -0.09483767 -0.068191536 0.11056363
000300 f2 ad 0a 3d d0 e2 9d 3d 5d e2 31 3d 12 8e 7e bd
       0.033857293 0.07709277 0.043428767 -0.062147208
000310 e5 19 d5 3d 4e a6 35 bd ee 7c 51 3d c3 47 7b 3d
       0.104053296 -0.044348054 0.051144533 0.061347734
000320 27 cb 83 3d 56 3f 3a bd 40 a4 c7 3d f3 b4 78 bd
       0.064352326 -0.045470558 0.09748125 -0.06071944
000330 99 57 04 3d d8 d2 7b 3d 0f 38 e4 3d 46 55 44 bd
       0.032310102 0.061480373 0.11143505 -0.047932886
000340 3b 90 ed 3d 48 8a a3 bd c9 62 b2 bd 8e 84 bc bd
       0.115997754 -0.079853594 -0.08710248 -0.0920497
000350 76 a0 cd bd d0 33 36 3c 59 48 9c 3d e9 f2 d8 3d
       -0.10040371 0.0111207515 0.07630987 0.105932064
000360 bb 65 86 3d 18 d7 74 b9 5c a3 1f 3c 44 c9 b2 3d
       0.06562372 -0.00023349782 0.009743538 0.087297946
000370 22 53 49 bc 98 54 7e 3d 26 df 45 bd 75 1c 74 bd
       -0.012287887 0.062092394 -0.048308514 -0.05959745
000380 3d 5d 74 bd aa 82 1a bd 01 7b 3e 3d c6 78 40 bd
       -0.05965923 -0.037722267 0.046504024 -0.04699018
000390 ce 64 8c 3d b5 68 af 3d 37 f8 48 3d 19 4b 00 3c
       0.068551645 0.08564893 0.04906484 0.007830405
0003a0 fa aa 8c 3d aa e8 c1 3c e1 e2 9e 3d 12 0c 5a bd
       0.06868549 0.023670513 0.077581175 -0.053234167
0003b0 a7 06 f4 3d 96 04 8d b8 59 c7 eb 3d 64 79 d1 bc
       0.11915331 -6.724258e-05 0.11512632 -0.025570579
0003c0 9f 0d 93 bd 54 24 62 3d fd b7 81 3b 43 96 d7 3d
       -0.071803324 0.055210426 0.0039587007 0.10526707
0003d0 3a 28 f3 bd 1f a5 ea bd 0e e6 a4 bd 7c 2a bc bd
       -0.11872907 -0.114572756 -0.08051692 -0.09187791
0003e0 04 bb a6 bd b1 91 19 bd 52 b3 92 3d 07 ee 02 3e
       -0.08141139 -0.037492458 0.07163109 0.12786113
0003f0 d8 c9 c1 3d dd 75 d9 3c dc 06 b9 3d e6 2d 43 ba
       0.09462327 0.02654546 0.090345114 -0.0007445499

net.2.lin1.bias f4 [64]
000000 10 7c 2d bd 87 71 ed bd 6f 69 0d be fd 5c b5 bd
       -0.042354643 -0.11593919 -0.13809751 -0.08855627
000010 3c 66 38 bd 06 53 b7 3d 75 33 04 bc 45 d2 8e bb
       -0.045019373 0.08951382 -0.008068909 -0.004358562
000020 35 78 8b bc 6d 33 56 bd c0 be fa bc 28 fe 2f 3c
       -0.017025093 -0.052295137 -0.030608535 0.010741748
000030 78 e8 af bd ce b3 50 bd 99 86 7a bc 0b 54 d7 3c
       -0.08589262 -0.050952725 -0.01529088 0.026285192
000040 8c f0 68 3d 8c da 8f bd 61 db bc bc 02 6b 1a 3c
       0.05687003 -0.070241064 -0.023053827 0.009424927
000050 23 25 57 bd 32 3c 6f bd 1c 9f 86 3d 01 a6 be bd
       -0.05252565 -0.058407016 0.065733165 -0.093090065
000060 75 1e 71 bd 18 db 14 be 4e e8 d0 bd 15 83 18 3d
       -0.058866937 -0.14536703 -0.102005586 0.037234385
000070 75 89 99 bd 6a d1 b0 3d ed c0 ad 3d c5 77 c9 3d
       -0.07496921 0.086336926 0.08484063 0.09837297
000080 42 dc 88 3d 72 e3 ed bd 63 86 9f 3c 70 11 dc bd
       0.06682636 -0.116156474 0.01947326 -0.107455134
000090 fd 74 6e bb 5b 77 40 bd 96 b2 ba 3d d5 4b e6 3d
       -0.0036385648 -0.046988826 0.09116094 0.112449326
0000a0 f7 65 8b bd 7f f6 13 3d 18 e8 51 3d fc 13 ef bd
       -0.068065576 0.03612375 0.051246732 -0.116737336
0000b0 c2 6c f1 bd 7e b8 8a 3d 3e d9 81 bd 70 70 b4 3d
       -0.11788322 0.0677347 -0.06340264 0.08810508
0000c0 a2 1e de bc da f9 ef 3d 85 67 90 bd 0b 76 9f bd
       -0.027114216 0.11717577 -0.07050995 -0.07786187
0000d0 db 92 d1 bd 5a a6 93 3d 16 bf da bc 5d 02 e3 3d
       -0.102330886 0.072094634 -0.026702445 0.11084435
0000e0 d9 43 bf bd 7d 27 1d bc 82 04 cb bc 63 ac a4 bc
       -0.09339113 -0.009591934 -0.024782423 -0.020101732
0000f0 e7 f6 a9 bc 68 1d 92 bc 1a 4a 81 bd a1 f8 91 bc
       -0.020747615 -0.017836288 -0.06312962 -0.01781875

net.2.lin2.weight f4 [64, 64]
000000 36 86 95 3d 29 81 ca 3d 83 80 c3 3c ba ac ce 3d
       0.07300989 0.098879166 0.02386499 0.10091539
000010 64 9f 3b bd b9 a0 2a 3c c7 ad 0e 3e f2 d1 b5 3d
       -0.045806304 0.010414296 0.13933478 0.088779345
000020 4f a6 a2 bb 2d 5c a2 3d f6 b9 fc bd 0f 2f 01 3e
       -0.004963673 0.079277374 -0.12340157 0.12615608
000030 fd 77 2b 3d cd 47 83 bd 65 97 cb 3c 8b 6c 06 be
       0.041862477 -0.06410179 0.024852464 -0.13127343
000040 39 e3 68 3d 71 30 85 bd 7f 08 a6 bc 1a 80 04 3e
       0.05685732 -0.0650338 -0.020267723 0.12939492
000050 c1 90 86 bb c2 81 f2 3d a8 f4 f4 3d 70 31 f3 3c
       -0.0041066115 0.118411556 0.11960727 0.02968666
000060 10 f0 8b 3c d2 a3 bd bd 66 8d cc 3d ba c8 d6 39
       0.017082244 -0.09259762 0.09987907 0.00040966814
000070 e8 d6 ec 3c 29 ad 11 3d b6 9a f5 bb 05 0e 79 bc
       0.028911069 0.03556553 -0.0074952496 -0.015201096
000080 f0 e6 8c 3c 9d e0 7a bd ba d0 95 bd 59 38 31 bd
       0.017199963 -0.061249364 -0.07315202 -0.043266628
000090 19 d5 a8 3c 4d 91 0a 3d a0 9a 61 bd 75 27 28 bd
       0.020609425 0.033829976 -0.055079103 -0.041053254
0000a0 53 cb c1 bd a6 5a 83 bd eb dd 62 3d d0 8f a6 bd
       -0.09462609 -0.06413774 0.05538742 -0.08132899
0000b0 b9 46 7c bd 98 b9 64 3d 5a e7 a1 bd 38 9a a7 bd
       -0.061590884 0.05584106 -0.07905455 -0.08183712
0000c0 4f d9 c7 bd d6 ed b9 3c ad 61 30 3c 6f 87 c1 bc
       -0.09758245 0.022696417 0.010765475 -0.02362415
0000d0 61 c3 d7 3d b2 5d 73 3d 4f e6 be bd 9e 7a 07 3e
       0.105353124 0.059415527 -0.09321272 0.13230368
0000e0 bc 30 86 bd c5 0f f7 3a c1 c6 c2 3d 3b 9b 47 3d
       -0.06552264 0.0018849304 0.095105655 0.048732024
0000f0 9e f2 03 be 3a a7 85 3d 5e 82 d6 3d 21 6a 43 bd
       -0.1288552 0.065260366 0.10474084 -0.047708634
000100 73 19 8a 3d 3c 9f fc bc 69 d9 ce bd 79 86 a1 3c
       0.06743135 -0.030837648 -0.101000614 0.019717442
000110 74 5d 6d bd 36 da 8e bd 2c 64 ac bb 2f 67 c5 bd
       -0.057950452 -0.06975214 -0.005260965 -0.09638821
000120 c5 7a b6 3d 91 34 cd bd 7e fa d8 bd 0c 9c 06 3e
       0.08910135 -0.10019792 -0.105946526 0.13145465
000130 84 f6 82 bd 68 18 0d 3e 2c 98 02 be b9 bb b4 bc
       -0.063946754 0.13778841 -0.12753361 -0.02206217
000140 e7 a8 7d bd d1 e3 95 bd 2a 94 b8 3c e7 f3 8e bd
       -0.061928656 -0.07318843 0.022531588 -0.069801144
000150 3b 34 49 bc 22 90 ad bc e6 b7 35 bd c7 8e 4a 3d
       -0.012280519 -0.021186892 -0.044364832 0.04945257
000160 37 71 de 3d cb 99 a3 3d d0 2a d4 3d ad d1 87 3d
       0.10861438 0.07988318 0.10359728 0.06631789
000170 33 64 01 bb 6e 64 67 bd be 92 ba bd 66 d9 c3 bc
       -0.0019743561 -0.05649226 -0.0911002 -0.023907375
000180 33 e2 ec 3c 6e 4d d2 3d 1d 8e cb 3d 47 3c 04 bd
       0.028916454 0.10268675 0.09939215 -0.032284047
000190 c9 f5 f3 ba 22 ba 41 3d 48 ab ab bd 42 37 d4 3d
       -0.0018612678 0.04729665 -0.08382279 0.10362102
0001a0 4f ec 86 bd ea 62 52 3d b6 61 d4 bc 3b 44 88 bd
       -0.06588041 0.051363863 -0.025925498 -0.06653639
0001b0 f6 e6 ea 3c 76 ee 4c 3d d4 80 c2 3d b0 b9 99 bd
       0.028674584 0.0500321 0.09497228 -0.0750612
0001c0 cd 96 90 bd 65 b3 c2 bd af c3 ca bc 28 18 54 3d
       -0.07060013 -0.09506873 -0.024751512 0.05178085
0001d0 4d a7 bc 3d ec ee 0b be e9 c6 bd bc d4 86 0b 3d
       0.092115976 -0.1366536 -0.023166137 0.03406413
0001e0 2d d8 61 3c a6 14 bf 3d cc 9e 70 3c c6 ee c5 bd
       0.0137844505 0.0933011 0.014686298 -0.09664683
0001f0 ab 72 01 be 45 88 21 bd 70 de 89 bd b1 c4 9b bd
       -0.12641399 -0.039436597 -0.0673188 -0.07605875
000200 39 4b 8d 3d 7e 98 04 3e a1 bc 5c 3d 45 11 e1 3d
       0.06899113 0.12948796 0.053890828 0.10989622
000210 40 04 95 bd e1 0d a0 39 a2 52 9b 3d 58 70 b8 3d
       -0.07276201 0.0003052792 0.0758412 0.09005803
000220 01 43 b5 3d 7a a8 5d bd 3a d1 06 bc b1 bd 24 3c
       0.088506706 -0.05411575 -0.008228594 0.010054992
000230 3b 68 96 3d 48 d0 a2 3c f8 ed a4 3d e1 99 9b bd
       0.07344099 0.019874707 0.080532014 -0.075977094
000240 69 5c 58 3d dc 93 cb bd dc 23 08 3c bd b3 19 bd
       0.052822504 -0.09940311 0.008309331 -0.037524927
000250 0d e3 95 bd 17 ef 05 3c 6c 06 0c 3d b3 99 3d bd
       -0.07318697 0.008174679 0.034185812 -0.046289157
000260 ff e4 ae 3b 06 cd 62 bd 14 26 ab 3d 69 a1 e8 bd
       0.005337357 -0.055371307 0.08356872 -0.113589115
000270 23 f1 bc bd a5 23 4b 3d ce 98 62 3d 77 6b 6d 3c
       -0.09225681 0.04959454 0.055321507 0.014490954
000280 14 ab 14 3d 19 d7 07 3d 4c b6 f6 3c 3b 66 d3 bc
       0.036295965 0.033164117 0.030116223 -0.025805583
000290 a7 56 81 3d 9a 3f 78 bd ac fd 47 bc 65 1d 8e bc
       0.06315356 -0.06060753 -0.012206476 -0.017348
0002a0 c9 16 d7 3d 36 e0 8e bd c4 19 fd bd b5 10 98 bd
       0.10502393 -0.069763586 -0.1235843 -0.074250616
0002b0 be 0c ed 3c 41 66 19 bc 63 f4 b3 bd a7 8f 80 3c
       0.02893674 -0.009362758 -0.087868474 0.015693499
0002c0 41 7f c2 3d 0b 53 1f 3d ad 8a 5c 3d 35 43 e0 3d
       0.09496928 0.038897555 0.05384319 0.10950319
0002d0 99 53 5f 3d cd a0 f0 bd e0 66 8e bd 9c dc 1b 3d
       0.054523084 -0.1174942 -0.069532156 0.038052186
0002e0 46 bf 51 bc 65 75 21 bd 74 00 34 3d c9 9a bd bd
       -0.012801951 -0.039418597 0.043945745 -0.092580386
0002f0 01 76 07 be a6 c7 36 bd a1 98 f6 3d b4 90 9b bd
       -0.13228609 -0.044623993 0.120408304 -0.07595959
000300 9f e4 05 bc 6c 0e 09 3e 6b 27 15 3c 96 c6 28 3d
       -0.008172183 0.13384408 0.009103636 0.04120501
000310 c3 40 e5 3d a5 84 d8 bd 5e 24 05 3e 7a 1d 24 3d
       0.11193993 -0.10572175 0.13002154 0.040067174
000320 3a b7 a6 3c 1a cf 84 bc 9d 88 a1 3d c5 6e 0e 3e
       0.020351041 -0.016212035 0.07887385 0.13909443
000330 40 b2 c4 bc eb 2b b7 bd 06 7c b3 3d c9 eb 46 bc
       -0.024010777 -0.089439236 0.0876389 -0.0121411765
000340 a0 15 39 bd 87 7f c3 bd bd 96 7e 3d 5c 43 17 3d
       -0.04518664 -0.09545808 0.062155474 0.036929473
000350 4e be b4 3d a9 9d 8d 3a d6 81 fe 3d 7f 50 3e bc
       0.0882536 0.0010804433 0.12427108 -0.011615871
000360 41 bb ae bd 3c f8 b5 3c 02 03 cc bc 2d 0c 0f 3d
       -0.085318096 0.022213094 -0.024903778 0.03492372
000370 d8 68 33 3d 99 35 10 3d 75 35 be 3c 09 c5 3b ba
       0.04380116 0.035207365 0.02321885 -0.00071628444
000380 9e 5c 8b 3b de f4 9d 3d 94 e9 81 3d 6e e5 f0 3d
       0.004252984 0.0771272 0.063433796 0.1176251
000390 1e fd 0f 3e 24 69 8f ba 82 33 af 3d 1b 7d fc 3c
       0.140614 -0.0010941369 0.08554746 0.030821374
0003a0 92 ea 38 bd 32 b1 59 3d 65 29 aa bd d3 30 ac bb
       -0.04514558 0.053147502 -0.08308677 -0.0052548437
0003b0 81 dc e3 3c e3 39 81 bc ca fe de bd 6c 8b 25 bd
       0.027815105 -0.015774673 -0.10888441 -0.040416166
0003c0 9d 98 5b 3d 2b 75 a2 bd 44 b0 22 3d 07 4c e3 bd
       0.05361234 -0.07932504 0.03971888 -0.110984854
0003d0 26 67 da bd 4a d2 d8 3c 56 d3 cc bc ed 9c a4 3d
       -0.10664205 0.026467461 -0.025003117 0.08037744
0003e0 e6 c9 aa 3d f1 af b5 bc 34 4a 2c bd ac cf ac bc
       0.0833929 -0.022178622 -0.042062953 -0.02109512
0003f0 a6 f5 81 bb 02 86 a5 bc 5d 3b 44 3d d4 7a f1 3c
       -0.003966051 -0.020205501 0.047908176 0.029477514

net.2.lin2.bias f4 [64]
000000 fe d5 07 be c0 78 04 3b 5d e3 c8 bd 13 1a 1d 3d
       -0.13265225 0.0020213574 -0.09808991 0.038354944
000010 6b d2 e3 3c 7e 5d 0f 3d 24 23 ef 3c 96 43 01 3e
       0.027810296 0.03500127 0.029191561 0.12623438
000020 ef 60 b8 bd cc c7 8b 3d 4d 65 da 3d 71 a4 c2 3c
       -0.090028636 0.068252176 0.10663853 0.023760052
000030 fa 20 d6 3d 26 67 c3 bc fd 28 32 ba 0e 03 ee bb
       0.104555085 -0.023852896 -0.0006796269 -0.0072635477
000040 47 c0 4f 3d f7 e2 63 3d 98 8c 77 3d 29 a8 a3 bd
       0.05072048 0.055636372 0.060436815 -0.079910584
000050 d4 76 49 bc 00 93 c8 bd f8 04 98 3c d7 61 37 3a
       -0.012296397 -0.09793663 0.018557057 0.0006995475
000060 9a 1e b2 bd 45 40 49 3d e6 4b 92 3d 52 de 95 3d
       -0.08697243 0.049133558 0.07143383 0.07317795
000070 46 86 53 3d 5c e5 be 3d f5 ed f9 3c 50 ae 1d 3c
       0.051641725 0.093210906 0.030508975 0.009624079
000080 51 e7 26 3d d6 70 95 bc 6b 90 ad 3d 1f 70 b4 bd
       0.040747944 -0.01824228 0.08474811 -0.08810448
000090 31 9c a2 3d f1 2d b3 bd c7 38 bf 3d 3e 03 9d 3d
       0.079399474 -0.08748997 0.09337001 0.07666634
0000a0 6c fe 95 bd ee 7a 9d bc d1 44 31 3d c4 9b c7 3d
       -0.07323918 -0.019223657 0.04327852 0.09746507
0000b0 94 ed dd 3d 84 a6 6d 3d 98 64 b7 3d b4 fd 87 bd
       0.1083633 0.05802013 0.089547336 -0.06640187
0000c0 37 c6 38 bc 37 9f ea bc 30 2e 33 bc e3 22 be bd
       -0.011277727 -0.028640373 -0.010936305 -0.09283998
0000d0 9d 70 59 bd 26 80 05 be c8 a5 fd 3d ee 48 cd bd
       -0.053085912 -0.13037166 0.12385136 -0.10023676
0000e0 70 3a 0c be a8 c9 a1 bd b6 ea ca 3b 6a ed 8a bd
       -0.13694167 -0.07899791 0.0061925305 -0.067835644
0000f0 ad 36 f2 3d 88 6d 51 bd 46 9a f5 3b f8 bc 97 bd
       0.11826835 -0.051129848 0.0074951975 -0.0740909

net.3.lin1.weight f4 [64, 64]
000000 12 32 e3 3d e0 aa c0 3d 71 ef 86 bd 9a 6b e1 3c
       0.110935345 0.09407592 -0.065886386 0.027517129
000010 17 8e 6d 3d 2f f1 01 be ab be 7f 3c f1 6c 28 bd
       0.057996836 -0.1268966 0.015609424 -0.04111952
000020 d4 35 9c 3d d2 19 e2 bd 3e ab 2c 3d 01 2e d6 bd
       0.076274544 -0.11040081 0.042155497 -0.10457993
000030 f5 e7 b3 bd 5e 2e c0 3d 6f 97 25 3d d7 bf f4 bd
       -0.08784477 0.09383844 0.04042762 -0.11950653
000040 3c 71 d1 bc e2 a5 e2 bd 1a 88 74 bd 37 a1 ff bd
       -0.02556669 -0.11066796 -0.05970011 -0.12481921
000050 8c eb eb bc 7e 2c a5 3d 9e 5a 9c 3d 1f e5 ba bd
       -0.028798841 0.08065127 0.07634471 -0.09125733
000060 28 25 33 3c b9 2c d6 3d 07 be be bd 4e 16 5d 3d
       0.010934152 0.10457749 -0.093135886 0.05397635
000070 b8 8a 5e bd 3f 7c a7 3c cd 89 57 bc 52 01 1c bd
       -0.05433151 0.020444987 -0.013155413 -0.038087197
000080 3d e7 ba 3c 6e 63 bc 3d a9 ce 41 bd c2 13 4b b7
       0.022815341 0.09198652 -0.047316227 -1.2104343e-05
000090 5b a1 51 3d 62 69 04 3e b6 6c 3d 3c 1b f6 a7 3d
       0.05117927 0.12930825 0.011561563 0.08201238
0000a0 f5 a6 af 3d d5 fc a6 bd c3 7e b7 3c a4 75 0b be
       0.085767664 -0.08153693 0.022399312 -0.13619095
0000b0 41 3c a6 3d 1a 99 64 3d ac c9 0e bd 6c 68 b5 3d
       0.08116961 0.05581007 -0.034860298 0.088578075
0000c0 1a 4a 46 3d 85 cb b9 3c 57 09 91 bc c9 f3 b5 bc
       0.048410513 0.022680053 -0.017704649 -0.022210972
0000d0 45 63 cf 3c 89 a3 7c 3d fb c3 9e bd 77 1e ff 3d
       0.02531589 0.061679397 -0.07752224 0.124569826
0000e0 8e 37 a2 bc f6 e4 d1 bd 94 68 e7 bd fd 0e 79 bd
       -0.019801881 -0.10248749 -0.112992436 -0.06080531
0000f0 46 e7 ea 3c 2a 59 d3 bd 71 a6 a0 bd 86 14 00 3d
       0.028674733 -0.10319741 -0.07844246 0.031269573
000100 37 3f 6f 3c 20 68 10 bd e1 ae 03 3c 8b 32 99 bd
       0.014602474 -0.03525555 0.0080373 -0.074803434
000110 a9 19 12 bd 13 d0 c4 bd 07 9e 70 bc a5 80 4b 3d
       -0.035669003 -0.096099995 -0.014686114 0.04968323
000120 6e da df 3d 42 8f 16 bd 55 f4 c7 bd 9a b8 cb 3c
       0.10930334 -0.036757715 -0.097633995 0.024868298
000130 17 40 e4 bc de 5f c8 3d 01 d9 b5 bd 06 bb 0e bb
       -0.027862592 0.0978391 -0.08879281 -0.0021778955
000140 05 10 1d 3e e2 29 06 be d4 94 a6 3d 10 63 f5 bd
       0.15338142 -0.13101915 0.081338555 -0.11981785
000150 df 64 cb 3b 83 a1 53 3c 94 63 77 bd a0 c2 af bc
       0.006207093 0.012916925 -0.0603977 -0.02145511
000160 16 52 d4 bd 01 2a 02 bd cf ba a5 bd e3 9d 23 bd
       -0.10367219 -0.03177834 -0.080922715 -0.039945494
000170 e2 9c ba bd 3a 18 a1 bd 6a 26 e6 bd 9e 95 5e bd
       -0.09111954 -0.07865949 -0.11237796 -0.054341905
000180 2d 53 95 3d f5 05 8f bd 4a 2c 80 bc ab a2 00 be
       0.07291255 -0.06983558 -0.015646119 -0.12562053
000190 c7 7c b5 3d 27 14 ef bd 10 6c 90 3d a5 85 96 bd
       0.0886169 -0.11673766 0.07051861 -0.073497094
0001a0 b9 43 d4 bd e5 42 d2 3d 74 6f c2 bd 44 1a e2 bd
       -0.103644796 0.10266665 -0.09493914 -0.11040166
0001b0 2e 22 38 3c b2 94 ba bd a4 0e 30 bb a4 35 a1 3d
       0.011238618 -0.09110393 -0.0026864195 0.07871559
0001c0 13 33 91 bc 24 5d 64 bc d1 5e 1b 3d 11 3b eb 3d
       -0.01772455 -0.013938222 0.03793222 0.114858754
0001d0 ba 54 2c bc eb 62 5f bd 2c ef 49 3d f6 a7 38 bc
       -0.010518247 -0.054537695 0.049300358 -0.011270514
0001e0 89 07 6f 3d b3 7d 9a bc 76 27 c3 bd 77 01 10 bc
       0.058356795 -0.018858766 -0.09529011 -0.008789412
0001f0 75 ce 6c 3d b8 15 53 3d 10 c3 65 bd 4f 65 d3 3d
       0.05781408 0.051534384 -0.05609423 0.103220575
000200 ec 57 b2 bd 7a bd 93 3d fa 05 63 3c 8c 9b aa 3d
       -0.08708176 0.07213874 0.013856405 0.083304495
000210 26 c1 74 bd 25 59 84 3c 44 d9 9e bd 17 16 8a 3d
       -0.059754513 0.016155789 -0.07756284 0.067424946
000220 8d b4 61 3c b4 99 4b 3d 86 49 9f bd f1 32 c2 3c
       0.013775957 0.04970713 -0.07777695 0.023705931
000230 e8 14 e3 bd 73 29 f4 3c 49 25 6b 3d 92 ea 17 bc
       -0.11087972 0.02980492 0.057408605 -0.0092722345
000240 36 17 54 3d ad fa f7 bb d9 9f fa bb 90 f0 90 bc
       0.05177995 -0.0075677247 -0.00764845 -0.017692834
000250 e6 c5 17 3d f0 27 93 bd c6 16 c6 3d 56 1c 2f 3d
       0.037053965 -0.07185352 0.096723124 0.042751633
000260 57 e4 94 ba 8c 0b ad bd 69 11 ff bd ed 78 bb 3d
       -0.0011359554 -0.08449468 -0.124544926 0.09153924
000270 32 f9 04 be 5f dc a8 3d fa 44 67 bd 0f a9 54 bd
       -0.12985685 0.082451575 -0.056462266 -0.05191904
000280 6b f8 aa bd 54 5e ec 3c d7 80 63 3d b2 6e b2 bd
       -0.08348163 0.028853573 0.055542793 -0.0871252
000290 de 39 b3 bc c5 40 54 3d 9c 85 2c 3d 34 27 d9 bc
       -0.02187818 0.05181958 0.042119607 -0.026507951
0002a0 d2 e2 ad 3d 77 4b 8d 3d eb e7 9f 3d bf 49 9d 3d
       0.08490528 0.068991594 0.07807907 0.076800816
0002b0 79 f0 a8 3d 17 df 32 bd 7e ab a7 bc 61 67 7b 3d
       0.082489915 -0.043669786 -0.020467516 0.061377887
0002c0 75 d1 23 3d 83 6a fa bd b6 e5 14 3d 43 a4 e0 3d
       0.039994676 -0.12227347 0.036351882 0.109688304
0002d0 1a 8a ed b9 0d 92 c5 bd b7 aa 32 3d 9c 8a a0 3b
       -0.00045307056 -0.096469976 0.043619838 0.004899336
0002e0 14 aa bd bd f6 f1 93 bd af d7 51 3c 04 9a c8 bc
       -0.092609555 -0.07223885 0.012807771 -0.024487503
0002f0 88 9d 1f bd 87 09 b4 bd 9d 04 f5 3c 98 af 28 bd
       -0.038968593 -0.0879088 0.029909426 -0.041183084
000300 73 42 97 3d d5 b2 80 3d 44 c5 21 bd e9 c5 55 bd
       0.07385721 0.062841095 -0.039494768 -0.052190695
000310 0a b8 5f bd 30 0b aa 3d fc 42 0c bd 26 49 a2 bb
       -0.054618873 0.08302915 -0.03424357 -0.0049525676
000320 77 af ff 3c 56 c0 58 3d bc c5 db bd e5 97 c9 bd
       0.031211598 0.0529178 -0.10731074 -0.09843425
000330 51 df 1b bd 49 00 32 bd 5a 76 cb 3c 65 46 a2 3d
       -0.038054768 -0.043457303 0.024836708 0.07923583
000340 d2 6c a8 3d b4 d9 35 3d d5 7c 29 bd 17 ad 63 3d
       0.08223881 0.04439707 -0.041378815 0.055584993
000350 7e 88 0d bd d4 79 ca bd 19 09 b6 3b 2c 6a cd bc
       -0.034553997 -0.09886518 0.0055552837 -0.02507504
000360 fa 15 6d 3d d7 9c e7 3c 74 7a 56 3d a5 0d b7 bd
       0.057882287 0.02827303 0.052362874 -0.08938149
000370 1a 47 df 3c be 44 00 be 09 de f4 3d 4c 3e b3 3d
       0.027255584 -0.12526223 0.11956412 0.087521166
000380 d0 45 02 bd 2f cc ad 3d c9 19 4e bc 09 19 a4 3d
       -0.03180486 0.084862106 -0.01257939 0.080125876
000390 4f 88 c5 3d d2 8e db bd e6 04 92 bd df a1 d0 3c
       0.096451394 -0.107206 -0.071298406 0.025467811
0003a0 ba 3c 09 bd d0 ed 0f 3c cd 79 e0 3b 08 bc c3 3b
       -0.03350518 0.008784726 0.0068504573 0.005973343
0003b0 e5 ba 01 bd a0 fb 33 3c 2f 24 ca bc d6 22 85 bd
       -0.031672377 0.010985285 -0.024675457 -0.06500785
0003c0 21 fe af bd 6b 5f f9 3d 1f 0b 25 3d 4f dc b8 bc
       -0.08593393 0.12176403 0.04029381 -0.022565989
0003d0 c2 71 c7 bd 86 55 18 bb 5e dd 53 3d 85 90 35 3c
       -0.097384945 -0.0023244335 0.051724784 0.011081819
0003e0 39 a4 03 3e e2 7d 6c 3d 43 25 23 bd 3f 84 2f bd
       0.12855615 0.05773724 -0.039830457 -0.04285073
0003f0 fc 66 38 bd ac ee 01 3e 9b 1c c2 bd b6 5e a5 3d
       -0.04502009 0.12688702 -0.09478112 0.08074705

net.3.lin1.bias f4 [64]
000000 f3 a3 c9 3d 76 8b 81 3d a9 ff 41 3d a7 eb 78 3d
       0.09845724 0.06325428 0.047362957 0.06077161
000010 44 6a c5 3c 2d 1a 02 3e 94 2f b8 bc 53 73 3c bc
       0.024098523 0.12705298 -0.022483625 -0.011502105
000020 3f 6e 87 bd 55 ef 9a bd f3 42 b6 bd 1b 7f a6 3d
       -0.06612825 -0.0756518 -0.08899488 0.08129712
000030 e7 99 a8 bd 00 b2 b8 3d c2 38 c0 bd cc 09 e8 bd
       -0.082324795 0.09018326 -0.09385826 -0.113299936
000040 e5 ce c3 3d 7b 6d b7 bd 80 61 b6 bd a5 3a cb bd
       0.095609464 -0.089564286 -0.089053154 -0.09923295
000050 34 e9 59 3c eb b0 e2 3d c1 09 44 bd 90 ea 69 3d
       0.013300229 0.11068901 -0.047860865 0.05710846
000060 12 23 94 3d ab ec ca bc c4 cb ca 3d c9 8b fc bc
       0.07233252 -0.024771055 0.099021465 -0.030828374
000070 61 01 d2 bd c1 53 2a 3d bb 78 32 bd 89 45 c1 3b
       -0.10254169 0.04158378 -0.04357217 0.005898182
000080 1c 78 9c 3d 5a fb 83 bd 09 ea a8 3d 85 e0 ec 3c
       0.076400965 -0.06444426 0.08247764 0.028915653
000090 bc 80 8e 3d 39 5a 2f 3d 3b c6 a6 3d 87 26 59 3d
       0.06958148 0.042810652 0.08143278 0.05301526
0000a0 4f c2 c8 bc 75 2e 0b be 5d 13 fb bd 5c 53 07 3c
       -0.024506716 -0.1359194 -0.12259553 0.0082596205
0000b0 13 4c 47 3d 2f 90 8a bd e2 b9 3e 3d 1d 03 ab 3d
       0.048656534 -0.06765782 0.04656399 0.08350203
0000c0 1b 01 f2 bd 5f a5 c7 3d d6 71 66 3c 42 ac a5 3c
       -0.11816617 0.09748339 0.014065227 0.02022374
0000d0 2f ee ba bd 5d 67 05 be 72 57 e2 3d a2 a6 97 3c
       -0.09127461 -0.13027711 0.11051835 0.018512074
0000e0 af d5 bb bc 63 57 9f 3d 18 f6 f9 3c b8 09 f2 bd
       -0.02292904 0.077803396 0.030512854 -0.1181826
0000f0 22 52 8d 3c d9 da 74 bd cd 4d 67 3d 84 04 41 bd
       0.017251078 -0.059779022 0.05647068 -0.047123447

net.3.lin2.weight f4 [64, 64]
000000 93 1c ca 3d 97 28 04 bd 47 35 be bd 38 f8 c7 3d
       0.09868731 -0.032265272 -0.092875056 0.09764141
000010 6e 97 cd bc 2e e9 e4 3d c2 24 8c bc b6 a5 05 be
       -0.025096621 0.11177288 -0.017107371 -0.13051495
000020 f1 ce 9d 3d 58 74 8a 3d 61 20 e7 3d e0 a7 fb bd
       0.077054866 0.06760472 0.11285473 -0.12287879
000030 e0 83 6a bd 73 18 ee bd 4f a1 15 3d 68 52 38 3d
       -0.057254672 -0.11625757 0.03653079 0.045000464
000040 0c 74 5c 3d 47 07 89 bd 2d 28 9d bd 6c b2 0c bd
       0.05382161 -0.06690841 -0.076736785 -0.034349844
000050 15 45 72 3d fc bb b4 bd 0e 3d 10 3d 95 de c2 ba
       0.059147913 -0.08824918 0.035214476 -0.001486736
000060 1c 25 a5 3b 77 4c 96 3d c1 2b 42 bd 64 8e 89 bd
       0.005039824 0.07338803 -0.04740501 -0.06716612
000070 29 58 72 3c 77 58 84 3d 8f 80 77 3d 54 6f 8d 3d
       0.014791527 0.06462186 0.060425337 0.06906
000080 32 7b 48 3d a5 bc a7 bd e5 fa 0b 3c 39 a6 cd bd
       0.048945613 -0.08190278 0.008543705 -0.1004147
000090 77 79 66 bd e8 e8 93 bd d1 ff c5 3d 39 5e 01 bd
       -0.05626818 -0.07222158 0.09667934 -0.031584
0000a0 fd 5c 80 bd f9 a6 76 bd 3e 57 a9 3d 81 54 d7 3d
       -0.06267736 -0.06021783 0.08268593 0.10514165
0000b0 0a f5 5d 3c da 17 a6 bd b2 69 4b bd 2b 26 e3 3d
       0.013547191 -0.08110018 -0.049661346 0.11091264
0000c0 05 19 ad bd 87 ec 71 3d 81 ab ab bd c5 f6 2f bd
       -0.08452038 0.05906346 -0.08382321 -0.042959947
0000d0 3e 6c d4 bd fa a0 66 3d 1c 54 b7 bc 55 64 38 bd
       -0.10372208 0.056305863 -0.022378974 -0.04501756
0000e0 7b 0c ae 3d 1a e4 e6 3d b8 16 c9 3d 94 a1 4a 3d
       0.08498474 0.11273976 0.098187864 0.0494705
0000f0 a1 6d 11 bd 5d 1b b9 ba 4f f5 bb 3d a6 a2 17 bd
       -0.03550494 -0.0014122535 0.09177648 -0.037020348
000100 26 c2 a8 bb 68 e0 36 3d 34 cb 9e 3c c2 6d 49 3d
       -0.0051500974 0.044647604 0.019384004 0.04917694
000110 83 a6 9f 3c 1f ac 7a 3c 9c 5f e4 bc 1e 03 bb bd
       0.019488579 0.015299826 -0.027877621 -0.09131454
000120 e6 67 eb 3c 6f 38 2a bd 14 f7 f0 bc fa 81 f8 bd
       0.028736066 -0.041557726 -0.029414691 -0.12134166
000130 3e 2d 9d bd 7b bd 88 3d c4 1f c6 bd 00 10 b1 bd
       -0.07674645 0.066767655 -0.096740276 -0.0864563
000140 31 da 88 3d 01 a9 0b bd e0 d6 30 3d 8e 91 e8 bc
       0.06682242 -0.03409672 0.04317367 -0.028389718
000150 72 25 1a bd da 16 04 3d af 13 a9 3d 14 84 b8 bd
       -0.037633367 0.032248355 0.082557075 -0.09009567
000160 b3 44 cb bd bf da fd bc d9 10 2b bd fb 9f 70 3d
       -0.09925213 -0.030988095 -0.041764114 0.05874632
000170 d8 59 08 3d 0f 77 60 3d 4e fa 9c 3d 6f 5c ac bd
       0.033288807 0.054801043 0.07664929 -0.08416068
000180 9a 32 8e bd 84 8c 99 bd 8f 6c 28 3d b0 47 9d bd
       -0.06943245 -0.07497504 0.041119155 -0.07679689
000190 54 b5 db 3c 25 a9 f9 bc 25 21 73 bd d4 e7 e0 bc
       0.026819862 -0.030476162 -0.05935778 -0.027454294
0001a0 68 69 ca 3d 1d 1e 66 3b 4c 7d 98 bd ac a8 0e 3e
       0.09883386 0.0035113164 -0.074457735 0.1393153
0001b0 d4 e2 1b be ad a0 e3 3d 51 14 f0 3c d7 bd 9a bd
       -0.15223247 0.11114631 0.029306563 -0.0755574
0001c0 78 ea e8 3c 4d 90 89 bd c8 02 25 bc 15 be 43 bd
       0.028432116 -0.06716976 -0.010071464 -0.0477887
0001d0 21 79 05 3d 19 a3 32 3d 44 a3 b5 bd 6b 08 87 bd
       0.03258622 0.043612573 -0.08869031 -0.065934025
0001e0 b5 cc a5 3d 49 7f ae bb e4 bd a8 3a c6 22 1e 3e
       0.080956854 -0.005325232 0.0012873975 0.15442953
0001f0 79 93 78 bd 5a bd a2 bd 52 2a 98 bd 8b fe e5 bd
       -0.060687516 -0.07946272 -0.07429947 -0.11230191
000200 0b 57 5a 3d 38 b2 7b 3c be 42 78 3d 3b b4 07 be
       0.053305667 0.015362315 0.060610525 -0.13252346
000210 6d 92 09 3d f3 a6 92 bd f3 f7 b9 3d d4 cc 81 bd
       0.033586908 -0.07160749 0.09080496 -0.06337896
000220 aa 95 3e bc d7 0d c3 3d 54 22 fd bc 90 1d 1e bd
       -0.011632362 0.09524124 -0.030900158 -0.03860241
000230 df 16 b5 bd bb 6f b7 3c 5b 9d eb bc c6 29 21 3c
       -0.08842253 0.022392144 -0.028761556 0.00983662
000240 29 1e c2 bd 72 c9 80 3d 22 20 e6 3d 4d 65 99 3d
       -0.09478409 0.06288423 0.112365976 0.07490025
000250 df 6b c7 bd 0d 56 d3 bd 12 74 4c 3d 26 df 55 3d
       -0.09737372 -0.10319147 0.04991538 0.052214764
000260 83 35 64 bd fa 12 e1 bb e9 ea cb 3d 9c 33 c2 3d
       -0.055715095 -0.0068687173 0.09956915 0.094825
000270 87 bf 42 3d a6 24 39 3d c5 33 ab 3a df 2c d4 bc
       0.047545936 0.045200966 0.0013061693 -0.025900302
000280 a9 ca 60 3d 69 9f 70 bc c5 b1 5a 3d 02 8d 49 bd
       0.05488077 -0.014686444 0.05339219 -0.04920674
000290 4c 71 c7 bd 74 61 b2 bd 6a 86 bc bd d1 c4 9f bc
       -0.097384065 -0.08709994 -0.09205325 -0.019503029
0002a0 bf 09 3e 3d 8c 11 47 3d f2 d0 9f bd 76 d1 3b 3c
       0.046396013 0.04860072 -0.07803525 0.011463514
0002b0 fa 3e 03 be c1 f5 3d bc f3 66 17 3d 03 98 1d 3d
       -0.12816992 -0.011594237 0.036963414 0.038475048
0002c0 7a 47 87 bd 95 ff 4e bd 9d 8e 15 bd dc c1 c3 3d
       -0.0660543 -0.05053671 -0.03651296 0.0955846
0002d0 35 98 d3 3c 85 99 eb 3d 02 41 07 bd 4b ef 96 bd
       0.025829414 0.11503891 -0.03302098 -0.0736986
0002e0 29 b4 95 bd 73 44 a7 bd 9f 0c 69 3c 4e ce 88 3d
       -0.073097534 -0.081673525 0.0142242005 0.066799745
0002f0 7f 17 dc bd 33 12 e5 bd 31 10 ce 3d e5 27 0e be
       -0.10746669 -0.11185112 0.10061682 -0.13882406
000300 3c 37 10 bd 31 18 1e 3d c3 a9 a1 bd c3 88 eb bd
       -0.035208926 0.03859729 -0.078937076 -0.115006946
000310 bc a5 7a bb d5 dc de 3d 34 76 9d 3c c7 a6 b3 bc
       -0.0038245758 0.10881964 0.019221403 -0.021930112
000320 c5 e3 a0 3c 9b 6f 83 3c e2 28 d6 bd d7 7c 23 3d
       0.019639859 0.016044429 -0.104570165 0.03991398
000330 d0 a5 97 3d 9d 88 82 bd 51 30 d8 bc 3f 7f ff 3d
       0.07404673 -0.06373713 -0.026390227 0.12475442
000340 67 ba f1 bd de e2 f6 3c 64 c1 af 3b 25 90 87 3c
       -0.118031316 0.030137476 0.00536363 0.016548226
000350 c2 1b a1 3a 62 17 c7 3d 11 2d 38 bd 93 c0 ff bc
       0.0012291598 0.09721257 -0.044964854 -0.031219756
000360 d0 c6 05 3e be b0 96 bd 77 10 80 3b b4 c4 bf 38
       0.13064122 -0.0735793 0.0039082128 9.1442285e-05
000370 2e e4 db 3d 88 5d a0 bd d3 fb 02 3e e8 a0 80 3c
       0.10736881 -0.0783034 0.12791376 0.015701726
000380 51 4d 8e bd 5a cc dd 3d 46 69 18 bd 6c 4a e2 bd
       -0.06948341 0.108299926 -0.03720977 -0.11049351
000390 d6 69 02 be 05 0d ea bd 0e 79 35 bd b4 75 64 3d
       -0.12735686 -0.114282645 -0.0443049 0.055776313
0003a0 2c 7a f8 bd 9c 7b 90 3d a4 db ee 3d 0e 3c a9 bb
       -0.121326774 0.070548266 0.11662987 -0.00516463
0003b0 5c e7 31 3d 6b fa 45 3d 73 dd 7b bd 35 56 c5 3d
       0.043433532 0.04833452 -0.061490487 0.09635583
0003c0 ac 79 20 3d 3c b6 be 3d f3 a2 14 3d 3f 08 ba bd
       0.039178535 0.09312102 0.036288213 -0.09083604
0003d0 65 ab bc 3d 44 a5 c4 bc 74 e4 90 3c 40 0b 84 bd
       0.092123784 -0.024004586 0.01768706 -0.06447458
0003e0 9b 91 96 3d 98 71 59 3d 41 cc de bd 64 b3 84 bd
       0.07351991 0.053086847 -0.10878802 -0.064795285
0003f0 ed 90 a0 bd c2 2e 0d 3d 1c 4a a2 bd 7f d1 e6 bd
       -0.078401424 0.03446842 -0.079242915 -0.11270427

net.3.lin2.bias f4 [64]
000000 a4 2d 01 3d 68 3a 3a 3d 36 53 40 3d 47 74 e3 3d
       0.031537667 0.045465857 0.046954356 0.111061625
000010 fa ae 1a 3d da f1 8b 3d 54 5c 42 bd dc a2 46 3d
       0.037764527 0.06833239 -0.047451332 0.04849516
000020 dc 7a 89 3d a7 f4 b8 3d de 75 93 3d 72 83 f9 3c
       0.06712887 0.09031039 0.07200216 0.030458186
000030 d1 20 8f 3b 3d 13 8d 3d f3 18 2d bd d1 a2 0e be
       0.0043679257 0.06888435 -0.04226012 -0.13929297
000040 64 7f 1e bc fb f9 5f 3d 7c 4e 35 bd 75 82 21 bd
       -0.009673927 0.05468176 -0.0442643 -0.039431054
000050 1c b0 16 bd f1 b0 a5 3b 70 c6 a0 bd ba 51 97 bd
       -0.036789045 0.0050564934 -0.07850349 -0.07388635
000060 a2 80 87 bd 14 05 be 3d c1 e2 a1 3d 39 b9 93 3d
       -0.06616332 0.09278312 0.07904578 0.07213063
000070 54 45 63 bd 0c 41 74 3d 74 53 8a bd 66 6e 30 bd
       -0.05548604 0.059632346 -0.06754199 -0.043074034
000080 15 e4 be 3d a0 93 4b 3d b6 af 53 3d ae 81 18 be
       0.09320847 0.049701333 0.051681243 -0.14893219
000090 d4 63 45 3c 60 18 35 3d 93 c5 95 3c 0e 0a d3 3d
       0.012047727 0.0442127 0.018282687 0.10304652
0000a0 25 d9 06 be d6 10 c9 3d e0 4f 91 bd be ec 0f 3e
       -0.13168772 0.09817664 -0.07095313 0.14055154
0000b0 9a 92 0f bd 6d 4e 04 be 42 39 6a 3d da 59 d2 3c
       -0.03505192 -0.12920542 0.05718351 0.02567761
0000c0 15 b3 82 3c 3b b6 0c bd 4e 50 ab bd 35 db 91 bd
       0.015954534 -0.034353476 -0.08364926 -0.071218885
0000d0 52 12 d5 bd f5 10 6d 3d 69 39 8a bd 30 34 de 3c
       -0.10403885 0.0578775 -0.06749231 0.027124494
0000e0 19 7a 3b bd d8 0d d0 3d b4 ab bc bc 10 9b e2 bd
       -0.04577074 0.101588905 -0.023031093 -0.11064732
0000f0 63 6b 77 3d d5 e0 a2 3c e3 7e ba bb 4d 86 d6 bc
       0.060405146 0.019882599 -0.0056913956 -0.026187086
