data/trained_models/base_Melt(K)_resnet.pth (torch, 202006 bytes, 15 tensors)

net.0.weight f4 [64, 374]
00000000: 4bc9 dc3c 09d1 9f3d 47a3 d6bb 09eb 4abc
00000010: aee4 cc3b 23db 893d 39a9 1bbc ceb6 e73c
00000020: 1649 3ebd cfcd 5c3c 3c33 9f3c 0e3e 38bd
00000030: 7bb1 47bd 5439 25bc 6bd2 733c 02a3 2f3c
00000040: 1938 36bd afc0 d83b c599 473d 459c a13a
00000050: e87c fabc cacf 3cbc d8fb 133d 89ad 8c3d
00000060: 7c7f ef3c 6cf7 c6bb 8b50 afbc 4d63 2a3d
00000070: e14a 493d 670f edbc 1e98 a63a 14cc f43b
00000080: 2bf6 bbbb a2a2 203d c5b6 0ebd a966 233d
00000090: 7382 1bbc dd8c 8ebc e6ea 863c d6df fbbc
000000a0: d382 1b3c 9f6b af3c f3a0 caba c945 9f3c
000000b0: f030 c2bb f048 67bc 3281 09bc 3de0 2a3d
000000c0: ab09 983b 668c 24bc 0c8c cd3b a878 5abd
000000d0: 5f3e d23c 0568 4d3d e4f0 173d fd30 1fbd
000000e0: 5f80 8d3d 1403 34bb 6fe6 463d 85c6 253d
000000f0: 0c8b 58bb 2016 8c3c 78d3 30bc ebbb 333d
00000100: a4a6 bd3c 3413 313c 0cae 58bc 22b0 543d
00000110: eb3e 2bbd 49fb edbb 7197 73bb 4958 0f3c
00000120: 6755 143d 26e3 943b bae3 09bd 7096 813c
00000130: a262 c13c 856f b23c 5c42 41ba 7e48 423c
00000140: 15ae 8cbc edd9 c73d 6699 a3bb 0efa 1d3d
00000150: 4c87 31bd 25a4 1c3d 4979 263d 5b9d b1bc
00000160: 7e4a c33c d8b7 02bd 8c20 86bc 52f2 26bd
00000170: d0dc 523c fe13 95bb e7f5 49bd 2cc5 63bb
00000180: 6f68 4b3d 9442 d7bb 0294 673d 7e82 73bc
00000190: db39 633d e510 463d dcfd 283a fee0 87bb
000001a0: f230 7b3b 1b94 413b 30b3 c6ba 7115 5c3d
000001b0: e0f8 c8bc eeb7 eb3c db1d 133d 61f8 b8bc
000001c0: 2336 00bd bb08 2e3d ea95 febc 9c99 a63b
000001d0: 3d61 203d 7737 f23c e5c1 43bd 31f8 463b
000001e0: f5ed 12b9 8977 bfbc 94f8 913c 970a 13bd
000001f0: c4df b4bc e80a 7f3c 7dfe 0a3d 5a55 29bc
00000200: c065 013d 8abc 2b3c beee 84ba d840 a9bb
00000210: cdf5 e7ba 9ef7 9e3a 344e 913c be34 92bc
00000220: b3c0 203d c2f3 143d 65de 3bbb 4318 44bd
00000230: 4251 713c 557d 7e3d 1548 913c 4d3a cfbb
00000240: c6f3 153d 92ac e53b 8a24 ff3c f9ea 8a3d
00000250: bf3c 283d 5ab8 2ebc 6ddb 4c3d 0eb4 a13b
00000260: 32cf 32bc 5ca9 77bc 6a0c ed3c 911b 4a3d
00000270: 384d 073c cf5f 683d 75d0 313d 4ef3 b1bc
00000280: fe26 3abb 16db 1ebd 2e67 88bc d7c9 b4bc
00000290: 1d0b aabc 1d31 a8bc 5e3c 96ba ac25 f8bb
000002a0: 5470 a83c a16e 523d 3775 033d 326b f63c
000002b0: 4c75 f03a 861c 24bd 6a62 c8bc 76c6 ef3c
000002c0: bd4c dbbc 11f9 453d 8911 883b ba27 90bc
000002d0: d658 a6bb ea9a 36bc c8b5 05bd ce29 8f3d
000002e0: 7c0a a23c 615f 393d 412a 253d 4ae5 e53c
000002f0: 8895 a3bc a7a2 50bd 409d 17bd a5ea 053d
00000300: bec3 113b 9c38 cd39 b68c b63b a070 b73c
00000310: dadb e93c 023a 12bd aa16 273c eff1 45bd
00000320: 768d 4b3d c9d0 333d 96a0 04bd b34e e2bb
00000330: 76c2 abbb 4f57 e6bc d2f5 0ebd 9443 21bc
00000340: 9603 323d d371 1a3d f07b 37bd 55c5 e2bc
00000350: b3b6 253d af46 f83a 9a79 1f3d 0231 c13c
00000360: 3115 dbbc 2b76 103c 40ed 453c 2013 32bd
00000370: 98c4 143d 0259 8fbc 0c1b cebc dff1 333d
00000380: cd45 463d f0e6 513c eec9 da3c cca9 4ebb
00000390: 7c2e 0a3a d461 07bd baf5 eabc 4f40 41bc
000003a0: 75a1 3b3c 7499 083b 6acc 0dbc 8d1f cbbc
000003b0: 3b26 1c3d 5909 f8bc e6f6 863d 562f fb3c
000003c0: b574 a9bc bea8 9ebc f938 d33c cb95 263b
000003d0: f650 613d 02d0 07bc ce02 2ebd 8b4a 1b3d
000003e0: 068b 83bb 40e0 073c bd33 85bc 3e67 dbbc
000003f0: ce7b b0bb e30e 933c ca8c c33c 5da0 273d
0.026951453 0.07803542 -0.006550226 -0.012385138 0.0062528467 0.0673125 -0.009500795 0.02828541
-0.04645642 0.013476803 0.01943361 -0.044981055 -0.048753243 -0.010084469 0.0148817105 0.010720016
-0.044487093 0.0066147665 0.04873063 0.0012329897 -0.030577138 -0.01152415 0.03612885 0.06869037
0.029235594 -0.0060719755 -0.02140071 0.041598607 0.049143676 -0.028938008 0.0012710129 0.007470617
-0.0057361326 0.0392176 -0.03484227 0.039892826 -0.009491551 -0.017401153 0.01646943 -0.030746382
0.00949164 0.021413622 -0.0015459344 0.019442456 -0.005926244 -0.014116511 -0.008392619 0.041717757
0.0046398244 -0.010043239 0.0062727984 -0.053337723 0.025664506 0.05014803 0.037094966 -0.03886508
0.069092505 -0.0027467655 0.048559602 0.040472526 -0.0033041863 0.017100394 -0.010792606 0.043880384
0.02315075 0.010807801 -0.01322509 0.051925786 -0.04180805 -0.0072626215 -0.0037169124 0.008749076
0.03621426 0.0045436798 -0.033664443 0.015818805 0.023606602 0.021781692 -0.0007372254 0.011858104
-0.017172853 0.09758363 -0.0049926518 0.03856855 -0.04334192 0.038242478 0.04064301 -0.021681478
0.023839232 -0.03191361 -0.016372941 -0.04075844 0.012870029 -0.0045495024 -0.049306776 -0.0034754975
0.049660143 -0.006569216 0.056537636 -0.014862655 0.055475097 0.048355956 0.00064465194 -0.004146694
0.0038328734 0.002953774 -0.0015159603 0.053731386 -0.024532735 0.028774228 0.035917144 -0.022579374
-0.03130163 0.042488795 -0.031077344 0.0050842296 0.039155234 0.029567463 -0.047792334 0.0030360336
-0.00014012291 -0.023372428 0.017818727 -0.03589877 -0.022079356 0.015566565 0.033934105 -0.010335291
0.031591177 0.010481963 -0.0010141951 -0.0051652007 -0.0017697156 0.0012128239 0.017737485 -0.017847415
0.039246272 0.036365278 -0.0028666493 -0.0478747 0.014728846 0.062131245 0.017734567 -0.0063240887
0.036609434 0.0070090974 0.031145353 0.06783099 0.041073557 -0.01066407 0.05001395 0.0049347943
-0.010913657 -0.015116062 0.028936584 0.049342696 0.0082581565 0.056731995 0.04341169 -0.021722462
-0.0028404589 -0.038783155 -0.016650762 -0.022068901 -0.020757252 -0.020531232 -0.0011462083 -0.00757285
0.020561375 0.051375035 0.032094207 0.030080412 0.0018345504 -0.040066265 -0.02446099 0.029269438
-0.02676999 0.04833323 0.004152481 -0.017597068 -0.005076508 -0.011145333 -0.032644063 0.069903955
0.01978039 0.045256976 0.0403235 0.028063435 -0.019968763 -0.050936367 -0.0370152 0.032694478
0.0022241916 0.00039142824 0.0055709733 0.022392571 0.028547216 -0.03569985 0.010198275 -0.04832643
0.049695455 0.043900285 -0.03237971 -0.0069063543 -0.0052416874 -0.028117804 -0.0349024 -0.009842772
0.04346045 0.037706207 -0.04479593 -0.027681986 0.04045744 0.0018941964 0.038934328 0.023582939
-0.026743503 0.008817236 0.012080491 -0.04347527 0.0363203 -0.017498497 -0.025159381 0.043931838
0.04840641 0.012811407 0.026707616 -0.0031534312 0.0005271209 -0.03305228 -0.028681625 -0.0117951175
0.011452069 0.0020843418 -0.008654693 -0.024795318 0.038122397 -0.030277895 0.06590061 0.03066222
-0.020685533 -0.019367572 0.025784003 0.0025418873 0.05500885 -0.008289339 -0.042483144 0.037912887
-0.0040143756 0.008293211 -0.016260022 -0.026782628 -0.0053858524 0.017951434 0.023870844 0.04092442

net.0.bias f4 [64]
00000000: a85a 7ebd dc71 bd3b 7b79 62bc 188b d73c
00000010: ae34 9abb 8446 4b3c 3408 53bd a4e0 0f3d
00000020: 2081 363c 8980 a83c a7eb 98bd 7e3d 71bd
00000030: c5ae d8bc 5396 32bd fa1e c0bb a0d2 2bbd
00000040: 7f5e 34bc f949 8abb bce9 753d c94e 18ba
00000050: 80db 093c 0e6d 6d3d 1e49 27bd 650c 49bc
00000060: 4715 b93c c7c2 583d ab9b 8f3d 04ac dbbc
00000070: a5d2 97bc 4bfd 5c3d 65fd 58bd fcb5 c3bc
00000080: e3a5 573c 200b 19bd 310e 2ebd c079 edbc
00000090: 8121 733c af9f ad3c 7bd4 723d 3775 453c
000000a0: 4f78 f53c 617f 3abd 6d25 6a3b 913e ac3c
000000b0: d468 3ebd da1b 323d 27d3 46bc 8ece d0bc
000000c0: 90cf 0f3d 06f2 723b 7508 183c 85e4 bc3c
000000d0: 248d 03bd f1ad cf3c 0f1d 17bd fe15 113d
000000e0: b762 f43c 0174 1d3d 8084 003c a4f9 e1bc
000000f0: 573a 443d b59c be3c 5184 6fbd ac31 7b3d
-0.062098175 0.0057813954 -0.0138229085 0.026311442 -0.004705987 0.012406949 -0.051521495 0.035126343
0.011139184 0.020569103 -0.07466822 -0.058896534 -0.026450524 -0.04360039 -0.0058630677 -0.041948915
-0.011008858 -0.004220244 0.06003736 -0.000581008 0.008414149 0.05796533 -0.040841214 -0.0122710215
0.022593154 0.05292013 0.07012113 -0.026815422 -0.01853306 0.053952496 -0.05297603 -0.023890488
0.013162109 -0.037364125 -0.042494003 -0.028988719 0.014839531 0.021194307 0.05928467 0.012051872
0.029964594 -0.045531634 0.0035727874 0.021025928 -0.04648669 0.043483593 -0.012135304 -0.025489118
0.035110056 0.0037070527 0.00927936 0.023058185 -0.032117024 0.025351496 -0.036892947 0.035421364
0.029832227 0.038440708 0.00784409 -0.027584858 0.0479072 0.023268083 -0.058475796 0.061326668

net.2.lin1.weight f4 [64, 64]
00000000: 0061 bebd 6659 4d3d 16bd 46bd 0d9e 59bc
00000010: e3a7 ff3d 2649 82bd edd8 82bd 9e16 d4bc
00000020: c6bd e1bd 5028 9fbd 00e6 7dbd 5eb7 ebbc
00000030: ea69 d03b 92e0 89bd f7ca a73d 7665 c1bd
00000040: fd52 823d d80c e7bd e4a7 edbd a117 49bd
00000050: 8910 9a3d b921 e9bd e937 a9bd eb7a b2bd
00000060: b500 02be bb44 8a3d 7a2c 043e 2147 823a
00000070: 13cb 493d 6110 8ebd dd52 c33d e497 13be
00000080: 23c9 78bd f1b9 9d3d 31cf 923d 099a e9bd
00000090: b835 3e3d ad24 d33d 3778 2c3d 7341 3c3d
000000a0: f5ac c83d b4de 7c3d 8431 4b3c 126c ac3d
000000b0: 5718 a53d 2b51 7e3d ab85 1e3c 126b 16bd
000000c0: 958c de3c 5af5 8cbd d239 1ebd 2503 213d
000000d0: c812 b63d 7579 fcbd 382d f0bd c7bb ebbd
000000e0: 18cd 133c 1169 cd3d caa5 8d3b 9ae5 df3c
000000f0: 7837 4d3d e1b3 783d 8d66 633d dcc2 b23c
00000100: 5b96 383d 6bf2 02bd 08ba c4bb 7833 ddbd
00000110: 5bdf 013e 5626 13be 8037 17bd f5d7 ad3d
00000120: 05d0 a83d 7238 593d 59dd 52bd ea61 dd3d
00000130: eb78 4c3b 50d5 203c fbc8 bbbd c131 15be
00000140: eabd b8bd 2acf d3bd 1922 353d 1b92 aebc
00000150: b8d0 ef3d dc9f b83d 7aaa 993d 1579 383d
00000160: c912 813d f7af 3bbd f994 9fbc 97ae 52bd
00000170: e9b8 e73d c525 8ebd 50f3 7a3a 6e7e b2bd
00000180: af91 e33d 3d76 15bd 42c5 21bd a811 f2bd
00000190: d904 79bd 1479 9dbd 870a 023e ec63 163e
000001a0: a889 4c3d 9b99 20ba 3151 913b d705 06be
000001b0: 90e3 d83c 4e9f c93d c79e 9cbd aa80 edbc
000001c0: de6c c73d ffae 08be 8016 cfbd 10ea b53d
000001d0: b511 d3bd dd18 8f3d 7874 c53d 4a24 94bc
000001e0: 6500 77bd da4d d13d d4be f7bd ec6e 123e
000001f0: 307a 763d 0c53 1bbd e55c d9bb b961 d63d
00000200: 2fd0 6bbd f919 123e 17eb 893d daa7 c13d
00000210: 589d 883d a919 ab3d 7cb0 a83d 78e8 56bd
00000220: 40ff 3b3d 9344 bc3d d0a2 033d 734c a73c
00000230: 9dd4 c83d 35ed 053d 9cde b8bd be2b 483d
00000240: ab16 9c3c 1722 2c3d f85b 94bd c231 92bc
00000250: b28b 0abd 70f7 92bd ef07 38bc 745d 80bd
00000260: cbab c83d a6b0 e33d 0207 a6bc 5313 f43d
00000270: e986 46bd aba5 e4bc 85cb 4e3d dfee 22bd
00000280: d4d3 c03d ba5a dabc 35f2 833d 1a0d 67bd
00000290: b8e5 f73d c276 533d 45ae 27bd f9d9 e13d
000002a0: 5f38 b73d 9112 31bd 563a d73d 144c 923d
000002b0: afb3 6cbb 9d49 bdbd 6a70 203c 8d07 cd3d
000002c0: a0b4 4c37 f15d c4bd fd65 e73d 4650 713d
000002d0: cf9c 71bc b52e 6a3d 192e e13d 731d babc
000002e0: cc61 233d 2365 b33d 9d79 4e3d e524 953d
000002f0: 0909 81bd 7fe8 b73d d72f c03d 3e0d 4b3e
00000300: b18a d63d 9423 d83d 95f1 533d fdf4 2abc
00000310: 71bc b0bd 7dbf 0f3d c48e 423d 4809 983d
00000320: 0f41 5dbd 53cc f2bb 6b64 b6bc 1e7c 453d
00000330: f3ff a43b d86f 05bc 06a5 01bd 3aa1 fe3c
00000340: 929d 233d a414 2ebd 0999 c3bd 6285 05bd
00000350: b3f9 89bd 3a38 ed3d 1ae9 ecbd 14ae 8c3d
00000360: e2af 8b3c e0b0 c1bd 48ac ed3d 5ffb bc3d
00000370: b40f e7bd d597 143d 35c4 0f3d a5d8 99bd
00000380: 1635 b0bd 31bb a0bd a9e5 b9bd d3d7 1abd
00000390: 6c22 dabd 9e72 af3c 10b1 ad3d a48b 29bd
000003a0: b06f 52bd e575 9b3d f9bb 11bc 988a d1bd
000003b0: 068b b63d 3615 bfbd c09d e2bd fc40 a13c
000003c0: 6275 da3d 9dd0 263d 719f b33d c388 c6bd
000003d0: 442d fc3d 5c84 4bbc d7e1 9b3d 4183 25bc
000003e0: 994d ccbd fbf0 94bd cd56 e0bd 70d7 be3d
000003f0: e64a ed3d c0b8 f53d 0d4a 2a3d fa07 ebbd
-0.09295845 0.050134085 -0.04852017 -0.013282311 0.12483194 -0.06361608 -0.063890316 -0.025889691
-0.110225245 -0.07771361 -0.061986923 -0.02877396 0.006360282 -0.067322865 0.08193009 -0.0944318
0.06363485 -0.112817466 -0.11604288 -0.0490948 0.07522685 -0.11383385 -0.08262617 -0.08714851
-0.12695582 0.067513905 0.12907591 0.0009939411 0.049265932 -0.06936718 0.09537289 -0.1441341
-0.060738694 0.07701481 0.07168425 -0.11406333 0.04643795 0.1030973 0.042106833 0.045960855
0.09798614 0.061735824 0.012401942 0.0841905 0.08061283 0.062089127 0.009675424 -0.036723204
0.027166644 -0.068827346 -0.03862936 0.03930964 0.08890301 -0.123278536 -0.11727375 -0.11510425
0.009021066 0.100298055 0.004322742 0.027331162 0.050101727 0.06071842 0.055517722 0.021821432
0.045065265 -0.03196947 -0.006003622 -0.108008325 0.1268286 -0.14370093 -0.036918163 0.08488456
0.082428016 0.053032346 -0.051480625 0.10809691 0.0031200002 0.009816483 -0.09169193 -0.14569761
-0.09020598 -0.10342248 0.04422197 -0.021309903 0.11709732 0.09014866 0.07503219 0.045037348
0.06302411 -0.04582211 -0.019480215 -0.051436033 0.11314566 -0.06940798 0.00095729996 -0.08715521
0.11111771 -0.036489714 -0.03949476 -0.11819774 -0.06079564 -0.076891094 0.12699328 0.14686555
0.049935967 -0.00061264046 0.0044347276 -0.13088165 0.026475698 0.09844838 -0.07647472 -0.028992016
0.09737562 -0.13348006 -0.101117134 0.088825345 -0.10306112 0.06987164 0.09641355 -0.01808371
-0.06030311 0.10219927 -0.120969445 0.14300126 0.06017512 -0.037920997 -0.0066333883 0.10467858
-0.057571586 0.1426772 0.06734293 0.09455843 0.06670636 0.08354504 0.08236787 -0.052467793
0.045897722 0.09192767 0.032137692 0.020422196 0.09806178 0.03269692 -0.09026834 0.04886984
0.019053778 0.042024698 -0.07244104 -0.017845992 -0.03382463 -0.07176101 -0.01123236 -0.06267825
0.09798392 0.111176774 -0.020267013 0.11917748 -0.048468504 -0.027911028 0.05048706 -0.039778586
0.09415403 -0.02665459 0.06442682 -0.05640898 0.12104362 0.05162693 -0.04093768 0.11027903
0.08946299 -0.043230597 0.105091736 0.07143417 -0.0036117842 -0.09242556 0.009792427 0.10011206
1.2201403e-05 -0.095882304 0.112987496 0.058914445 -0.014746859 0.05717345 0.109951206 -0.02271912
0.03988819 0.08759525 0.05040895 0.07282428 -0.063005514 0.08979892 0.09384125 0.1982927
0.10475672 0.10553661 0.051744062 -0.010434386 -0.08629692 0.035094727 0.047499433 0.07423645
-0.054017123 -0.0074096113 -0.02226468 0.04821407 0.0050353943 -0.008144341 -0.03165152 0.031082738
0.039945193 -0.042500153 -0.095506735 -0.032597907 -0.067370795 0.1158299 -0.11567898 0.0686914
0.01705164 -0.09457564 0.11605126 0.09227633 -0.11282292 0.03627761 0.035099227 -0.07512025
-0.08603875 -0.07848204 -0.09077007 -0.037803482 -0.10651097 0.021416958 0.084810376 -0.041392937
-0.051376045 0.07590846 -0.008894914 -0.10231513 0.08913235 -0.093302175 -0.11065245 0.019684307
0.1066692 0.040726293 0.087706454 -0.09694054 0.12313321 -0.012421694 0.07611435 -0.010102094
-0.09975738 -0.07272526 -0.10954056 0.09318435 0.11586551 0.11998129 0.041574527 -0.11476131

net.2.lin1.bias f4 [64]
00000000: 8014 3abd 760f 92bd 8a4b 9ebd 0f05 013e
00000010: e749 443d 44d6 d83d d2ba bc3d 3931 923d
00000020: af3a aa3c 6a6d db3d 1c98 b73d e209 3c3d
00000030: 532e d7bd 7de6 d7bd d6c3 dd3d d84d 913d
00000040: b296 2e3d 0f5f e43c 16d8 09bd efe4 f93d
00000050: 8fab bb3d 5bd1 21bd b0fb 823d d4dd 04be
00000060: 3eb1 e5bc 4bac c43d b38f b2bd 84e1 9abd
00000070: 426b a53c a7ce 52bd 2725 393c c378 12be
00000080: 6745 ddbd 5d24 4f3d e91a 29bd 9f6d 373d
00000090: 52fc 9dbd 2527 93bd 8b9a a53c 113f eb3d
000000a0: 65b7 e83c d27a 66bd 8094 e6bd 5b95 043e
000000b0: 8e1a 9a3d 97d7 d4bd 8f93 87bd d68f b5bd
000000c0: 53f6 cf3d 3442 343d 2d9f b73a 6938 f5bd
000000d0: c343 883c b4a6 e13c 81ce d03d c128 003e
000000e0: 8888 65bd 6d82 f63d b48c 853a 07f7 e3bc
000000f0: bb4a ec3c 91df abbd f4a3 e0bd 2bea ea3d
-0.045429707 -0.07131855 -0.07729252 0.12599586 0.04792204 0.10587743 0.09215321 0.07138295
0.020779936 0.107142285 0.089645594 0.045907862 -0.105068825 -0.10542009 0.10828368 0.07094926
0.042624183 0.027877359 -0.03365334 0.12201869 0.091635816 -0.039506298 0.06395662 -0.12975246
-0.028038617 0.09603175 -0.08718815 -0.07562545 0.020192746 -0.05146661 0.011300362 -0.1430388
-0.10804253 0.050571788 -0.04128543 0.044782277 -0.07714142 -0.071852006 0.020215293 0.11486638
0.028407762 -0.056269474 -0.11258793 0.129476 0.07524596 -0.10392683 -0.066199414 -0.08865325
0.101544045 0.04400845 0.001400923 -0.1197365 0.016633874 0.02754531 0.101956375 0.12515546
-0.05603841 0.120365955 0.0010189028 -0.027827753 0.028844228 -0.08392251 -0.109687716 0.11470445

net.2.lin2.weight f4 [64, 64]
00000000: 35f4 d43c fac0 2dbd a683 a9bd 077c c9bd
00000010: 1db8 bdbd abf3 cabc 23c1 00be e189 b03c
00000020: bee8 01be cc96 a0bc fa1b df3b 96a2 a3bd
00000030: 8591 e23d bff4 c03d 94e4 6bbd 7870 dbbd
00000040: 2f19 0d3d 8653 4bbc 59a7 e13c 56c4 08bc
00000050: 20ab f9bd 483a eabd 7abc bb3d 4f24 dbbc
00000060: 5dc6 ddbd df5d 91bd bdb8 59bc 988f c13d
00000070: 6910 18bd 2c94 8c3d b54f be3d 4d7f 073e
00000080: 5ac1 1abd e8f6 9d3c 09bc 2c3d 7326 e3bb
00000090: 0550 f73d 874c c3bd 9d7c 033e 1901 29bb
000000a0: e429 e8bd 15c7 a0bd e775 783c 237e 10be
000000b0: b534 38bc 735a 54bd 8740 2a3d f3cf 38bd
000000c0: bc5f e1bd 25ae e1bd 387e 06bd fb5b 613d
000000d0: 39d0 e6bd 6214 eabd 13f0 99bd e7c8 48bd
000000e0: c74f 683c 74e3 c03d 4b24 0dbe 8ea4 173d
000000f0: b2ac a0bd 7328 02bd 5b58 be3d deb5 b3bd
00000100: 70fb 10be 67b4 6e3d f11a e33d 3b99 0bbe
00000110: c7fe 023e 2c22 833c f2dc 163d aa23 963c
00000120: a4e8 a13d 85a9 bd3d beb9 d3bb 69e6 d03d
00000130: 1c61 a73d 67a1 443d c494 10be dd4a 553d
00000140: 154f 2c3d e0a3 b33d 6a80 d43c bd49 2e3e
00000150: 6b52 593d b4ab c2bd 9d10 65bd 2aa9 8b3d
00000160: 2a0d 2a3d 68a8 30be 6b63 fb3d 3712 bc3d
00000170: a7ae 5b3d c973 923a 4225 86bd 9a30 63bd
00000180: 76e5 f43d 8adf d33c 905b 033c 137a 4cba
00000190: 75f7 cebd fad9 acbd c38e 373d d162 b0bd
000001a0: b606 343d fdb4 09bd a232 cd3d 1d64 37bd
000001b0: 4c38 9c3d 8bec 473d f0cb 923d a994 8d3d
000001c0: dba5 543b 888a ccbd 66a7 0fbe 4289 e4bc
000001d0: 913f 273d 64ca e9bd f4aa 04be 0f38 04be
000001e0: 8454 303e 5d41 8cbd 075b c83d 471d 113e
000001f0: 9259 f93d aa39 833d 4899 f4bd c551 89bd
00000200: e6a7 37bd fd4c a4bd c580 0e3d cff2 afbd
00000210: 0d54 923c b01b edbd 028f a23c 311a 06be
00000220: 97f2 26be c31b 62bd d8c3 6f3d 3e6e 9d3d
00000230: f283 fcbb 36a7 c83d 3dd7 1fbd c882 dd3d
00000240: 55c6 f6bc d472 0abd fefc 4d3d 654d f3bd
00000250: ac98 60bd b67f c9bd d923 ec3c 207a 65bd
00000260: 6ed2 b3bc 6c13 13bb 858b 833d f3b1 d03d
00000270: 8c05 63b8 956e 0a3e 9d06 90bd 1ae9 f0bb
00000280: 5503 1a3e f3ad 493d bd01 4e3d 1003 12bd
00000290: 9b5c 75bd e1c5 9aba e5d8 76bd b54f 1bbe
000002a0: 3db3 e7bd c564 05bd af55 963d 7dc3 d4bd
000002b0: 27b2 a1bd b3c0 a83d 64f9 453d 6976 ab3d
000002c0: dab5 9c3d 43ce 933d 6bdc 1fbe 2ece ecbc
000002d0: 4fef b3bd a16f 95bd 1301 5ebd ce3f 913c
000002e0: e092 793c 61af bcbd e62a 0b3e d298 0b3e
000002f0: 58a2 d53d 1c51 9f3d 34ac 42bd 51a0 833d
00000300: a771 8eba ced7 b93c cf50 aabd 30b3 abbd
00000310: 2a5b 103c f98b 4c3d 6c19 94bd ded6 363c
00000320: c139 3a3d 4517 00be c7db ae3d 8906 313d
00000330: 5030 853d 5c08 453c 2702 953a 4d26 fbbc
00000340: a826 2abd b9de b33d b3d7 aa3d 8a88 853c
00000350: cbc9 313c 268e 913d 7cc4 e03c 9009 733d
00000360: 3b1f 093d 5618 06be fdc7 4e3d dbb6 9f3d
00000370: 97c9 023e 5d15 49bc 280b 0abd c2db 173b
00000380: 7d3f bd3a 9a58 a7bc 7a8a ddbc 2abd 903c
00000390: 5526 883d 4702 b3bd 2f2f 6abd 9933 95bd
000003a0: d64d c7bc 3043 c43d 89b2 0b3e 7dcf 70bd
000003b0: 298b 69bd 8265 b03d 7aa4 4b3d bc82 b8bd
000003c0: 33fb 8cbd 518b d23d 4416 42bd 05ea c6bb
000003d0: 0a88 1cbd a0b9 453d f4b7 183d 9466 9a3d
000003e0: 3dc2 f3bc 11e5 c53d e363 a4bd 2d6b 2c3d
000003f0: 9729 d4bd e64c 3ebd 6244 913d 39d0 21bb
0.025995353 -0.042420365 -0.08277063 -0.098381095 -0.092636324 -0.024774393 -0.12573676 0.02155012
-0.1268644 -0.019603156 0.006808755 -0.07989995 0.11062912 0.094216816 -0.057591036 -0.10714811
0.034447845 -0.01241005 0.027545618 -0.008347591 -0.12190843 -0.114368975 0.091668084 -0.026750712
-0.108288504 -0.070979826 -0.013288674 0.094512165 -0.037125025 0.06864199 0.09292547 0.13232155
-0.03778205 0.019282773 0.04217151 -0.0069320737 0.120758094 -0.09536081 0.12840505 -0.0025788008
-0.11336115 -0.07850472 0.015164829 -0.14110617 -0.011243035 -0.05184407 0.041565444 -0.04512019
-0.11004588 -0.110195436 -0.032835215 0.05501936 -0.11270184 -0.11429669 -0.07516494 -0.04901972
0.014179177 0.09418383 -0.13783376 0.037022166 -0.07845439 -0.031776857 0.09294196 -0.08774923
-0.14158416 0.058277514 0.11089123 -0.13632672 0.12792502 0.016007505 0.036831804 0.018327553
0.07905701 0.09260849 -0.006461351 0.10200197 0.08172819 0.048005488 -0.1411925 0.05207335
0.042067606 0.08771491 0.025940139 0.17020316 0.053057116 -0.09505406 -0.055924047 0.06819375
0.04151646 -0.17251742 0.12274822 0.09183162 0.05363336 0.0011173423 -0.06550075 -0.055466272
0.11957829 0.025863428 0.008017436 -0.0007800173 -0.101057924 -0.08440013 0.044813883 -0.08612598
0.043951713 -0.03361987 0.10019423 -0.04477321 0.07627925 0.04880957 0.07167804 0.0691312
0.003244749 -0.0998736 -0.14028701 -0.02789748 0.040832106 -0.11415556 -0.12955838 -0.1291201
0.1721974 -0.068484046 0.09782987 0.14171325 0.12175287 0.06407483 -0.119432986 -0.067050494
-0.044837855 -0.08022497 0.034790773 -0.08591234 0.017862344 -0.115775466 0.019843582 -0.13095929
-0.16303478 -0.055202257 0.05853638 0.07687043 -0.007706159 0.09797518 -0.039023627 0.1081596
-0.030123869 -0.033800915 0.0502901 -0.11879996 -0.0548331 -0.09838812 0.028825687 -0.05602467
-0.021950927 -0.0022441996 0.064230956 0.10190191 -5.4126183e-05 0.13518746 -0.070325114 -0.0073520066
0.15040334 0.049238157 0.050294627 -0.035647452 -0.05990277 -0.001180824 -0.06026544 -0.15167125
-0.11313484 -0.032566804 0.073405616 -0.10388849 -0.07895308 0.082398795 0.04833354 0.08372194
0.07651873 0.07217076 -0.15611427 -0.028906908 -0.08785879 -0.07296682 -0.054200243 0.01773062
0.015232772 -0.09213138 0.13590583 0.13632515 0.10431355 0.07779142 -0.047527507 0.06427062
-0.0010867611 0.022685912 -0.08316194 -0.08383787 0.008810798 0.049938176 -0.07231411 0.011159627
0.045465235 -0.12508877 0.08538013 0.043219123 0.065033555 0.012025919 0.0011368439 -0.030657912
-0.04154077 0.08782715 0.083419226 0.016300458 0.010851334 0.07107191 0.027437441 0.05933529
0.03347705 -0.13095221 0.050483692 0.07798549 0.12772213 -0.01227316 -0.033702046 0.0023171757
0.0014438477 -0.02042799 -0.02704357 0.017668325 0.06647936 -0.08740669 -0.057173904 -0.07285232
-0.024329107 0.095831275 0.13642325 -0.058791626 -0.05701748 0.08613111 0.049717404 -0.090093106
-0.0688385 0.10280479 -0.047384515 -0.006070378 -0.038215674 0.04827273 0.037284806 0.075390965
-0.029755706 0.096628316 -0.080268644 0.0420944 -0.10359495 -0.046460055 0.07093121 -0.002469076

net.2.lin2.bias f4 [64]
00000000: 2a83 983d 711d 593d c050 a7bc 8541 c2bd
00000010: 8498 ae3c 94c6 e0bd f915 2a3d 57a0 91bd
00000020: fde3 a2bd 531c 11be 6308 d6bc 1840 b93d
00000030: af47 893d 9064 0abe 5352 c93d 8324 d8bd
00000040: 9828 003e 871f 65bc 35d7 bebd 0adc af3d
00000050: 2158 2fbd 031f 033e a6be d93d 9f89 dabd
00000060: 15e6 dfbc e25c fe3d 927e d73c 4e66 e2bd
00000070: e302 173d be01 b0bd f98c aabb f80f 0abd
00000080: f28c 8ebd 0fc5 9dbc 5113 a43c c951 5abd
00000090: 6d23 61bc a4b1 f9bc 0c98 7ebd 1ac3 a6bd
000000a0: aa8c e9bd f476 bb3d 37de 003e cef0 f33d
000000b0: 538f febd a734 c73d adb1 f9bd 23ad bd3d
000000c0: 8426 113e f59a 953d 27b0 c3bd 6611 8b3d
000000d0: 49e0 013c 3ffd e8bd d75d 763d c819 cb3d
000000e0: 1bc7 d83c a0c2 083e 48eb 053c 8a9a 5d3d
000000f0: cd05 373d 4e0c 853d 5378 cbbc 6808 9d3d
0.074468926 0.053006593 -0.020424247 -0.09485153 0.02131296 -0.10975376 0.04152486 -0.071106605
-0.079536416 -0.14170961 -0.026127046 0.09045428 0.06703126 -0.13514924 0.09830155 -0.10553839
0.12515485 -0.0139845675 -0.09318391 0.08586891 -0.042808656 0.12804799 0.106320664 -0.106707804
-0.027331391 0.1242006 0.02630547 -0.11054669 0.036867987 -0.08594082 -0.0052047935 -0.033706635
-0.06960477 -0.019259004 0.020028742 -0.053300653 -0.013741356 -0.030480213 -0.062156722 -0.081426814
-0.11403783 0.09153548 0.12584768 0.11911164 -0.12429681 0.097268395 -0.12192092 0.09261539
0.14174849 0.07304946 -0.09555083 0.06790428 0.007927009 -0.11376428 0.060148086 0.09917027
0.026462128 0.13355494 0.008173771 0.054102458 0.044683266 0.064964876 -0.024837648 0.07667619

net.3.lin1.weight f4 [64, 64]
00000000: 5388 bebd 9678 023e e70c 68bd c617 a5bd
00000010: b465 47bd b392 833d 416f 573c 9636 783d
00000020: 494d c53d 5a01 36bd 237c a83b 071d d7bd
00000030: 9b4b 153c bd0c adbd 4af6 383c c2e8 f7bc
00000040: 8b14 a2bd cd35 413d 73b2 06be 6ea7 15bd
00000050: a679 dd3c 0ec0 b53d 9d46 29bd 7c5a c6bb
00000060: f025 7bbd e490 16be e823 adbd d684 82bb
00000070: 5e31 f4bd 75c4 80bc a5d1 a63d 1603 3e3d
00000080: 0ec4 83bd e7a4 8fbd b04d 8dbd e518 023d
00000090: 9221 f9bd 5965 d33d 5837 28bd 66dd 04bc
000000a0: bef5 013d 4cc3 903c 127e b03d b25c 143d
000000b0: 499b 8e3d 797f 90bd 809f 8f3d b303 553a
000000c0: 5ea6 12be 9404 1d3d 2380 dfbd 0e35 2d3d
000000d0: edfb c13d 4450 7b3d a3b5 dcbd b524 b9bd
000000e0: 0d7f 283d 8db0 d03d 7530 67bd f5a5 d33d
000000f0: c3b0 bfbd 4d00 26be e1bd 89bd 7edb ab3d
00000100: ccb8 843d 99e2 a9bd da80 b93d 3bb5 8f3d
00000110: 18f8 a03d 1e33 16bd 1b33 93bd 9fe5 74bc
00000120: c09f 4f3d cd37 94bd 65f6 b13c 0f53 88bd
00000130: b9bf f43d fa9e b63d b0f7 813b c833 efbd
00000140: 35d4 e0bd d4af a7bd 9842 cb3d d6a1 95bd
00000150: 397f f83d 18f9 9cbd a8a0 c0bd 2446 cbba
00000160: 2e17 c9bb 8577 55bd 563a 833d 5c1a d2bd
00000170: 32e3 a9bd 2c8f d4bd 65f1 693d a533 b53c
00000180: a9df f1bc 6da5 65bd 54c0 aabd 0811 493d
00000190: 7c6e 53bd e163 d23d 48a4 98bd 2cad 8a3d
000001a0: 5db5 d2bd 6b5c 4fbd 4e03 423d 412b 9e3c
000001b0: a448 0d3c 0c01 c9bd 3062 7fbd 07d9 ae3d
000001c0: 7a55 a7bd 2828 92bd 36db a1bd ef50 6a3d
000001d0: e613 cc3d f7bd 04bd 421f 563d 59fd dc3d
000001e0: 934a c8bc 7dc4 30bc f228 e63c fe7f 7d3c
000001f0: 6b65 88bd aa73 4cbd 0a9c 05bd ad89 db3c
00000200: 9004 16bd 6f05 a83d bb49 ce3d 963f 793d
00000210: ac59 b93d 192f 73bd f9d9 e63d 9ac2 6fbd
00000220: 8a11 07bd 6467 d6bd 4fd4 bebc 14e7 3bbd
00000230: 7438 083e e54a 1bbe 9ad1 2d3d 5ab1 403d
00000240: 5751 cebd 966e 0ebd 0fbe 21bd 2253 37bd
00000250: 9752 d93b 7a93 553d 5a01 7b3d f79b a4bd
00000260: 5357 003e 06aa 343b 27e2 e33c 6d84 1dbe
00000270: f369 a1bd 5703 d5bc 1325 1c3d 72fb 16bc
00000280: 9ab7 bd3d 865f 083e 01ce 8abb f721 c1bd
00000290: 2b54 8b3d 7b6f 8dbc 503a e6bd ca7b b53d
000002a0: 9b52 123d 03f5 913c 6963 5fbd 59ea b83d
000002b0: be62 13bc 3eca d03d 25f9 5bbb 1bd2 f83d
000002c0: 22a9 45bd 704a 6c3d 3f09 edbb 3ddc 8b3d
000002d0: 2655 a43b d134 36bd cc0b 173d 2310 943d
000002e0: 77e9 f33a 2b02 f43b c717 8c3d 8088 bb3d
000002f0: 42f3 d23d 8610 903d 1547 043e 7390 d03d
00000300: 32b9 a8bd df3a d33d 9cf6 533c febf aabd
00000310: 0958 3cbd 1c86 5cbd c23d 6d3d 0a6f 4ebd
00000320: dda9 c4bd e6bf 983d 69e2 13bb b554 eabd
00000330: 53c2 38bd de13 eb3b 6b21 ca3d 4e61 5e3d
00000340: b793 cebd 168c 61bc 4b62 6ebc 7876 adbd
00000350: 724b f53c 95a3 c23d a2a6 05bd adc4 80bc
00000360: 31ba 5bbd 52bd 40bd da20 ae3b feac 70bd
00000370: 4625 183d e1a4 a63d 573f 8e3c 3440 9f3d
00000380: 531b 77bd b491 e1bb ee82 053d 90a8 9f3d
00000390: 7ae0 90bd 7837 a7bc e7f6 7a3d 3ae0 d8bc
000003a0: d22a 273d 1c34 33bb fd10 5a3c fc18 da3d
000003b0: 77d2 3f3a f426 89bd e158 07bc 8ce1 e03d
000003c0: c186 3a3c bc8d 96bd 57fd 35bc 240a 923d
000003d0: 196c 1e3c b06e d4bd 1e32 66bd 1717 e83d
000003e0: ead6 fd3b 95a6 9c3d 8c32 183d c62b 86bd
000003f0: d331 ee3d 9ed4 213e db35 033e bb13 b0bd
-0.093033455 0.12741312 -0.05665293 -0.08061175 -0.048680976 0.06424465 0.013149084 0.060598932
0.096338816 -0.044434883 0.0051417514 -0.105035834 0.009112264 -0.08449695 0.011289189 -0.030262355
-0.079140745 0.04717045 -0.1315401 -0.036536627 0.027035546 0.08874522 -0.041327108 -0.006053267
-0.061315477 -0.14703709 -0.08454114 -0.0039831204 -0.119234785 -0.015718678 0.08145455 0.04638966
-0.06433879 -0.070138745 -0.06899583 0.031762023 -0.12164606 0.10322065 -0.041068405 -0.008109426
0.0317285 0.01767125 0.08617796 0.036221214 0.06963212 -0.070555635 0.07012844 0.00081258564
-0.14321277 0.038334444 -0.10913112 0.042286925 0.09471879 0.061355844 -0.10776832 -0.090402044
0.04113679 0.101899244 -0.056442697 0.10334388 -0.093598865 -0.16211052 -0.0672567 0.08391474
0.0648056 -0.08295173 0.090577796 0.07016989 0.0785982 -0.036669843 -0.07187482 -0.014947324
0.05068946 -0.07237206 0.021723935 -0.06656467 0.11950631 0.08917041 0.003966294 -0.11679798
-0.10977975 -0.081878334 0.09924811 -0.073062584 0.12133641 -0.07664698 -0.09405643 -0.0015508574
-0.0061367964 -0.052115936 0.06407611 -0.10258934 -0.08295287 -0.1037887 0.057114977 0.022119353
-0.029525595 -0.056065965 -0.08337465 0.049088508 -0.051619038 0.10272957 -0.07453209 0.06771311
-0.102884986 -0.050625246 0.047366433 0.019307734 0.008623276 -0.09814653 -0.0623495 0.085374884
-0.081706 -0.071365654 -0.07903139 0.05720609 0.09964733 -0.032407727 0.052275904 0.1079051
-0.024449622 -0.010789034 0.028095696 0.01547241 -0.06659969 -0.049914993 -0.032619514 0.026799047
-0.036625445 0.082041614 0.10072657 0.060851656 0.09050307 -0.059371088 0.11272044 -0.058535196
-0.03297571 -0.10468939 -0.023294596 -0.04587467 0.13302785 -0.15165289 0.04243622 0.047044136
-0.10074108 -0.03477343 -0.039487895 -0.044757016 0.00663216 0.052142598 0.061280586 -0.080375604
0.12533312 0.0027567162 0.027817799 -0.15382548 -0.07881536 -0.02600257 0.038121294 -0.009215223
0.09263535 0.1331769 -0.0042359834 -0.094303064 0.06803163 -0.017265072 -0.11241591 0.088615015
0.03572331 0.017817026 -0.054538164 0.09029073 -0.00899571 0.10194825 -0.003356525 0.121494494
-0.048257 0.057688177 -0.0072337682 0.068291165 0.0050150333 -0.044483963 0.036876485 0.0722964
0.0018609007 0.0074465475 0.06840473 0.09156895 0.10300304 0.070344016 0.1291774 0.101838015
-0.08238448 0.10313963 0.012937214 -0.08337401 -0.045982394 -0.053838834 0.057920225 -0.050398864
-0.09602711 0.07458477 -0.002256537 -0.11441938 -0.045107197 0.007173999 0.09869655 0.054292016
-0.10086768 -0.013766309 -0.014549802 -0.08469862 0.029943202 0.09503857 -0.032629617 -0.015718782
-0.053644363 -0.04705555 0.005313975 -0.05875873 0.03714492 0.08136917 0.017364187 0.07775918
-0.060328793 -0.0068838242 0.032595567 0.077958226 -0.070740655 -0.020412192 0.06127062 -0.026474107
0.04081232 -0.0027344292 0.013309714 0.10649297 0.00073174335 -0.06696883 -0.0082609365 0.1098052
0.011384667 -0.073512524 -0.011107764 0.071308404 0.009669327 -0.103726745 -0.05620014 0.11332529
0.007746567 0.076489605 0.03715758 -0.06551318 0.11630597 0.15803763 0.12813513 -0.08597513

net.3.lin1.bias f4 [64]
00000000: f286 12be f602 ae3d b8b0 c4bd 5faf b43d
00000010: a3a4 f8bd c4d5 4d3d cd17 e0bd df65 dabd
00000020: c269 10be dbac 0ebe fff5 ccbd 587f 19be
00000030: effc 4c3d 9617 083e 3326 463d e6b3 12be
00000040: a73d 7c3d 176b b93c dc6e f23d 898b cdbd
00000050: c56b a13c 7506 5fbd 2821 b63d daef fd3d
00000060: cc9f aa3d d37f 773d 2f8b 253d 4013 2f3b
00000070: ab30 a33d a1b7 59bd 68e8 c63c 0c43 af3d
00000080: ee8b 063e 7f0a c2bd 982f c2bb be04 e1bd
00000090: 6ef9 88bd 0cc5 11bd 5735 cdbd f713 93bd
000000a0: f23f fd3d 1ef7 de3d aee1 a13d f517 d63d
000000b0: 140f 47bc 97ab c4bd e6cf 92bd 7de2 d4bb
000000c0: 556e 28bd 9e20 2bbd 9b42 37bd 560b d13d
000000d0: 46da a53c cd00 d23d 7f0f ba3d 3a6b d23d
000000e0: a162 cf3d dfdd d3bc 04a9 b7bd 77ee 49bd
000000f0: cfe9 acba 6c4a 103d cee0 dd3c c58d 9d3d
-0.1430929 0.084966585 -0.09604019 0.08822512 -0.12140777 0.05025269 -0.1094204 -0.106639616
-0.14102843 -0.13933127 -0.100078575 -0.14989984 0.050045904 0.13290247 0.048376273 -0.14326438
0.061582234 0.022634072 0.11837551 -0.1003638 0.019704709 -0.054449517 0.08893043 0.12399264
0.0833126 0.060424637 0.04041594 0.0026714355 0.07968267 -0.053153638 0.024280742 0.0855771
0.13139316 -0.09474658 -0.005926084 -0.109872326 -0.066882 -0.03558831 -0.100199394 -0.07181542
0.12365712 0.108869776 0.07904373 0.10453788 -0.012149591 -0.09603041 -0.0716856 -0.006496726
-0.041120846 -0.041779153 -0.044741254 0.1020724 0.020245682 0.10254059 0.09084987 0.10274358
0.10126234 -0.025862632 -0.08967784 -0.049299683 -0.0013192239 0.035227224 0.027084734 0.07693056

net.3.lin2.weight f4 [64, 64]
00000000: 4b2d 1b3e db4e 29bc 1679 27bd 4b0f 0ebe
00000010: f13c e13c 6da8 f5bc 4032 c1bd b1ec 5e3d
00000020: f0c5 6c3d b0ae 003c d62f 79bc fd56 bf3d
00000030: 057f d1bd ccce 28bd 80a9 29bc 6c7c a0bb
00000040: c7e6 eabd 3fbb 873d 99b7 ffbd cef4 de3d
00000050: 87b2 c2bd 0ffb 853d be68 d83b 9884 aabd
00000060: 9a5c 07be 4d58 f9bd de9e 3b3d 8ecd 593d
00000070: 720f 1bbc c093 f33d 7808 ed3c 5195 00be
00000080: a940 e6bd 853c 31bd 1787 633b 4437 013e
00000090: 6431 e03c b34c 193d d657 69bd e93b a43d
000000a0: efd8 0abe 8fce a73d 39db cbbd bdf6 ffbc
000000b0: 2c3f 0ebd e311 1abd c9e0 c1bd 2e90 abbc
000000c0: efaa ac3c 4e0a 22bc 7e72 9b3d b9df 0cbe
000000d0: 966f 70bd fab6 12be fd6e 0bbb 5f1b 1abe
000000e0: 5fa0 10be db38 3c3d 0ee7 7cbd 0498 06bc
000000f0: 9dc0 b5bd 15e9 18bd d154 fcbc cd4b ad3d
00000100: 9717 85bd 067d 2fbd bb47 b0bd 5921 dd3c
00000110: 3fd6 cabd 5502 7cbc bb5b 09bd 345e 8dbb
00000120: 7b95 483d 6ac5 acbc d0ca 52bd 2f5d 0bbd
00000130: 5312 a0bd 811a be3d 8fb8 70bd e63c 863d
00000140: 1938 973b fad4 ee3d 9cad 903d 4816 e3bd
00000150: 3712 88bd 64fd 1cbd 762b bb3b 42cc b13d
00000160: 3e0b 09bd 383f 84bc 0848 953d 4d4c aebd
00000170: 3f22 85bd a6e1 093c 1f28 72bd 0ef3 9e3d
00000180: 7e62 683a f104 83bc c8b8 413c d10f 2dbd
00000190: baf9 583c 04d6 493b 87c6 90bd cc2c 33bc
000001a0: 9b28 9c3d 7ca2 5e3d 08c2 a3bd 2e2a 91bd
000001b0: 3395 c03d e58c b13b 90a6 033e 3c7f 9dbd
000001c0: 9c8b c03d 89b0 53bd 33ae cf3d 95e0 67bc
000001d0: 81f1 e93d 97a6 e1bd ca31 a5bd cf5e 4c3b
000001e0: 1ef8 12be 35d6 b83d 8ade 94bc 8de2 c4bd
000001f0: a2a1 9dbd bc24 293c 4359 a53c 8629 46bd
00000200: a782 0b3e 8ee1 5bbd 7715 7b3c ecb7 bfbd
00000210: f0a6 fa3b 29f8 d7bd 2733 003e 6a37 bebd
00000220: a990 843c 4d79 893d 39e7 753c a6a6 d53d
00000230: eaea 8abb a85d f6bd 9a7c e4bd bc77 26bb
00000240: 21b5 9dbd 6771 3cbc 63e1 b93b 2561 153d
00000250: 99d2 92bd eb0d c63d edec d33d 2199 0bbe
00000260: ce40 693d 11a3 563d f417 1abe aadf 9f3d
00000270: dc26 fcbd f8f8 ff3d 8a2d e1bc 124f d8bc
00000280: 8031 d9bd 67c5 89bd 0fd0 cbbc 6f70 0d3e
00000290: 7381 4b3d 6b2e 663d f016 443d 4e80 4e3d
000002a0: 25b3 cd3d ba6c a6bc 6de7 05be 30e3 2c3d
000002b0: c417 1e3d 9868 bc3d 9284 87bd ce98 64bd
000002c0: ca98 d7bd eaa5 ec3d 239d c33d df5d 06be
000002d0: bdc2 6e3d f2e2 a8bd 9392 473c 2fdf 853d
000002e0: 2ef4 13bd 02b9 8e3b fe4f 5bbd 31dc 6abd
000002f0: c389 f2bc 328f cbbd 27ff 1fbe 08cf a03d
00000300: 01a6 9fbd 61f7 11bd 8ac5 2a3c beef 0bbe
00000310: e555 c2bb 2021 663d 6d8b 07bb 9c4c a53d
00000320: d9e5 8fbd 19eb b23d f6f3 fe3d d2f2 4b3c
00000330: 2dfc 6739 5fe1 c53c c97a b5bd a867 983d
00000340: e3f7 0dbe ee20 f3bd 49fd a6bd df84 c33b
00000350: f684 5e3d cb45 683a 0985 173d f1da 873d
00000360: 1fc7 bfbd 4c1d 393d 68e8 823d 5cd3 90bd
00000370: 93a5 763d f677 9f3d 7801 53bd 04fa c9bb
00000380: 7d97 413c f097 0c3e 1f59 8abd d209 a53c
00000390: b12e e43c c22b fabc f670 fc3d ba70 bc3d
000003a0: c6c1 c7bd d121 bb3d 0253 0bbd f20e ae3d
000003b0: ba36 90bd f783 61bc 39e3 9b3d 18c1 ecbc
000003c0: 3ef1 d4bc c7ce a33d aabf f63d 9d99 3f3b
000003d0: 951c ce3d d329 eabb ea84 e3bb 19d2 973d
000003e0: d0ad 04be 358d c93d e96c e6bc 3916 4fbd
000003f0: 6133 0abd 5410 74bd a9c4 bfbd 5558 17be
0.15153997 -0.010333742 -0.04088696 -0.13873021 0.02749488 -0.029987538 -0.094334126 0.054424945
0.057805955 0.007854149 -0.015209159 0.093427636 -0.10229305 -0.041212842 -0.010355353 -0.0048976447
-0.114697985 0.06627511 -0.1248619 0.108865365 -0.09506708 0.06542026 0.006604283 -0.083260715
-0.13218918 -0.12175045 0.045805804 0.053174548 -0.009464132 0.118934155 0.028934702 -0.1255696
-0.11242802 -0.043270607 0.003471797 0.12618738 0.027367301 0.03742666 -0.056968533 0.080192395
-0.13559316 0.08193695 -0.09953923 -0.031245584 -0.034728214 -0.037614714 -0.094667025 -0.020942774
0.021077601 -0.009890152 0.07590197 -0.13757218 -0.058700167 -0.14327613 -0.002127587 -0.15049504
-0.14123677 0.04595266 -0.06174379 -0.008214954 -0.08874629 -0.03733166 -0.030802162 0.084617235
-0.0649864 -0.04284384 -0.086074315 0.02699344 -0.099041454 -0.015381415 -0.033534747 -0.0043142084
0.04897068 -0.021090228 -0.05146295 -0.034024414 -0.07815995 0.09282399 -0.05876976 0.06554584
0.0046148417 0.11661716 0.07064363 -0.11088234 -0.06644099 -0.03832759 0.005711968 0.08681537
-0.033457987 -0.016143426 0.072891295 -0.08510647 -0.065006725 0.008415615 -0.059120294 0.07761203
0.0008864774 -0.015993567 0.01182384 -0.04225141 0.013243133 0.003079773 -0.07069116 -0.010935973
0.076249324 0.054354176 -0.07995993 -0.07088123 0.094034575 0.0054184073 0.12856507 -0.07690284
0.094016284 -0.05168203 0.10140648 -0.014152666 0.11423016 -0.110181026 -0.08066137 0.003118444
-0.14352462 0.09025232 -0.018172521 -0.09613524 -0.07696845 0.0103237 0.020184165 -0.048379444
0.13624059 -0.053681903 0.015324942 -0.09361252 0.007649295 -0.1054538 0.12519513 -0.09287913
0.01618226 0.067125894 0.015008741 0.10432176 -0.0042394297 -0.12029582 -0.11156578 -0.0025400957
-0.07700563 -0.011501647 0.00567262 0.036469597 -0.071690746 0.096706234 0.103479244 -0.13632633
0.05694657 0.052401606 -0.150482 0.078063324 -0.12312099 0.12498659 -0.027487535 -0.026404891
-0.106051445 -0.06727105 -0.024879484 0.13812421 0.049684 0.05619661 0.047873437 0.05041533
0.10043935 -0.020315517 -0.13076563 0.04220885 0.038596883 0.09199637 -0.06617083 -0.05580979
-0.10527189 0.11555083 0.09551456 -0.13121746 0.058291186 -0.082464114 0.012180942 0.065367095
-0.03612154 0.0043555507 -0.053543083 -0.057338897 -0.029606706 -0.09939422 -0.15624677 0.07851988
-0.077953346 -0.03563631 0.010423074 -0.13665673 -0.0059306496 0.056183934 -0.002068247 0.08071253
-0.07026262 0.087362476 0.124488756 0.01244803 0.0002212382 0.024155317 -0.0886131 0.07441646
-0.13864093 -0.11871515 -0.08153779 0.005966767 0.05432602 0.00088604976 0.036992107 0.06633557
-0.09364151 0.045193955 0.06391984 -0.070715636 0.060216498 0.077865526 -0.051515073 -0.0061638374
0.011815903 0.13729835 -0.0675528 0.020146284 0.027854295 -0.030538443 0.12326233 0.092011884
-0.09753756 0.09137309 -0.03401471 0.08498944 -0.07041688 -0.013764373 0.07611699 -0.028900668
-0.02599394 0.07998424 0.12048276 0.0029235848 0.10064045 -0.007146099 -0.006943335 0.0741312
-0.12956929 0.09841386 -0.028128104 -0.050558303 -0.033740405 -0.059585884 -0.09363682 -0.1477979

net.3.lin2.bias f4 [64]
00000000: 23f2 613d c26b 82bd b587 7e3d 1d06 853d
00000010: 1d12 81bc 2142 91bb 24e5 c3bd 0bc1 bbbc
00000020: 245c e23c da36 babd a187 fabb 3edb 91bd
00000030: cbb0 c2bd c0b1 6cbc d8ac 053e 5c12 e4bd
00000040: 4697 f33c 0ff3 7bbb 9653 2fbd c3ba 8ebd
00000050: 9fe0 0a3e 2bb5 e2bc 71b3 9a3d 3807 9abd
00000060: b336 9dbd 673c 8cbd 964a 163d 0177 a8bd
00000070: e4c4 8d3d 0c16 e1bb 00a5 4f3d 6247 173d
00000080: 3827 bbbd 8576 41bd e870 5ebd 1e68 ef3c
00000090: 308b 0d3c e9e5 d4bc 9c44 1cbd 9c21 82bc
000000a0: 4f14 f2bd 5f76 66bd fd7f a9bd 7a88 7dbd
000000b0: 4493 e4bd d82a 133d ffdd aabd ce4c 053e
000000c0: df55 453d 8837 9ebc 8a4e 71bd 6bc4 bcbd
000000d0: 92b0 113e 186e 04be 01a4 2dbd 001d e13d
000000e0: 370e b23d 8e39 073d 04d9 9dbd 519e 7dbd
000000f0: 0370 10be 5163 d7bd 4064 eebc d338 a73d
0.05516256 -0.063682094 0.06214114 0.06495307 -0.015755707 -0.004432932 -0.095651895 -0.022919198
0.027631827 -0.09092493 -0.0076455628 -0.07121895 -0.09506377 -0.014446676 0.13054216 -0.11136314
0.029735219 -0.0038444435 -0.042804323 -0.06969216 0.13562249 -0.027674278 0.07553757 -0.07520908
-0.07676449 -0.06847458 0.036692224 -0.08225823 0.069223195 -0.0068690833 0.050694466 0.03693331
-0.0913834 -0.04723217 -0.054306895 0.029224452 0.008639142 -0.025988536 -0.03815137 -0.015885167
-0.1182028 -0.05626523 -0.08276365 -0.061897732 -0.11160901 0.03592953 -0.08343124 0.1301758
0.048177596 -0.019313589 -0.05891279 -0.09217151 0.14227512 -0.12932622 -0.042392734 0.109918594
0.086941175 0.033013873 -0.07707408 -0.06191856 -0.14105229 -0.1051699 -0.029100537 0.08165135

net.4.lin1.weight f4 [64, 64]
00000000: 734a ab3d 4c96 4638 5467 11be b046 953b
00000010: de7e 5e3d 25f2 9abc 66a0 d3bd 1b6e ec3d
00000020: f332 e0bc 47b3 3a3d 0ef9 a5bd 9944 ba3d
00000030: b00a c5bd 2c74 d53c 104b b7bd f5ef 393c
00000040: 34a6 e0bd 287f 983c 9fb0 153e 207b 3bbd
00000050: f02a 5fbd c9aa 973d 09e9 97bc d939 8d3d
00000060: 3d8b fe3d e653 aebd 0f1c 4fbc 978e ccbc
00000070: 9ca3 f4bc 0bdc a73d 4f3d 0d3d d409 d93d
00000080: bb3c ee3c c40a 033d 853b b63d 9d3f d03d
00000090: 8aec b33d 12d1 cdbd 17b4 08bd 664c a639
000000a0: 0ab4 0dbd 5292 553d 3ad0 c33d 0237 f73d
000000b0: 5d15 e93d 49ed 45bd 5443 853d b45d 9abd
000000c0: 3563 05be 45a5 ce3d 8918 bcbd 647d 45bc
000000d0: 8151 e0bd 7262 05bc 6ab1 c33d d3ec a63d
000000e0: 5faa ab3d 1e40 85bd b02a 483d cbf1 babd
000000f0: 0032 c23b 3c11 34bd 6087 bb3d 21cf b6bd
00000100: c0f7 ccbd 681a 333d d7fe 0fbc d420 013e
00000110: ac3f 58bc 407a 953d 38f5 783c 4b8b 12bd
00000120: aad7 61bd 665f 203d 0bfb 5c3d 81f3 7fbd
00000130: 46fd c83d 39e6 913c 9189 0cbd 43aa d43c
00000140: 8f99 ccbd fe06 7fbc 828d e33d 4d59 2b3c
00000150: 31c1 d23d 0eaa 0ebd 9304 633d 6be4 5cbd
00000160: e98d 60bd ea63 233c f8b8 8bbc f390 623d
00000170: 8668 5ebd 7a0b debd 8d03 bfbb 2c78 87bd
00000180: 339f 1f3d 625c 0abe 75b4 2bbd 524f a03d
00000190: 174c 88bd c9ed cdbd 4882 0cbd 2fad 0dbc
000001a0: ab63 0fbe 5d99 873c 9709 d6bd 6de6 6bbd
000001b0: 16e8 963d d8e2 62ba 4134 99bd 5d94 e0bd
000001c0: d252 ee3d d2ba dfbd dfd2 97bd 2bfd fabd
000001d0: 2e77 1cbd bfa0 5b3d 45eb 8cbd 22c9 8b3b
000001e0: 2e91 98bb 0040 e33d f528 bbbd 46fe 9f3d
000001f0: 1b8b 0c3e 6c71 c6bd 3f3c 82bc e22c a4bd
00000200: b0e5 cd3d f8d8 f73c 32a2 d73d 5f2d a63d
00000210: 886d 1cbd a915 563d 0d3d 8dbb 6615 113d
00000220: 9e60 0b3c 5880 b3bc 12f6 87bd 64f6 de3d
00000230: 2c9e 0fbc d0b1 a0bd 3e0d 5d3d 077c fcbd
00000240: 237b 50bd 3691 db3d 7d48 913c 9a9a 943d
00000250: 3080 aa3d 75db 9b3c 6d19 3d3d 9102 1f3d
00000260: 063c 973d 4115 c3bd d956 e83b b7a5 51bd
00000270: a7fa e23c fb36 9bbd 19ee 0c3d bd25 cc3d
00000280: ea2d 02bc 97ca 573d 1303 c93c d5f6 bbbd
00000290: aa0e 363d 307e 8a3d 20fc 19bd 8dfa 413d
000002a0: da61 6e3c c5fa cd3d c9a9 25bb 3fcf dcbc
000002b0: 9f3e e0bd 3f6b 403c 65b9 ad3d 96f6 6ebc
000002c0: c277 cebc c553 973d 59ef a53d b3f0 b23c
000002d0: 76e6 c23d 6c75 5bbd b62a 923d d913 2f3d
000002e0: d2f3 87bd 587d d73c 4f76 1d3d 1853 8f3c
000002f0: 0a4a a83d c3a1 973c 804f 213d 4c27 78bd
00000300: fdd0 233d 47a5 c73d d40c fabd 2c32 c2bc
00000310: 665b 9b3d 826c 063d f3dd ba3d 7141 913d
00000320: 46bc a93d 8296 593d 8363 d73c ba9a db3b
00000330: b40c 7ebd 9b36 00bd 46d9 fa3d 1c11 b5bd
00000340: afaf cc3d 6b78 94ba f07e f93d 750e 033d
00000350: 372d 823c 4541 c3bd 6dc7 e2bd 05d8 9dbd
00000360: 6ae9 853d 280b 883b 44e5 e13d 965f 29bb
00000370: 7156 d6bd 907d 3cbd 424b da3d 5ae5 bc3d
00000380: d97d bd3d 64b8 50bd 7923 e0bb d124 e2bb
00000390: fbcb bb3b 2fec d2bd 829d c2bd 8a30 30bd
000003a0: a09f 8f3d 9feb 88bd 6f6c 49bd 8c98 b4bd
000003b0: d67a bd3c 7d60 ab3b f0b5 973d 37a3 7ebc
000003c0: 1447 b0bd 78d4 3b3a 4e1a 29bd da82 ee3d
000003d0: 5536 91bc 5095 a03d 6048 c53d d388 e23c
000003e0: babe e43d 0a11 2cbd dbab 66bd b0f0 683d
000003f0: 3ed5 2ebd 53d2 c9bc 20b2 aebd f1d2 8bbd
0.083638094 4.7346854e-05 -0.14199573 0.0045555457 0.05432021 -0.018914292 -0.10333328 0.115444385
-0.027368044 0.04558113 -0.08104144 0.09095115 -0.09621179 0.026056372 -0.08949864 0.011348714
-0.10969201 0.01861532 0.14618157 -0.045771718 -0.054484308 0.074056216 -0.018543737 0.06895799
0.12428901 -0.08512096 -0.012640967 -0.024970336 -0.029863171 0.08196267 0.034482297 0.10597578
0.029081693 0.03199269 0.08898071 0.10168383 0.087853506 -0.100496426 -0.033374872 0.0003171891
-0.034595527 0.052141495 0.095612004 0.12071039 0.11381028 -0.048321996 0.065069824 -0.07537404
-0.13026126 0.100901164 -0.09184367 -0.012053821 -0.10953046 -0.008141147 0.095553234 0.081506394
0.08382105 -0.0650637 0.048868835 -0.091281496 0.0059263706 -0.04396175 0.0915668 -0.089262255
-0.10008192 0.043726355 -0.008788786 0.12610179 -0.013198774 0.07298708 0.015195183 -0.03577737
-0.055137314 0.03915348 0.05395035 -0.062488083 0.09813933 0.017809974 -0.03431088 0.025960093
-0.099902265 -0.015565632 0.11110975 0.010458303 0.102907546 -0.034830146 0.055424284 -0.053928774
-0.054822836 0.009972552 -0.017055973 0.055314016 -0.0542989 -0.10842033 -0.0058292807 -0.06614718
0.038970184 -0.13511804 -0.041920144 0.07827629 -0.06655138 -0.100551195 -0.034303933 -0.008647247
-0.14002864 0.016552621 -0.10451048 -0.057592798 0.07368486 -0.0008655018 -0.0748067 -0.10965798
0.116368905 -0.10924305 -0.07413267 -0.12255319 -0.038199596 0.053620096 -0.068808116 0.0042659203
-0.0046559786 0.110961914 -0.09138671 0.07812171 0.1372494 -0.09689602 -0.015897868 -0.08016373
0.10053575 0.030254826 0.10528983 0.081141226 -0.038190395 0.05226675 -0.0043102563 0.035420798
0.008506922 -0.021911785 -0.06638731 0.10886839 -0.008765738 -0.07846415 0.053967707 -0.12328344
-0.050898682 0.10721056 0.01773476 0.072560504 0.08325231 0.019025544 0.046166826 0.038820807
0.073844954 -0.09525538 0.007090431 -0.05118343 0.027707411 -0.07578846 0.034406755 0.099681355
-0.007945517 0.05268344 0.024537599 -0.09177939 0.04444758 0.067623496 -0.03759396 0.047358084
0.014549697 0.10057596 -0.0025278202 -0.026954291 -0.10949444 0.011744319 0.08482627 -0.014585158
-0.02520359 0.07389025 0.081022926 0.02184329 0.09516613 -0.05357878 0.07137053 0.042743538
-0.06638302 0.026304886 0.038442906 0.017495677 0.08217247 0.018509751 0.039382458 -0.06058435
0.03999423 0.09748321 -0.12209478 -0.023705564 0.07585792 0.032818325 0.09124365 0.0709256
0.082878634 0.05312205 0.026292568 0.0067017945 -0.062023833 -0.031302076 0.12248473 -0.08841154
0.099944465 -0.0011327391 0.121824145 0.03199621 0.0158907 -0.095339336 -0.11073194 -0.07707218
0.06538661 0.0041517206 0.11030057 -0.0025844327 -0.10465706 -0.046018183 0.106588855 0.09223433
0.09252519 -0.0509571 -0.006840166 -0.0069013615 0.0057311035 -0.10298955 -0.095026985 -0.04301504
0.07012868 -0.06685566 -0.049175676 -0.088181585 0.023129862 0.005230008 0.07407749 -0.015541843
-0.08607307 0.0007165144 -0.04128485 0.11646052 -0.017726103 0.07840979 0.09632945 0.027653133
0.11169191 -0.042008437 -0.056316238 0.056870162 -0.042683832 -0.024636423 -0.085300684 -0.06827343

net.4.lin1.bias f4 [64]
00000000: 0572 45bb a4ca d23d 0e14 61bd 0949 83bd
00000010: 6f45 16bb 76b2 b83d 9c4c b9bc 750b 32bd
00000020: 7071 a6bd 3b39 49bd 08cf 1bbe 0d2e 003e
00000030: 2553 a53d 9712 cdbd 03fc bcbd 126d d1bd
00000040: 462a 02be acd5 d6bd 5a6b 883d f715 c73d
00000050: da01 ef3a 8632 fb3d 9283 8c3d 30fb d0bd
00000060: c4ca 59bd 23cc 3e3d a519 6d3d 4284 1a3d
00000070: 379b 1abe 4513 1a3d 0f81 1cbd 7f03 1abd
00000080: 2171 eebd b179 e23c d175 17bd 981f 553d
00000090: 537e b4bd 4411 503d 29ce 6d3d 7cfa 2fbc
000000a0: 1849 08bc 7189 a33d 11cf 853c ecab e9bd
000000b0: 83e3 9b3d f365 883d b28d 573d 736f 00be
000000c0: ce89 003d aeec 91bd fac7 90bd ca7c 0a3d
000000d0: ae8e c33d f2bf 8e3d ae99 ec3d eceb 013e
000000e0: 1dd2 8d3d 43c1 ba3d b923 e2bd 3fe8 f1bc
000000f0: 6226 a13d b636 6f3d 6977 933d 1526 f0bd
-0.0030127775 0.10292557 -0.054950766 -0.06410415 -0.002292957 0.09018414 -0.022619538 -0.043467958
-0.08127105 -0.049126845 -0.15215695 0.12517567 0.08072499 -0.10013311 -0.09227755 -0.10225882
-0.12711439 -0.104899734 0.06661101 0.09720986 0.0018234805 0.12265496 0.068610325 -0.1020416
-0.053171888 0.0465814 0.057885785 0.037723787 -0.15098272 0.037616033 -0.038209017 -0.03760099
-0.116426714 0.027645918 -0.036977593 0.052032083 -0.08813157 0.050797716 0.058057938 -0.0107408725
-0.008318208 0.07985199 0.016334089 -0.114097446 0.07611754 0.0666007 0.052625366 -0.12542515
0.03138142 -0.07125221 -0.070693925 0.033810414 0.09548698 0.069702044 0.115527496 0.12687653
0.069248416 0.09118893 -0.1104197 -0.029529689 0.07868649 0.058401786 0.0720051 -0.117260136
