data/trained_models/base_cp_c_resnet.pth (torch, 107162 bytes, 15 tensors)

net.0.weight f4 [64, 4]
-0.14724347 -0.018559312 0.15991911 -0.2195219 0.41812184 -0.06354648 -0.14691773 -0.22490382
0.054974943 0.3046763 -0.31536955 0.1104534 0.26080754 0.40483585 -0.39029673 -0.049590405
0.44217008 -0.4540717 0.30546725 -0.4568294 -0.013083226 -0.16285665 0.12235145 0.062176008
-0.20642862 -0.46986553 0.2682862 0.20587575 0.1484911 0.42764157 0.10163817 0.16558027
0.18173146 0.13665408 -0.32796907 -0.0036546607 0.3335374 -0.012541902 0.036525954 0.14235643
0.25317487 0.13091558 0.34670848 -0.025597926 0.38623434 0.33687901 -0.3672225 0.44620898
0.452657 -0.24985752 -0.45090607 -0.34919745 0.14203653 0.037847705 -0.26510417 -0.36038655
0.23880237 0.19125184 0.43276113 -0.27421495 0.4872915 0.25770462 -0.4549301 -0.22133914
-0.04494151 0.2402964 -0.2553073 0.3457933 0.39730346 -0.21840273 -0.43370587 -0.07891934
-0.08895144 0.4498196 0.3844646 0.31518942 -0.014414735 -0.34163928 0.385419 -0.017936159
-0.14680338 -0.47889656 -0.44303408 0.4273002 0.21435127 -0.46467987 0.083082214 -0.1021845
0.35252354 0.025787178 0.024775794 -0.10758635 0.131021 0.026979495 0.23409116 -0.43724918
0.16225564 -0.37243044 0.11555309 0.0025294456 -0.4398484 -0.4616818 0.27167815 -0.005010231
-0.4846677 -0.4100934 0.49911466 -0.12514651 0.27970627 -0.11888308 0.51592547 -0.2687608
-0.027658412 0.09209405 -0.3049439 -0.40067518 -0.46416876 0.09743435 0.031499922 0.5327659
-0.41000068 0.114014156 -0.3421002 -0.5353719 0.03881586 0.3105622 -0.1629664 0.42372194
0.056821242 0.41752413 -0.0063656894 0.48470363 -0.33468622 0.3323313 -0.3689621 -0.39150888
-0.24501467 -0.023605578 -0.0030524437 0.487098 0.13621624 -0.31597236 0.19220003 0.13328168
0.07046733 -0.094244674 0.41983333 -0.09733454 0.412109 0.34319484 -0.37338597 0.39938402
-0.382091 -0.013396421 0.23458828 -0.3420922 -0.46254057 -0.14311892 0.25675842 0.44177598
0.10256088 0.06973149 -0.31463388 -0.20068432 0.34621137 -0.35128713 0.31620765 0.3321954
-0.26814932 -0.4712833 0.33472705 0.4082778 -0.49260727 -0.27700695 0.085818954 -0.20093848
0.27537593 0.09251591 0.4301037 0.41915873 -0.15012665 -0.50610614 -0.43746325 0.25890076
0.102282144 -0.47643435 -0.33471715 -0.121986665 0.38443825 0.18052396 0.04544694 0.36687836
0.06800595 0.0870276 0.4903297 0.26334545 -0.1486669 0.009114669 -0.4827784 0.39316595
0.27521238 -0.41148052 -0.07512719 0.24172169 -0.28955474 0.2645477 -0.33835343 -0.35226214
0.32757103 0.3648646 -0.3475232 0.31451097 -0.4845631 0.24750032 -0.38047716 0.43782237
0.12896223 0.14411871 0.05216052 0.0742713 -0.42438668 0.37847817 -0.45305765 -0.26880598
-0.3107371 -0.27389786 -0.08250491 -0.11443415 -0.033150688 -0.43062153 0.23026714 0.3749806
-0.074725814 0.050046977 0.47754925 0.24767278 -0.20423263 -0.16400148 0.1865351 -0.4256644
-0.36875582 0.2642802 0.48892537 0.0712965 -0.37000898 0.45363083 -0.35356542 0.12411642
0.12674241 0.3293925 -0.46986288 0.31436524 0.17399684 -0.22563724 0.11447686 0.13352652
00000000: fec6 16be b309 98bc d6c1 233e 59ca 60be
00000010: 1114 d63e a824 82bd 9a71 16be 304d 66be
00000020: 682d 613d 88fe 9b3e 1e78 a1be 6435 e23d
00000030: 9188 853e a546 cf3e f9d4 c7be 4f1f 4bbd
00000040: 1e64 e23e 167c e8be 3466 9c3e 8be5 e9be
00000050: 075b 56bc e5c3 26be 6693 fa3d 45ac 7e3d
00000060: 0662 53be 3792 f0be cf5c 893e 18d1 523e
00000070: 0d0e 183e d6f3 da3e ac27 d03d e08d 293e
00000080: d017 3a3e 0cef 0b3e 90eb a7be 0883 6fbb
00000090: 6ac5 aa3e 8d7c 4dbc 3d9c 153d e2c5 113e
000000a0: 23a0 813e bc0e 063e c683 b13e beb2 d1bc
000000b0: 82c0 c53e 687b ac3e 9604 bcbe 8175 e43e
000000c0: a9c2 e73e a6da 7fbe 29dd e6be 02ca b2be
000000d0: 0672 113e 3206 1b3d bcbb 87be 9684 b8be
000000e0: 9c88 743e 86d7 433e de92 dd3e e765 8cbe
000000f0: 467e f93e dcf1 833e 99ec e8be baa6 62be
00000100: 9714 38bd 4210 763e a3b7 82be d20b b13e
00000110: 5c6b cb3e f7a4 5fbe b20e debe 77a0 a1bd
00000120: 2c2c b6bd c14e e63e 8bd8 c43e 8260 a13e
00000130: c82b 6cbc 58eb aebe a455 c53e daee 92bc
00000140: a053 16be ee31 f5be 5dd5 e2be 18c7 da3e
00000150: e67e 5b3e 85ea edbe 0227 aa3d 1b46 d1bd
00000160: f77d b43e a23f d33c 9bf6 ca3c 3b56 dcbd
00000170: 5e2a 063e 1a04 dd3c 98b5 6f3e 20df dfbe
00000180: 5826 263e 34af bebe 19a7 ec3d 0ec5 253b
00000190: cf33 e1be 8f61 ecbe 6619 8b3e dd2c a4bb
000001a0: 5d26 f8be c3f7 d1be f58b ff3e 6826 00be
000001b0: a935 8f3e f978 f3bd b113 043f 049b 89be
000001c0: e593 e2bc ce9b bc3d 9b21 9cbe 4c25 cdbe
000001d0: 87a7 edbe a98b c73d 1006 013d 5963 083f
000001e0: 9ceb d1be 4180 e93d c227 afbe 220e 09bf
000001f0: 61fd 1e3d 0202 9f3e aae0 26be 15f2 d83e
00000200: 64bd 683d b9c5 d53e 4697 d0bb 132b f83e
00000210: fe5b abbe 5427 aa3e 9ae8 bcbe da73 c8be
00000220: 20e5 7abe 7c60 c1bc 820b 48bb e964 f93e
00000230: 457c 0b3e 21c7 a1be 16d0 443e fe7a 083e
00000240: 2d51 903d 5a03 c1bd 65f4 d63e 5557 c7bd
00000250: f3ff d23e 3cb7 af3e 722c bfbe 107c cc3e
00000260: 6ea1 c3be aa7c 5bbc e937 703e b526 afbe
00000270: 1ed2 ecbe c48d 12be d775 833e 7630 e23e
00000280: 700b d23d 62cf 8e3d b117 a1be 3180 4dbe
00000290: 9e42 b13e e8db b3be f8e5 a13e 8415 aa3e
000002a0: de4a 89be 0b4c f1be 5861 ab3e ca09 d13e
000002b0: 0537 fcbe dbd3 8dbe d9c1 af3d d1c2 4dbe
000002c0: 13fe 8c3e fb78 bd3d 8d36 dc3e f99b d63e
000002d0: cdba 19be 2c90 01bf 2ffb dfbe a48e 843e
000002e0: 4d79 d13d 34ef f3be 0c60 abbe 25d4 f9bd
000002f0: 17d5 c43e 46db 383e 9226 3a3d 7bd7 bb3e
00000300: b446 8b3d 873b b23d 7f0c fb3e 37d5 863e
00000310: 233c 18be b155 153c bb2e f7be 0c4d c93e
00000320: a3e8 8c3e 93ad d2be 49dc 99bd e485 773e
00000330: 8540 94be cc72 873e a93c adbe b45b b4be
00000340: 64b7 a73e 88cf ba3e 90ee b1be 9507 a13e
00000350: a818 f8be b970 7d3e e7cd c2be 412a e03e
00000360: ad0e 043e db93 133e 45a6 553d 8d1b 983d
00000370: 3649 d9be e4c7 c13e 2cf7 e7be f0a0 89be
00000380: ef18 9fbe 573c 8cbe 56f8 a8bd 745c eabd
00000390: 04c9 07bd 6d7a dcbe 26cb 6b3e 75fd bf3e
000003a0: d909 99bd 0ffe 4c3d 5681 f43e ef9d 7d3e
000003b0: 5c22 51be 01f0 27be 0f03 3f3e aff0 d9be
000003c0: 90cd bcbe bc4f 873e 6d54 fa3e e603 923d
000003d0: d171 bdbe 4d42 e83e 8706 b5be c030 fe3d
000003e0: c3c8 013e 22a6 a83e de91 f0be 7bf4 a03e
000003f0: 3a2c 323e 730d 67be d872 ea3d 2dbb 083e

net.0.bias f4 [64]
-0.067453824 -0.036881402 0.23163442 0.44779283 -0.38851887 0.2780126 -0.015910028 0.09321014
-0.26892522 0.012460545 0.51483536 0.3570261 -0.28489503 0.38467586 -0.37062496 -0.35194975
0.07930158 -0.23164968 -0.035385136 -0.017976984 0.32028008 -0.26237047 0.062041443 0.26267388
0.23149167 0.23556817 -0.13046618 0.2559469 -0.19594415 0.19142155 -0.41535458 0.4208802
-0.31353375 -0.22093333 0.27036333 0.066130385 -0.30303934 0.1509498 0.42227888 0.2016015
-0.03943613 0.055117067 0.48718658 -0.17828682 0.14294839 -0.30574605 -0.14232807 -0.3290477
-0.38228098 -0.1507688 0.4709143 0.42390934 0.5211444 0.23118019 -0.36061135 0.26663458
0.41137326 0.14817148 0.0017039503 -0.19546306 0.014047535 -0.37771356 -0.009129722 0.21631527
00000000: 3b25 8abd f410 17bd 9331 6d3e 1a45 e53e
00000010: f2eb c6be ab57 8e3e bf55 82bc f5e4 be3d
00000020: 91b0 89be 5027 4c3c 40cc 033f 20cc b63e
00000030: c3dd 91be 3cf4 c43e 8ec2 bdbe c232 b4be
00000040: de68 a23d 9335 6dbe 01f0 10bd 7844 93bc
00000050: c0fb a33e 6c55 86be 2b1f 7e3d 317d 863e
00000060: 270c 6d3e c838 713e ed98 05be 790b 833e
00000070: 95a5 48be 0304 443e 5ba9 d4be 9c7d d73e
00000080: 7f87 a0be 593c 62be 106d 8a3e 5e6f 873d
00000090: f927 9bbe 9692 1a3e f034 d83e a070 4e3e
000000a0: c887 21bd 6fc2 613d 8570 f93e d290 36be
000000b0: 1061 123e bf8a 9cbe 73be 11be f178 a8be
000000c0: 55ba c3be 2363 1abe ae1b f13e a50a d93e
000000d0: b869 053f 80ba 6c3e 0da2 b8be 5484 883e
000000e0: 849f d23e 44ba 173e 1657 df3a 7827 48be
000000f0: a227 663c ac63 c1be d494 15bc c081 5d3e

net.2.lin1.weight f4 [64, 64]
-0.012613313 -0.016757106 -0.0723772 -0.05242739 -0.052817788 -0.059932847 0.08691787 0.07814168
-0.09985996 -0.036131542 -0.026210219 0.014093338 -0.036502574 0.06943051 0.024543675 -0.00012974674
-0.014265871 0.080190726 0.00023098796 0.06219322 -0.024519708 0.09764445 0.009848019 0.061945513
-0.07840911 0.011246223 0.031446286 0.06961412 0.038084395 -0.117515385 0.044579897 -0.027469948
-0.0752601 0.090502955 -0.00033256732 0.047913164 -0.03398604 0.071429886 -0.055734325 -0.026230669
0.0056326864 0.021215769 -0.0045774393 -0.0058260225 0.016457362 0.049207818 0.033545412 -0.019318555
0.00042114232 -0.114957266 0.12826304 0.06287124 0.06182452 0.024312643 0.011428867 -0.015918767
-0.09470962 -0.07407271 0.039534602 -0.007965322 -0.07837837 -0.05040209 0.0947166 0.11186925
-0.06270013 -0.073276184 0.010608816 0.0039917645 0.0862043 0.03535293 -0.09913492 0.037141044
-0.012002339 -0.0700476 0.12634261 0.051580895 0.10635305 0.022833673 0.09652284 -0.01239384
0.08354401 0.10806967 0.027815796 -0.0058539533 0.10090294 -0.016933188 0.013255491 -0.008102848
0.100135796 -0.06324657 -0.03541924 0.041860987 0.033126913 -0.06303142 -0.09312199 -0.09611778
-0.07491323 0.04337815 0.04020279 -0.043573197 0.11177702 -0.092352554 0.06870935 0.12910953
0.057015054 0.075565055 -0.056476846 0.020773146 0.017355813 -0.07891932 0.111797504 -0.07018021
-0.07767298 0.09538987 0.017726313 -0.0018288876 0.105867684 -0.08887703 -0.01951797 -0.09879337
0.058050316 0.117941596 0.11138795 0.009998637 0.088340834 0.018946046 0.06521601 0.09445367
0.009263171 0.15926592 -0.05201437 -0.0933642 -0.0099171465 0.033753898 -0.13076006 0.07807392
-0.006003674 -0.09041267 -0.12744538 0.0128462585 -0.07716897 0.09331245 0.104090355 0.033470936
0.057063345 -0.15626699 0.022117231 0.030868357 -0.008805668 0.036543954 -0.05534151 0.03948123
-0.12586114 -0.12576835 -0.06943206 0.060579356 -0.0020023636 0.005787871 -0.076892145 0.0325926
-0.07297035 0.1604464 -0.035525844 -0.07744422 0.059980866 0.031958632 -0.008866294 -0.09765279
0.10544357 -0.12801331 -0.08764848 -0.079567865 -0.021305375 -0.06395403 -0.122138135 -0.07604102
-0.1535362 -0.036724478 -0.03401598 -0.0010959342 -0.059504654 -0.1051695 0.06564208 0.11446526
-0.14535695 0.034792155 -0.14686358 -0.045441918 0.16140193 0.09118251 -0.08968504 -0.1557169
-0.13824667 -0.11635774 0.054383546 0.13566102 0.026385905 -0.037524667 -0.037363384 0.038210355
-0.10536379 0.08792846 -0.08609723 -0.08108652 0.040022995 -0.02795443 0.03072802 0.0020243572
0.056703635 0.08106296 -0.04852278 0.04973295 0.07543786 -0.01805323 -0.13255101 0.024995087
0.045317095 0.1352876 0.08250581 0.046176925 -0.03067848 -0.08305924 -0.009619093 0.106567234
0.045014527 0.058521178 0.12107024 -0.07436967 -0.04765139 0.13800462 -0.08332435 -0.009042105
-0.054631315 0.04592128 -0.05376032 0.020051299 0.12660581 -0.085059874 0.021437872 0.14450404
-0.059059992 0.022002254 -0.08908566 0.093614355 -0.08012761 -0.07247005 0.075986974 0.004671366
-0.0073034135 0.09757361 0.0872032 -0.14238913 -0.11180923 0.02672688 0.09802725 0.112818
00000000: 12a8 4ebc 3346 89bc 7f3a 94bd 1abe 56bd
00000010: 7757 58bd 257c 75bd ff01 b23d bf08 a03d
00000020: 6183 ccbd abfe 13bd d0b6 d6bc bee7 663c
00000030: b983 15bd 9531 8e3d d10f c93c a00c 08b9
00000040: 66bb 69bc 093b a43d 5c35 7239 51be 7e3d
00000050: 8edd c8bc d0f9 c73d 9659 213c 94ba 7d3d
00000060: f594 a0bd 1442 383c d2cd 003d d991 8e3d
00000070: 62fe 1b3d e8ab f0bd 6999 363d a808 e1bc
00000080: f821 9abd 9d59 b93d 6e5c aeb9 9840 443d
00000090: f234 0bbd d549 923d ad49 64bd b3e1 d6bc
000000a0: 6692 b83b b1cc ad3c 58fe 95bb 38e8 bebb
000000b0: 97d1 863c 238e 493d ea66 093d f241 9ebc
000000c0: c4cc dc39 b76e ebbd 6357 033e a3c2 803d
000000d0: b53b 7d3d 4f2b c73c 2440 3b3c 1368 82bc
000000e0: 1ef7 c1bd 6fb3 97bd 09ef 213d fb80 02bc
000000f0: d784 a0bd 6c72 4ebd c7fa c13d b51b e53d
00000100: ed68 80bd d311 96bd 99d0 2d3c 59cd 823b
00000110: e18b b03d 3cce 103d 4007 cbbd 3521 183d
00000120: 75a5 44bc 1e75 8fbd f55f 013e 7d46 533d
00000130: a1cf d93d af0d bb3c c4ad c53d 880f 4bbc
00000140: 1f19 ab3d a253 dd3d f4dd e33c 85d2 bfbb
00000150: 33a6 ce3d 78b7 8abc 8f2d 593c cfc1 04bc
00000160: ff13 cd3d 6b87 81bd c413 11bd 6d76 2b3d
00000170: 16b0 073d 9e16 81bd beb6 bebd 66d9 c4bd
00000180: 1c6c 99bd 49ad 313d aeab 243d cf79 32bd
00000190: 5aeb e43d 5623 bdbd 7db7 8c3d 4a35 043e
000001a0: 9e88 693d dac1 9a3d 4454 67bd 722c aa3c
000001b0: c72d 8e3c 74a0 a1bd 17f6 e43d a4ba 8fbd
000001c0: 0313 9fbd c45b c33d c636 913c 49b7 efba
000001d0: 28d1 d83d 2905 b6bd 26e4 9fbc 2e54 cabd
000001e0: 2bc6 6d3d 5d8b f13d 5e1f e43d 53d1 233c
000001f0: 0aec b43d bd34 9b3c f98f 853d ed70 c13d
00000200: 8ec4 173c 9b16 233e 050d 55bd bb35 bfbd
00000210: 877b 22bc 8741 0a3d f7e5 05be 38e5 9f3d
00000220: 78ba c4bb 472a b9bd 0b81 02be 1d79 523c
00000230: c40a 9ebd 991a bf3d 532d d53d d218 093d
00000240: 41bb 693d 7404 20be 322f b53c a3df fc3c
00000250: a645 10bc 1daf 153d c7ad 62bd 12b7 213d
00000260: bee1 00be 6bc9 00be 6532 8ebd 0f22 783d
00000270: 163a 03bb 2ea8 bd3b a179 9dbd d17f 053d
00000280: 7b71 95bd 104c 243e 8c83 11bd 139b 9ebd
00000290: 7fae 753d 0ee7 023d ef43 11bc 30fe c7bd
000002a0: ccf2 d73d ec15 03be 0c81 b3bd 7af4 a2bd
000002b0: 9c88 aebc 55fa 82bd 8f23 fabd 65bb 9bbd
000002c0: 9838 1dbe 686c 16bd 5754 0bbd 73a5 8fba
000002d0: 27bb 73bd 1b63 d7bd 5b6f 863d c36c ea3d
000002e0: 74d8 14be 3882 0e3d 6863 16be 4e21 3abd
000002f0: 8c46 253e e5bd ba3d caac b7bd 4074 1fbe
00000300: 8990 0dbe f74c eebd 48c1 5e3d b9ea 0a3e
00000310: 4127 d83c 77b3 19bd 590a 19bd 7682 1c3d
00000320: f9c8 d7bd d613 b43d bf53 b0bd b010 a6bd
00000330: 27ef 233d b000 e5bc 54b9 fb3c 14ab 043b
00000340: 1242 683d 5604 a63d d3bf 46bd c7b4 4b3d
00000350: 2a7f 9a3d 5ee4 93bc 74bb 07be 7fc2 cc3c
00000360: 6b9e 393d d588 0a3e cef8 a83d 0424 3d3d
00000370: 7051 fbbc f61a aabd 6699 1dbc ec3f da3d
00000380: 2761 383d e7b3 6f3d adf3 f73d 204f 98bd
00000390: 1b2e 43bd 1551 0d3e f5a5 aabd 5625 14bc
000003a0: 16c5 5fbd f417 3c3d c833 5cbd 9f42 a43c
000003b0: f4a4 013e df33 aebd 7a9e af3c def8 133e
000003c0: e4e8 71bd 123e b43c 8b72 b6bd e2b8 bf3d
000003d0: f219 a4bd 2d6b 94bd 0f9f 9b3d 4212 993b
000003e0: 7951 efbb acd4 c73d 9797 b23d 75ce 11be
000003f0: 3dfc e4bd 54f2 da3c 83c2 c83d 200d e73d

net.2.lin1.bias f4 [64]
0.1119217 0.119423784 -0.06457054 -0.05296867 0.10716074 0.057513688 0.027985983 -0.090612836
0.017518349 0.14811763 -0.045337155 -0.06667831 -0.12392195 -0.0010389232 -0.06870238 0.012165006
-0.08000304 -0.07585402 -0.13504906 -0.012341811 0.058633678 0.063736096 0.02464921 0.07826664
-0.0032017648 -0.0030775934 -0.021451758 0.0021316006 -0.012908854 -0.070729114 0.05287319 0.05316601
0.010555102 0.004828229 0.121275544 0.043215234 0.055808492 -0.08836041 -0.04172539 0.014133835
-0.1034963 -0.08878373 -0.10028425 0.002756061 -0.028920278 0.036528032 0.0070675584 0.036914587
0.038605522 0.065818675 -0.07225842 -0.1516015 0.049561683 -0.0472405 -0.033763584 -0.07050492
0.0768585 0.041724794 -0.090466835 -0.14677805 -0.08884647 -0.081801586 -0.11754227 -0.006612341
00000000: 3437 e53d 7594 f43d 8f3d 84bd adf5 58bd
00000010: 1777 db3d 7993 6b3d dc42 e53c 3993 b9bd
00000020: a482 8f3c 26ac 173e 74b3 39bd a38e 88bd
00000030: cbca fdbd 7a2c 88ba d5b3 8cbd bc4f 473c
00000040: a2d8 a3bd 5a59 9bbd 4d4a 0abe 4f35 4abc
00000050: de29 703d 1288 823d 24ed c93c 434a a03d
00000060: b3d4 51bb 73b1 49bb 99bb afbc 53b2 0b3b
00000070: a87f 53bc 6dda 90bd 8f91 583d 9ac4 593d
00000080: 4eef 2c3c 1f36 9e3b 505f f83d 7502 313d
00000090: 7297 643d 4df6 b4bd 3ee8 2abd 9a91 673c
000000a0: def5 d3bd 3fd4 b5bd d461 cdbd 089f 343b
000000b0: 38ea ecbc 6b9e 153d fa96 e73b c033 173d
000000c0: d320 1e3d f1cb 863d 39fc 93bd 6c3d 1bbe
000000d0: 3101 4b3d 417f 41bd af4b 0abd e264 90bd
000000e0: fd67 9d3d 9ee7 2a3d ad46 b9bd fc4c 16be
000000f0: 23f5 b5bd 9787 a7bd 00ba f0bd 56ac d8bb

net.2.lin2.weight f4 [64, 64]
-0.045122426 0.033520836 -0.07393557 0.060699686 -0.04357716 -0.041076176 0.09015068 -0.056508005
0.15670156 0.0892616 -0.00084077485 0.14211285 -0.09372138 -0.014471874 -0.054693896 -0.03151759
0.048875757 0.059677538 0.055181213 -0.047415443 -0.046115648 -0.08591585 -0.029166684 0.0016281835
-0.04671422 -0.004437727 -0.0918725 0.021320503 0.10274948 -0.003118045 0.069881946 0.040180534
0.018641893 -0.012115914 0.046784986 -0.062303018 0.03729749 0.086453624 -0.11192742 -0.046975613
0.05364375 0.03530641 0.06327246 -0.07390036 -0.09036404 0.08203635 -0.08854629 0.027802242
0.1191506 0.01621469 -0.01166577 -0.027439613 0.04941039 0.020511972 0.07047972 0.055932246
0.071479894 0.033992887 0.09247957 -0.08470979 0.09184258 -0.008958164 0.09099946 -0.018048566
0.0285157 0.024061812 0.0035476862 0.06204122 0.1397063 -0.14745927 0.06938481 -0.08034301
0.04299069 -0.01242258 0.14968759 0.14204723 -0.101906925 0.0578077 -0.09579094 0.091946945
-0.057286084 -0.06841835 0.03856985 0.14937799 0.0054786103 0.09224732 -0.06123851 0.067466386
0.04707443 -0.06348216 -0.1174802 0.0732914 0.06547454 -0.09755052 0.013514225 0.13590677
0.0868024 -0.0630612 -0.011412449 0.068918794 -0.020476617 -0.13148074 -0.060246952 0.03838825
-0.0016808354 -0.04943719 -0.13383053 -0.09675751 -0.07832371 -0.046027415 0.008167591 0.06064609
0.10054057 0.03236436 -0.06647188 0.038314283 0.07958248 -0.16670148 -0.16893122 0.13065687
0.07407037 -0.1491056 -0.13755843 0.062024295 0.055222645 0.058731593 0.046942037 0.021237371
-0.064693466 0.09672752 -0.05358717 -0.0012211674 0.100587614 -0.010741649 -0.06038546 0.045208875
-0.08166552 -0.1455399 0.04659365 0.04302684 0.021722125 0.047372445 -0.06468646 -0.0058761877
0.041997332 -0.11617692 0.13619664 0.080743045 0.0010123309 -0.042252153 -0.012017722 0.10116995
0.10499795 0.03621598 -0.010845572 -0.020625737 0.07762368 0.041585356 0.13625617 -0.042447474
0.0021625445 -0.096807666 -0.083575256 -0.046124626 -0.002517656 0.09693441 0.1002864 -0.052210633
-0.10522943 0.102927625 -0.08321295 -0.019965095 -0.14661773 -0.12167493 -0.07558261 0.08540414
-0.030140836 0.09592998 -0.13888733 -0.07922991 0.13036248 -0.006563735 0.086904824 0.015160992
-0.026643664 -0.04164633 0.10806906 0.11282737 -0.058464386 -0.074212335 -0.03478962 0.00835201
-0.095464565 0.071774304 -0.04278872 0.09627594 0.040630132 -0.121069096 -0.067485176 0.057834577
-0.00736821 -0.07252746 -0.041275583 -0.0882828 -0.025784895 0.02674728 -0.1273465 -0.011088853
0.043554455 -0.02642759 0.07579063 0.04046467 -0.10298659 -0.05397556 -0.03968237 -0.095115304
-0.1153373 -0.06277779 -0.023654241 -0.09165818 0.011201939 0.003111992 0.020134658 0.097522676
0.098478235 0.036942985 0.009349398 -0.0030396136 0.029353647 0.058160692 -0.045721963 0.031148797
-0.01933114 0.053818572 0.0069295093 0.118097216 0.085172854 -0.07958604 0.007165143 -0.05454939
0.09139854 -0.019337263 -0.030532729 0.027662681 0.07402731 0.046587955 -0.11844536 0.069863215
0.14355965 0.027461935 0.019918153 0.023049112 0.080223255 -0.10691904 0.025287323 0.12774783
00000000: 4bd2 38bd 254d 093d 886b 97bd 3ca0 783d
00000010: f77d 32bd 7e3f 28bd eba0 b83d f074 67bd
00000020: 6076 203e c9ce b63d 7267 5cba 0886 113e
00000030: fff0 bfbd 701b 6dbc b506 60bd 9718 01bd
00000040: f231 483d 6f70 743d b205 623d b236 42bd
00000050: c3e3 3cbd a6f4 afbd f8ee eebc c668 d53a
00000060: 6957 3fbd 5a6a 91bb a627 bcbd 56a8 ae3c
00000070: 526e d23d 1d58 4cbb 441e 8f3d 5894 243d
00000080: e2b6 983c d481 46bc 9da1 3f3d 7331 7fbd
00000090: 41c5 183d 990e b13d 343a e5bd 8069 40bd
000000a0: 8cb9 5b3d 749d 103d fe94 813d 1259 97bd
000000b0: c810 b9bd ad02 a83d c257 b5bd 87c1 e33c
000000c0: 3b05 f43d abd4 843c c921 3fbc 0ac9 e0bc
000000d0: 8d62 4a3d b908 a83c ac57 903d 3619 653d
000000e0: 0d64 923d 203c 0b3d ee65 bd3d 547c adbd
000000f0: f617 bc3d 43c5 12bc ed5d ba3d 96da 93bc
00000100: c299 e93c 471d c53c 4c80 683b ef1e 7e3d
00000110: 2b0f 0f3e 90ff 16be a019 8e3d e08a a4bd
00000120: 0117 303d 1488 4bbc b447 193e d474 113e
00000130: 94b4 d0bd c4c7 6c3d 0a2e c4bd ae4e bc3d
00000140: d0a4 6abd eb1e 8cbd 6bfb 1d3d 8bf6 183e
00000150: ea85 b33b 2aec bc3d 3bd5 7abd d12b 8a3d
00000160: 1ed1 403d ef02 82bd 7699 f0bd cd19 963d
00000170: 8417 863d 91c8 c7bd c56a 5d3c 252b 0b3e
00000180: 75c5 b13d 3b26 81bd 48fb 3abc 4c25 8d3d
00000190: 94be a7bc e3a2 06be 82c5 76bd ff3c 1d3d
000001a0: 7a4f dcba a77e 4abd df0a 09be cd28 c6bd
000001b0: 2e68 a0bd 3e87 3cbd 5cd1 053c 0968 783d
000001c0: 37e8 cd3d 7e90 043d 6922 88bd 70ef 1c3d
000001d0: 24fc a23d cbb3 2abe 4efc 2cbe eaca 053e
000001e0: 35b2 973d 23af 18be 1edc 0cbe 300d 7e3d
000001f0: 2431 623d 8a90 703d 4b46 403d fff9 ad3c
00000200: 027e 84bd 1419 c63d 387e 5bbd 940f a0ba
00000210: e100 ce3d befd 2fbc be56 77bd f12c 393d
00000220: 4140 a7bd 6908 15be fcd8 3e3d e93c 303d
00000230: 99f2 b13c 9c09 423d 567a 84bd 098d c0bb
00000240: 6505 2c3d 2aee edbd 2277 0b3e 9c5c a53d
00000250: 30b0 843a 9810 2dbd fbe5 44bc 3132 cf3d
00000260: 2a09 d73d 3557 143d a0b1 31bc 4ef7 a8bc
00000270: 2af9 9e3d 6855 2a3d bd86 0b3e 67dd 2dbd
00000280: 7ab9 0d3b 1943 c6bd 8129 abbd 2ded 3cbd
00000290: 42ff 24bb 8c85 c63d f562 cd3d d1da 55bd
000002a0: 8782 d7bd b8cb d23d 8d6b aabd d78d a3bc
000002b0: f522 16be b530 f9bd 0ecb 9abd 5ee8 ae3d
000002c0: eae9 f6bc f076 c43d 7b38 0ebe 4b43 a2bd
000002d0: be7d 053e 9a14 d7bb 28fb b13d cf65 783c
000002e0: d043 dabc 5895 2abd 5053 dd3d 0912 e73d
000002f0: 5a78 6fbd a3fc 97bd 907f 0ebd ded6 083c
00000300: ed82 c3bd 68fe 923d 3a43 2fbd 522c c53d
00000310: c86b 263d 13f3 f7bd ab35 8abd f3e3 6c3d
00000320: 0671 f1bb 4789 94bd 9610 29bd 9dcd b4bd
00000330: d83a d3bc 1d1d db3c 1f67 02be 05ae 35bc
00000340: 2866 323d ac7e d8bc 1e38 9b3d 48be 253d
00000350: a2ea d2bd 7a15 5dbd fb89 22bd d0cb c2bd
00000360: f635 ecbd a491 80bd 8ac6 c1bc 49b7 bbbd
00000370: 5688 373c 90f2 4b3b 70f1 a43c f8b9 c73d
00000380: f5ae c93d 8751 173d 382e 193c 4134 47bb
00000390: 0f77 f03c e839 6e3d f446 3bbd c32b ff3c
000003a0: 575c 9ebc dd70 5c3d f010 e33b f4dc f13d
000003b0: 1b6f ae3d 01fe a2bd 93c9 ea3b 2e6f 5fbd
000003c0: 282f bb3d 2e69 9ebc c61f fabc d99c e23c
000003d0: a19b 973d 03d3 3e3d 7b93 f2bd 7214 8f3d
000003e0: 4d01 133e daf7 e03c 652b a33c 7ed1 bc3c
000003f0: 174c a43d 5ff8 dabd 5c27 cf3c 54d0 023e

net.2.lin2.bias f4 [64]
0.09848601 0.12372593 0.0038482186 0.0803972 -0.09541614 -0.044071253 0.12990183 0.046358477
-0.11968873 -0.023339227 0.039638504 -0.120076634 0.100021735 -0.16179341 0.0041956864 -0.10492827
0.028919525 0.052195888 0.1423026 0.082618624 0.040899795 -0.070141695 -0.038974527 -0.12028179
-0.05890836 0.017166913 0.0481679 -0.037189215 0.11346344 0.028423375 0.012726747 -0.0126886275
-0.10488687 -0.120850146 0.10029244 0.12583707 0.08283929 0.012878448 -0.02542756 -0.12285327
0.04606245 0.048117697 0.010035222 -0.16276062 0.009544944 -0.05548082 0.12705116 -0.06161938
0.03911418 -0.0037557352 -0.06259349 -0.100599475 0.0127238715 -0.011373044 -0.06368442 -0.1543315
-0.12350884 0.00038304285 -0.12714687 -0.036478423 -0.062088177 0.04430222 0.1694813 0.07443118
00000000: 09b3 c93d 0564 fd3d 6532 7c3b 4aa7 a43d
00000010: 8a69 c3bd 0f84 34bd fc04 053e 63e2 3d3d
00000020: 5d1f f5bd e831 bfbc fc5b 223d bdea f5bd
00000030: 32d8 cc3d 2cad 25be f87b 893b a2e4 d6bd
00000040: a4e8 ec3c 5bcb 553d c6b7 113e f433 a93d
00000050: 8b86 273d 73a6 8fbd c1a3 1fbd 4d56 f6bd
00000060: e449 71bd a0a1 8c3c b44b 453d b853 18bd
00000070: 855f e83d 23d8 e83c d983 503c f6e3 4fbc
00000080: edce d6bd 4880 f7bd 1f66 cd3d 6fdb 003e
00000090: a5a7 a93d 2000 533c 754d d0bc 7f9a fbbd
000000a0: fbab 3c3d 1017 453d c66a 243c b8aa 26be
000000b0: 6662 1c3c db3f 63bd b319 023e 9a64 7cbd
000000c0: 3136 203d c822 76bb 0431 80bd 1907 cebd
000000d0: c977 503c 0156 3abc fa6c 82bd 1409 1ebe
000000e0: 34f2 fcbd 24d3 c839 ca32 02be 666a 15bd
000000f0: 2c50 7ebd 3f76 353d 828c 2d3e 606f 983d

net.3.lin1.weight f4 [64, 64]
0.03859349 0.07321548 0.10767517 0.09326347 -0.08422993 -0.07254995 -0.0066509657 0.12597986
-0.13739735 0.0131490305 -0.11329524 0.050163057 0.0857014 0.115683705 -0.024817234 -0.102389865
0.041674297 0.04045762 -0.080457 0.026308246 0.058153994 0.05282926 0.052480586 -0.11284405
0.061417453 0.032256536 -0.10748505 0.08711322 0.06958501 0.062225252 -0.0128335785 -0.005869142
-0.11593155 0.10207028 0.07769614 0.020211786 -0.0039865375 0.046639934 0.01625494 0.094577864
0.072836034 -0.08028274 0.02520781 0.0017051714 0.082396746 -0.1059164 0.068597004 0.07627304
0.016223298 0.07484022 0.065486 -0.06755413 -0.08783337 -0.046899 0.09357726 0.021220881
-0.0997509 -0.052376013 -0.047574203 0.06778559 0.0993526 -0.09225638 -0.07465396 0.06359093
-0.08887989 -0.030312825 0.009859075 -0.12932502 0.10799349 0.08635573 -0.062646925 0.086153746
-0.08891657 -0.11749168 0.041312873 -0.047241848 0.031621173 0.13352762 -0.028209403 -0.05152919
-0.062037587 -0.034454018 -0.025573026 -0.10749243 -0.13549337 -0.0046799146 -0.06380599 -0.07438718
0.05619431 -0.014112849 -0.07697307 0.06355958 0.12003378 0.031057188 0.044274256 -0.1483842
-0.1354647 0.13916254 -0.07514256 -0.05437286 -0.0063587707 0.09415711 -0.12918979 0.008594325
-0.024539653 -0.067044586 -0.10066155 -0.0039396407 -0.14369941 0.06938643 0.035157926 -0.005766563
-0.003284349 0.022812147 0.013867425 0.08212775 -0.08001602 0.0039936383 -0.048235793 -0.07057558
0.10716891 0.028161775 0.024377726 0.07230433 -0.06805949 0.093120106 -0.12214076 -0.08692516
-0.015689922 -0.051040128 -0.032025628 -0.07051546 0.023780877 -0.028562658 -0.11409274 0.044062886
0.12588963 0.09638354 0.03705935 -0.11066934 -0.05230157 0.09128581 0.011052845 0.10131256
-0.016096419 -0.14284556 -0.06837761 -0.08830418 0.04412282 0.010861528 -0.106011994 0.12635149
0.019907221 -0.07525208 0.004869353 0.06240216 0.13097525 -0.055978887 0.07730727 0.07448462
-0.052836783 0.12242732 -0.092136785 -0.09619823 -0.12403863 0.015344338 -0.052477043 -0.015666757
0.019564826 -0.019567773 -0.03409244 0.07298552 0.05684763 -0.07793696 -0.051274583 0.008205155
0.009075601 -0.12566854 -0.11146634 -0.045437403 -0.10430151 -0.08036059 -0.06073461 0.088373765
-0.011275241 0.0036795791 -0.003735348 0.02921128 -0.029533457 -0.09883135 0.09302241 -0.085923135
0.09725164 -0.09839445 -0.0070976974 -0.09247301 0.068459 -0.09403204 -0.08984489 0.12701291
-0.037258796 -0.04734759 -0.058303684 0.05336978 0.029535023 -0.14518107 0.08404187 0.06576529
0.11577781 0.004546495 -0.08176538 0.10215036 -0.020763228 -0.101217575 0.09244888 0.05022111
0.13089304 0.09067231 -0.022030853 0.044330318 -0.12739319 0.08642478 0.015507067 0.015395945
0.107028365 0.008461241 0.02463197 0.073297046 -0.0014633792 0.09535823 0.036418095 0.09490206
0.010782274 0.034594666 -0.03325496 0.080677316 0.11670874 -0.09682173 0.09447516 0.016664734
-0.09092709 0.0122123035 0.0030455254 -0.021954497 -0.009800877 0.103165984 0.025167964 -0.13367844
-0.044401366 0.08043128 -0.13448063 -0.14092286 0.0027644923 0.08752585 0.0723325 0.11783734
00000000: 3514 1e3d fff1 953d cd84 dc3d eb00 bf3d
00000010: be80 acbd 1195 94bd 58f0 d9bb dd00 013e
00000020: e4b1 0cbe 086f 573c 5607 e8bd c777 4d3d
00000030: 3784 af3d 94eb ec3d 834d cbbc c7b1 d1bd
00000040: abb2 2a3d e4b6 253d a4c6 a4bd 6484 d73c
00000050: e232 6e3d 7e63 583d e2f5 563d c81a e7bd
00000060: de90 7b3d 6e1f 043d 1f21 dcbd 6a68 b23d
00000070: 9682 8e3d e8df 7e3d ee43 52bc ee51 c0bb
00000080: 856d edbd 390a d13d 271f 9f3d 3093 a53c
00000090: 80a1 82bb 8409 3f3d 1429 853c 0ab2 c13d
000000a0: 0f2b 953d 476b a4bd 9c80 ce3c 0f80 df3a
000000b0: a0bf a83d b3ea d8bd 967c 8c3d 0a35 9c3d
000000c0: b9e6 843c d445 993d 861d 863d d259 8abd
000000d0: fbe1 b3bd 2a19 40bd 6fa5 bf3d 6ad7 ad3c
000000e0: 334a ccbd 3b88 56bd 2bdd 42bd 2cd3 8a3d
000000f0: 6079 cb3d eaf0 bcbd 2de4 98bd f63b 823d
00000100: a906 b6bd 9a52 f8bc f587 213c c76d 04be
00000110: b12b dd3d 46db b03d 084d 80bd 6071 b03d
00000120: e419 b6bd 7a9f f0bd b037 293d ab80 41bd
00000130: 3485 013d 77bb 083e 6817 e7bc 4610 53bd
00000140: 201b 7ebd a81f 0dbd 867e d1bc fe24 dcbd
00000150: c6be 0abe f859 99bb b7ac 82bd 4e58 98bd
00000160: 012c 663d 9439 67bc 0fa4 9dbd 862b 823d
00000170: 45d4 f53d a56b fe3c ec58 353d 07f2 17be
00000180: 42b7 0abe a080 0e3e 58e4 99bd 13b6 5ebd
00000190: 3c5d d0bb 71d5 c03d 544a 04be 36cf 0c3c
000001a0: 6207 c9bc ac4e 89bd a527 cebd 1a18 81bb
000001b0: f025 13be 791a 8e3d c201 103d 70f5 bcbb
000001c0: 3c3e 57bb 8ae0 ba3c 3234 633c 9832 a83d
000001d0: 70df a3bd 11dd 823b e592 45bd ee89 90bd
000001e0: 607b db3d 86b3 e63c ccb3 c73c 4b14 943d
000001f0: c662 8bbd c1b5 be3d ef24 fabd d105 b2bd
00000200: 2788 80bc 740f 51bd 4e2d 03bd 696a 90bd
00000210: 1dd0 c23c 3cfc e9bc 74a9 e9bd 497b 343d
00000220: 36e9 003e bc64 c53d 8ccb 173d 9ba6 e2bd
00000230: 2c3a 56bd 0ef4 ba3d fe16 353c f67c cf3d
00000240: a3dc 83bc 1b46 12be 8f09 8cbd d2d8 b4bd
00000250: 21ba 343d 8df4 313c d11c d9bd 4962 013e
00000260: 7814 a33c c31d 9abd 188f 9f3b 6899 7f3d
00000270: 601e 063e 1e4a 65bd 4653 9e3d 648b 983d
00000280: 626b 58bd 2dbb fa3d 36b2 bcbd 9403 c5bd
00000290: f707 febd d166 7b3c 2bf2 56bd 9257 80bc
000002a0: 6a46 a03c 984c a0bc 84a4 0bbd 6f79 953d
000002b0: 0fd9 683d 6a9d 9fbd 4c05 52bd ea6e 063c
000002c0: d4b1 143c 41af 00be 7748 e4bd 921c 3abd
000002d0: 089c d5bd 1894 a4bd dbc4 78bd 4efd b43d
000002e0: cabb 38bc 1825 713b bdcc 74bb 7f4c ef3c
000002f0: 26f0 f1bc 1768 cabd 8982 be3d 78f8 afbd
00000300: de2b c73d 0883 c9bd cd93 e8bb 7d62 bdbd
00000310: 3b34 8c3d df93 c0bd 9900 b8bd ac0f 023e
00000320: ae9c 18bd 8cef 41bd d8cf 6ebd 459a 5a3d
00000330: 6ff3 f13c 59aa 14be 251e ac3d f4af 863d
00000340: eb1c ed3d c4fa 943b 9c74 a7bd 3534 d13d
00000350: a517 aabc 294b cfbd d755 bd3d a7b4 4d3d
00000360: d308 063e 67b2 b93d 0c7a b4bc b593 353d
00000370: 5c73 02be 7aff b03d 5a11 7e3c 463f 7c3c
00000380: b031 db3d 04a1 0a3c fcc8 c93c c31c 963d
00000390: dcce bfba 2d4b c33d 242b 153d 035c c23d
000003a0: 23a8 303c 23b3 0d3d 5a36 08bd 263a a53d
000003b0: fe04 ef3d 794a c6bd 317c c13d 7b84 883c
000003c0: fb37 babd 1d16 483c 7097 473b ebd9 b3bc
000003d0: dc93 20bc b048 d33d 0c2d ce3c 00e3 08be
000003e0: 35de 35bd 28b9 a43d 4ab5 09be 154e 10be
000003f0: 7c2c 353b c140 b33d 1023 943d b454 f13d

net.3.lin1.bias f4 [64]
0.11771945 0.01485987 0.033473812 0.120396644 0.0147235785 0.07039063 0.04144016 0.01705158
0.10410423 0.10042322 0.078266755 0.011123605 -0.0068030553 0.062945224 -0.06240449 -0.086156994
-0.014352506 0.0075581134 0.08454828 0.124410145 -0.10488897 0.081169516 0.05805185 -0.020538848
-0.08103079 0.06392548 0.07992889 -0.029988542 0.038616758 -0.14348523 0.060807273 0.16448335
0.045858216 -0.04965973 -0.04104521 0.031941283 -0.14116736 0.07401126 -0.08059665 0.10025869
0.016011544 0.032722488 -0.09009599 -0.083433285 0.013283979 0.0390422 -0.016907254 -0.035213426
0.018920986 0.052845757 -0.08679394 -0.058739446 0.06670448 0.090309724 0.08805453 -0.09831
-0.018101556 -0.022298928 -0.06728876 0.058810074 0.038646437 0.09871456 0.014817288 -0.09163062
00000000: e516 f13d d076 733c d61b 093d 8492 f63d
00000010: 2a3b 713c f628 903d 28bd 293d c1af 8b3c
00000020: 9934 d53d b0aa cd3d 524a a03d c83f 363c
00000030: 2aec debb 6de9 803d da9b 7fbd 1473 b0bd
00000040: c626 6bbc 0daa f73b a627 ad3d bfca fe3d
00000050: 07d0 d6bd 343c a63d c7c7 6d3d 1641 a8bc
00000060: 79f3 a5bd 5deb 823d c2b1 a33d 88aa f5bc
00000070: 9b2c 1e3d cbed 12be 0c11 793d 536e 283e
00000080: d3d5 3b3d 0068 4bbd 061f 28bd ddd4 023d
00000090: 2d8e 10be 3793 973d db0f a5bd 6e54 cd3d
000000a0: a42a 833c 0408 063d 3f84 b8bd 12df aabd
000000b0: 0ca5 593c b7ea 1f3d 1581 8abc f43b 10bd
000000c0: 2f00 9b3c cb74 583d 05c1 b1bd c698 70bd
000000d0: 5c9c 883d 4ef4 b83d ef55 b43d c156 c9bd
000000e0: b749 94bc 3eac b6bc b0ce 89bd d5e2 703d
000000f0: ba4b 1e3d dc2a ca3d 36c4 723c d6a8 bbbd

net.3.lin2.weight f4 [64, 64]
-0.015519777 -0.120797135 -0.1303326 -0.004949312 0.1241122 0.12943807 -0.06609395 -0.102902986
0.013642959 0.11469366 0.041215733 -0.03819149 -0.035709273 0.12768796 -0.099712275 0.107615694
0.109999046 -0.12027647 0.123187535 -0.021443937 -0.04282015 -0.03943525 0.052858915 0.084653884
0.08879666 0.09890355 0.060551055 -0.03702549 0.020806795 0.011620269 0.027334806 0.062647015
0.14798838 0.06479559 0.050685655 -0.016519902 -0.019653928 -0.098119184 0.013242579 0.016786296
-0.015023628 -1.930981e-06 -0.14701767 0.12541091 -0.13791107 0.023886723 -0.039478917 0.031821784
-0.077977315 -0.07307776 -0.13103007 0.025701003 0.03803264 -0.105416715 -0.07605656 0.04861639
-0.041769587 -0.017004644 0.040958777 0.14485513 0.0020926776 0.15494935 -0.09676224 0.04645266
0.08191757 -0.022785129 -0.110758185 0.07512085 -0.040394213 0.052615892 -0.10188828 -0.034614578
-0.099815406 0.0411213 0.07995001 0.018462818 0.11840395 0.037436623 -0.14611495 0.1459473
0.13158026 -0.048124105 -0.07227967 4.052883e-05 0.08179884 0.13501349 0.011816667 0.14819461
0.082571924 0.056108825 0.054371163 0.0494369 -0.069616385 -0.10654892 -0.01707909 0.1106299
-0.04165937 -0.10777147 -0.015649585 -0.08360225 -0.110834315 0.10258122 -0.07841635 0.12680204
0.004176017 -0.029755961 -0.036796555 -0.107231766 0.10706731 0.051067825 0.07348561 -0.011387382
0.07792584 -0.14299123 -0.03884827 -0.036661446 -0.07843445 -0.1078015 0.09151998 -0.009682517
-0.005301709 -0.038577393 0.13379739 0.06871177 0.04216066 -0.010814593 -0.08596902 0.047393903
-0.030717842 0.056600597 -0.0029443703 0.062186792 -0.0806125 -0.14038147 -0.079815276 0.1349629
-0.068828344 -0.11344164 0.03998255 0.08393104 0.049187385 -0.09627205 0.13891855 -0.07865604
-0.04507323 0.088735744 -0.010660283 0.06801708 -0.008692921 -0.15534225 0.08224144 -0.1267803
-0.0075528193 0.07165699 0.013220012 -0.058120478 -0.13951388 -0.06984363 -0.015549911 0.06495339
0.022145683 0.13466065 -0.13531905 -0.15464047 0.117468715 -0.05656185 0.12327238 -0.0049263733
0.04038906 -0.058886945 0.086345784 -0.010809049 -0.09068348 -0.08206795 -0.15738976 -0.0749476
-0.11318248 0.06998012 -0.07629023 -0.10349939 -0.11545681 0.13745458 0.060695153 0.1324275
-0.0075445585 -0.01288477 -0.10046457 -0.110852145 0.038370352 0.06311329 0.03765484 -0.016105609
-0.08581269 -0.07476909 -0.12592214 -0.023280796 -0.067566834 -0.061994705 -0.1250873 0.03531673
-0.06679912 -0.017809121 -0.092897035 -0.10387227 -0.076093026 0.13474157 0.07861728 0.021659503
0.06048699 -0.09087996 0.09007173 -0.047837578 0.0649555 0.09285508 -0.09801236 -0.051285554
0.10006419 0.13316944 0.08350982 -0.10216049 -0.10559115 -0.101153895 -0.034068476 -0.0042717136
-0.06337402 -0.012142915 0.108144246 -0.0373685 0.015944999 0.05386437 -0.15282898 0.008238061
-0.036485188 0.04652315 0.061161313 0.06817352 0.1008528 -0.08177998 0.058857717 -0.008802463
-0.064048134 -0.08590238 -0.10133497 0.14814126 0.026472231 -0.05934903 -0.083037324 -0.17379397
-0.04507523 -0.09932693 0.13599798 0.011380834 -0.02014792 0.12000527 0.016909458 0.14507005
00000000: aa46 7ebc 7d64 f7bd e975 05be d72d a2bb
00000010: 8a2e fe3d 6a8b 043e 445c 87bd cdbe d2bd
00000020: b886 5f3c 82e4 ea3d d4d1 283d ae6e 1cbd
00000030: e343 12bd a2c0 023e f335 ccbd 9e65 dc3d
00000040: 2e47 e13d 8353 f6bd bf49 fc3d 32ab afbc
00000050: 2e64 2fbd db86 21bd 9782 583d 045f ad3d
00000060: 06db b53d f28d ca3d 6204 783d 0aa8 17bd
00000070: 0373 aa3c f162 3e3c 3eed df3c 144d 803d
00000080: 448a 173e 8db3 843d c39b 4f3d bf54 87bc
00000090: 4601 a1bc b6f2 c8bd 67f7 583c 6a83 893c
000000a0: aa25 76bc 0096 01b6 cd8b 16be b86b 003e
000000b0: 8f38 0dbe 17ae c33c a5b4 21bd 8f57 023d
000000c0: 92b2 9fbd cba9 95bd bf2c 06be e98a d23c
000000d0: 1dc8 1b3d b8e4 d7bd 8bc3 9bbd fb21 473d
000000e0: 9616 2bbd 534d 8bbc 64c4 273d e754 143e
000000f0: 4e25 093b 0bab 1e3e 482b c6bd 2545 3e3d
00000100: 66c4 a73d e1a7 babc 30d5 e2bd f6d8 993d
00000110: 6774 25bd c383 573d cdaa d0bd 04c8 0dbd
00000120: 056c ccbd cf6e 283d d5bc a33d 563f 973c
00000130: c57d f23d 2557 193d 289f 15be 3673 153e
00000140: fabc 063e c81d 45bd 5d07 94bd 80fd 2938
00000150: 2686 a73d fa40 0a3e b29a 413c 54c0 173e
00000160: 781b a93d 5ed2 653d 4cb4 5e3d 597e 4a3d
00000170: 0993 8ebd 5236 dabd 73e9 8bbc ee91 e23d
00000180: 04a3 2abd 4ab7 dcbd 8f33 80bc a837 abbd
00000190: 1afd e2bd 1a16 d23d c098 a0bd 65d8 013e
000001a0: f8d6 883b c6c2 f3bc fcb7 16bd 549c dbbd
000001b0: 1b46 db3d 7f2c 513d a07f 963d 2492 3abc
000001c0: 9597 9f3d 4b6c 12be 5d1f 1fbd 502a 16bd
000001d0: 3ea2 a0bd 08c7 dcbd d46e bb3d 6ba3 1ebc
000001e0: f5b9 adbb 5403 1ebd 2f02 093e c2b8 8c3d
000001f0: a8b0 2c3d b12f 31bc 8710 b0bd 1c20 423d
00000200: fca3 fbbc 07d6 673d 56f6 40bb 94b7 7e3d
00000210: 2b18 a5bd 29c0 0fbe 3176 a3bd b733 0a3e
00000220: e0f5 8cbd 1754 e8bd bec4 233d 09e4 ab3d
00000230: b678 493d 482a c5bd aa40 0e3e 6b16 a1bd
00000240: b59e 38bd 16bb b53d 78a8 2ebc 8a4c 8b3d
00000250: c16c 0ebc 0a12 1fbe 336e a83d b2d2 01be
00000260: a47d f7bb e6c0 923d c098 583c bd0f 6ebd
00000270: badc 0ebe 2d0a 8fbd 0ec5 7ebc 4806 853d
00000280: dd6a b53c 7be4 093e 1491 0abe 125a 1ebe
00000290: 7093 f03d 66ad 67bd 3b76 fc3d 6a6d a1bb
000002a0: 006f 253d 7033 71bd 0fd6 b03d 7018 31bc
000002b0: 43b8 b9bd 3e13 a8bd c82a 21be 217e 99bd
000002c0: 37cc e7bd bd51 8f3d 0d3e 9cbd 7df7 d3bd
000002d0: 9f74 ecbd e5c0 0c3e 7b9b 783d 139b 073e
000002e0: 5838 f7bb a41a 53bc 5ec0 cdbd 7306 e3bd
000002f0: 3b2a 1d3d 8a41 813d f63b 1a3d e9ef 83bc
00000300: 90be afbd 8920 99bd bcf1 00be 5eb7 bebc
00000310: 7b60 8abd 29ee 7dbd e316 00be 47a8 103d
00000320: facd 88bd 6fe4 91bc cd40 bebd fcba d4bd
00000330: a9d6 9bbd b2f9 093e 1902 a13d 456f b13c
00000340: 35c1 773d 461f babd 8777 b83d 56f1 43bd
00000350: 6407 853d ce2a be3d b4ba c8bd cd10 52bd
00000360: 74ee cc3d 925d 083e 3207 ab3d 8539 d1bd
00000370: 2c40 d8bd c629 cfbd 638b 0bbd bbf9 8bbb
00000380: 3dca 81bd 14f3 46bc bb7a dd3d b60f 19bd
00000390: 169f 823c e3a0 5c3d 337f 1cbe eff8 063c
000003a0: 7e71 15bd 0f8f 3e3d 4984 7a3d 8f9e 8b3d
000003b0: ea8b ce3d 437c a7bd ca14 713d 3538 10bc
000003c0: ab2b 83bd 96ed afbd b588 cfbd 58b2 173e
000003d0: 4bdc d83c f817 73bd 790f aabd 0cf7 31be
000003e0: cea0 38bd eb6b cbbd 0e43 0b3e ad76 3a3c
000003f0: 400d a5bc 53c5 f53d b485 8a3c 3e8d 143e

net.3.lin2.bias f4 [64]
-0.02076485 0.13709278 -0.13981152 0.026845787 -0.006871039 0.14697246 0.10899282 0.12963098
-0.035515085 -0.06858679 0.01675631 0.07443824 0.058488876 -0.054688804 0.16922568 0.12321125
0.15984342 0.06882568 -0.024846606 0.060251527 0.10817503 -0.0044098487 0.10104485 -0.07951497
0.114600405 -0.16228576 -0.0141947735 -0.108917825 0.14275447 0.04178591 0.08410566 0.10982888
-0.03065142 0.08996052 -0.12737446 0.15274724 -0.11408971 -0.14602275 -0.05538702 -0.11611017
-0.14180022 0.089162745 -0.07179535 0.07135274 0.076486096 0.17635715 -0.044895276 -0.13206793
-0.043551352 -0.038078222 -0.099417485 -0.062676914 0.081518054 -0.1368775 -0.079959124 -0.041132327
-0.031045217 -0.044120565 -0.1471136 0.07474193 0.11194261 0.016190913 -0.06930087 0.059711017
00000000: 0c1b aabc 0d62 0c3e c02a 0fbe b2eb db3c
00000010: 7426 e1bb f37f 163e a137 df3d fcbd 043e
00000020: 4478 11bd 3b77 8cbd 8744 893c 1373 983d
00000030: 0892 6f3d 5e01 60bd 7f49 2d3e 2e56 fc3d
00000040: fead 233e 7af4 8c3d 1c8b cbbc 4eca 763d
00000050: df8a dd3d 7e80 90bb 9af0 ce3d bfd8 a2bd
00000060: 9eb3 ea3d 3d2e 26be 3291 68bc 4f10 dfbd
00000070: 3a2e 123e b427 2b3d 973f ac3d f7ed e03d
00000080: b018 fbbc 393d b83d 736e 02be c669 1c3e
00000090: dea7 e9bd fd86 15be 80dd 62bd 2bcb edbd
000000a0: 1434 11be f59a b63d 7109 93bd 6321 923d
000000b0: bea4 9c3d f896 343e 1ce4 37bd d13c 07be
000000c0: e762 32bd e9f7 1bbd 659b cbbd c15c 80bd
000000d0: f0f2 a63d 9e29 0cbe 9cc1 a3bd 5f7a 28bd
000000e0: 8a52 febc c4b7 34bd f3a4 16be 4c12 993d
000000f0: 2b42 e53d cea2 843c 9ded 8dbd 8a93 743d

net.4.lin1.weight f4 [64, 64]
-0.0020637165 0.036533527 -0.12016311 0.007506378 0.08275797 0.08062971 0.13780671 0.012977304
-0.14166376 0.028655693 0.14886785 0.07016543 0.032367792 -0.12260441 0.06059847 -0.01590236
-0.037826672 0.092356235 -0.049402643 0.067048825 0.020812135 0.10833454 0.12358692 0.013946724
-0.021077396 0.011245318 0.059817813 -0.16186915 -0.066748545 -0.029616963 0.021711463 0.02526575
-0.015762294 -0.11780149 0.09922027 0.10256201 -0.02795536 0.11331408 -0.021699328 0.053904667
-0.16875245 0.10460705 0.023629632 -0.013913258 -0.031393714 0.13753821 0.06839161 0.03960727
0.043459855 0.053290997 -0.037465185 -0.1293265 0.13200176 -0.038387824 0.09263972 0.0823579
-0.123693205 0.15254933 -0.07224639 -0.058824476 -0.0033609802 -0.1810086 -0.056160904 0.0543354
-0.05968604 0.086047634 -0.026719674 -0.01846537 -0.021702992 -0.015293227 -0.07875771 -0.054397486
-0.04641455 -0.07882081 -0.12620853 0.018314993 -0.10538343 -0.07909582 -0.05324931 0.07542781
-0.085080266 0.1116322 -0.08709998 0.05583476 -0.04174566 -0.039277375 0.013308608 -0.051956844
-0.060386892 -0.13126032 0.07655512 -0.09757425 0.09746698 -0.09719066 -0.07357055 0.09810768
0.070232615 0.08415564 0.09791856 0.07655343 -0.13281067 -0.0600311 0.014077972 0.08774462
-0.11226983 -0.08362803 0.09057731 0.011665905 0.07317852 -0.11941041 -0.032874644 -0.077445
-0.120265014 -0.0006744006 -0.0137912845 -0.090401284 0.12414924 -0.07884648 -0.09943942 0.051732466
0.008056741 -0.081633724 -0.13193598 -0.07032074 0.07406238 -0.01851106 -0.020868346 0.07325593
-0.09765156 -0.010597878 -0.067674175 -0.06403409 -0.09778567 0.02621301 0.0120458985 0.041304972
-0.010101824 -0.03248328 0.09304963 -0.0924084 -0.051064283 -0.012681865 -0.042380773 -0.016707048
0.058646932 0.008938909 -0.048878036 0.05870854 0.044972166 -0.09079498 0.07352093 -0.090149544
-0.048063017 -0.033803176 -0.050588176 -0.09513478 -0.077731006 0.008824406 -0.11798784 -0.10764406
-0.071854636 0.07330212 -0.09557878 0.07809598 0.092149936 -0.046152394 -0.09981043 -0.046904527
0.010509852 -0.0991882 -0.10688771 -0.10549376 -0.09460925 -0.05778848 -0.09496621 -0.048829168
0.08526568 -0.151556 -0.1303234 0.01265644 -0.07964214 -0.0484477 -0.09276525 -0.010521808
0.0032340377 -0.11609702 0.025380617 -0.08660383 -0.1283805 -0.11003305 0.050464768 -0.11654065
0.11016029 -0.0058798236 0.0014512921 -7.458784e-05 0.14007613 0.046664115 -0.09671694 0.054061137
0.07891184 0.03407145 0.075324185 -0.012724604 0.09630162 0.088011324 -0.021597095 -0.08656178
-0.071760766 -0.031221963 0.106652774 0.11641123 -0.013716783 0.10872397 0.017556379 -0.028292058
0.0757911 0.03565463 0.04752406 0.1463925 0.013015499 -0.09148343 0.097289786 -0.03061899
0.1284141 0.09074101 0.029315397 0.038324654 -0.058050305 0.08512511 -0.023100372 -0.07494133
0.072961494 0.07188058 -0.080994 -0.068425134 -0.0562023 0.06490058 -0.119686395 0.109146744
-0.09842519 0.00695335 -0.03663728 0.08842805 -0.10138799 -0.10985595 0.060537662 -0.023772988
0.0587876 -0.057591535 -0.03751704 0.16143343 -0.048812296 0.10803491 0.07903408 -0.09163167
00000000: 6b3f 07bb 2ea4 153d 1418 f6bd 10f8 f53b
00000010: 037d a93d 3021 a53d 341d 0d3e c29e 543c
00000020: 4e10 11be 58bf ea3c d070 183e e5b2 8f3d
00000030: 1794 043d 0518 fbbd 1a36 783d ab45 82bc
00000040: 24f0 1abd 4425 bd3d 6d5a 4abd e550 893d
00000050: 367e aa3c 80de dd3d 241b fd3d cd80 643c
00000060: 81aa acbc 483e 383c 8603 753d 07c1 25be
00000070: 76b3 88bd 469f f2bc 3ddc b13c 1efa ce3c
00000080: ed1f 81bc e841 f1bd ff33 cb3d 080c d23d
00000090: a402 e5bc 3611 e83d cac2 b1bc 24cb 5c3d
000000a0: 71cd 2cbe 393c d63d ee92 c13c 6ff4 63bc
000000b0: b296 00bd d1d6 0c3e e710 8c3d 3c3b 223d
000000c0: f602 323d a947 5a3d 1875 19bd 2b6e 04be
000000d0: 782b 073e 8d3c 1dbd e5b9 bd3d 42ab a83d
000000e0: dd52 fdbd e435 1c3e eaf5 93bd eff1 70bd
000000f0: e443 5cbb 525a 39be fa08 66bd cc8e 5e3d
00000100: 5979 74bd be39 b03d 38e3 dabc b044 97bc
00000110: 79ca b1bc 7190 7abc b94b a1bd e6cf 5ebd
00000120: 2f1d 3ebd ce6c a1bd cf3c 01be 5309 963c
00000130: 45d3 d7bd fdfc a1bd f31b 5abd e579 9a3d
00000140: 903e aebd 6c9f e43d 7961 b2bd fdb2 643d
00000150: 7ffd 2abd 50e1 20bd 590c 5a3c b3d0 54bd
00000160: 3f58 77bd 1b69 06be eec8 9c3d 02d5 c7bd
00000170: c59c c73d e60b c7bd 28ac 96bd aeec c83d
00000180: 1ed6 8f3d cb59 ac3d 8789 c83d 0bc8 9c3d
00000190: 85ff 07be 2ce3 75bd 4ba7 663c 74b3 b33d
000001a0: baed e5bd 2c45 abbd 9980 b93d 5a22 3f3c
000001b0: 9fde 953d 728d f4bd 90a7 06bd 7c9b 9ebd
000001c0: 814d f6bd 42ca 30ba d7f4 61bc 4f24 b9bd
000001d0: f541 fe3d 437a a1bd e5a6 cbbd 6ce5 533d
000001e0: 6c00 043c 952f a7bd 3a1a 07be 5204 90bd
000001f0: 04ae 973d 82a4 97bc 18f4 aabc 3407 963d
00000200: 8bfd c7bd b9a2 2dbc c298 8abd 4e24 83bd
00000210: da43 c8bd abbc d63c 295c 453c 672f 293d
00000220: 1f82 25bc 300d 05bd ce90 be3d 9d40 bdbd
00000230: c828 51bd 99c7 4fbc 7697 2dbd 38dd 88bc
00000240: c437 703d 8074 123c 5634 48bd 5e78 703d
00000250: bc34 383d b8f2 b9bd 2492 963d 53a0 b8bd
00000260: badd 44bd 3375 0abd 8c35 4fbd 06d6 c2bd
00000270: 6f31 9fbd 3e94 103c 9ca3 f1bd 7d74 dcbd
00000280: 8628 93bd 6c1f 963d cfbe c3bd c9f0 9f3d
00000290: 1bb9 bc3d 4b0a 3dbd 6969 ccbd f61e 40bd
000002a0: 8431 2c3c 2f23 cbbd f2e7 dabd 1d0d d8bd
000002b0: 7fc2 c1bd 9db3 6cbd a57d c2bd 1801 48bd
000002c0: c69f ae3d 7f31 1bbe 7f73 05be f55c 4f3c
000002d0: 6b1b a3bd 1871 46bd b5fb bdbd a963 2cbc
000002e0: 26f2 533b 46c4 edbd 03eb cf3c 595d b1bd
000002f0: 2e76 03be 0259 e1bd 25b4 4e3d ddac eebd
00000300: b89b e13d 89ab c0bb 4839 be3a 0b6c 9cb8
00000310: 1e70 0f3e df22 3f3d 8813 c6bd 366f 5d3d
00000320: 889c a13d 818e 0b3d 9143 9a3d dc7a 50bc
00000330: c939 c53d 483f b43d 64ec b0bc 4d47 b1bd
00000340: 4ff7 92bd 34c5 ffbc c56c da3d 0369 ee3d
00000350: 5cbc 60bc acaa de3d 65d2 8f3c bfc4 e7bc
00000360: 5d38 9b3d 970a 123d 97a8 423d eae7 153e
00000370: f63e 553c aa5b bbbd de3f c73d add4 fabc
00000380: fc7e 033e 6cd6 b93d d826 f03c 50fa 1c3d
00000390: 28c6 6dbd 1356 ae3d fe3c bdbc d77a 99bd
000003a0: d66c 953d 2036 933d 2fe0 a5bd 7a22 8cbd
000003b0: 6234 66bd 98ea 843d 241e f5bd 5488 df3d
000003c0: 2593 c9bd edd8 e33b f910 16bd c419 b53d
000003d0: 82a4 cfbd 28fc e0bd 57f6 773d 92bf c2bc
000003e0: 44cb 703d 1ae5 6bbd 78ab 19bd ce4e 253e
000003f0: 67ef 47bd 6841 dd3d 9fdc a13d 63a9 bbbd

net.4.lin1.bias f4 [64]
0.024109567 0.09782562 -0.093334086 -0.1453815 0.14921342 0.044699587 -0.008152686 -0.08621768
0.092604265 0.08587396 -0.047637258 -0.09387244 -0.03830378 -0.009156718 0.04917733 0.06009391
-0.027494678 -0.026208539 -0.112206995 0.0016122513 -0.13948469 -0.07479119 -0.019803066 0.059799604
0.019561188 0.033762638 -0.04187797 -0.0153017575 -0.012052577 0.06834156 0.072883174 -0.11428959
-0.049244653 0.11125257 -0.06640209 0.090920165 0.12125757 0.05674876 -0.124822795 -0.045022134
0.09311976 0.052500654 -0.08296336 -0.118678115 0.11619496 -0.08325923 0.08944884 0.10901619
0.14541787 0.028393501 -0.013712706 -0.013911911 -0.07405258 -0.107323796 0.041660637 0.044014435
0.020047437 -0.104883835 -0.021492848 0.06485811 -0.071106516 0.05246172 0.07831905 0.12971492
00000000: 6d81 c53c cc58 c83d f125 bfbd e3de 14be
00000010: 67cb 183e ea16 373d d892 05bc e592 b0bd
00000020: 4ea7 bd3d b0de af3d 491f 43bd 3240 c0bd
00000030: 6de4 1cbd 0f06 16bc 2b6e 493d 0825 763d
00000040: 853c e1bc 4ab3 d6bc c8cc e5bd 2d52 d33a
00000050: 13d5 0ebe 202c 99bd 0a3a a2bc 6ef0 743d
00000060: c93e a03c b14a 0a3d 3c88 2bbd 39b4 7abc
00000070: 2c78 45bc a9f6 8b3d c643 953d a910 eabd
00000080: c3b4 49bd 63d8 e33d d2fd 87bd 5a34 ba3d
00000090: e455 f83d 6371 683d 18a3 ffbd 2169 38bd
000000a0: 93b5 be3d ed0a 573d b2e8 a9bd 830d f3bd
000000b0: a0f7 ed3d d183 aabd f430 b73d e143 df3d
000000c0: 6ce8 143e 7d99 e83c 42ab 60bc c9ee 63bc
000000d0: e1a8 97bd 94cc dbbd 58a4 2a3d 7b48 343d
000000e0: 863a a43c 56cd d6bd c511 b0bc 54d4 843d
000000f0: 4ba0 91bd 1ae2 563d bd65 a03d fdd3 043e
