data/trained_models/base_mu2_a_resnet.pth (torch, 201902 bytes, 15 tensors)

net.0.weight f4 [64, 374]
000000 c4 4a 5c 3c d6 ba cc 3c d6 31 fa 3c 27 b4 a9 bc
       0.01344556 0.024991434 0.030541342 -0.020715786
000010 bb 0d 4c 3d 31 01 7b bc 38 26 cb 3c 42 7f e0 bb
       0.049817782 -0.015320108 0.024798498 -0.006851108
000020 3b 9c 18 bc 15 93 e7 bb 37 2b 00 bc 71 48 54 3d
       -0.009314592 -0.007067094 -0.007822803 0.051826898
000030 a0 e6 c6 3c d3 80 9b bb 8e 8e c3 bc 63 b2 20 3d
       0.024279892 -0.0047455817 -0.023871686 0.039232623
000040 f6 fd 29 3a 49 19 19 bd 7c 12 a0 bc 15 17 84 3c
       0.00064846815 -0.03737763 -0.019540064 0.016124288
000050 9c 9d 83 bc 25 e9 d2 3c c2 8c cf bc b1 92 3b 3d
       -0.016066365 0.025745938 -0.025335673 0.045794193
000060 4c 5a b1 3c 32 b4 bb bc eb 04 09 bc 87 fb e0 bc
       0.021649502 -0.022913072 -0.008362989 -0.027463688
000070 a8 4d 99 3c 4a 27 41 3c e4 74 8b 3c 7f 57 08 3d
       0.018713787 0.011789152 0.017023511 0.033286568
000080 ec 99 01 bd d6 95 04 3d 42 ed 89 3b 2c 3a 00 3d
       -0.031640932 0.032369457 0.0042091915 0.031305477
000090 61 6a 03 3c 3a 63 71 3c e5 19 4a 3d 4d b1 ce 3c
       0.008020968 0.01473313 0.0493411 0.025231028
0000a0 72 71 5f 3d 0b 81 58 3d 90 f2 c6 bc d9 d4 12 3d
       0.05455155 0.05285744 -0.024285585 0.03584752
0000b0 ce 9b 24 bd 05 c7 e1 bc 96 b2 3e bd 36 7c 9d bc
       -0.04018765 -0.02756072 -0.04655703 -0.019224267
0000c0 56 b8 46 3d 26 4b a1 3a 90 30 20 bd 47 7a 36 3d
       0.04851564 0.0012305721 -0.039108813 0.044550207
0000d0 56 f5 d2 3c cb cf 35 bc 17 95 ef 3a 39 49 28 3d
       0.02575175 -0.011096905 0.0018278685 0.041085456
0000e0 44 73 0a bd b8 dc 33 3d 3b 78 de 3c 4c 72 0d bd
       -0.033801332 0.043911666 0.02715694 -0.03453283
0000f0 84 93 8e 3c ef c0 13 3d 5a e6 06 3d c6 1a 8e bb
       0.017404325 0.036072668 0.032934524 -0.0043366877
000100 e4 09 62 3d 57 7c ce 3b b3 cd 21 bd bd fd 98 bc
       0.055185214 0.0063014436 -0.03950281 -0.01867568
000110 30 f3 1b bd a9 88 ba 3c 1a dd 28 bc 94 0d 36 bc
       -0.03807372 0.022770243 -0.010306621 -0.011111636
000120 1a 4c 0b 3c 39 63 c8 bc 13 16 34 3c eb 26 5f bc
       0.008502031 -0.024461376 0.010991591 -0.013620119
000130 e6 4a d3 bc fd 37 67 3d f5 4c 65 3c 2a 29 2c bd
       -0.02579255 0.05644988 0.013995399 -0.042031445
000140 00 cc 39 3d 12 e5 f6 3c 4d 6b 10 3d d4 94 59 bc
       0.045360565 0.030138526 0.03525858 -0.013280112
000150 61 97 39 3d fa 8a 7a 3c be 91 f6 3c f4 c7 3a 3c
       0.04531038 0.015291924 0.030098792 0.011400212
000160 48 16 8d 3c d3 04 17 3d 6e 7a 9c bb de 94 bc bb
       0.017222539 0.036869835 -0.004775337 -0.005755051
000170 59 ba 30 bd 75 64 41 bd c6 4c b9 bb bc 79 89 3c
       -0.043146465 -0.047214944 -0.005654904 0.01678168
000180 dd 26 39 3d a0 13 4a bd a9 1a 05 bd e6 01 23 bc
       0.04520308 -0.049335122 -0.03249613 -0.009949183
000190 6a b0 a7 3c 9d bf 0d 3d 99 28 26 3d 17 36 e3 bc
       0.020469863 0.034606565 0.04056606 -0.027735753
0001a0 08 5c 67 ba cd b2 0d bd dc 67 67 3d d6 a0 fb bc
       -0.00088256644 -0.034594346 0.056495532 -0.030716341
0001b0 ce 5e 8c bb b3 35 c6 bc 82 d1 50 3d 89 0c 08 3d
       -0.0042837625 -0.024195528 0.050981052 0.03321508
0001c0 f7 69 2a 3d 94 4e 2d bd 11 e3 49 3d 93 58 d1 3c
       0.041604962 -0.042311266 0.049288813 0.02555493
0001d0 16 5e 2a bd ff a2 c5 3c 5d 07 4b 3d 17 50 12 bd
       -0.041593634 0.024125574 0.04956757 -0.03572091
0001e0 a3 6b d4 bc d6 e4 13 3d c6 35 ab bb 28 a4 02 bd
       -0.025930231 0.036106907 -0.005224916 -0.031894833
0001f0 a8 0d a7 3c f7 0e e6 3c 27 ba dc 3c 26 61 3b 3b
       0.020392254 0.028083308 0.026944233 0.002859184
000200 b9 bb 3d bc c9 e8 17 3d 50 58 b7 3c df 89 a8 3a
       -0.011580401 0.037087236 0.022380978 0.0012858472
000210 f6 ab 77 3d 29 b7 47 3d 9b b2 da 3c be fb 95 bb
       0.06046673 0.04875866 0.026696494 -0.004577129
000220 f8 01 9e 3c 76 d2 cd 3b 6e 00 ab 3c 88 71 81 3c
       0.019288048 0.0062811924 0.020874228 0.015801206
000230 c9 64 50 3c e8 ce 43 3d 44 1e 56 3d 0b f3 8f 3c
       0.012719342 0.047804743 0.052274957 0.017571947
000240 0d bf 85 bc 18 38 98 3a 7e b9 42 bc 73 61 3d bc
       -0.016326452 0.0011613397 -0.011885045 -0.011558878
000250 3d 22 e4 3b 96 94 c5 bb dc b1 a2 3c 05 f1 47 3d
       0.0069620893 -0.0060296757 0.0198602 0.04881384
000260 80 dd 13 bd 5e 6c f6 ba 9f e4 9e bb 4c ad 96 3c
       -0.03609991 -0.0018800606 -0.004849031 0.018393181
000270 44 da 42 3d 7a 30 50 bb 22 12 c2 bc 59 8e 01 3d
       0.047571436 -0.0031767176 -0.023690287 0.031629894
000280 4a dd 4c bc 71 9d eb ba 10 fa 3c 3d f6 ae 2e bb
       -0.012503931 -0.0017975998 0.046136916 -0.0026654578
000290 72 f1 77 3d e6 3d 64 3d 07 c8 f2 3c 51 f0 3d 3d
       0.060532995 0.055723093 0.029636396 0.04637176
0002a0 16 d2 2a 3b 12 92 44 3c ac 68 91 3c c7 59 2d bd
       0.0026065162 0.0119977165 0.017750107 -0.042321946
0002b0 f8 b5 82 3c f4 d6 24 bd 50 f5 9d 3c 36 c7 40 bd
       0.01595591 -0.040244058 0.019282013 -0.047064982
0002c0 d0 c1 ac 3c 3a c6 d6 3c fd 31 11 3d a2 08 52 3c
       0.02108851 0.026217569 0.035448063 0.012819441
0002d0 29 7b 61 bc fe 5b 4a bd 8e 9f 3d bc 07 53 d3 bc
       -0.013762274 -0.049404137 -0.011573685 -0.025796426
0002e0 55 2f d8 bc 66 db c5 3b 81 9c 18 3d 9f 88 52 3d
       -0.026389757 0.006038117 0.03725863 0.051399823
0002f0 ab 69 45 3d c1 c2 6b 3b 6c 3e bb 3c 30 5e 8a bc
       0.048196476 0.0035974237 0.022856914 -0.016890615
000300 17 d9 0b bd 4b 96 19 3d 72 74 1b bc dd 2e 67 3c
       -0.03414258 0.037496846 -0.009488212 0.014110294
000310 1b 37 dc 3c 6f 2d 15 3d ff 55 83 3c 4e 56 8d 3b
       0.026881745 0.036420282 0.016032217 0.004313267
000320 c7 e2 1c bd 98 2e 79 3d 1c 31 6d 3d be c4 96 3c
       -0.03830221 0.06083545 0.057908162 0.01840436
000330 8c f5 2c bc 46 bd 0a bd 6f 7b 2b 3d dc 81 4c bc
       -0.01055659 -0.03387191 0.041865762 -0.012482133
000340 50 85 8e 3c bf 3c 3f 3c ed c1 39 3d 5f d1 b7 bc
       0.017397553 0.011672198 0.045350958 -0.022438703
000350 7a 87 11 bd 4f be fe 3c 00 32 ba 3c 35 5a 87 3c
       -0.03552959 0.031096606 0.02272892 0.016522506
000360 c2 ae 49 bc 79 49 1b bc eb f6 43 3c b9 dc 5f 3c
       -0.012309732 -0.009477966 0.011960725 0.013663464
000370 53 12 a2 3c 07 5c 3d 3d 6e 9b c5 3c 36 18 a6 3c
       0.019784128 0.046230342 0.024121966 0.020275217
000380 71 bb 02 bd 1b 09 36 3d 1b 1a 45 3d b4 ed ca 3c
       -0.03191704 0.044442277 0.0481206 0.024771549
000390 f8 98 86 bc 86 e9 16 bb 1f 6b 9b 3c 66 96 f3 bc
       -0.016430363 -0.0023027374 0.018971978 -0.029734802
0003a0 48 f4 02 3d 03 bc 8a 3c 39 d8 0d 3d 04 e4 22 3d
       0.031971246 0.016935354 0.034630034 0.039768234
0003b0 37 88 0d 3d a9 44 e0 bc 11 d3 ca 3c 8c 58 1b bd
       0.034553733 -0.02737649 0.024758847 -0.03792624
0003c0 03 d8 79 bd 81 02 ef 3c 70 12 5c 3b 18 b4 a3 bb
       -0.06099702 0.029175999 0.0033580326 -0.004995834
0003d0 32 ff ae bb 5c 32 85 3c 3e 1a 69 bc 6e dd 21 bd
       -0.0053404802 0.016259365 -0.014227448 -0.039517812
0003e0 ee 37 92 bb 78 6a 02 bc 9d 6c 22 3c 31 4e 1a bd
       -0.0044622337 -0.007959954 0.009913591 -0.037672225
0003f0 56 fa 8b 3a fb 70 c1 bc ea 2b 47 3c 16 d2 1e bd
       0.0010679464 -0.023613444 0.012156466 -0.038774572

net.0.bias f4 [64]
000000 15 51 ba bc 8d 38 d4 3c 44 2a 29 bd ac ad 87 bc
       -0.022743741 0.025905872 -0.041300073 -0.016562305
000010 f2 98 2f 3d b9 ab b1 bc 7e 10 f0 bc 66 eb 41 bb
       0.04287047 -0.021688329 -0.02930474 -0.0029589771
000020 ec 80 5b 3c 45 d5 70 bc f8 af a0 bc 5e 9e 01 3d
       0.013397437 -0.014699285 -0.019615158 0.03164517
000030 3a 45 4e 3c c0 f6 6d bd 98 52 5c 3d 92 9c 0a ba
       0.012589747 -0.058096647 0.053789705 -0.0005287613
000040 6e e3 0b 3d d9 08 72 bd 06 6c 29 bc 4f b4 d5 bb
       0.03415244 -0.05909047 -0.010340696 -0.0065217386
000050 ab 24 3d 3d 14 dc ee bc ba be 54 3d 27 0d e7 3b
       0.046177547 -0.029157676 0.051939704 0.0070511284
000060 79 46 1d 3d f0 f2 a6 3b e9 71 1e 3d ef d5 33 3d
       0.038397286 0.0050948784 0.038682852 0.043905195
000070 a9 b4 94 3c 92 95 9c ba 20 35 6f bc 86 43 f8 3c
       0.018152552 -0.0011946431 -0.014600068 0.030305635
000080 de 9e 12 bb 3a 82 c2 3b 88 8a f5 bc ea a0 f9 bb
       -0.0022372524 0.0059359344 -0.029973283 -0.0076180594
000090 59 bd 4a bd 47 d1 8e 3c a9 0b cd bc 2d 7b 25 3d
       -0.049496982 0.017433776 -0.025029974 0.040400673
0000a0 2a 72 49 bd 51 61 a0 bc 99 5e cb bc b1 d0 de 3c
       -0.04918114 -0.019577654 -0.024825381 0.027199121
0000b0 44 fb 37 3d 2f 31 42 bc 96 5b 50 bc 4c 8a d8 bc
       0.04491736 -0.011852547 -0.012717148 -0.026433133
0000c0 05 2d c3 3c c4 22 10 bd 0d cf e1 3c 3a e9 33 3d
       0.023825178 -0.035189405 0.02756455 0.043923594
0000d0 1e 2a e3 bc f8 85 42 3d 68 e7 33 3d 7f 4c ee bc
       -0.027730044 0.047491044 0.043921858 -0.02908921
0000e0 58 93 fd ba f6 d2 07 bd 50 76 81 39 6d f8 93 3c
       -0.001934628 -0.033160172 0.00024692947 0.018062795
0000f0 bf ac 12 bd 65 53 a6 3c 0f f9 15 3c fa 6b 3e bc
       -0.035809275 0.020303437 0.0091536185 -0.011622423

net.2.lin1.weight f4 [64, 64]
000000 06 83 75 3d 9d 85 72 bd e5 f3 43 3d bf 9e d5 3d
       0.059939407 -0.059209455 0.047840018 0.10430669
000010 f4 a3 d1 3d d5 00 76 bd 8a 9c 54 bd a3 da b3 bd
       0.1023635 -0.060059387 -0.0519071 -0.08781936
000020 10 dc 3c 3c 51 e6 26 bd d6 8b 8a 3d c2 27 e0 3d
       0.011527076 -0.04074699 0.06764953 0.10945083
000030 67 26 a5 bd d6 ee 34 bd ed a5 0f 3d c9 ee ed 3d
       -0.08063965 -0.044173084 0.03507035 0.1161781
000040 9a 0d 6d 3d e9 73 b2 bd cd 2b 9f bd 54 85 bd bd
       0.0578743 -0.08713514 -0.07772026 -0.09253946
000050 25 d5 e3 bd 30 a5 0c 3d 20 22 48 3d 21 fb 3d bd
       -0.111246385 0.034337223 0.04886067 -0.046382073
000060 98 71 d7 3d 35 3b 85 3d 31 ea ac 3d ce d9 87 bc
       0.10519713 0.065054335 0.08443106 -0.01658335
000070 35 b9 a7 3d 85 c5 5b bc c8 32 a2 3b 1b 09 31 bd
       0.08189622 -0.013413792 0.0049499013 -0.043221574
000080 76 c0 df 3d 65 41 c9 bd 1d a4 95 bd 20 7c 40 3d
       0.10925381 -0.09826926 -0.07306693 0.046993375
000090 76 68 01 be 0f 10 92 bd e0 60 69 bc ae cf 46 3d
       -0.12637505 -0.07131969 -0.014244288 0.048537903
0000a0 79 cd b4 bd 5e 05 9c bd 32 45 d8 bd bb 9c 5d bd
       -0.08828253 -0.07618211 -0.10560073 -0.054104548
0000b0 77 d1 28 bd a7 a5 9e 3d 61 4d cc 3d 25 8b 99 bc
       -0.041215386 0.077464394 0.09975696 -0.018743107
0000c0 68 9d 63 3d 47 72 7c 3d 7f 99 36 3d 53 bf c5 3d
       0.055570036 0.06163242 0.04457998 0.09655633
0000d0 ee 9f c2 bd 80 45 ee bc 1a 2c dd 3d 9b 40 9c bd
       -0.095031604 -0.029085875 0.10799427 -0.0762951
0000e0 c3 87 d6 bd dd 9e 82 3d cc fd a4 3a ff b0 ac 3d
       -0.10475113 0.06377957 0.0012587844 0.08432197
0000f0 68 f4 80 3c a9 6b 6b bd d6 76 7e bb cd 8a c7 bd
       0.015741542 -0.05747572 -0.0038828156 -0.09743271
000100 e2 61 2f bd 76 7a 88 bd 2f e1 2d bb f2 9b cf 3d
       -0.042817958 -0.066639826 -0.0026531925 0.10137166
000110 d3 41 84 bd 8e 19 91 3d 92 c5 0a bd b0 37 14 3d
       -0.064578675 0.07084952 -0.033879824 0.03618592
000120 18 c8 49 3d 63 dd c6 bc 04 f7 88 bc 57 d9 7a 3d
       0.04926309 -0.024275487 -0.016719349 0.061242428
000130 95 68 55 3d a2 46 87 3d bb 54 ba bc 50 b0 57 3d
       0.05210169 0.06605269 -0.02274548 0.05265838
000140 7f ad a5 bd 7f 4a 3c bd 43 bb 39 bd 0b 25 b2 bd
       -0.080897324 -0.045969483 -0.045344602 -0.08698472
000150 f6 1b ae bd b3 24 ee bd 26 7d 43 3d 6a b6 d0 bd
       -0.08501427 -0.116280936 0.047726773 -0.10191043
000160 36 b7 d7 bd 3d 25 ac 3d ea e1 c2 bd 07 c6 1f 3d
       -0.105329916 0.0840554 -0.09515746 0.039007213
000170 ce 9b 94 bd 47 42 a6 3c fe 4b 64 bd 77 24 dd bd
       -0.0725628 0.020295275 -0.055736534 -0.10797971
000180 57 e7 ca bd 59 0e 87 bc ff e8 ad bc 6b b8 b7 3c
       -0.09907406 -0.016486334 -0.021229265 0.022426805
000190 a3 33 15 3d 65 c0 72 bd c4 b9 16 bd b3 de 2b bc
       0.036426198 -0.059265513 -0.036798254 -0.010490107
0001a0 62 a3 bf 3d ba 72 41 3d b9 b3 6e bd 5b 53 3c 3c
       0.09357335 0.047228552 -0.058276866 0.011494483
0001b0 2f 8b 7c 3d ab d2 ec 3d 8e 35 8b 3c e4 70 f9 3b
       0.061656173 0.11563619 0.01699331 0.0076123346
0001c0 5f 66 ba 3d c8 7e 57 bd a3 30 ac 3d b7 c3 c1 3d
       0.09101557 -0.052611142 0.08407714 0.09461158
0001d0 c8 9f d0 3d f5 02 7d 3d 88 d2 be 3d ea 51 63 3d
       0.10186726 0.0617704 0.093174994 0.05549804
0001e0 d4 c4 ed bd 23 6e bc 3d f2 e8 d5 3d d2 95 31 3d
       -0.116098076 0.092006944 0.104448214 0.04335577
0001f0 8f b9 87 bd b2 c4 50 3b 88 86 e5 3c 53 e3 6a bd
       -0.06627189 0.003185552 0.028018251 -0.0573457
000200 e1 80 ec 3d 62 b8 ac 3d ec 0a 7e 3b 3c 9d d4 bd
       0.11548019 0.08433606 0.0038763834 -0.103815526
000210 6f 42 c9 bd c4 e4 87 bd a4 e9 a2 3d 59 44 24 3d
       -0.09827124 -0.066354305 0.0795472 0.040104244
000220 48 7d cb bd e0 ca 9c bd d7 31 e7 bd e4 47 73 3d
       -0.09936005 -0.07655883 -0.11288803 0.059394732
000230 f8 62 a4 3b a5 6d e2 bd bb 56 d2 bd 85 5c d3 bd
       0.005016681 -0.11056069 -0.10270449 -0.10320381
000240 a4 51 d1 3c 58 2d 72 3d 28 eb 92 bd f8 93 15 bd
       0.025551625 0.059125274 -0.07173759 -0.036518067
000250 61 02 02 be 59 93 83 3d 57 76 1d 3d 80 c3 eb bd
       -0.1269622 0.06424589 0.038442936 -0.11511898
000260 31 53 fa 3d f7 63 0c 3d df be 87 bd 39 86 04 3e
       0.12222899 0.03427502 -0.06628203 0.12941827
000270 5a 65 05 3d 0e 27 1d bc 9b 66 a2 bc 70 ed a0 3a
       0.03256736 -0.009591831 -0.019824317 0.0012277793
000280 1e 31 ae 3d 0a 34 7a 3c 84 e9 5c 3d 53 76 60 bd
       0.08505462 0.015271196 0.053933635 -0.054800343
000290 0a 0b ba bd f6 36 63 bd a1 e5 72 3d f0 31 8c 3d
       -0.09084137 -0.055472337 0.059301022 0.06845462
0002a0 c5 ae f2 bc 10 84 c1 bb 53 6d 81 ba 8e fb 5c 3b
       -0.029624352 -0.0059056357 -0.00098745 0.0033719274
0002b0 f4 bc 8d 3d d4 1e dc bd 54 30 d2 3d 4f fb b2 3b
       0.069208056 -0.107480675 0.10263124 0.005462087
0002c0 d1 c2 07 3e 48 e2 b1 3d 50 03 2b bc 54 10 a3 3d
       0.1325791 0.08685738 -0.0104378015 0.07962099
0002d0 e7 10 e6 3d f5 d2 02 3e 32 5d 67 3c cc 70 bc 3c
       0.112336926 0.12775786 0.014121341 0.023003004
0002e0 90 29 68 bc 94 4b 89 3d cd b9 c9 3d 3e a2 fa ba
       -0.0141700655 0.067038685 0.09849892 -0.0019121838
0002f0 4c af 7a bd ac 9e e7 3d 77 9b 2a 3c 89 d6 0e bd
       -0.061202332 0.11309561 0.010413042 -0.034872565
000300 7e 44 80 3d e2 72 12 bd 7b 5b e9 bd 51 a5 ee 3d
       0.06263064 -0.035754092 -0.11394402 0.11652625
000310 b5 85 91 bc c0 75 c9 3d 14 1f 42 bd c8 91 84 bd
       -0.017763952 0.09836912 -0.04739292 -0.06473118
000320 39 ff ac 3d fa d8 3c 3d a8 41 b9 3c 45 ac a2 bd
       0.08447117 0.046105362 0.022614315 -0.07943014
000330 2f 71 af bd 60 61 4f 3c 94 27 e4 bd 72 1b 0d bd
       -0.0856651 0.012657493 -0.111403614 -0.034450002
000340 b3 88 bf 3d de fc fe bd 7b fa 6a bd ca d7 98 bc
       0.09352245 -0.12450574 -0.057367783 -0.018657584
000350 92 f5 89 3c 1a a0 fc 3d f9 bc 99 bd 7b 49 ea 3d
       0.01684073 0.123352244 -0.07506747 0.114397965
000360 e6 35 e6 bd a2 3d 9b 3d fd 06 0d 3d 7c 37 98 39
       -0.11240749 0.07580115 0.034430493 0.00029033038
000370 d4 c7 83 3c 39 11 62 3d 56 ce c2 3d 37 b6 43 bd
       0.016086496 0.055192206 0.09512012 -0.047781195
000380 a2 d0 f4 bc 3e e2 2a 3c 8c 3a f4 3c c2 a5 cb 3d
       -0.02988464 0.010429917 0.029813074 0.09943725
000390 18 b7 f3 3d 2a 02 5f bd 90 08 92 3d 55 b9 75 bd
       0.11900157 -0.054445423 0.071305394 -0.0599912
0003a0 d6 00 5c bd 28 81 95 bd 62 d8 8f 3d cd bd 6a bd
       -0.053711735 -0.07300025 0.070236936 -0.057309914
0003b0 b8 7c 13 bd bb 71 b9 bd 9c 2a 99 bd 14 10 4b 3c
       -0.036007613 -0.090548955 -0.0747883 0.01239397
0003c0 16 f7 5b 3d ab 9f d2 bd 49 0e 1d 3d 68 e6 33 3d
       0.053702436 -0.102843605 0.0383437 0.043920904
0003d0 91 39 86 3d 42 26 d6 bd 30 cb a7 3d 77 34 b0 bd
       0.06553949 -0.10456516 0.08193052 -0.08603757
0003e0 2a 69 d0 3d 33 3d e8 bd ce ba 8e 3d 32 29 42 3d
       0.101763085 -0.11339798 0.06969224 0.04740257
0003f0 c7 ca 75 bd 90 a1 a6 bd 82 32 dd 3c 9d 4a de 3d
       -0.060007837 -0.08136284 0.027001623 0.10854075

net.2.lin1.bias f4 [64]
000000 4c 12 f7 3c 53 de 1d 3d 26 f9 d0 bd 36 71 d1 3d
       0.030160092 0.038542103 -0.10203771 0.102266714
000010 b4 4b be bd 7a 05 a3 3d 22 07 ac 3d 46 06 af 3d
       -0.09291783 0.07960029 0.08399798 0.085461184
000020 da f2 df bc ad 46 83 bd fa fa 30 bd 1a 86 27 bd
       -0.02733748 -0.06409965 -0.0432081 -0.040899374
000030 0b 54 07 bd 18 7e 29 3d 41 63 8a 3c 7c 12 e2 bb
       -0.033039134 0.041380018 0.016893031 -0.006899176
000040 93 1e a3 3c fa c5 bb 3d 72 34 11 bb 8c 0c e3 bc
       0.01991204 0.091686204 -0.0022156504 -0.027715944
000050 7c 2c a5 3d 11 ab 72 3d f3 ef 94 bc 44 95 40 3d
       0.08065125 0.059245173 -0.018180823 0.04701735
000060 c9 b6 69 bd d4 f2 86 bd e5 87 5c 3c 69 e8 8f bd
       -0.057059083 -0.065892845 0.013460134 -0.070267506
000070 88 8c 1f 39 9a 5f d5 3d 78 29 08 bc ee 6b 88 bd
       0.00015215774 0.10418625 -0.008310668 -0.06661211
000080 e0 84 a3 bd 81 46 f6 ba bb 35 0b 3c 4f 35 b0 bd
       -0.07984328 -0.0018789322 0.008496697 -0.08603918
000090 c9 77 ed 3c 89 6e 22 bd e1 37 b2 3d 7d 22 60 3d
       0.028987782 -0.039656196 0.08702064 0.05472039
0000a0 a0 96 e1 3d 9e ac 02 3d 85 b5 29 3d 0d 66 e9 bd
       0.110150576 0.0319029 0.041432876 -0.11396418
0000b0 44 10 9c 3c 0d 93 99 3c 12 5b d8 bd d3 9c 05 3e
       0.019050725 0.018746877 -0.10564245 0.13048105
0000c0 fe ee 69 bb ce 69 de 3d d6 c8 12 3c d7 0d d3 bc
       -0.003569543 0.108600244 0.008959016 -0.025763435
0000d0 11 81 ec 3d cd c0 e6 bd 68 80 ff 3d f4 f1 79 3c
       0.11548055 -0.112672426 0.124756634 0.01525544
0000e0 46 63 e1 3d 2f 58 2c bd b2 9d 94 bd 43 35 a3 3d
       0.11005263 -0.042076286 -0.072566405 0.07969143
0000f0 4b ca e6 3d 72 d5 07 3d 02 07 82 bd 04 24 91 3d
       0.11269053 0.03316254 -0.06348993 0.070869476

net.2.lin2.weight f4 [64, 64]
000000 f0 11 a9 3d 15 5c 0f 3c ea 9d 97 3d 11 98 a7 bd
       0.082553744 0.008749981 0.074031666 -0.08183301
000010 56 46 da 3b 6b 7e 92 3d af 19 ae 3d b9 55 d1 bd
       0.0066612167 0.071530186 0.085009925 -0.102214284
000020 bb c0 9a 3b 4e 3c a3 3d 24 3d 7a bd 34 97 c3 bd
       0.0047226823 0.079704866 -0.061093464 -0.09550324
000030 80 f2 04 bd 00 a1 cd bd 21 8f 74 3d b3 d9 6c 3d
       -0.03245783 -0.10040474 0.05970681 0.0578248
000040 d9 15 06 be 03 ac c3 3d 15 87 30 3d 19 9a 05 3e
       -0.13094272 0.09554293 0.043097574 0.13047065
000050 92 49 bf 3c 45 3f c7 bc 6b 8f a7 3d 16 fe f1 3c
       0.02335051 -0.024322161 0.08181652 0.029540103
000060 6c f2 57 bd b4 de d1 bd 06 3d c9 bd cd 7e 85 bd
       -0.052721426 -0.102475554 -0.098260924 -0.06518326
000070 b6 1a 02 3d 8c 53 91 bd 8a fc 7a 3c 1a 50 23 bd
       0.031763755 -0.070960134 0.015318999 -0.039871313
000080 bc f2 b9 bd bc 90 f3 bc 31 15 d8 bc cc 56 c7 bd
       -0.09079501 -0.0297321 -0.026377292 -0.09733352
000090 41 4a a6 bd 25 52 3f 3c 35 db e8 3d 3b d2 b5 bc
       -0.081196316 0.0116773 0.113699354 -0.022194972
0000a0 f0 c9 dc bc 67 0d 09 be f2 df 23 3d bb a2 f4 3c
       -0.02695176 -0.13384019 0.040008493 0.029862752
0000b0 4f 42 93 bd 06 f0 aa 3d 0a b6 d5 3d 3e 56 09 bc
       -0.07190382 0.08346562 0.10435112 -0.008382378
0000c0 be 86 71 3d 5c a3 cb bd 50 71 f1 3d 92 56 ed bd
       0.05896639 -0.09943268 0.11789191 -0.115887776
0000d0 9f c3 ad bd 52 17 d7 3d 47 34 62 bc 07 4a cb bc
       -0.084845774 0.10502495 -0.013806409 -0.024815572
0000e0 f3 6d 9f 3d 1c 08 6f 3d 84 ee 7d bc d7 86 8e 3d
       0.07784643 0.058357343 -0.015498761 0.069593124
0000f0 af 53 18 bd 17 0e d3 3d 1e 7c 91 bb 7f 61 ae bc
       -0.037189182 0.10305422 -0.0044398447 -0.021286724
000100 99 3e 7f 3d 95 da 0b 3d 80 ca 7b 3d a4 36 55 bd
       0.062315557 0.034144003 0.061472416 -0.052054062
000110 da b4 9d bd 3d 32 59 3d f2 9a db bc d6 7c 82 3d
       -0.0770051 0.053026427 -0.026807282 0.06371467
000120 19 c2 c4 bd dd 32 3f 3d 1c 6e c1 bd fc 4f 26 bd
       -0.09607334 0.046679366 -0.0944483 -0.040603623
000130 ad 34 71 3d a2 4c 25 bd 55 94 4f 3c 9e 26 25 bd
       0.058888126 -0.040356286 0.012669642 -0.04032003
000140 42 ae d4 3c f3 c8 90 3d e8 bb 92 3d 44 0d 68 3c
       0.025961999 0.07069578 0.071647465 0.014163319
000150 ec 62 35 3d 91 42 bf 3c a1 7b a8 3d 9b 00 cb 3d
       0.044283792 0.023347171 0.08226705 0.09912225
000160 f8 62 40 3d e0 7e a1 3d e5 ed 72 3d 61 ca ef bc
       0.046969384 0.078855276 0.059308905 -0.029271306
000170 0c 15 70 3b 1b dc 93 bd 4a f5 cd 3c 2c 15 d9 bd
       0.0036633639 -0.07219716 0.025141377 -0.10599741
000180 ab 8e 94 3d 2e 77 d3 bd d9 66 78 3d 78 64 31 bd
       0.07253774 -0.10325466 0.06064496 -0.043308705
000190 1a d7 00 bc ea f1 37 3c df 83 bc 3d 8c 12 9e 3b
       -0.007863784 0.01122711 0.0920484 0.0048239883
0001a0 5d c9 c2 3d da 6c b6 bd e3 64 92 bd f9 c1 2a bb
       0.09511063 -0.089074805 -0.07148149 -0.0026055558
0001b0 91 b5 28 3d ca 74 49 bc 19 17 82 bd 50 f0 30 bc
       0.04118878 -0.012295911 -0.06352062 -0.010799482
0001c0 53 98 0d bd 84 ba 95 3b 5a 72 b2 3c 7e a6 69 3c
       -0.034569096 0.0045693535 0.021783043 0.014260886
0001d0 68 d6 a7 3d 4b f7 2b 3d 11 07 68 3d 12 ee 99 3c
       0.081951916 0.041983884 0.056647364 0.018790279
0001e0 a9 84 02 3d 1b 15 eb bd 04 ec 1e 3d ac aa 0f bd
       0.031864796 -0.11478635 0.0387993 -0.035074875
0001f0 2c b7 89 bd b4 d1 ba bc 37 71 e2 3c 78 4a f4 bd
       -0.067243904 -0.022805072 0.027641876 -0.11928266
000200 c0 d3 d8 bb b9 ed d3 3c e8 82 65 3d fa 7b 0e 3d
       -0.0066170394 0.025870191 0.056033045 0.034786202
000210 e6 30 8a 3d 67 cd 5f bd 45 f1 10 3d 4e 78 fd 3b
       0.06747608 -0.054639246 0.035386343 0.0077352887
000220 a8 fe 10 bd 2b 53 f3 bd dd d7 97 3c ed e5 99 bd
       -0.03539911 -0.118810974 0.018535549 -0.07514558
000230 61 27 89 3d 80 08 65 3c 8e db 8d 3d 8d 7e ca 3d
       0.06696964 0.013979077 0.06926642 0.09887419
000240 e6 77 9c bc 1a 53 8a bd a6 79 93 3d 41 4e 9d bd
       -0.01910014 -0.067541316 0.07200937 -0.076809414
000250 42 cc eb bd f9 ea ee 3d 40 4b 4c 3d e7 3a 61 3d
       -0.115135685 0.11665911 0.04987645 0.054987814
000260 ea 6a a4 3d 46 7a 33 bd d0 83 fd 3b b8 df 65 3d
       0.08028205 -0.04381778 0.0077366605 0.056121558
000270 65 4a b5 3c 9a ce 00 3d 41 e2 07 bc 7e aa 16 3d
       0.0221302 0.03144703 -0.008293689 0.036783688
000280 0e d3 83 bd c5 4e fb 3d 5c 5e 88 bd 22 b2 ca 3d
       -0.0643674 0.122708835 -0.066586226 0.098972574
000290 a1 78 8e bd d2 e4 1d bc f9 0d f6 3d 13 ec 57 bd
       -0.06956602 -0.009637075 0.12014384 -0.052715372
0002a0 be 27 68 bd 1d 98 d8 bc 37 9d 48 bd 6d d6 8e bc
       -0.056678526 -0.02643972 -0.048978057 -0.01743623
0002b0 c5 fb e1 3d d9 60 40 bd db fe 92 3d ad a7 03 bb
       0.11034349 -0.04696736 0.07177516 -0.0020088956
0002c0 fd 31 9e bc 06 d2 94 bb 72 31 2b 3d 86 4c d6 3d
       -0.019310946 -0.0045416383 0.0417952 0.104638144
0002d0 a7 a6 8e bc ae 18 50 3d 41 56 f3 bb 69 44 42 bd
       -0.01741345 0.050804786 -0.0074260538 -0.047428522
0002e0 02 2a 64 3d ff 60 84 bd f2 69 06 be a2 18 9a 3d
       0.055704124 -0.06463813 -0.13126352 0.075242296
0002f0 2e 03 2a 3d 2e 18 54 bd 0e 7e 2a bc f1 85 95 3d
       0.04150694 -0.051780872 -0.01040603 0.07300938
000300 7a 1c af bd 0b 56 00 be 2b 3d 6e bd c0 01 a9 3d
       -0.08550353 -0.12532823 -0.058163803 0.08252287
000310 f2 3c 88 3d 41 02 09 3e df b9 be bd 8c 66 11 3c
       0.066522494 0.13379766 -0.09312796 0.008874547
000320 fb f3 b2 3d 94 2d f8 bd f1 00 5a bd a4 e4 b0 b9
       0.08737942 -0.12118068 -0.053223554 -0.00033739686
000330 b1 26 b1 3d b9 56 97 3d f0 e7 8d bd 9d f0 9f 3d
       0.08649958 0.07389588 -0.06929004 0.07809565
000340 f8 c7 5e 3d 19 69 b3 bd 37 13 04 bc 5c 73 e0 3d
       0.054389924 -0.0876028 -0.008061222 0.10959503
000350 07 55 d4 3d d5 6b 02 3d 5c 8c cb bc 7e 57 ac 3d
       0.1036778 0.031841118 -0.024847202 0.08415125
000360 1a dd 08 bd ee 05 91 3d b6 4c 88 3d 6e 26 8b bd
       -0.033413984 0.07081209 0.066552565 -0.06794439
000370 f8 0c e3 bd 8d 1b e2 3d d6 4f dc bd 92 99 e9 ba
       -0.11086458 0.11040411 -0.10757415 -0.0017822257
000380 95 31 b8 bc bc f6 77 bd 1a 98 8d bd c1 18 63 3d
       -0.02248458 -0.06053804 -0.06913777 0.05544353
000390 e9 84 e0 3d 64 11 a9 bc b7 a7 f4 bc 88 4e fb bc
       0.109628506 -0.020638175 -0.029865129 -0.030677095
0003a0 2e 00 fe 3c 20 94 c3 ba 7f 53 3b 3c e9 cc 90 3d
       0.031005945 -0.0014921464 0.011433481 0.070703335
0003b0 0c 01 64 bd 66 41 8f bd 57 59 a5 3d 66 a0 4c 3d
       -0.05566506 -0.06994896 0.08073681 0.049957655
0003c0 be ab b7 bc e9 c1 ef 3d 90 1b 8a bc 1c a3 e2 bc
       -0.02242076 0.11706907 -0.016858846 -0.027665667
0003d0 85 bf e3 3d 94 81 d3 3d 09 2a dd 3d 7c 8a 9a 3d
       0.11120514 0.103274494 0.10799033 0.07545945
0003e0 10 b4 8a ba 3e 8f 6d bd cf 95 bc bd 4c 76 24 3d
       -0.0010582227 -0.057997935 -0.09208261 0.04015188
0003f0 4e 5b cc bc 98 4e 4c bd 7c 32 d5 bc 80 69 68 bd
       -0.024945881 -0.04987964 -0.02602505 -0.056741238

net.2.lin2.bias f4 [64]
000000 a1 f7 c4 3d 59 58 87 3d 0a 2d 9c 3b 7e 50 b5 bd
       0.09617544 0.06608648 0.0047661113 -0.08853243
000010 c0 2f 83 bd 78 6a 25 bc 70 4a c6 38 5f 4b 8b 3d
       -0.06405592 -0.010096185 9.455241e-05 0.06801485
000020 8c 69 e6 3b cf e9 6b 3d 68 c0 98 bb f8 92 af b9
       0.007031625 0.057596024 -0.0046616085 -0.000334881
000030 26 dc 80 3d 97 7b 9f bd df 87 1a bd 7e 4f e7 bd
       0.0629199 -0.07787245 -0.037727233 -0.11294459
000040 d4 35 f2 3c f1 1c ad bd d9 78 a4 3c 07 e7 9e 3d
       0.029566683 -0.08452786 0.020077156 0.07758909
000050 0b fe ff 3c 3c e2 d3 3d 29 22 c4 3d 70 d3 91 3d
       0.031249067 0.10345885 0.09576828 0.07120407
000060 1e 88 bf 3d 10 b8 55 bd 69 d0 95 3d 31 00 05 bd
       0.09352134 -0.05217749 0.07315142 -0.032470886
000070 b4 26 f9 3d a0 5b f5 bb 52 d8 b0 3d 99 83 40 bc
       0.12165585 -0.007487729 0.0863501 -0.011750125
000080 2e a5 9d 3d 42 59 2e bd f3 bb 80 bd 25 98 56 3b
       0.07697521 -0.04256559 -0.062858485 0.0032744494
000090 9d aa c5 bd e4 6f f0 3d b2 3a f4 bd f8 38 8b 3d
       -0.096516825 0.117400914 -0.11925258 0.06797975
0000a0 b9 15 8f 3d 83 ac 2f 3d 01 23 5a 3d 4e 91 51 bd
       0.06986565 0.04288913 0.05325604 -0.051163964
0000b0 22 eb a8 3c 2e 33 23 bb 03 d6 7e 3d 11 52 10 bc
       0.020619933 -0.0024902332 0.062215816 -0.008808629
0000c0 d9 93 b9 3d 00 5a ef 3d d6 dd a9 3d 9f 3a 46 3d
       0.09061403 0.11687088 0.08294265 0.04839575
0000d0 5a 64 f5 3d cb 56 13 3d 0f 22 d6 3d 93 46 cb 3d
       0.11982031 0.035971444 0.10455715 0.0992557
0000e0 69 73 4a bd 88 90 9d 3c 34 10 f8 bc 75 c3 83 bd
       -0.04942647 0.019233957 -0.030281164 -0.06433765
0000f0 2c de e1 3d 92 92 b3 3c 59 51 50 bc bd 7b ce 3c
       0.11028704 0.021920476 -0.012714707 0.025205487

net.3.lin1.weight f4 [64, 64]
000000 60 de c3 3d 81 23 6a bd f8 2e ad 3d b3 72 e0 3d
       0.09563899 -0.057162765 0.08456224 0.10959377
000010 58 64 90 3d 3a a4 7d 3d 08 b9 06 3e 12 5a 35 bd
       0.07050389 0.061924197 0.13156521 -0.04427535
000020 31 64 af 3d f0 c7 75 3d 74 68 b8 3d 64 a3 e2 bd
       0.08564032 0.06000513 0.09004298 -0.110663205
000030 53 50 77 bd 6a 04 e3 3d 4d d6 4f bd 9b 6f 79 bd
       -0.060379338 0.11084826 -0.050741483 -0.06089745
000040 03 84 db 3c a0 d0 99 bd 1f 17 94 bd 7d 32 9d 3c
       0.026796347 -0.07510495 -0.072309725 0.019189114
000050 0a a2 8a 3d 98 d6 35 bc ab 29 27 3c 16 d2 e4 bd
       0.06769188 -0.011098526 0.0102028055 -0.11172883
000060 0a 68 c8 3d 66 ed 89 3d 66 0c c7 bd 62 c4 d9 3c
       0.09785469 0.06734733 -0.09719162 0.0265829
000070 e3 b4 f6 3d 14 2b 90 bd 23 fa 56 3d 54 bc e5 bd
       0.1204622 -0.070394665 0.052484643 -0.11217561
000080 cc b9 03 3e a2 a4 03 bd 51 c7 a3 3c 6e a5 e2 3d
       0.12863845 -0.032139428 0.019992502 0.110667095
000090 f7 9e 20 3d a6 b1 06 3e 77 94 7a bd 6d 6c fb 3d
       0.0392141 0.13153705 -0.061176743 0.1227654
0000a0 60 18 97 bd fa 6b 5b 3d 11 b6 35 3d 1e 40 a3 3d
       -0.07377696 0.05356977 0.044363085 0.07971214
0000b0 49 e8 e8 3d 69 2c b4 bd 90 67 bd 3c 8b 08 87 3b
       0.1137243 -0.08797533 0.023120672 0.0041208914
0000c0 19 2a be 3c 0d 2f d3 3d a5 55 e2 bd 09 06 ba bc
       0.023213433 0.103117086 -0.11051492 -0.022707956
0000d0 8d c9 a4 3d c6 b6 d3 3d 2a e9 5a bd 39 56 9c 3c
       0.08046255 0.10337596 -0.05344502 0.019084083
0000e0 c8 2e 44 3d bd 0f e5 bd cf bf 09 be e4 99 1d 3d
       0.047896177 -0.111846425 -0.13452075 0.03847684
0000f0 0a 68 a5 3d 4f b9 b8 bb 0b 1b 49 3d f4 fc ab 3d
       0.080764845 -0.005637325 0.049098056 0.08397856
000100 18 1d 0f 3d a5 59 c5 3d a5 18 a2 3d be d7 f4 bd
       0.034939855 0.09636239 0.07914857 -0.11955212
000110 f8 a7 63 3c 99 0c be bc c6 0e 53 bd 30 2d d9 3d
       0.013895027 -0.023199366 -0.05152776 0.10604322
000120 f0 cb f9 bc 4c e3 da bd 77 77 c9 bd 3f a7 4a 3d
       -0.030492753 -0.10687885 -0.09837239 0.049475905
000130 7a 37 db 3d fc 6f e4 3d d5 1e 9f 3d bc 3e 77 3d
       0.10703941 0.11154172 0.077695526 0.060362563
000140 96 b7 d4 bd cb 86 de bd 42 fd ad bc 7d 99 c1 3b
       -0.10386579 -0.108655535 -0.021238927 0.00590819
000150 79 02 c7 bd 7d a6 5a 3d 0f 75 60 3d 34 b4 d4 bd
       -0.097172685 0.05338143 0.054799136 -0.103859335
000160 e6 2f 08 3c fa 72 08 be f0 0a ce 3d 59 15 df bd
       0.008312201 -0.1332511 0.1006068 -0.108927436
000170 e7 74 ef 3d 68 2d 42 3d cf fb 56 3d 4a 9e 3d 3d
       0.11692219 0.047406584 0.052486237 0.046293534
000180 ff 5d 83 bd 96 4c 03 3d 50 1f 8a 3d d0 92 57 3b
       -0.06414413 0.03205546 0.06744254 0.0032893904
000190 5b 1e c1 3c d0 c3 9e bb 2c aa 79 3c 62 8a 51 3d
       0.023574045 -0.00484512 0.015238326 0.051157363
0001a0 b1 11 eb bd ee c8 dc 3d ac d5 37 3c 33 62 79 bc
       -0.11477984 0.10780512 0.011220377 -0.015221166
0001b0 c2 42 b0 bb cf 7d ae 3b 9c 6d ae bd 7c 87 95 bd
       -0.005379052 0.005325056 -0.08517 -0.07301232
0001c0 38 49 9c bd 12 3a 86 bd 2b 48 29 3d 9a 9f 31 bc
       -0.07631153 -0.06554045 0.04132859 -0.010841275
0001d0 98 84 61 bd 00 78 5e 3d 25 9f d6 bd 1d 19 5c bd
       -0.055058092 0.05431366 -0.10479573 -0.053734887
0001e0 1e c7 98 3d 5b f4 9a bd 20 dd 86 3d 87 02 7d bd
       0.074598536 -0.07566138 0.06585145 -0.06176999
0001f0 24 cd 6d bd e0 11 5a bd 03 60 9e bc 42 e7 e6 3d
       -0.058056965 -0.053239703 -0.019332891 0.11274578
000200 4d ab ae 3d 77 28 78 3d 51 2c 0c bd b2 77 32 bc
       0.08528767 0.060585465 -0.03422195 -0.010892795
000210 d0 fa 7b 3d 83 9c 2e 3d 11 6f 21 bd 41 30 d9 3d
       0.06151849 0.04262973 -0.03941256 0.10604907
000220 60 b8 3b bd e7 34 e6 3d 2c 97 9b 3b e4 3e e3 3d
       -0.04583013 0.11240559 0.0047482457 0.1109598
000230 5a 48 f8 3d 6c 3e b9 bc 14 20 d1 bc 86 dd a7 bc
       0.12123175 -0.022612773 -0.025527991 -0.020491373
000240 5b 87 93 bd 99 ac 29 bd 59 c4 20 3d 02 ab dd bd
       -0.072035514 -0.041424368 0.03924975 -0.10823633
000250 d0 2e 5f 3d 30 7f df 3d 9c 0a e1 3c bf 83 86 bd
       0.054488003 0.10912931 0.02747088 -0.06568097
000260 40 f0 02 3e bc 45 de 3b 12 f4 ea bd 58 9f e5 3d
       0.1278696 0.0067832153 -0.11472334 0.11212033
000270 d1 fc 72 3b 72 4a 8c 3a 08 37 24 bd e2 aa 94 3d
       0.003707696 0.0010703339 -0.040091544 0.07259156
000280 98 3d 17 3d 2d 0a 20 bd 11 99 3f bd 65 3a af 3d
       0.036923975 -0.039072204 -0.046776835 0.0855606
000290 8d 5e a8 3c 04 1a 68 3d 94 74 87 bd 2e 69 e9 3d
       0.020552898 0.056665435 -0.066140324 0.113970146
0002a0 49 f7 b8 bd 53 b9 d6 bd 53 62 d2 3d bd b9 77 bb
       -0.09031541 -0.104845665 0.1027266 -0.0037799918
0002b0 79 6f 1e 3d a1 0d 01 be d8 c2 89 3d 48 73 6a bb
       0.038680527 -0.12602855 0.067266166 -0.003577428
0002c0 f0 06 db bb f0 c9 4d bd 55 51 6a bd 46 d1 53 3d
       -0.0066841766 -0.05024141 -0.05720647 0.05171325
0002d0 89 e7 b5 bc 50 7b a7 3d a6 ee 9b bc 70 56 81 3d
       -0.022205131 0.08177817 -0.019034695 0.06315315
0002e0 fe e8 27 bc 20 78 d6 3d 40 a6 a0 3c 66 bf 57 3d
       -0.010248421 0.10472131 0.019610524 0.052672766
0002f0 41 1f 0e bc 3e cb ef bd 8c d7 3f 3d a3 a2 b9 3d
       -0.008674444 -0.11708687 0.04683642 0.090642236
000300 18 bd b1 3d 72 cb ce 3d 68 cb d7 bd 38 0f 8c bd
       0.08678645 0.10097398 -0.105368435 -0.0683884
000310 99 39 ea bd 89 f0 a9 bd f8 2c 46 3d 2a 5a a2 3d
       -0.11436767 -0.082978316 0.04838273 0.07927354
000320 04 30 73 3d cd 5e e8 bd 67 a4 1d 3d 20 39 73 3d
       0.059371963 -0.11346207 0.038486864 0.05938065
000330 f3 91 b0 3d 2a c2 94 bd 8e 1b 9a 3d 87 b5 29 3d
       0.086215876 -0.07263596 0.07524787 0.041432884
000340 95 13 c0 bd 15 af 79 bd 64 a3 00 3d 2a 86 c1 3d
       -0.09378735 -0.060957987 0.03140582 0.09449418
000350 75 c1 dc bd 7f 6e a0 3c b9 aa 6e 3d 00 c9 31 3d
       -0.107790865 0.019583939 0.058268283 0.04340458
000360 63 b5 08 3e 89 67 f2 3d 93 be 3e 3d cc 5f dd bd
       0.13350444 0.11836154 0.046568464 -0.108092874
000370 70 ad 78 bb 6b d2 eb bd c3 c4 83 3c 20 4c da 3c
       -0.0037945174 -0.115147434 0.016085034 0.026647627
000380 33 69 8b 3d 28 3c 2d bd 4d a9 3d bd 44 d1 ef bc
       0.068071745 -0.042293698 -0.046304036 -0.02927459
000390 b4 92 2b bd c5 1c d8 3d a3 3b 0f 3d af 2f 6d bd
       -0.041887954 0.10552362 0.034968983 -0.057906803
0003a0 8d 09 49 bd 56 20 f1 bd 6b 86 1e bd 1b 0b 92 3d
       -0.049081374 -0.11773746 -0.03870241 0.071310245
0003b0 1c 4b 05 3b 58 cd f8 bb d7 8a 98 3d 65 f6 26 bc
       0.0020338958 -0.0075928383 0.074483566 -0.010190581
0003c0 12 23 b8 3b 44 d2 46 3d b2 e8 98 3d f3 e6 f0 3d
       0.005619415 0.04854037 0.07466258 0.117628
0003d0 a8 f1 e4 bd f0 18 75 3d 6c e4 82 bd 45 49 a7 bd
       -0.11178905 0.059838235 -0.06391224 -0.08168272
0003e0 80 8a cc bc 09 7c bc 3d f7 b1 1d 3d 51 ca 1c bd
       -0.024968386 0.09203345 0.0384998 -0.03827888
0003f0 cf 7b cb bd 35 05 cf 3c db 36 36 bd 36 54 ee 3d
       -0.09935724 0.025271038 -0.044485908 0.11637156

net.3.lin1.bias f4 [64]
000000 70 43 d1 bd dc ba f9 bd c5 31 d5 bd f7 1c 8a 3d
       -0.10217941 -0.12193844 -0.104098834 0.06743806
000010 a0 c9 19 3b eb 37 a2 bd ef ad de bd 2b b3 c2 bd
       0.0023466125 -0.07920822 -0.10873019 -0.0950683
000020 d0 ef 77 bc 81 63 3b bd a3 51 b4 3d 3d c5 81 bd
       -0.015132859 -0.04574919 0.088046335 -0.06336448
000030 85 f0 92 bd a7 35 eb bc 32 f1 8a bd 5d bd 3c 3d
       -0.07174782 -0.028712107 -0.067842856 0.04607903
000040 bb bf d0 3c ec c8 aa bc 6b d0 1e bd ce 00 f6 3b
       0.02548205 -0.02084776 -0.03877298 0.00750742
000050 bc e0 12 3b ce 4b cd 3d 77 26 9a bd 91 b2 aa bd
       0.0022411784 0.10024224 -0.07526868 -0.0833484
000060 4f ae ac 3d 54 d5 27 3d ba a7 d6 bd a8 c5 31 3d
       0.08431684 0.04097493 -0.1048121 0.04340139
000070 e9 0e 59 bd 99 f8 a2 bd 85 45 a7 bd 82 68 02 3e
       -0.052992735 -0.079575725 -0.08167557 0.12735179
000080 bd d0 0b 3d 33 f0 09 3e 07 35 c8 3d d5 05 97 3c
       0.034134615 0.13470535 0.09775739 0.018435398
000090 8e aa b9 bd 3a fb 46 bd 6c 0f b4 3d 5c 13 00 bd
       -0.09065734 -0.048579432 0.08792004 -0.031268463
0000a0 57 35 0e bd 7a 64 a6 bc f5 02 72 3d 65 90 d4 3d
       -0.034718838 -0.020311583 0.05908485 0.103791036
0000b0 72 c9 f8 3d 82 f7 ba 3c 60 37 22 3c 2c 14 ed bc
       0.12147798 0.022823099 0.009900898 -0.028940283
0000c0 cf 41 c9 bc e7 ca 93 bd 49 40 b0 3c 7f 73 34 bc
       -0.024567513 -0.07216435 0.021515029 -0.011013865
0000d0 dd 72 f7 bd 07 0a 1c 3d 39 3b e9 bd 43 9a 93 3d
       -0.12082455 0.0380955 -0.11388249 0.072071575
0000e0 09 29 a5 bc c1 47 19 3d cf 3c 7e 3d 2a 82 86 3c
       -0.020161169 0.037421945 0.06206971 0.016419489
0000f0 ae 6f d2 bc d8 db d4 3d 86 ad 99 bd b4 81 2d bd
       -0.025688019 0.10393494 -0.075038 -0.042360023

net.3.lin2.weight f4 [64, 64]
000000 3e 32 07 be a8 50 b7 3d 4a e0 b9 bd 57 11 c1 bd
       -0.1320276 0.08950931 -0.09075983 -0.094271354
000010 7d 41 80 bd c6 d5 c4 3c 9c c2 d6 bd ae ff f3 3c
       -0.06262491 0.024027716 -0.104863375 0.029785004
000020 68 06 0a bd 68 12 74 3c 81 e9 8b 3d 14 55 c1 bd
       -0.033697516 0.0148969665 0.06831647 -0.094400555
000030 12 fa e8 3d c3 7d e0 3d 43 88 a6 bd 46 89 a6 3d
       0.11375822 0.10961487 -0.081314586 0.081316516
000040 7f e4 af 3d 0f 19 1d 3d d9 92 b5 bc a8 48 b4 3d
       0.08588504 0.038353976 -0.022164749 0.088029206
000050 0b 2b fb 3d 15 33 5d bd 16 41 1e bd b3 a0 c6 3d
       0.12264069 -0.054003794 -0.03863629 0.0969862
000060 fe b0 de bd 6a b0 97 3d a5 86 af bd 27 50 c1 ba
       -0.10873602 0.07406695 -0.08570603 -0.0014748619
000070 3e 45 59 3d d7 7b 3a 3c 3b 45 a1 3d 77 fb 6b bd
       0.05304455 0.011382065 0.07874533 -0.057612862
000080 e3 2f bc 3d 21 0f 68 3d 03 38 2e 3b 20 27 18 bc
       0.09188821 0.056655053 0.0026583679 -0.009286672
000090 bf 82 67 3c c6 4c e5 3d 12 15 4d bd d9 f9 bf bd
       0.014130293 0.11196284 -0.050068922 -0.093738265
0000a0 ca c2 1c 3d 72 5b fe 3d 3b eb 4b 3d c2 2c 92 bd
       0.038271703 0.124197856 0.04978488 -0.07137443
0000b0 d5 e8 fa bd c9 cd 73 bd 79 5d ae bc 8a ac ff bd
       -0.122514404 -0.059522424 -0.021284806 -0.12484081
0000c0 d2 ad bb bd e5 9c 93 bd ff 33 dd bd db ab 3f 3d
       -0.09164013 -0.0720766 -0.10800933 0.046794754
0000d0 d8 e0 b4 bc b4 d2 3f bd 33 2d db 3d d6 9e 8c bd
       -0.02207987 -0.0468318 0.107019804 -0.06866233
0000e0 81 b8 6f 3c ef b1 d4 bd 92 1c 60 bc 75 0c 5c 3c
       0.0146313915 -0.10385501 -0.013678687 0.013430704
0000f0 bc 3c 5c 3d 02 2d e9 bd 88 4a 8a 3d 1e ac 43 bd
       0.05376886 -0.11385538 0.06752497 -0.047771566
000100 53 3f 1b 3d 80 18 99 bd 7f 80 b3 3d 1c 97 54 bd
       0.037902188 -0.07475376 0.08764743 -0.05190192
000110 8e 31 ab bd 08 cb a4 bd 62 b6 96 3d 66 f2 d9 3d
       -0.08359061 -0.08046538 0.073590055 0.10641937
000120 ae e5 c5 3d 56 f6 91 3d f1 f1 41 bd 15 65 07 3d
       0.096629485 0.07127063 -0.047349874 0.033055384
000130 46 53 00 be 7a 06 b8 3d 0e 33 b6 3d e3 07 08 3d
       -0.12531766 0.0898561 0.08896457 0.033210646
000140 d3 55 04 be 84 09 df bc 91 eb b6 bd 00 65 01 be
       -0.12923364 -0.027226217 -0.089316495 -0.12636185
000150 f6 47 29 3d 90 00 ea bd 5c 8e 63 bd a4 43 00 3a
       0.041328393 -0.114258885 -0.055555686 0.0004892892
000160 57 7e 25 3a 23 36 89 bd 3b 93 f5 3d 16 33 6b bd
       0.00063130766 -0.06699779 0.119909726 -0.057421766
000170 65 c4 cc 3d e6 69 f2 3d 6b e7 b7 3d 62 79 69 bd
       0.09998397 0.11836605 0.08979686 -0.057000525
000180 0c a9 bf 3b b3 9d 3a bd df 82 bd bd 4c 75 99 3d
       0.0058490094 -0.04556055 -0.09253477 0.07493076
000190 a5 81 7c 3d de f8 cd 3d a6 27 6c 3b d2 d1 27 3d
       0.061647076 0.10057233 0.0036034374 0.040971585
0001a0 cc 92 c9 bd 6b 9b 5b bd eb 5f 2f bd 96 c9 12 bd
       -0.098424524 -0.053615015 -0.042816084 -0.03583678
0001b0 1e 9b 83 3d 40 b3 00 be f5 7e 0e 3d e5 ec a7 3d
       0.06426071 -0.12568378 0.034789044 0.08199481
0001c0 5d 4c 07 bd f3 04 e9 bd 17 61 d7 bd ce f7 f6 bd
       -0.03303181 -0.11377897 -0.10516565 -0.12058984
0001d0 d7 e1 8f 3d 3c cb 9d bd 91 61 34 bc c8 f1 88 3d
       0.070254974 -0.077047795 -0.01100959 0.06686741
0001e0 e4 af a9 bd b9 b4 d6 bc 2b 3f 82 3c e6 0f 72 bd
       -0.082855016 -0.026209222 0.015899261 -0.059097193
0001f0 96 9a 32 3d e1 44 73 bd ef 7a f8 3d c2 ff a6 3d
       0.043604456 -0.05939186 0.12132823 0.08154251
000200 91 3e be 3b e4 a3 cf bc 26 05 a2 bd b2 3c f7 3c
       0.0058057983 -0.025346704 -0.07911138 0.030180309
000210 87 06 3e bd 07 90 a0 bc 6b 98 e7 3d 36 0d a9 bd
       -0.046392944 -0.019599928 0.11308368 -0.08254473
000220 c4 00 14 3d 25 79 56 3d 64 00 e1 bc 04 6d e6 3d
       0.036133543 0.052361626 -0.027466007 0.11251262
000230 c6 4b 86 3d 14 67 31 3c 85 c4 80 3d 16 8d db 3c
       0.065574214 0.010827798 0.06287483 0.026800673
000240 47 67 57 3d 3b a8 1e bd b2 14 c0 3d 51 f6 0f bd
       0.052588727 -0.038734656 0.09378947 -0.035147015
000250 21 48 73 bd c6 97 04 be 62 ea 5b bc ca 93 6e bd
       -0.05939496 -0.12948522 -0.01342258 -0.05824641
000260 93 4f 8c 3c 2a bf a0 bd 43 ef 65 bd 1d 3f d6 3d
       0.017127788 -0.07848962 -0.05613638 0.10461257
000270 e6 d5 4a bc 95 c9 0e bd 32 78 c8 bd e0 5b 01 bd
       -0.012380099 -0.034860212 -0.097885504 -0.03158176
000280 aa bd 81 bd 82 df ac bd 53 6d bd bd 3b 04 60 bd
       -0.06335004 -0.08441068 -0.092493676 -0.054691534
000290 76 e5 51 bc cf b5 a9 bc 15 66 13 bd 28 05 c4 ba
       -0.012811055 -0.020716576 -0.035986025 -0.001495515
0002a0 db d1 b7 bd a0 bc 95 3d 13 bd e9 bd 30 b1 c8 3d
       -0.08975574 0.07311368 -0.11413016 0.09799421
0002b0 ae f2 bc bb e5 ec c4 3c 5d b1 30 bd 97 12 b5 bd
       -0.0057662344 0.024038741 -0.043137897 -0.08841436
0002c0 9a fb b0 3d 6e 80 e0 3c c8 bb 84 bd 26 5b 1b bd
       0.08641739 0.02740499 -0.06481129 -0.037928723
0002d0 d1 9c 4d 3c 38 20 cf bd bb 1d 6e 3d 27 1f 68 3d
       0.012549595 -0.10113567 0.058133822 0.056670334
0002e0 97 74 ce bc 6b ca 48 3d 4a a0 fe 3d ea 5d a5 bd
       -0.025202079 0.049021166 0.124329165 -0.08074553
0002f0 e7 67 9d bd b8 b9 d5 3d b7 07 95 3c f4 a5 f3 3b
       -0.076858334 0.10435814 0.018192155 0.0074355546
000300 11 7f 66 3d be 91 b9 bb e4 d5 43 bd 3e 7d d2 bd
       0.056273524 -0.005663126 -0.047811404 -0.10277794
000310 1a bd 7f 3d 7d 9d d4 bd 00 80 cc bd 67 3c 1e bd
       0.0624362 -0.10381601 -0.099853516 -0.038631823
000320 0e 6a 96 bd e6 f9 c6 bc a9 a9 e1 bd 80 04 51 3b
       -0.07344447 -0.024289083 -0.11018688 0.0031893551
000330 24 8c d5 bd 32 5b 7c 3d da b6 3a bd 93 f5 8b bd
       -0.1042712 0.061610408 -0.045584537 -0.06833949
000340 dc 9c aa 3d 61 58 89 bd 70 bc f6 bc 73 61 67 bd
       0.083307 -0.0670631 -0.03011915 -0.05648942
000350 c2 98 c8 3d 4b 6a 26 bd c3 a3 dd 3c 06 df 9f bb
       0.09794761 -0.040628713 0.027055627 -0.0048788814
000360 34 0c f8 3d 8c ea 8a bd 29 42 aa 3d c6 8a ff 3d
       0.121117026 -0.067830175 0.083134 0.12477641
000370 c8 03 ec bd ec 37 d0 3d 0f 08 70 3c 92 8a 93 3d
       -0.11524159 0.10166916 0.014650359 0.072041646
000380 a6 af b7 3d 24 05 8b bc 46 be 9e 3d 3e 96 e7 bd
       0.08969049 -0.016970225 0.077511355 -0.11307953
000390 c6 66 9a 3d fa 7a d9 3c 9e 1b 99 bd 57 1a ac bd
       0.07539134 0.026547898 -0.07475971 -0.084034614
0003a0 16 9f 64 3d 69 d0 7b bd b1 15 8e bd b1 96 40 3d
       0.05581578 -0.061478052 -0.06937731 0.04701871
0003b0 82 81 9a bd 77 87 04 3e 22 de a6 3d f2 80 11 3d
       -0.07544233 0.129423 0.08147837 0.035523362
0003c0 37 09 f7 bd 07 c3 ba bc 90 c8 13 3d bf 98 df bd
       -0.120623045 -0.022798074 0.036079943 -0.10917806
0003d0 4c 0b d2 3d 5b 23 d4 3d 83 b4 00 bc 04 40 cf bd
       0.10256061 0.10358306 -0.007855537 -0.10119632
0003e0 ee 89 b3 bd 67 4d 0d 3d 8a a6 f0 3c eb 67 b4 3d
       -0.087665424 0.034497645 0.029376287 0.08808883
0003f0 d0 fb 66 3d ba f6 d1 bb 67 c4 d1 bd 2a ee ab bd
       0.05639249 -0.006407586 -0.10242539 -0.083950356

net.3.lin2.bias f4 [64]
000000 8d 57 b1 bd 69 5c ad 3d e9 9c 78 bd 1e a6 c6 3d
       -0.08659277 0.084648915 -0.060696516 0.09699653
000010 14 ec 08 3e b5 db 98 bd 71 56 c0 bd 09 2d c5 bd
       0.13371307 -0.07463781 -0.093914874 -0.096277304
000020 bc 09 c4 bd cb d5 3f bd 52 6e 90 bd 14 55 cb bc
       -0.09572169 -0.04683475 -0.07052292 -0.024820842
000030 04 81 2d bd 79 57 02 be fe 5e 42 3d 21 8b 94 bd
       -0.042359367 -0.1272868 0.047453873 -0.07253099
000040 34 92 cf bc 5e 76 73 bd 3b e7 95 3d 04 09 54 3d
       -0.02533827 -0.059439056 0.07319494 0.05176641
000050 7b 11 c6 bd 17 45 cc 3d 85 2d c0 3d f7 9a db 3c
       -0.09671303 0.09974115 0.09383682 0.026807291
000060 a6 00 5c ba 16 6d 88 3d a9 0b 90 3d 5f 04 09 3e
       -0.00083924306 0.066614315 0.07033474 0.13380574
000070 b5 16 b4 3d 42 28 d6 3c e6 04 d9 3d 1e 9b 9e bb
       0.087933935 0.026142243 0.105966374 -0.0048402688
000080 d3 c5 e0 ba c3 e5 97 bd 1c 9e 37 3d fa 93 0b 3d
       -0.00171488 -0.074168704 0.04482852 0.03407667
000090 e2 0d 85 bd 7b 23 7e bd 0c 3e 0f bd d4 c6 e1 3d
       -0.064967886 -0.062045556 -0.034971282 0.110242516
0000a0 40 7d 8e 3b 4c bc 28 bd a6 aa 54 3d da 4d b5 bd
       0.004348427 -0.0411952 0.051920556 -0.0885274
0000b0 4d b3 f8 3d b7 de a5 bd 21 8a 92 3d 2a 3e 5f 3d
       0.12143574 -0.0809912 0.07155252 0.054502644
0000c0 8c aa ad 3d 7e bd c1 bc 5a 37 4d 3c fe f3 c9 3d
       0.08479795 -0.023649927 0.012525404 0.09860991
0000d0 60 14 1f 3d 32 11 98 bd 2d 5d d9 bd a8 02 df bc
       0.03883779 -0.07425155 -0.10613475 -0.027222946
0000e0 fa d4 2f bb 77 2a 90 3d 3b 57 be bd e3 c2 0c 3d
       -0.0026829825 0.070393495 -0.09293982 0.034365546
0000f0 60 6c 1a 3c 7c 20 05 3e dd fd 36 bd 77 0e 35 3d
       0.009425253 0.13000673 -0.044675697 0.044203248
