data/trained_models/base_mu1_a_resnet.pth (torch, 201902 bytes, 15 tensors)

net.0.weight f4 [64, 374]
0.016041888 -0.04771979 -0.021107435 -0.004334391 -0.044164073 -0.05024582 0.036764666 -0.062957756
-0.0016403336 0.01702738 -0.027877001 0.044675466 -0.0009878611 0.07175218 0.010077181 0.11609414
-0.035519645 0.024598993 -0.03767273 0.07169497 -0.02737572 0.044080663 0.022758842 0.022908103
0.018291667 -0.03991064 0.04676248 -0.0559478 -0.051233865 0.0072843116 -0.006451631 0.006462166
-0.027622188 -0.03435836 -0.037990563 0.0015044344 0.018191757 -0.064352624 -0.0009221795 -0.017942425
-0.018495271 -0.07425083 0.010950832 0.042857748 -0.0448237 0.029307883 0.03928918 -0.024885066
0.03611933 -0.07684003 -0.007360218 -0.034878485 0.03797538 0.009508025 -0.008615882 0.031233462
0.0032823589 -0.007974753 0.036220614 -0.0334891 0.04168364 0.04674654 -0.03901793 0.030037675
-0.039276917 -0.034276083 -0.055511214 0.0014368506 -0.04100266 -0.0133903995 -0.017620336 -0.021743488
-0.0020488137 0.049000245 -0.04448475 -0.03763028 0.0034582946 0.024714852 0.0040296866 0.0728161
0.0008190063 0.14602926 0.051184554 0.09683247 0.021576859 0.03878665 0.04250775 -0.00744121
0.0044551333 0.013630249 0.007645173 0.0008593097 -0.047279075 0.04028527 -0.027863627 0.0021825838
-0.00031810527 -0.02884469 0.062966004 -0.0037263737 0.0931967 -0.036848247 -0.009474078 -0.051373508
-0.00038236726 0.027346462 0.03676754 0.0063637155 0.049084615 0.004925891 -0.03330925 -0.010238791
0.030908737 -0.011242365 -0.044073112 -0.031049285 0.04354587 0.06823175 -0.004977002 0.01868689
-0.047144707 0.035314973 0.018972665 0.040001158 -0.049414434 -0.0074357893 0.0057101985 0.010054367
-0.0724336 0.034227584 0.0027061435 0.09238991 -0.031698182 0.0043857796 -0.03269331 0.035759326
0.0053699827 -0.0039643175 0.0035263237 0.03109758 0.030818602 0.040306468 -0.05528071 0.025119439
-0.03084826 0.027922954 0.04462472 0.021347864 0.00835574 0.029584307 0.014284492 0.041280534
0.01832828 -0.046102103 -0.029038625 -0.049334034 -0.024158254 -0.0020660488 0.02831683 0.047668677
-0.046017185 0.044279013 0.007578435 0.0194299 0.039949797 0.03647667 -0.014565796 -0.01286304
-0.0074431207 0.027797733 0.027613942 0.020709857 -0.0042644506 -0.0029833494 0.03155606 0.03674182
0.031800117 -0.0050424105 0.0011941736 -0.01249278 -0.05116158 0.011997774 0.021311283 -0.026424726
0.049373727 0.01266478 0.016053379 0.048986804 -0.034933135 0.024335679 -0.016390901 0.008649973
0.009449439 -0.003621093 0.038894083 0.0065417904 -0.0006076972 -0.026755452 -0.04478807 0.011372418
-0.02747916 0.00886912 -0.019141551 0.011165735 -0.053682152 -0.023535658 0.016514637 -0.029440159
-0.025018696 0.040317252 -0.025387855 -0.04443583 -0.033460215 0.010609772 -0.061694592 -0.03470096
0.02901328 -0.048746396 0.014805522 -0.022296099 0.04208775 -0.0019734977 -0.01593834 0.017809723
-0.04378779 -0.026221493 -0.011695305 -0.046176836 0.023321448 -0.036284015 0.02510908 0.048174378
0.017637702 0.016133834 0.03214204 -0.024566876 -0.013538185 -0.0067451866 -0.030346738 -0.05047743
-0.06926416 -0.004683048 -0.060802884 -0.015525763 0.040475316 -0.05286693 -0.037876923 -0.014647644
0.028690744 -0.03609361 -0.0066522374 -0.031388797 -0.0006177145 -0.016668918 0.030360837 0.0038668765
00000000: 476a 833c d475 43bd 80e9 acbc 8207 8ebb
00000010: 63e5 34bd 90ce 4dbd 8c96 163d ffef 80bd
00000020: 7600 d7ba 017d 8b3c 4f5e e4bc 9ffd 363d
00000030: 1e7b 81ba cff2 923d c31a 253c c4c2 ed3d
00000040: 0c7d 11bd d483 c93c b84e 1abd d0d4 923d
00000050: 0c43 e0bc ed8d 343d c070 ba3c c6a9 bb3c
00000060: 68d8 953c 5779 23bd 048a 3f3d 8529 65bd
00000070: 9ada 51bd 3cb1 ee3b 3468 d3bb 94c0 d33b
00000080: ed47 e2bc 5abb 0cbd fe9b 1bbd 7130 c53a
00000090: e106 953c 4fcb 83bd 6bbe 71ba fefb 92bc
000000a0: 6583 97bc d210 98bd 1e6b 333c 9b8b 2f3d
000000b0: 0e99 37bd 1617 f03c b1ed 203d c4db cbbc
000000c0: ddf1 133d 4e5e 9dbd fc2d f1bb bedc 0ebd
000000d0: 128c 1b3d 8cc7 1b3c a129 0dbc 51dd ff3c
000000e0: d81c 573b 8aa8 02bc 115c 143d de2b 09bd
000000f0: 77bc 2a3d 4d79 3f3d 44d1 1fbd 9211 f63c
00000100: d5e0 20bd 1465 0cbd ba5f 63bd b554 bc3a
00000110: 68f2 27bd 6863 5bbc 8658 90bc 661f b2bc
00000120: 6445 06bb 7bb4 483d a435 36bd 3522 1abd
00000130: 8ea4 623b cd76 ca3c 760b 843b 9c20 953d
00000140: 95b2 563a b288 153e e5a6 513d 1a50 c63d
00000150: f4c1 b03c c0de 1e3d 9b1c 2e3d 65d5 f3bb
00000160: 5efc 913b 6851 5f3c 5c84 fa3b 4c43 613a
00000170: b4a7 41bd 2b02 253d 4342 e4bc ae09 0f3b
00000180: 5ec7 a6b9 b34b ecbc 52f4 803d 2d36 74bb
00000190: e9dd be3d 30ee 16bd 2a39 1bbc 076d 52bd
000001a0: 7778 c8b9 b005 e03c 8f99 163d b786 d03b
000001b0: f30c 493d 5e69 a13b 486f 08bd 9ac0 27bc
000001c0: 5234 fd3c e631 38bc 0286 34bd 125b febc
000001d0: 275d 323d 16bd 8b3d 1e16 a3bb 4015 993c
000001e0: cf1a 41bd 6fa6 103d 906c 9b3c 41d8 233d
000001f0: ca66 4abd eca7 f3bb 9e1c bb3b 12bb 243c
00000200: 1158 94bd 3932 0c3d 8e59 313b ec36 bd3d
00000210: f4d5 01bd 96b6 8f3b 6ce9 05bd 5f78 123d
00000220: aef6 af3b 1be7 81bb e519 673b 5ac0 fe3c
00000230: 4b77 fc3c 6518 253d 076e 62bd 48c7 cd3c
00000240: 7db5 fcbc aebe e43c 69c8 363d b7e1 ae3c
00000250: 84e6 083c ca5a f23c 8009 6a3c c715 293d
00000260: 3025 963c 8fd5 3cbd 69e2 edbc 7c12 4abd
00000270: 88e7 c5bc 8c66 07bb b2f8 e73c 3b40 433d
00000280: 847c 3cbd e95d 353d 8554 f83b 742b 9f3c
00000290: 66a2 233d 9068 153d 60a5 6ebc 80bf 52bc
000002a0: 6ce5 f3bb 12b8 e33c a236 e23c b8a7 a93c
000002b0: cebc 8bbb 4c84 43bb ed40 013d 977e 163d
000002c0: d740 023d ce3a a5bb d185 9c3a 84ae 4cbc
000002d0: ce8e 51bd 5092 443c 0095 ae3c ab78 d8bc
000002e0: 1b3c 4a3d f07f 4f3c 6082 833c 63a6 483d
000002f0: 0c16 0fbd 9e5b c73c 3646 86bc 9eb8 0d3c
00000300: d2d1 1a3c dc4f 6dbb 674f 1f3d 845c d63b
00000310: de4d 1fba 402e dbbc b273 37bd 6153 3a3c
00000320: fa1b e1bc c94f 113c bece 9cbc 7df0 363c
00000330: d1e1 5bbd dacd c0bc b449 873c 7d2c f1bc
00000340: 02f4 ccbc b423 253d 31fa cfbc 5802 36bd
00000350: 940d 09bd 9cd4 2d3c 78b3 7cbd 9822 0ebd
00000360: 42ad ed3c 4daa 47bd dc92 723c 4fa6 b6bc
00000370: 3464 2c3d cc55 01bb 1f91 82bc b2e5 913c
00000380: d35a 33bd 75ce d6bc aa9d 3fbc ec23 3dbd
00000390: 9f0c bf3c 8c9e 14bd 8fb1 cd3c 7f52 453d
000003a0: f17c 903c 1a2b 843c 5fa7 033d 7940 c9bc
000003b0: 43cf 5dbc ba06 ddbb b999 f8bc 6cc1 4ebd
000003c0: 5eda 8dbd 4174 99bb 720c 79bd c55f 7ebc
000003d0: 72c9 253d fe8a 58bd d524 1bbd acfc 6fbc
000003e0: da08 eb3c e5d6 13bd 03fb d9bb 8a91 00bd
000003f0: 1eee 21ba 418d 88bc 4ab7 f83c 6c6b 7d3b

net.0.bias f4 [64]
0.031580117 0.057894334 0.03629314 0.05333443 0.019134097 -0.008506504 -0.006632771 -0.0409014
-0.004457621 -0.045722336 -0.025482804 0.032816097 0.06464141 0.028773364 0.01791675 0.015174691
0.013471778 -0.025067693 0.03216745 0.0022065707 0.023136413 0.064181805 -0.05359079 0.019682467
0.006626045 0.021178126 -0.022789096 0.029613087 0.024125902 -0.05348896 -0.010113133 0.01602354
0.007177977 0.035998236 -0.052705582 0.059709273 -0.032677267 0.054989815 -0.036045793 0.024458522
0.061101362 0.034931954 0.024946095 0.019743314 0.0146027105 0.03864634 0.051241867 -0.043821562
0.057988808 0.0518057 -0.032737825 -0.038210344 0.020563548 -0.0073921983 0.0013081677 -0.0046063866
0.046067357 -0.020004682 0.007474454 0.01047315 0.06252143 -0.0075126467 -0.02467161 0.049981378
00000000: 275a 013d 9c22 6d3d 1ea8 143d 3475 5a3d
00000010: 1cbf 9c3c dd5e 0bbc b757 d9bb 3a88 27bd
00000020: 3c11 92bb 5847 3bbd 50c1 d0bc 2c6a 063d
00000030: b762 843d 1eb6 eb3c 26c6 923c 449f 783c
00000040: bbb8 5c3c c35a cdbc 04c2 033d 1d9c 103b
00000050: 9388 bd3c c071 833d 0482 5bbd 203d a13c
00000060: 4b1f d93b c07d ad3c 33b0 babc 2597 f23c
00000070: afa3 c53c 3d17 5bbd 8eb1 25bc cd43 833c
00000080: 3c35 eb3b e372 133d cfe1 57bd b691 743d
00000090: 99d8 05bd 003d 613d c1a4 13bd 3d5d c83c
000000a0: 6c45 7a3d cf14 0f3d c15b cc3c bbbc a13c
000000b0: 3540 6f3c a04b 1e3d fee2 513d 3d7e 33bd
000000c0: ac85 6d3d 3732 543d 1918 06bd 7382 1cbd
000000d0: e374 a83c 413a f2bb d376 ab3a 2cf1 96bb
000000e0: 20b1 3c3d dce0 a3bc 44ec f43b 9397 2b3c
000000f0: 3c0b 803d a62c f6bb 1e1c cabc 46b9 4c3d

net.2.lin1.weight f4 [64, 64]
0.17006968 0.14053854 0.0156141715 -0.06803934 0.14405568 -0.094706155 -0.023331877 -0.012969172
0.05000125 0.06295304 -0.00091034465 0.033344798 0.15573576 0.13817042 -0.13954578 -0.08457702
0.12401636 -0.08658133 -0.07526137 -0.10595005 0.103165805 -0.13847882 -0.08265708 -0.14232676
0.13273856 -0.12580718 0.1340288 -0.08381776 -0.09194304 -0.14326106 0.13311782 -0.098461
0.09835791 -0.10316061 -0.0514159 0.101302445 0.08127901 -0.08752895 -0.00017637515 0.15803455
0.006413931 -0.046447963 0.15530783 -0.079069085 0.016610403 0.16109744 0.100329764 0.10708136
0.13558243 -0.15379366 -0.04135351 -0.06488311 -0.011703385 0.07870159 -0.067432806 0.061667148
-0.078040496 0.13159315 0.07790567 -0.09295924 -0.024549006 0.0809496 0.12920476 0.0045117447
-0.06995064 -0.1519376 -0.09003955 -0.045327574 -0.06469648 0.0057334173 0.11003809 -0.0033411589
-0.084028386 0.07829947 0.049997374 0.062398683 -0.124009654 -0.13249272 -0.086898595 0.0018310323
-0.025854914 -0.010969961 -0.013916964 0.049058363 0.04458649 -0.008614049 0.0013343566 -0.013107095
-0.012396334 -0.035728753 0.045101218 0.08583331 0.041486062 0.062304895 0.042071886 -0.04487164
-0.12342173 0.07343789 -0.1384999 0.073992856 -0.014502156 0.043796707 -0.107833885 0.02882407
-0.018773554 -0.05093206 -0.13147269 0.017228238 -0.09315025 -0.052680686 0.1180871 -0.10643213
-0.1048845 0.10728652 0.109592915 -0.13295777 -0.04144258 -0.04655459 -0.093602486 -0.03520932
0.031832445 -0.119701706 -0.08024211 -0.107942134 0.0491872 0.12758298 -0.098268405 0.019947866
0.0900406 0.0526673 0.03348341 -0.06734372 -0.08487484 -0.049346138 -0.007989084 0.109689176
0.1167992 -0.034538705 0.08373982 0.0951163 0.027263911 -0.097896844 0.087321885 -0.050758
0.05616167 0.004004629 -0.14209856 -0.013309227 -0.01939321 0.033657048 -0.08246641 0.08647516
-0.0037160134 -0.08750017 0.047853727 -0.013689069 0.074687615 -0.05884686 0.0049476707 -0.11180873
0.018890686 0.11523639 -0.010189702 -0.011384571 0.03982535 0.13919781 -0.0060191005 -0.112333216
0.07190167 0.011181263 -0.0038598878 0.077243604 -0.08920745 0.007888265 0.045657694 -0.1240589
0.06719718 -0.07192364 -0.10029185 -0.105438285 -0.029700262 0.056228686 0.02180321 -0.10769696
-0.06882695 -0.08508551 -0.056647003 -0.06493702 -0.09433119 0.056516465 -0.00435764 -0.05415787
0.078817524 -0.07406747 0.02662 -0.07213075 0.13717219 -0.0019325262 -0.14432068 0.0005325621
0.10355078 0.11595379 -0.047088113 -0.048600562 0.10362124 0.035196725 -0.033445157 -0.02529023
-0.047796685 0.0509896 0.0598388 0.05276426 0.11369715 -0.04842899 -0.0064951936 -0.017718652
-0.10572448 0.064607285 -0.097665794 -0.103153914 0.06775617 0.06632129 0.14670433 0.077814884
0.14272389 -0.050709438 -0.105298646 0.0839431 -0.008414172 -0.011444035 0.0910956 0.10194025
-0.028084876 -0.13022101 0.04598406 0.08231294 0.039369777 -0.107207045 0.08814582 0.11088222
0.0608141 -0.017223775 0.047326047 0.0060941037 -0.0029659795 -0.08689106 0.08330283 0.06161809
-0.094613485 0.08502678 0.07860496 0.049520876 0.08233782 -0.12533242 0.01808685 0.054414842
00000000: bf26 2e3e 56e9 0f3e 95d2 7f3c 3658 8bbd
00000010: 5583 133e 4df5 c1bd 7e22 bfbc a67c 54bc
00000020: 1cce 4c3d 86ed 803d 32a4 6eba 8e94 083d
00000030: 3279 1f3e 8c7c 0d3e 17e5 0ebe b736 adbd
00000040: 4afc fd3d 8d51 b1bd a222 9abd 57fc d8bd
00000050: 9848 d33d 64cd 0dbe 1d48 a9bd 1bbe 11be
00000060: 9eec 073e 99d3 00be d93e 093e a5a8 abbd
00000070: a24c bcbd 07b3 12be 0a50 083e eca5 c9bd
00000080: df6f c93d df45 d3bd 7b99 52bd a877 cf3d
00000090: 9c75 a63d 6142 b3bd 58f1 38b9 cfd3 213e
000000a0: f42b d23b 3840 3ebd 0409 1f3e f9ee a1bd
000000b0: 8a12 883c baf6 243e b179 cd3d 794d db3d
000000c0: 1fd6 0a3e 167c 1dbe 4c62 29bd 70e1 84bd
000000d0: 8ebf 3fbc 4d2e a13d 361a 8abd b196 7c3d
000000e0: b2d3 9fbd 5bc0 063e 028d 9f3d 6a61 bebd
000000f0: ff1a c9bc e7c8 a53d 414e 043e 42d7 933b
00000100: 4842 8fbd 8895 1bbe a866 b8bd 68a9 39bd
00000110: 977f 84bd 64df bb3b a65b e13d 58f7 5abb
00000120: 1317 acbd 795b a03d 0cca 4c3d c395 7f3d
00000130: c6f8 fdbd 2cac 07be e4f7 b1bd 40ff ef3a
00000140: afcd d3bc 5abb 33bc fa03 64bc 6cf1 483d
00000150: 53a0 363d f121 0dbc 94e5 ae3a 24bf 56bc
00000160: fe19 4bbc 5058 12bd 0ebc 383d 60c9 af3d
00000170: 4aed 293d 6b33 7f3d 9253 2c3d 53cb 37bd
00000180: 88c4 fcbd 9b66 963d ebd2 0dbe 9189 973d
00000190: 739a 6dbc 2d64 333d 03d8 dcbd 7520 ec3c
000001a0: ffca 99bc 239e 50bd c7a0 06be 3c22 8d3c
000001b0: 8fc5 bebd b4c7 57bd a6d7 f13d 17f9 d9bd
000001c0: afcd d6bd 09b9 db3d 4072 e03d 1526 08be
000001d0: b2bf 29bd 07b0 3ebd a9b2 bfbd a637 10bd
000001e0: bd62 023d 2b26 f5bd fa55 a4bd c410 ddbd
000001f0: 8478 493d 1da5 023e f240 c9bd b569 a33c
00000200: 3567 b83d abb9 573d e625 093d 81eb 89bd
00000210: dcd2 adbd 2d1f 4abd a6e4 02bc b8a4 e03d
00000220: 6b34 ef3d 7578 0dbd c87f ab3d 56cc c23d
00000230: 9158 df3c 247e c8bd d1d5 b23d 9fe7 4fbd
00000240: c709 663d 4339 833b 4982 11be f20e 5abc
00000250: 82de 9ebc f9db 093d 26e4 a8bd e419 b13d
00000260: 5c88 73bb 4a33 b3bd 4502 443d 1e48 60bc
00000270: d2f5 983d 6809 71bd 1220 a23b fafb e4bd
00000280: a4c0 9a3c 0e01 ec3d b5f2 26bc 5a86 3abc
00000290: e81f 233d df89 0e3e e03b c5bb f50e e6bd
000002a0: 2f41 933d 9e31 373c 2cf6 7cbb e531 9e3d
000002b0: 65b2 b6bd c83d 013c 9003 3b3d 9812 febd
000002c0: ad9e 893d b44c 93bd d065 cdbd 07f0 d7bd
000002d0: f74d f3bc 0d50 663d a59c b23c 3990 dcbd
000002e0: 25f5 8cbd 5041 aebd b006 68bd b3fd 84bd
000002f0: b630 c1bd cf7d 673d 89ca 8ebb a5d4 5dbd
00000300: 156b a13d b0b0 97bd 3012 da3c 49b9 93bd
00000310: de76 0c3e d24c fdba cdc8 13be a39b 0b3a
00000320: 6e12 d43d 2e79 ed3d 77df 40bd 6211 47bd
00000330: 5f37 d43d 712a 103d cafd 08bd 752d cfbc
00000340: 75c6 43bd 79da 503d 8819 753d 561f 583d
00000350: 0dda e83d 7a5d 46bd a2d5 d4bb b526 91bc
00000360: 1386 d8bd d350 843d 0105 c8bd 5c42 d3bd
00000370: bfc3 8a3d 75d3 873d a939 163e 695d 9f3d
00000380: 3626 123e b3b4 4fbd d1a6 d7bd 5cea ab3d
00000390: 98db 09bc c37f 3bbc 5490 ba3d 0dc6 d03d
000003a0: 4112 e6bc a858 05be c859 3c3d b093 a83d
000003b0: 3442 213d 5e8f dbbd cc85 b43d 3816 e33d
000003c0: 3518 793d e018 8dbc f5d8 413d 0cb1 c73b
000003d0: e160 42bb f1f3 b1bd ad9a aa3d 4063 7c3d
000003e0: b7c4 c1bd 8522 ae3d a3fb a03d 67d6 4a3d
000003f0: bba0 a83d 2457 00be e02a 943c 19e2 5e3d

net.2.lin1.bias f4 [64]
0.008855617 -0.010212208 0.07817056 -0.10797691 -0.06508493 0.04037176 -0.08265343 0.0057028863
-0.013283982 -0.05908335 -0.03625501 0.02889914 0.028659983 -0.038698047 -0.035649177 -0.04422026
-0.035241596 0.010794001 0.098685496 0.011730742 0.103349105 0.13453455 0.037044127 0.032729942
0.0559395 -0.099415556 0.114759 -0.07958452 -0.043748125 -0.021600012 -0.041180946 0.036318067
0.0010585213 0.020958137 -0.11348826 -0.04975701 -0.07818691 -0.050706167 -0.09102472 0.018948397
0.11301081 -0.024681823 -0.031949483 0.022189373 0.095433004 0.064493835 0.061777286 -0.08181407
0.03078841 0.014430464 -0.014193881 -0.047109812 -0.09222322 -0.046475004 -0.023436941 0.09184376
-0.11079028 -0.0062478823 -0.06658665 0.03245713 -0.08636941 -0.067762464 -0.080576845 -0.10466182
00000000: 2617 113c 1b51 27bc e317 a03d 0023 ddbd
00000010: 3f4b 85bd dc5c 253d 3446 a9bd 47df ba3b
00000020: 0fa5 59bc 6201 72bd 2280 14bd e4bd ec3c
00000030: 57c8 ea3c d881 1ebd df04 12bd 4e20 35bd
00000040: 7e59 10bd 52d9 303c 9f1b ca3d 4c32 403c
00000050: b2a8 d33d 6dc3 093e 95bb 173d d50f 063d
00000060: d120 653d 629a cbbd c406 eb3d 35fd a2bd
00000070: 3c31 33bd 82f2 b0bc 5aad 28bd 41c2 143d
00000080: 15be 8a3a 66b0 ab3c 886c e8bd 02ce 4bbd
00000090: 7520 a0bd 45b1 4fbd 2b6b babd ab39 9b3c
000000a0: 3672 e73d 8931 cabc 76dd 02bd 7dc6 b53c
000000b0: 6172 c33d 5815 843d 2e0a 7d3d 238e a7bd
000000c0: fa37 fc3c c16d 6c3c 748d 68bc 38f6 40bd
000000d0: 87df bcbd 935c 3ebd d4fe bfbc 9518 bc3d
000000e0: 04e6 e2bd 09bb ccbb 955e 88bd c4f1 043d
000000f0: 72e2 b0bd 0cc7 8abd 7905 a5bd f058 d6bd

net.2.lin2.weight f4 [64, 64]
-0.06697671 -0.038777273 0.006006458 -0.11065187 0.10380178 -0.098406486 0.11570764 -0.10476082
-0.030859357 0.10514157 -0.030887729 0.042031437 -0.0087938635 -0.063787624 0.12280596 0.02955854
0.027667787 -0.0069183926 0.08157873 0.08934345 -0.099888414 -0.1092617 -0.03670946 -0.11132501
-0.046839267 -0.070304096 -0.09408228 -0.039755527 -0.022873715 -0.028405188 -0.04321674 -0.005214108
-0.105687596 0.11712547 -0.010688009 0.048177548 -0.0069337254 0.010414347 -0.041518707 0.046863273
-0.010258129 -0.08222929 -0.07665056 -0.13870597 0.112311125 0.059172224 0.0914784 0.016039213
-0.028444 0.053183015 0.087620616 0.054492254 0.12029159 0.020126611 0.1021785 -0.018106502
0.070513405 0.07782 -0.11264699 0.12487566 -0.04244367 -0.08508993 -0.019637339 0.11379752
-0.10736605 -0.0061026732 0.05600172 -0.08312629 0.078127086 0.06930155 -0.011195797 -0.009637244
0.012847235 -0.052328732 0.024890235 -0.005937935 0.04495934 -0.036819525 0.08843276 0.1175882
0.033663433 -0.10974943 0.05960079 -0.12045124 -0.05032644 0.110803545 0.06291594 0.09049042
-0.02106413 0.09992971 -0.085977 -0.100032024 0.09944885 0.10280345 -0.019634292 0.05387155
0.09782054 -0.13505381 -0.07821903 -0.029455764 -0.00799516 -0.14031076 0.028933376 0.008569793
-0.060542595 -0.018880479 0.07557383 -0.12274687 -0.10331894 -0.019193677 0.039507125 -0.11590977
-0.06886208 0.08924311 -0.08897274 -0.11125652 0.030661436 0.0015528215 -0.10698093 0.053295687
-0.11141378 -0.043540444 0.019177925 -0.070984334 -0.017318388 -0.08332473 -0.083428904 -0.13970979
0.044474382 -0.062369596 -0.040026408 0.0062097814 0.07837344 0.037316512 -0.09199801 -0.13747613
0.13683413 -0.032728013 0.021857683 0.0047340007 0.077188894 0.07676783 -0.0064603407 0.04565241
-0.093554504 -0.02411342 -0.09344932 0.1314111 0.050398353 -0.015464338 -0.06848067 0.0584394
-0.07815405 0.020076556 0.045333426 -0.033310626 -0.13188824 0.025467684 -0.04873488 0.050844353
0.08428621 0.100909606 -0.15137681 -0.08967459 -0.008180424 -0.014313863 -0.041703656 -0.014817178
0.081557415 0.13388981 0.0676017 0.04843624 0.103562295 0.08912332 -0.010310572 -0.025946548
0.0033939565 -0.1128075 0.06766326 -0.13610558 -0.033716697 0.080589265 -0.10449479 0.10323572
-0.057684932 -0.083313756 0.08324498 -0.04405062 0.021997213 0.109209254 0.09301427 -0.015159379
-0.09780936 -0.057711232 0.07040487 0.043889184 -0.0997929 0.033195578 -0.002064383 -0.13998152
-0.021367205 -0.07282192 -0.04087318 -0.06343142 -0.021454385 0.11678274 -0.12896755 0.06655477
0.0052598817 -0.07738907 -0.053605806 -0.026772492 0.00032617897 -0.06691615 -0.08890425 -0.14175266
-0.044667892 0.06104078 0.075595744 0.05044278 0.08052991 -0.08560749 -0.017330632 0.12304329
-0.14201376 0.045877837 -0.11208145 0.073452316 -0.11548239 -0.08376085 0.049829636 -0.050026968
-0.05345263 -0.10406568 0.04020101 -0.057432182 0.047472242 -0.024840083 0.026350802 0.09797186
-0.061493024 0.081509575 -0.12473595 -0.03221042 0.055448852 -0.13218965 0.07045863 0.06485627
0.034941815 -0.09778678 0.066859916 0.030592725 0.020906921 0.12699436 -0.12944232 -0.0384976
00000000: 162b 89bd ebd4 1ebd d2d1 c43b 739d e2bd
00000010: 0796 d43d 5789 c9bd 21f8 ec3d d78c d6bd
00000020: c3cc fcbc 7754 d73d 4308 fdbc 2829 2c3d
00000030: 2314 10bc 16a3 82bd b181 fb3d c024 f23c
00000040: 8ea7 e23c afb3 e2bb c012 a73d b3f9 b63d
00000050: 4c92 ccbd 99c4 dfbd a95c 16bd 5efe e3bd
00000060: 88da 3fbd 98fb 8fbd 36ae c0bd b1d6 22bd
00000070: a861 bbbc ffb1 e8bc 0904 31bd 1cdb aabb
00000080: bd72 d8bd 7adf ef3d c21c 2fbc d255 453d
00000090: 4e34 e3bb f0a0 2a3c 850f 2abd b4f3 3f3d
000000a0: b611 28bc d467 a8bd f8fa 9cbd f008 0ebe
000000b0: 6003 e63d 935e 723d 0759 bb3d ab64 833c
000000c0: 6403 e9bc 6fd6 593d 7072 b33d 4533 5f3d
000000d0: 705b f63d 90e0 a43c f642 d13d 1654 94bc
000000e0: 5569 903d 1860 9f3d 77b3 e6bd cfbe ff3d
000000f0: 6ad9 2dbd a143 aebd 7cde a0bc ad0e e93d
00000100: bbe2 dbbd eff8 c7bb 0f62 653d 1e3e aabd
00000110: 1801 a03d f9ed 8d3d 936e 37bc 88e5 1dbc
00000120: 367d 523c a756 56bd 9be6 cb3c 0293 c2bb
00000130: 4927 383d 12d0 16bd 3c1c b53d 15d2 f03d
00000140: abe2 093d 4fc4 e0bd f51f 743d 24af f6bd
00000150: 1923 4ebd f8ec e23d 13da 803d 0b53 b93d
00000160: af8e acbc f3a7 cc3d b614 b0bd 97dd ccbd
00000170: d7ab cb3d 9d8a d23d 18d8 a0bc 6aa8 5c3d
00000180: 2356 c83d 8c4b 0abe 4c31 a0bd 374d f1bc
00000190: 22fe 02bc a0ad 0fbe b005 ed3c 5168 0c3c
000001a0: 83fb 77bd 3cab 9abc 74c6 9a3d b662 fbbd
000001b0: e198 d3bd 0f3c 9dbc 39d2 213d 1a62 edbd
000001c0: 9007 8dbd 17c5 b63d 5737 b6bd 75da e3bd
000001d0: b12d fb3c 0b88 cb3a d118 dbbd 944c 5a3d
000001e0: e82c e4bd 7757 32bd 061b 9d3c 3c60 91bd
000001f0: 4bdf 8dbc 28a6 aabd c6dc aabd 1510 0fbe
00000200: c52a 363d 4377 7fbd bbf2 23bd 6c7b cb3b
00000210: 4182 a03d 33d9 183d 7469 bcbd 8bc6 0cbe
00000220: 3f1e 0c3e cf0d 06bd e20e b33c ad1f 9b3b
00000230: 3615 9e3d 7438 9d3d 44b1 d3bb 05fe 3a3d
00000240: 8199 bfbd 8289 c5bc 5b62 bfbd a290 063e
00000250: 816e 4e3d 225e 7dbc 983f 8cbd 275e 6f3d
00000260: 3b0f a0bd 9777 a43c 8baf 393d b970 08bd
00000270: b60d 07be 9ba1 d03c 3a9e 47bd 2b42 503d
00000280: 409e ac3d b2a9 ce3d 8602 1bbe 50a7 b7bd
00000290: 2f07 06bc b184 6abc 74d1 2abd c0c3 72bc
000002a0: 9307 a73d 691a 093e c372 8a3d 1465 463d
000002b0: 7818 d43d 4a86 b63d aced 28bc db8d d4bc
000002c0: 246d 5e3b 9e07 e7bd 0993 8a3d 435f 0bbe
000002d0: 851a 0abd fc0b a53d 5d01 d6bd 406d d33d
000002e0: 0947 6cbd 67a0 aabd 587c aa3d 6c6e 34bd
000002f0: 8033 b43c 1aa9 df3d 447e be3d 0b5f 78bc
00000300: 4650 c8bd 9d62 6cbd 6e30 903d 25c5 333d
00000310: 3860 ccbd 16f8 073d 994a 07bb 5157 0fbe
00000320: 470a afbc a923 95bd a36a 27bd 55e8 81bd
00000330: 1bc1 afbc ca2b ef3d 1210 04be de4d 883d
00000340: 165b ac3b 297e 9ebd c391 5bbd fc51 dbbc
00000350: 0003 ab39 560b 89bd 6e13 b6bd 9c27 11be
00000360: aef5 36bd e605 7a3d f1d1 9a3d 179d 4e3d
00000370: deec a43d fb52 afbd f8f8 8dbc 1ffe fb3d
00000380: 0e6c 11be 66ea 3b3d f68a e5bd 2b6e 963d
00000390: 0882 ecbd cf8a abbd 291a 4c3d 14e9 4cbd
000003a0: 25f1 5abd 6320 d5bd d0a9 243d 023e 6bbd
000003b0: 4172 423d 6e7d cbbc a3dd d73c 78a5 c83d
000003c0: 1ce0 7bbd 7eee a63d 9075 ffbd 13ef 03bd
000003d0: 561e 633d b95c 07be 9d4c 903d 5dd3 843d
000003e0: 261f 0f3d 6f44 c8bd daed 883d 989d fa3c
000003f0: fe44 ab3c cf0a 023e 878c 04be a9af 1dbd

net.2.lin2.bias f4 [64]
-0.089299254 0.09272446 -0.011740414 -0.061723765 0.081594825 -0.106097296 0.028302873 0.07072049
0.09912004 -0.019057928 0.11645918 0.07587859 -0.003052369 0.062771715 -0.047250923 -0.10061174
-0.009801377 -0.010250484 -0.03712384 -0.0760145 -0.06249511 0.12831387 -0.13007902 0.06592476
-0.123282224 0.13356532 0.043483544 0.039151657 -0.011104878 -0.10498654 0.091067255 0.14241312
0.0011946078 -0.05263074 -0.05731619 0.017817933 0.020026226 0.10726151 -0.009313108 0.10977346
-0.02617646 -0.05452736 0.017440615 0.09954311 0.104886815 -0.058112882 -0.059538096 -0.08914697
-0.04769536 0.09977968 0.07650817 0.08623841 -0.0905569 0.020057155 0.070653744 -0.065549865
-0.015852882 -0.054622818 -0.10952074 -0.059159525 0.09727281 0.06861973 -0.11065499 0.10230572
00000000: 87e2 b6bd 52e6 bd3d de5a 40bc 0fd2 7cbd
00000010: 301b a73d 8a49 d9bd 6ddb e73c e7d5 903d
00000020: 73ff ca3d 5f1f 9cbc 2782 ee3d 3c66 9b3d
00000030: 410a 48bb 758e 803d 2f8a 41bd 870d cebd
00000040: f495 20bc a5f1 27bc 2b0f 18bd 7dad 9bbd
00000050: dffa 7fbd b664 033e 6f33 05be 9003 873d
00000060: 647b fcbd 59c5 083e cd1b 323d 7d5d 203d
00000070: 3cf1 35bc 2f03 d7bd 7881 ba3d bfd4 113e
00000080: 6394 9c3a 5593 57bd 62c4 6abd eaf6 913c
00000090: 0a0e a43c ecab db3d 0296 18bc e8d0 e03d
000000a0: 0470 d6bc 1558 5fbd 9fdf 8e3c 42dd cb3d
000000b0: e6ce d63d c607 6ebd 38de 73bd b092 b6bd
000000c0: 365c 43bd 4a59 cc3d 51b0 9c3d c39d b03d
000000d0: e575 b9bd e74e a43c e9b2 903d 023f 86bd
000000e0: e7dd 81bc 2dbc 5fbd 694c e0bd 4251 72bd
000000f0: f836 c73d 8088 8c3d 159f e2bd a985 d13d

net.3.lin1.weight f4 [64, 64]
-0.11526709 -0.031230541 0.09837772 -0.10354073 -0.13374329 -0.04287682 0.12060572 -0.061801486
0.051716138 -0.06479567 -0.09664678 0.08859321 -0.14137696 0.087934606 0.016861932 0.07958504
-0.0360728 -0.0986221 -0.0035332928 -0.08136241 0.039427903 -0.08140001 0.108280614 0.058177784
0.09616179 0.13094573 -0.03332976 -0.018517826 0.07210572 -0.09220532 -0.06820126 -0.013650366
0.09154492 0.043267395 -0.06195212 0.024522543 0.0020381557 0.11126513 -0.09274614 -0.025422117
0.048354086 -0.053451013 0.092023134 0.032318804 -0.0033857175 0.085374005 0.13136378 0.053806253
0.058203574 -0.105678044 -0.029477714 0.018958606 0.067775 -0.091359235 0.10285336 -0.110767335
0.13389818 -0.11454739 0.09412818 0.11418289 -0.06654496 0.10276755 -0.1093808 -0.025260475
-0.11850081 -0.093996026 -0.018362422 -0.10683853 -0.0985881 -0.023836263 -0.025507571 -0.012676715
0.02427088 -0.0067732567 -0.034279265 -0.04404582 0.103918254 -0.032286074 -0.10611176 -0.15076229
-0.05644212 -0.11975142 0.025014743 -0.0687252 0.014990767 -0.008732648 0.00081580656 0.16763385
-0.17557037 -0.033185918 -0.074672095 -0.05555607 -0.046651233 -0.02425226 0.105080724 0.030099543
-0.10803558 -0.0135900555 -0.11107669 0.008804826 -0.07804728 -0.042496204 0.03522286 -0.0122992005
-0.064363696 0.008287927 0.09351712 -0.025354583 -0.072711065 -0.087019 0.00077734014 -0.009527903
0.1349505 0.07294798 -0.09186301 0.054123957 -0.115310155 -0.003496809 0.012247976 0.049152862
-0.12092938 0.074488826 -0.077660345 -0.12698369 0.025266053 -0.0026316468 8.8245244e-05 0.070217155
0.007003371 -0.013906819 -0.07214751 -0.08615506 -0.09300917 -0.028444083 -0.014841906 -0.09806817
0.080650926 0.026337177 0.081249245 0.019113515 -0.021149585 -0.07672007 -0.088992834 0.011109866
0.09639702 0.09813063 -0.09536353 -0.10875915 -0.011207946 0.09278039 -0.013714736 -0.029509272
0.033570416 0.065555215 0.09714096 -0.015491785 0.11127189 0.033250283 0.08508058 0.02672109
0.072678044 -0.12222675 -0.09469026 -0.103826955 0.097560145 0.009068742 -0.09006389 0.017910762
-0.03214559 -0.07097071 0.07868125 0.07340834 -0.023635149 0.031462003 -0.07197361 0.0049765375
-0.07526563 0.10690141 -0.039173964 0.06722177 0.060551696 -0.06441277 -0.005146507 -0.058603004
-0.0048710457 0.027174914 -0.029101327 -0.038863014 0.076042436 -0.026121395 -0.033513207 0.029316654
0.056674697 0.13736975 0.039473906 -0.06962778 -0.022507152 0.052096356 -0.04088592 0.06558886
-0.13556081 -0.04695058 -0.03866878 0.13299927 0.16055831 -0.030256288 0.026353406 0.032465145
-0.08659078 -0.03580648 0.006622515 -0.04769095 -0.036891174 -0.028780453 0.0112329 -0.15138686
0.1367424 -0.010121717 0.051259674 0.039864104 -0.09602976 -0.08583832 0.047859054 -0.08042966
0.13756683 -0.010463033 0.1887099 -0.08118731 -0.10077485 -0.081635095 0.20023663 0.15527971
0.0030764032 -0.044847693 0.022518022 -0.08133394 0.11193771 -0.05237498 0.17283905 -0.012724767
0.10662092 -0.11657128 0.09650461 -0.052088734 -0.007960194 0.100927435 -0.05813461 0.14614356
-0.051019184 0.00945606 -0.03096418 -0.093541995 0.035699222 0.08446827 0.20345171 -0.045875546
00000000: 2711 ecbd 31d7 ffbc 427a c93d 2a0d d4bd
00000010: 00f4 08be 9b9f 2fbd 2200 f73d 8e23 7dbd
00000020: 4dd4 533d 98b3 84bd bfee c5bd 5b70 b53d
00000030: 1fc5 10be 0f17 b43d 0922 8a3c 7bfd a23d
00000040: 13c1 13bd 62fa c9bd d18e 67bb 56a1 a6bd
00000050: 277f 213d 0cb5 a6bd 3ac2 dd3d d44b 6e3d
00000060: 79f0 c43d a316 063e c984 08bd b2b2 97bc
00000070: 2aac 933d 25d6 bcbd 1aad 8bbd c9a5 5fbc
00000080: e77b bb3d 2739 313d 82c1 7dbd 80e3 c83c
00000090: 9492 053b f9de e33d b0f1 bdbd 0b42 d0bc
000000a0: ef0e 463d 73ef 5abd a076 bc3d b960 043d
000000b0: eae2 5dbb 91d8 ae3d 3a84 063e f263 5c3d
000000c0: df66 6e3d bb6d d8bd 3f7b f1bc 144f 9b3c
000000d0: 9fcd 8a3d 8d1a bbbd c8a4 d23d fcd9 e2bd
000000e0: 9b1c 093e d297 eabd 46c6 c03d b8d8 e93d
000000f0: b948 88bd cb77 d23d 0a03 e0bd 0eef cebc
00000100: 8db0 f2bd fd80 c0bd ca6c 96bc 29ce dabd
00000110: 8fe8 c9bd 4444 c3bc 41f5 d0bc ffb1 4fbc
00000120: b9d3 c63c 32f2 ddbb 6a68 0cbd 6469 34bd
00000130: 18d3 d43d 673e 04bd 1f51 d9bd 6e61 1abe
00000140: da2f 67bd 3c40 f5bd b8eb cc3c ccbf 8cbd
00000150: d69b 753c 6113 0fbc dadb 553a 35a8 2b3e
00000160: b8c8 33be f5ed 07bd afed 98bd c38e 63bd
00000170: 5d15 3fbd adac c6bc 9034 d73d 5193 f63c
00000180: c241 ddbd d3a8 5ebc 2d7c e3bd 1e42 103c
00000190: 41d7 9fbd 8010 2ebd d845 103d 9682 49bc
000001a0: 1dd1 83bd 16ca 073c e785 bf3d 6ab4 cfbc
000001b0: 8ae9 94bd 0437 b2bd 6ac6 4b3a ec1a 1cbc
000001c0: 7730 0a3e c065 953d ac22 bcbd 15b1 5d3d
000001d0: bb27 ecbd b82a 65bb bcab 483c 8354 493d
000001e0: d3a9 f7bd 998d 983d 630c 9fbd 0308 02be
000001f0: c1fa ce3c b577 2cbb 4e10 b938 03ce 8f3d
00000200: 897c e53b 6dd9 63bc 13c2 93bd 1072 b0bd
00000210: 977b bebd 9103 e9bc 772b 73bc f7d7 c8bd
00000220: 502c a53d 10c1 d73c 0166 a63d f293 9c3c
00000230: e541 adbc 691f 9dbd e041 b6bd 2806 363c
00000240: cd6b c53d b6f8 c83d f44d c3bd 1ebd debd
00000250: 88a1 37bc a503 be3d c6b3 60bc 6ebd f1bc
00000260: 2281 093d d041 863d d7f1 c63d 41d1 7dbc
00000270: 84e2 e33d 7331 083d ba3e ae3d 30e6 da3c
00000280: 3ad8 943d 0552 fabd f8ec c1bd 3aa3 d4bd
00000290: 9dcd c73d 1095 143c 6b73 b8bd 97b9 923c
000002a0: 18ab 03bd 1759 91bd a323 a13d 1d57 963d
000002b0: 809e c1bc 4dde 003d e666 93bd 3912 a33b
000002c0: de24 9abd 20ef da3d e174 20bd 91ab 893d
000002d0: 0e05 783d d8ea 83bd 08a4 a8bb b409 70bd
000002e0: 4b9d 9fbb ed9d de3c e865 eebc d32e 1fbd
000002f0: 23bc 9b3d 89fc d5bc 2545 09bd 7b29 f03c
00000300: ba23 683d a8aa 0c3e 64af 213d 0299 8ebd
00000310: eb60 b8bc fd62 553d ff77 27bd 7453 863d
00000320: 74d0 0abe 404f 40bd 2863 1ebd f630 083e
00000330: 6669 243e 09dc f7bc 19e3 d73c 2cfa 043d
00000340: 8256 b1bd d1a9 12bd af01 d93b 9657 43bd
00000350: 331b 17bd fcc4 ebbc 330a 383c 2805 1bbe
00000360: 3306 0c3e 8fd5 25bc aaf5 513d 8b48 233d
00000370: 40ab c4bd 00cc afbd db07 443d 4eb8 a4bd
00000380: 52de 0c3e 246d 2bbc 2b3d 413e 8845 a6bd
00000390: 0b63 cebd 4d30 a7bd d50a 4d3e a501 1f3e
000003a0: 7b9d 493b 37b2 37bd b777 b83c 6992 a6bd
000003b0: 993f e53d 2687 56bd b8fc 303e 8b7b 50bc
000003c0: 125c da3d ecbc eebd 35a4 c53d ff5a 55bd
000003d0: 796b 02bc 0bb3 ce3d 8f1e 6ebd a8a6 153e
000003e0: 7ef9 50bd 97ed 1a3c 98a8 fdbc f292 bfbd
000003f0: 5939 123d b3fd ac3d a555 503e ffe7 3bbd

net.3.lin1.bias f4 [64]
0.0057364833 0.009123258 0.101348124 -0.047810294 0.09174792 0.03215585 -0.06572681 0.106447466
-0.0029248504 0.022125138 -0.062057056 0.12699789 0.033930022 -0.06404529 -0.0060361354 -0.012892326
0.102931894 0.0809554 -0.034032084 -0.0012693089 -0.05235096 0.032832514 -0.020756025 0.059733544
0.077038676 0.045582358 -0.00057250547 -0.12225345 -0.08799166 -0.119225055 0.07906857 0.05895333
0.11379913 -0.07720072 -0.119997986 -0.08784061 0.085807376 -0.086407535 -0.13624424 0.077282116
-0.007787628 0.030166807 -0.047673687 -0.077525005 -0.06941691 -0.086461514 -0.080945745 0.057030298
-0.00415121 -0.0017423187 -0.08668211 0.047022536 -0.010810315 0.053093694 0.071583904 -0.074791715
0.021313066 0.033969786 0.010150843 -0.060661353 0.07682044 0.03845946 0.08446588 -0.054029156
00000000: 1cf9 bb3b b879 153c 9b8f cf3d bad4 43bd
00000010: 55e6 bb3d dab5 033d c79b 86bd 2101 da3d
00000020: d9ae 3fbb c73f b53c 8a2f 7ebd bc0b 023e
00000030: 35fa 0a3d 2d2a 83bd c6ca c5bb 563a 53bc
00000040: f5cd d23d f2cb a53d 3a65 0bbd f05e a6ba
00000050: f66d 56bd 637b 063d 8a08 aabc 29ab 743d
00000060: 74c6 9d3d 91b4 3a3d 3114 16ba 0460 fabd
00000070: f934 b4bd 442c f4bd b4ee a13d 0c79 713d
00000080: 850f e93d 691b 9ebd 81c1 f5bd c7e5 b3bd
00000090: c7bb af3d 6ff6 b0bd 9c83 0bbe 1646 9e3d
000000a0: 5c2f ffbb 6120 f73c 7c45 43bd 6ec5 9ebd
000000b0: 742a 8ebd bc12 b1bd e2c6 a5bd 9a98 693d
000000c0: e006 88bb 845e e4ba 6486 b1bd b49a 403d
000000d0: bf1d 31bc c678 593d 959a 923d 662c 99bd
000000e0: bd98 ae3c e723 0b3d b94f 263c 0a78 78bd
000000f0: 0954 9d3d ab87 1d3d 73fc ac3d ad4d 5dbd

net.3.lin2.weight f4 [64, 64]
-0.03246939 -0.03495378 0.07406641 0.017185377 0.018677026 0.08232026 -0.026180048 -0.016407374
0.08564558 0.105702005 0.027123755 -0.098978594 0.038470726 0.07027415 0.091987826 -0.07828745
0.06087098 -0.07839122 0.102238104 -0.10710635 -0.09106848 0.056852795 -0.13670185 0.03446613
0.106982805 0.10996975 0.07652908 0.050975002 0.051690906 -0.023810923 -0.05866816 0.09554348
0.028127972 -0.11614713 -0.08783457 0.04892603 -0.056012638 -0.005007523 -0.09797564 -0.0660849
-0.019095263 -0.054975625 -0.016655212 -0.11138406 -0.029707769 -0.089069024 -0.12036578 -0.05202736
-0.095301755 0.07609459 -0.100119084 -0.026569076 -0.01251444 -0.05633808 0.014761213 0.07369161
-0.022750556 -0.080993004 -0.006524321 0.065167874 0.05928835 0.07490626 -0.015576076 0.0075395918
0.06623868 0.023451723 0.11198302 -0.11752572 -0.026979152 -0.108795516 -0.0770376 -0.014439763
-0.11567479 -0.108041435 -0.072321534 0.098212704 0.09821826 0.027103845 -0.12485723 -0.02966536
0.08696575 0.109067895 0.018802484 0.032988667 -0.013808364 -0.023466269 0.018636335 0.028806614
0.057402 -0.07507829 -0.038051832 -0.07573431 -0.07573011 0.0017691385 -0.13417779 0.07782136
-0.05643343 -0.070608236 -0.10662538 -0.07313542 -0.12809171 -0.048821613 0.10589708 -0.144194
-0.017326493 0.037168488 -0.10676165 -0.12231705 0.039726853 -0.08632424 -0.10655836 0.07553073
-0.07182743 0.0052692704 0.07735349 0.08359663 0.011528191 0.126249 0.09578734 -0.031351153
0.08773788 0.08439958 0.07863393 -0.13364014 -0.12277556 -0.0669933 0.0008807643 0.013122522
0.08392979 0.04370639 0.059140705 -0.040348493 0.09390885 -0.018119793 0.029832644 -0.009933574
0.02615841 -0.08304893 0.03279945 -0.016271617 -0.03482105 -0.12698762 -0.010949128 0.10117601
-0.045290824 -0.06596097 0.0033496905 0.086441986 0.052356195 -0.11153954 0.0046775388 0.08211202
-0.057433233 -0.0932367 -0.0022918826 0.0049077887 0.012084186 -0.006247926 0.05057562 0.011266308
0.028314637 -0.02637639 -0.0014018457 0.061146013 0.04863887 -0.10108949 -0.10212162 -0.068052076
-0.052442677 0.007487352 -0.072746396 -0.1045953 -0.048612613 -0.085917376 -0.107792474 -0.10882127
-0.056708522 -0.041749023 -0.09130749 0.07644915 -0.032255888 -0.06417647 -0.064752996 0.10279315
-0.06992779 -0.038954638 -0.0015380881 -0.105741695 -0.057747632 -0.0669449 0.072097644 0.15775427
0.09217576 -0.044549514 -0.019156387 -0.03343022 0.096544795 -0.03532478 0.124829076 -0.111080535
-0.114433415 -0.12940137 -0.10452492 -0.083786376 0.011262005 0.0015337099 0.036862772 -0.12168916
-0.11599815 0.057997458 0.10813564 0.053345416 0.12830234 0.03428568 -0.062947355 0.031389467
0.013684687 -0.0104355225 0.059477247 -0.14252976 -0.053589247 0.035588738 0.015057027 0.09263474
0.0885237 -0.09095493 0.04012156 -0.031143827 0.06130772 -0.015180871 -0.105391905 0.0445983
-0.030146437 0.099481374 -0.09283177 -0.15455955 0.050175786 -0.03627823 0.013018597 0.05550477
-0.028471788 -0.065940574 0.09596718 -0.10256345 -0.00930678 -0.00018061943 -0.010009873 -0.035211395
0.07134752 -0.05053466 0.07114214 0.07397107 0.0041425284 -0.014967149 -0.116454564 -0.038155053
00000000: a0fe 04bd b22b 0fbd 21b0 973d 59c8 8c3c
00000010: 9000 993c 8697 a83d 8a77 d6bc c268 86bc
00000020: f366 af3d 4b7a d83d a332 de3c 4ab5 cabd
00000030: 7b93 1d3d e5eb 8f3d 1d64 bc3d 2c55 a0bd
00000040: d953 793d 938b a0bd 3662 d13d 935a dbbd
00000050: 1c82 babd 7ade 683d 92fb 0bbe 5b2c 0d3d
00000060: cd19 db3d d237 e13d 47bb 9c3d 2acb 503d
00000070: d8b9 533d 200f c3bc 064e 70bd 4dac c33d
00000080: a26c e63c 8cde edbd 9ce2 b3bd a966 483d
00000090: 826d 65bd 2616 a4bb 74a7 c8bd 8557 87bd
000000a0: ab6d 9cbc 1f2e 61bd 8370 88bc 531d e4bd
000000b0: b55d f3bc d269 b6bd 5682 f6bd a41a 55bd
000000c0: 912d c3bd 7bd7 9b3d 3c0b cdbd 64a7 d9bc
000000d0: 5e09 4dbc c2c2 66bd 04d9 713c a0eb 963d
000000e0: 605f babc a9df a5bd f9c9 d5bb bc76 853d
000000f0: 57d8 723d 7468 993d cc32 7fbc ae0e f73b
00000100: 25a8 873d d41d c03c 5b57 e53d 53b1 f0bd
00000110: 6203 ddbc 2fd0 debd e4c5 9dbd c194 6cbc
00000120: e8e6 ecbd d444 ddbd 501d 94bd be23 c93d
00000130: a826 c93d e208 de3c 26b5 ffbd c504 f3bc
00000140: 191b b23d fd5e df3d ab07 9a3c 201f 073d
00000150: 7a3c 62bc 553c c0bc 3aab 983c d9fb eb3c
00000160: 5c1e 6b3d a6c2 99bd 3ddc 1bbd 971a 9bbd
00000170: 6318 9bbd 70e2 e73a e765 09be ce60 9f3d
00000180: be26 67bd 0d9b 90bd 685e dabd 06c8 95bd
00000190: 792a 03be 2cf9 47bd 91e0 d83d 98a7 13be
000001a0: 4af0 8dbc fc3d 183d daa5 dabd 5d81 fabd
000001b0: a0b8 223d c3ca b0bd 453b dabd dbaf 9a3d
000001c0: 421a 93bd d8a9 ac3b 826b 9e3d b634 ab3d
000001d0: bde0 3c3c 6b47 013e 272c c43d 116a 00bd
000001e0: ebaf b33d b0d9 ac3d d30a a13d f6d8 08be
000001f0: c171 fbbd c933 89bd 17e3 663a d9ff 563c
00000200: 62e3 ab3d 7905 333d 863d 723d 7644 25bd
00000210: 4853 c03d f66f 94bc 9763 f43c 6ec0 22bc
00000220: 294a d63c 8f15 aabd b758 063d 0e4c 85bc
00000230: 84a0 0ebd 0b09 02be f963 33bc 5e35 cf3d
00000240: df82 39bd 8c16 87bd 7b86 5b3b 7f08 b13d
00000250: 7373 563d d86e e4bd 0a46 993b 592a a83d
00000260: 1c3f 6bbd e2f2 bebd 6933 16bb 84d1 a03b
00000270: c0fc 453c 67bb ccbb 6228 4f3d 5296 383c
00000280: 19f4 e73c 4d13 d8bc 23be b7ba 3e74 7a3d
00000290: 8d39 473d 0208 cfbd 2425 d1bd e35e 8bbd
000002a0: 22ce 56bd 7658 f53b 10fc 94bd 1036 d6bd
000002b0: 051e 47bd 73f5 afbd 4dc2 dcbd b0dd debd
000002c0: 3247 68bd 0601 2bbd 6cff babd 5f91 9c3d
000002d0: c01e 04bd f46e 83bd 389d 84bd 3785 d23d
000002e0: 4d36 8fbd e68e 1fbd ac99 c9ba 1a8f d8bd
000002f0: c888 6cbd 681a 89bd eea7 933d 568a 213e
00000300: a5c6 bc3d 8d79 36bd dbed 9cbc 20ee 08bd
00000310: 47b9 c53d b7b0 10bd 63a6 ff3d 317e e3bd
00000320: 115c eabd cb81 04be 2911 d6bd 3198 abbd
00000330: 4684 383c c406 c93a 6bfd 163d 2b38 f9bd
00000340: 7090 edbd be8e 6d3d 3876 dd3d b980 5a3d
00000350: b061 033e 246f 0c3d 8bea 80bd 3e92 003d
00000360: bd35 603c c1f9 2abc 6a9e 733d 52f3 11be
00000370: 6680 5bbd 7fc5 113d c0b1 763c 48b7 bd3d
00000380: ea4b b53d 9446 babd 8156 243d 5721 ffbc
00000390: ce1d 7b3d 30b9 78bc b6d7 d7bd b5ac 363d
000003a0: a9f5 f6bc e4bc cb3d 951e bebd dc44 1ebe
000003b0: 2085 4d3d 7b98 14bd f44b 553c f858 633d
000003c0: ab3d e9bc da0b 87bd 718a c43d c90c d2bd
000003d0: 777b 18bc a964 3db9 7300 24bc d339 10bd
000003e0: a61e 923d 6ffd 4ebd f8b2 913d 257e 973d
000003f0: 0cbe 873b c638 75bc bb7f eebd 7948 1cbd

net.3.lin2.bias f4 [64]
0.010857645 -0.09023103 -0.10272702 -0.05613251 -0.07552205 0.089076735 -0.08363183 0.040003706
0.14987072 -0.0073055215 -0.052350342 0.0074565704 -0.06932362 0.087893546 0.14140162 0.076324075
0.0020961233 0.087010756 -0.084091954 0.14428525 -0.08644917 -0.08909436 -0.10039364 0.08540635
-0.083935745 -0.016551675 0.054851074 0.048626482 -0.08922187 0.04172987 -0.08096068 -0.029730141
-0.08597252 0.12826934 0.099753514 0.03937187 -0.07923115 -0.11777546 0.07413812 -0.0505238
-0.014431166 0.04616122 0.1023334 0.058241524 0.09599271 -0.041312344 0.04992521 -0.009644467
0.015522954 0.13461393 -0.05284328 0.1007158 0.0075265183 0.057332322 -0.019150974 -0.030498229
0.04676913 0.014200041 0.06494881 0.047619488 0.10172737 0.119472556 -0.025992725 -0.09104231
00000000: 44e4 313c 0ccb b8bd 8b62 d2bd 34eb 65bd
00000010: 4eab 9abd dd6d b63d 2a47 abbd edda 233d
00000020: b677 193e 2863 efbb 506d 56bd 3f56 f43b
00000030: 8bf9 8dbd 8801 b43d 96cb 103e cc4f 9c3d
00000040: 1d5f 093b b232 b23d 6738 acbd 83bf 133e
00000050: 430c b1bd 1b77 b6bd 2e9b cdbd 86e9 ae3d
00000060: 81e6 abbd 6197 87bc 85ab 603d 902c 473d
00000070: f5b9 b6bd f1ec 2a3d b7ce a5bd a08c f3bc
00000080: 5c12 b0bd 0a59 033e 924b cc3d 6644 213d
00000090: f143 a2bd 4334 f1bd bad5 973d 0bf2 4ebd
000000a0: b370 6cbc 8c13 3d3d 2c94 d13d aa8e 6e3d
000000b0: d397 c43d 2237 29bd 617e 4c3d d403 1ebc
000000c0: fd53 7e3c 3cd8 093e 3272 58bd 1644 ce3d
000000d0: 03a1 f63b 4cd5 6a3d 81e2 9cbc 6cd7 f9bc
000000e0: fd90 3f3d 4aa7 683c e203 853d a70c 433d
000000f0: 7056 d03d 07ae f43d b2ee d4bc 6474 babd

net.4.lin1.weight f4 [64, 64]
-0.014978608 -0.050156724 -0.03434815 0.052405927 -0.14225118 -0.062423512 0.08914181 0.07932828
0.10320827 -0.10991256 0.06521601 -0.09102368 0.07401108 0.058746554 -0.103919685 -0.083215564
-0.010553216 -0.09989187 -0.022853771 -0.0067189536 0.028307714 0.025595486 -0.02159558 -0.070700966
0.020515567 0.05314826 -0.0018242248 0.06460582 -0.051376723 -0.11557568 0.09096766 0.09193719
-0.07956969 -0.07521136 0.003270233 -0.08183521 0.07746434 0.08979285 0.004238417 -0.0025124724
0.0057779276 0.05717435 0.0700807 -0.09603501 0.04799821 -0.022754135 0.004803901 0.032532543
0.035115976 -0.020334478 -0.09722831 -0.004858819 -0.12322882 0.07307647 -0.048873223 -0.03285614
-0.06271689 -0.019483952 0.0048300955 0.0047109495 -0.056530643 0.08429861 -0.027298277 0.056563396
0.05795449 -0.08457276 0.12083385 0.036246847 -0.05828296 0.018428817 0.057509057 -0.07521248
-0.096631445 -0.107584395 0.07965836 0.1147838 -0.14280924 0.045574903 -0.005918233 -0.14151953
-0.14252008 -0.038290866 -0.060847405 0.06631455 -0.07094996 0.0021942388 -0.11969018 -0.066834226
0.09332453 -0.14900823 0.005244898 -0.022720046 0.043971993 -0.06650502 0.040952995 -0.12340602
0.051766846 -0.038423326 0.017659483 0.068197936 0.019104278 0.0076101976 -0.07247288 -0.036175802
-0.17031577 0.09507502 0.01102737 -0.01989221 0.03518915 -0.036732245 -0.08365909 0.07390841
0.11964208 -0.14340544 0.03726357 -0.07607053 -0.15382715 -0.11399337 -0.08080477 -0.122912
-0.012261264 0.10171866 0.0011894732 -0.07115124 -0.13967703 0.08425281 0.09001827 0.031919762
0.04320289 -0.014417501 -0.024140103 -0.018941306 0.06566737 0.008900308 -0.14533521 -0.06400183
-0.16791315 -0.10987723 0.054642707 0.0035724414 -0.03161831 -0.049018078 -0.099749826 -0.15858464
-0.05607468 -0.08429462 0.032665826 -0.06837002 0.06968712 0.043835275 0.0055151507 -0.17941637
0.0656832 0.002995842 -0.010070155 -0.100556456 0.020600893 0.041655842 0.048062354 -0.0216828
0.100270905 0.040005393 0.0045181946 -0.065103225 -0.13149753 -0.11583037 0.15041868 0.07595565
-0.15719931 -0.012369303 0.14945827 -0.05744141 -0.023902932 0.1139152 -0.09662405 -0.029980524
0.028286297 0.061332077 -0.092454374 -0.119608186 -0.15048446 -0.046053626 0.028445814 -0.046114918
-0.06905607 0.099140905 -0.051607374 -0.09603227 -0.074647404 -0.13329972 0.03139256 0.03202797
0.032873575 0.076816805 -0.096264265 -0.041304808 0.075937286 0.04926298 -0.05658492 0.04456211
0.070667475 -0.028436808 -0.11459588 0.080295 0.079616055 -0.006442609 0.052198358 -0.055551328
-0.010533483 0.075587004 -0.035279255 -0.10393204 -0.0472 0.06376829 0.015304665 -0.07496502
-0.017718615 -0.05785554 0.00433926 0.0616383 0.0024009638 -0.06735118 0.014686167 0.0031032665
-0.06308651 -0.023737311 -0.08200768 -0.13036576 -0.09788553 0.022999283 -0.0037969055 0.14991164
0.08091822 0.03213831 0.05353716 0.03564313 0.115375005 -0.05350677 0.12895942 0.005991472
0.06517924 0.096746214 0.058764286 -0.032585077 -0.10771482 -0.085378274 -0.17632098 0.11953131
-0.10114974 -0.07767676 0.009538692 -0.0116962725 -0.16733946 -0.105719246 0.16132845 -0.13596621
00000000: d668 75bc 2371 4dbd a5b0 0cbd 99a7 563d
00000010: 4baa 11be ccaf 7fbd fb8f b63d de76 a23d
00000020: dc5e d33d d619 e1bd f98f 853d a06a babd
00000030: 1f93 973d 3aa0 703d d8d3 d4bd ec6c aabd
00000040: 65e7 2cbc 1c94 ccbd d537 bbbc ab2a dcbb
00000050: 94e5 e73c a0ad d13c 37e9 b0bc abcb 90bd
00000060: 4310 a83c fdb1 593d d41a efba 0e50 843d
00000070: 6670 52bd f1b2 ecbd 414d ba3d 9149 bc3d
00000080: 6ff5 a2bd 6a08 9abd 6851 563b 3899 a7bd
00000090: a0a5 9e3d 50e5 b73d 6be2 8a3b 4ba8 24bb
000000a0: c554 bd3b a72f 6a3d 7886 8f3d 01ae c4bd
000000b0: c599 443d e166 babc 0b6a 9d3b d840 053d
000000c0: c5d5 0f3d 7e94 a6bc a31f c7bd ba36 9fbb
000000d0: 645f fcbd 1ea9 953d 4a2f 48bd 2994 06bd
000000e0: b671 80bd cf9c 9fbc c745 9e3b 4f5e 9a3b
000000f0: ad8c 67bd c0a4 ac3d a3a0 dfbc 05af 673d
00000100: b061 6d3d 7c34 adbd bd77 f73d 9377 143d
00000110: 1dba 6ebd 08f8 963c 9e8e 6b3d 0009 9abd
00000120: b5e6 c5bd 3555 dcbd ec23 a33d c513 eb3d
00000130: 963c 12be c0ac 3a3d bded c1bb 7fea 10be
00000140: c9f0 11be e2d6 1cbd 213b 79bd eccf 873d
00000150: 364e 91bd 38cd 0f3b 2020 f5bd 62e0 88bd
00000160: ee20 bf3d 9d95 18be 65dd ab3b 641f babc
00000170: fa1b 343d c933 88bd 54be 273d 4cbc fcbd
00000180: 7909 543d c761 1dbd 9faa 903c 5cab 8b3d
00000190: 9380 9c3c f75e f93b a96c 94bd 142d 14bd
000001a0: 4267 2ebe b1b6 c23d 24ac 343c fdf4 a2bc
000001b0: 8022 103d 8d74 16bd 7555 abbd 4b5d 973d
000001c0: e806 f53d e0d8 12be afa1 183d deca 9bbd
000001d0: dd84 1dbe 5b75 e9bd f97c a5bd 49b9 fbbd
000001e0: 78e3 48bc df51 d03d 19e8 9b3a beb7 91bd
000001f0: 7f07 0fbe bd8c ac3d 805b b83d 4cbe 023d
00000200: 83f5 303d 6237 6cbc 77c1 c5bc cc2a 9bbc
00000210: 9d7c 863d 99d2 113c c1d2 14be 6413 83bd
00000220: 6df1 2bbe 5007 e1bd 08d1 5f3d 9f1f 6a3b
00000230: 3382 01bd 2ec7 48bd a349 ccbd 0364 22be
00000240: 90ae 65bd a8a2 acbd 9acc 053d 9505 8cbd
00000250: 1fb8 8e3d 9e8c 333d 70b8 b43b edb8 37be
00000260: ea84 863d e355 443b 4bfd 24bc 8bf0 cdbd
00000270: 34c3 a83c 519f 2a3d 08dd 443d 21a0 b1bc
00000280: d55a cd3d b2dc 233d 5d0d 943b d754 85bd
00000290: 4aa7 06be 7938 edbd 5b07 1a3e a38e 9b3d
000002a0: dbf8 20be 9ea8 4abc 970b 193e af47 6bbd
000002b0: 15d0 c3bc 5f4c e93d d4e2 c5bd b799 f5bc
000002c0: aab8 e73c 5837 7b3d b858 bdbd 23f5 f4bd
000002d0: 9918 1abe baa2 3cbd 3207 e93c ffe2 3cbd
000002e0: 456d 8dbd 630a cb3d 4162 53bd 91ac c4bd
000002f0: bde0 98bd b97f 08be 7c95 003d c32f 033d
00000300: 71a6 063d 2152 9d3d 3326 c5bd 3b2f 29bd
00000310: 0285 9b3d fbc7 493d 97c5 67bd c286 363d
00000320: 1cba 903d 4ff4 e8bc 3fb1 eabd b471 a43d
00000330: be0d a33d 851c d3bb f2cd 553d ca89 63bd
00000340: a194 2cbc 5ccd 9a3d fb80 10bd 52da d4bd
00000350: ca54 41bd f398 823d 6bc0 7a3c 4387 99bd
00000360: a126 91bc eef9 6cbd 5a30 8e3b 7178 7c3d
00000370: 7d59 1d3b 6aef 89bd 409e 703c 2c60 4b3b
00000380: 8033 81bd c074 c2bc a4f3 a7bd 9a7e 05be
00000390: 3578 c8bd fe68 bc3c 81d5 78bb 7082 193e
000003a0: 74b8 a53d 76a3 033d c849 5b3d 88fe 113d
000003b0: bb49 ec3d ea29 5bbd f00d 043e 1c54 c43b
000003c0: b27c 853d e122 c63d d2b2 703d ee77 05bd
000003d0: 9699 dcbd ceda aebd 7d8d 34be d5cc f43d
000003e0: 9827 cfbd fe14 9fbd 2d48 1c3c b9a1 3fbc
000003f0: 095b 2bbe 5583 d8bd 4933 253e ba3a 0bbe

net.4.lin1.bias f4 [64]
0.06166524 0.05225511 0.061155014 -0.14750953 0.018981155 0.06150918 0.05210328 -0.031147255
-0.07110156 0.08089616 -0.053555936 -0.009474855 -0.07410763 0.09157516 -0.06454901 0.039646745
-0.016785959 -0.021101072 0.045023885 0.032976765 -0.0326768 -0.005569116 -0.0707268 -0.029904269
0.057890844 0.061075926 0.06125227 0.052449144 0.029360976 -0.057781994 0.12062408 0.107386895
-0.022328282 0.033942055 -0.043438528 -0.06930264 0.00511175 -0.10433641 -0.0854282 -0.06407815
0.10957561 0.09759004 0.017829197 -0.10490565 0.053625904 0.024104279 0.06061477 0.101065174
0.0489395 -0.07349567 0.018685874 0.08786397 -0.021405406 -0.117540166 -0.08717898 0.09019538
-0.069286786 0.11115566 0.0041340184 0.09638391 -0.050642442 0.13298619 0.07770595 0.09380082
00000000: b194 7c3d 7409 563d ae7d 7a3d bd0c 17be
00000010: 5e7e 9b3c 0df1 7b3d 406a 553d 8728 ffbc
00000020: b29d 91bd e3ac a53d 785d 5bbd 6c3c 1bbc
00000030: bec5 97bd c28b bb3d 4532 84bd a064 223d
00000040: b582 89bc 28dc acbc f76a 383d a512 073d
00000050: 1cd8 05bd 227d b6bb 36d9 90bd ccf9 f4bc
00000060: f31e 6d3d c02a 7a3d a9e3 7a3d ead4 563d
00000070: 6e86 f03c d0ac 6cbd c209 f73d a9ed db3d
00000080: cde9 b6bc d306 0b3d 99ec 31bd 8bee 8dbd
00000090: 7880 a73b 54ae d5bd fbf4 aebd 683b 83bd
000000a0: 2d69 e03d 49dd c73d 890e 923c c6d8 d6bd
000000b0: d6a6 5b3d 5676 c53c 3147 783d 42fb ce3d
000000c0: c974 483d e684 96bd 1e13 993c 06f2 b33d
000000d0: 645a afbc e6b8 f0bd e58a b2bd 5bb8 b83d
000000e0: 3be6 8dbd 94a5 e33d a976 873b ed64 c53d
000000f0: 736e 4fbd 882d 083e 4c24 9f3d a51a c03d
