data/trained_models/base_mu1_b_resnet.pth (torch, 201902 bytes, 15 tensors)

net.0.weight f4 [64, 374]
00000000: 0ce9 803b 82bc 0ebd 6630 a5bd ebd3 0b3d
00000010: 5514 b13c f4ec e53c 525b 7c3d 5f7a 07bc
00000020: f349 bd3c d0c2 61bc 708a 0dbd c02c 27bd
00000030: 3841 babb e019 083d 8ef7 803c 127a 063d
00000040: 2033 93bc 99a4 453d 3cc7 b7bc d2c4 0c3c
00000050: bf5a eabc 979c 9cbc 8e89 dfbc b0d9 d53c
00000060: 0581 16bc 1baf 133d 1019 5d3a d0a3 50bc
00000070: 20bc 1bbc ac29 4e3c ce3a 823c 5dd3 303d
00000080: 1a17 97bd d041 fabc 3ed1 1f3c 062d 88bc
00000090: 4d69 9e3d 5638 3cbc 01b1 98bc dada c63c
000000a0: 7bb6 013d d36e 36bd 940a 213c 7997 b23c
000000b0: a396 03bd 223d fcbc a867 423b e0b1 013d
000000c0: 9750 483d adce 863d 5de0 31bd e292 453c
000000d0: 0020 1a3c 798e e83c 9a64 46bd c41a 32bd
000000e0: 055a 603c 34c9 2f3d f3a0 2fbd b07f b1bc
000000f0: ed43 23bd 7cfd 91bc 284e 1cbb 7e86 13bd
00000100: 044c 433c a380 02bd 77f0 7abc d900 a13c
00000110: 34b0 48bc 1e01 c9bc 322b 24bd 0a36 123d
00000120: 576b bfbb abc6 233d cda2 47bd cd6c aa3c
00000130: 9252 033d bfaa 963b c274 b3bc c32e 51bb
00000140: 1a8b 403c ced2 f93c d9ac f9bc b870 5c3d
00000150: 76b9 bf3c 486a 2e3c de5a 30bb 8826 5f3c
00000160: 1f78 1ebd b365 f3bc 1d80 243d ea31 30bd
00000170: 0ebc 2bbd cab6 21bd e3ab 043d 20c0 98bc
00000180: 62c0 eb3c 9548 1bbd caa3 75bc 828a f73c
00000190: bbe6 af3c 9a1b d93c 098e 663d 043c 1dbd
000001a0: 637a 29bd 6046 35bd db25 273d af46 9abb
000001b0: f89b 0ebd 0381 08bd 5c63 fd3c a9c9 1a3d
000001c0: 5859 baba 7472 6c3b ba46 d53c a055 a1bb
000001d0: 1cb2 56bc 951e 853d d889 8739 43e8 34bd
000001e0: 8d82 c23b 2f48 403d 02a6 3bbd 1893 60bc
000001f0: d276 c33c 576a 39bd d75f 08bd 8c36 ec3b
00000200: d701 e83b 3ca3 63bc f4cd 6fbb 70ba 21bb
00000210: e40c 893c f0a1 663c 8481 e8ba 7046 05bd
00000220: 5cf5 49bd c458 7f3c eed0 093d 9ef3 90bc
00000230: 8b17 14bd e0fd 8ebc 1a7c bcbc f137 133d
00000240: a5ab 9dbc bd1e cabc 5b04 4e3d 1767 c43c
00000250: 5172 44bd 4910 073d 6bca 163d c4c2 0fbc
00000260: 15fd 4f3d e151 90bc e258 183d 47cb 2bbd
00000270: 9613 123d 8a74 07bd b426 28bc 49ae c9bc
00000280: 34d6 773b 1bb3 e5bc efb9 3f3d 4d4a fabc
00000290: 7426 d7bc 9639 743c 9a51 933c a4bc 47bd
000002a0: b981 ebbc 9074 1f3c d46b 60bb 329a 05bd
000002b0: 6b9b 183d 941e 10bd b284 c43c 38d8 c9ba
000002c0: b445 e4bb 4c2d a5bb b0c2 eb3b d855 a238
000002d0: 07c4 363d be3e f83c d5c3 36bd 19a3 1c3d
000002e0: 6823 a1bc 6952 2fbd c882 1abd e477 21bd
000002f0: ddff 3b3d d0f2 33bd 5c27 0e3c 2c70 26bd
00000300: a8b9 1e3c 02ea df3c 7852 763c 87cc 023d
00000310: 56eb 47bd 037d 523d 6acb 50bd 2d31 4aba
00000320: 972a e7b9 20ab 4939 0423 7d3d 3a39 713c
00000330: 8220 9a3c 145a cb3b 54cd 943c 6278 82bc
00000340: c4ac c13c 2fe0 8e3c d4f6 e9bc eb1f 0f3d
00000350: bc5f 52bc a198 223d 4085 efbb 50fa 80bb
00000360: 3c13 05bd c627 9c3d 3050 2a3b deac 493d
00000370: e6f0 11bd 71f1 97bc de8d 0e3d f8ac 49bd
00000380: c2c5 bb3c a17d 1d3d 9c31 4c3c 66c0 e73c
00000390: 90e0 943d cb20 523d 7853 353d 8102 07bd
000003a0: 7306 dd3c e31a 093c 210f 453d bc68 1a3d
000003b0: cbc6 273d a628 313d 74f8 39bc aca7 febc
000003c0: 60b5 94bc 7a1d aabc d5bd 32bd b201 3d3d
000003d0: c486 e4bc 5c9a 6a3c 421a dbbb d254 05bd
000003e0: 3f8e 2ebd 5c16 b5bc 3967 36bd b414 873b
000003f0: 6d28 30bd c0cb 1cbd 9077 9abb 0c4e 7cbc
0.0039340314 -0.034847744 -0.08065872 0.034137648 0.02161614 0.02806709 0.061610527 -0.008268922
0.02310655 -0.013779357 -0.034555852 -0.04081416 -0.005684044 0.0332278 0.015743043 0.03283126
-0.017968714 0.048252676 -0.02243387 0.0085918475 -0.028607724 -0.019117637 -0.02728727 0.026104778
-0.009186034 0.036055665 0.00084342156 -0.012734368 -0.009505302 0.012583178 0.01589718 0.04317032
-0.07377453 -0.03054896 0.009754477 -0.016623031 0.07734928 -0.011488041 -0.01863909 0.024274278
0.031668168 -0.044539284 0.009829182 0.021800743 -0.03212608 -0.03079087 0.0029663835 0.031663775
0.04890498 0.06582389 -0.04342686 0.012058945 0.009407043 0.028388249 -0.048435785 -0.043482557
0.013693337 0.04291649 -0.042878103 -0.021667331 -0.0398597 -0.017821066 -0.0023850296 -0.036016934
0.011919979 -0.03186096 -0.01531612 0.019653725 -0.012249041 -0.024536666 -0.040080257 0.035696067
-0.0058416533 0.039984386 -0.048739243 0.020803833 0.032061167 0.0045979912 -0.02190626 -0.0031918741
0.011751914 0.030496027 -0.030477928 0.053818434 0.023403864 0.010645457 -0.002690963 0.013620026
-0.038688775 -0.02971158 0.04016124 -0.04301635 -0.04192739 -0.03948096 0.032390486 -0.0186463
0.028778259 -0.037911016 -0.014992664 0.030217413 0.021472326 0.02650242 0.0562878 -0.038387313
-0.041376483 -0.044256568 0.040807586 -0.004708133 -0.034816712 -0.03332616 0.030931167 0.037789974
-0.00142173 0.0036078962 0.026034702 -0.0049235374 -0.013103988 0.06499974 0.00025851908 -0.044166815
0.005935973 0.04694384 -0.045812614 -0.013706945 0.023860369 -0.04526743 -0.033294525 0.007208651
0.0070802975 -0.013893899 -0.0036591263 -0.0024677776 0.01672978 0.014076695 -0.0017738794 -0.032537878
-0.04930626 0.015585128 0.033646517 -0.01769429 -0.036155265 -0.017455041 -0.023008395 0.03594202
-0.019246886 -0.02467286 0.050297122 0.023974938 -0.047960583 0.032974515 0.036814135 -0.008774463
0.050778467 -0.017617168 0.03719414 -0.041941907 0.03566321 -0.033070125 -0.010263134 -0.024619238
0.0037816884 -0.028039506 0.04680818 -0.030553007 -0.026263453 0.014906308 0.017983247 -0.048763886
-0.02874838 0.0097323805 -0.0034243958 -0.032617755 0.037257593 -0.03518541 0.023989055 -0.0015399521
-0.006966317 -0.0050408 0.0071948394 7.7407516e-05 0.04462054 0.030303355 -0.044620354 0.03824148
-0.019670203 -0.0428032 -0.03772238 -0.039420977 0.045898307 -0.043932736 0.008676376 -0.04063432
0.009687819 0.027333263 0.0150343105 0.031933334 -0.04880842 0.05138875 -0.05097524 -0.0007713016
-0.00044091485 0.00019232603 0.06180097 0.0147231165 0.018814329 0.0062058065 0.018164314 -0.015926544
0.023641951 0.017440883 -0.02856008 0.03494255 -0.012840208 0.03969634 -0.007309586 -0.0039360896
-0.032489046 0.07624774 0.0025987737 0.049237125 -0.03563013 -0.018547745 0.034803264 -0.04923722
0.022921447 0.038449887 0.012463 0.028289985 0.072693944 0.051300805 0.044269055 -0.032961372
0.026980614 0.008368227 0.04811013 0.03769754 0.040961068 0.043251656 -0.01135074 -0.031085812
-0.018152893 -0.020766009 -0.04363807 0.046144195 -0.027896293 0.014319029 -0.00668648 -0.032551594
-0.042616125 -0.022105388 -0.044532035 0.004122341 -0.043007303 -0.03828025 -0.00471396 -0.015399467

net.0.bias f4 [64]
00000000: 379f 27bd 830e 24bb 2db1 49bd 42d5 8d3a
00000010: f850 d83b f68d 25bd a91d d23c 0bea 25bd
00000020: f9c7 20bd de19 813d 3434 bf3c 89c6 c63c
00000030: 9ffb c5bc e2e1 613d 678c 89bd 6b5c 76bc
00000040: 0055 093d a513 21bc 4808 5db9 8f2a 0c3d
00000050: 0305 173d 6721 aa3b 0c50 ba3c 6d6c 003d
00000060: d101 ffbc fbfc 5f3d 138d 27bb 2026 793c
00000070: c45d 93bc d4dd 2fbd 923b b2bc 3bfe 743d
00000080: f0e0 4abc 97ed 82bc c15a 2dbd 75a3 bdbc
00000090: 81dd 24bb ada1 ce3b 7765 153d 090b 1b3d
000000a0: 7864 7dbc 8e65 1a3c 5696 b83c 17e2 15bc
000000b0: 5e17 2e3c 9d64 843d 651e 643d 6cbe 9bbc
000000c0: 1949 bc3c 0b0d ecbc 5192 a43c 7d84 c7bc
000000d0: 3bf6 41bd d7c5 8c3c 1a50 353c d712 463d
000000e0: e591 4bbd 9411 153c f9ba 1bbd cf8c 103d
000000f0: fc26 bcbb 51bc 42b9 8a27 9d3c 4154 7abc
-0.040923323 -0.0025033064 -0.049241234 0.0010821002 0.006601449 -0.040418588 0.025648909 -0.040506404
-0.03925321 0.06303762 0.023340322 0.02426459 -0.024167834 0.05514706 -0.06716233 -0.015036683
0.033528328 -0.009831344 -0.00021079287 0.034220275 0.036870014 0.00519197 0.022743247 0.031353403
-0.031128796 0.05468462 -0.0025566265 0.015206844 -0.017989047 -0.04293616 -0.021756921 0.059812766
-0.012382731 -0.015982432 -0.042322878 -0.023149231 -0.002515644 0.0063058943 0.036473718 0.03785232
-0.015465848 0.009423627 0.022532623 -0.009148142 0.010625688 0.06464503 0.05569305 -0.019011699
0.022984074 -0.028814813 0.0200893 -0.024355168 -0.047353964 0.017184181 0.011066461 0.04835781
-0.049699683 0.009098429 -0.038020108 0.035290536 -0.005741952 -0.00018571435 0.019183893 -0.015278877

net.2.lin1.weight f4 [64, 64]
00000000: f821 99bc 9d90 8f3d b8c0 c43d bcb8 b3bd
00000010: 1510 f03d 2c5f c13d 540c 413c 23f4 c23d
00000020: 2bf0 5abb d111 ae3d c5df b7bd fab5 f7bd
00000030: ff6b 023d cb41 793d 1225 fb3c e421 22bd
00000040: 58b1 e23d d201 d5bd 4bd7 ab3d fd28 9c3d
00000050: 79f6 99bb 3a3e ff3d 6924 f8bd 5c09 68bd
00000060: fa49 c33d ae3d 1b3c 575b e23d f178 c5bc
00000070: 77f9 65bd c9f3 73bd 986a 17bd a819 853d
00000080: f30d c5bd c448 15bd e401 853d f504 d5bd
00000090: 8ec6 bcbc b3b1 1cbc 360e 18ba d8cd c7bd
000000a0: c1dd 2abc 4270 30bd 1a29 62bd d886 043e
000000b0: 0094 16b8 aa91 b5bd ad14 853c 6106 913d
000000c0: eefc a73d 61b0 9f3d 6dae a53c c774 b63d
000000d0: d6ff a93d d4fd fa3c f2dd 6cbd b10e c73d
000000e0: 9e7b 63bd af99 983d 9ce6 b13d 77fb 963d
000000f0: 5c54 cdbd d019 893c ec2b ad3d 4ed5 af3d
00000100: 6c07 99bd 04d6 fb3c f778 8b3d 7efa c13c
00000110: 69bb aa3d 8a88 b73d 07a3 953d da6b b43d
00000120: b7f6 233d 15a8 d6bd dfd0 c7bc e138 f33d
00000130: c9a4 e33d 506b b4bd f89a a53b 55e6 06be
00000140: 6d86 a33c be22 76bd bc8a 013e d80a 283d
00000150: ced3 03be 9b97 c03d deb1 bbbd b25e 65bd
00000160: a883 dbbd d8ff 4ebd a1bf db3d 7e5d b73c
00000170: 3c2e e6bc 9483 783d bd20 d8bd 6fcb abbd
00000180: 5a01 6abc d1fd d83d 1f32 3d3b a2e0 83bd
00000190: b7ff fabc 1aa8 b53d 4967 963d 2937 8ebd
000001a0: 6512 af3d 6334 c9bd 7b0f 8fbd caad 42bd
000001b0: 7a1d 4fbc 3518 e1bc e591 a13d 7f5f 2dbd
000001c0: 891d 463d 915d 5a3d ee2f 9abd 2109 39bd
000001d0: 1c41 303c a86e 0fbd d6e4 70bd 368b 1d3d
000001e0: 58c9 9cbd a59b c93c 1a72 953d c996 0d3d
000001f0: ed1a 4c3d 0a06 d13d aa38 25bd 2425 373d
00000200: 4ca2 ca3d 022f c7bc 9c7d 273d 2d90 94bc
00000210: 731a 9b3b a697 593b 6d6d d1bd 01c5 0dbd
00000220: 8f8c 083e d53b 32bd c02c 523d 34a7 eebc
00000230: cac4 9bbc 0ef5 063e c3f8 e63c cedb 0f3d
00000240: 05f0 763c a8e8 a73d eb16 8e3d 7945 dabd
00000250: fa3b da3d 086b 87bc 311c c43d 04ab 673d
00000260: 9a1e b4bd abab 3cbc a47e 04bd 8d87 00bd
00000270: c890 54bc 495b 883d 43f3 053e fb63 973d
00000280: 66de ebbb f524 14bc 2252 eabd 783c b3bd
00000290: 417a fabc 65cf 183d 266b 7d3c 0c64 b6bd
000002a0: 2a22 b5bd b246 d23d 464b f63d dc5c c43d
000002b0: df02 15bc cabf 78bd 1c80 7d3d 24e5 983d
000002c0: e8c4 1e3c c894 babd da1c 9e3d d2db c1bd
000002d0: 1b4c a3bd e8d2 e43d 2c9a 42bd a52a eabc
000002e0: bdb5 dabc db0c 713c 18d8 f53b c4b1 2cbd
000002f0: b040 8abd 5790 9bbd df5b 603d 0f5d e53d
00000300: dc97 9bbd 6122 21bd fb7e e8bd 6d74 db3c
00000310: 4882 713d 4df2 a03d 864c 813c c08b 903b
00000320: c485 c43b 62dc dcbd 5df6 71bd 2ec1 bbbd
00000330: 3d3b d8bd 17dd 68bd 1fcd 74bc a651 013d
00000340: 5840 a6bd 3102 963c 5f03 a63d eb64 1abc
00000350: 4678 a33d e7fa 553d 8b9a b8bd 652f 0cbe
00000360: 0f6a c4bd d4ee 853d 3d9e 8fbd 6294 03be
00000370: 1cb2 243d d6b9 c0bd 0f77 9dbd 1948 debd
00000380: 2e80 d1bd 2eb0 1a3c 57e0 8c3c 36e2 9fbd
00000390: f5c3 c9bd c4f5 61bd 7e6c 55bd 5928 b93d
000003a0: 1c6c 343d 93ed 8dbd a400 c13c d959 69bd
000003b0: a680 9e3c 49fc dabd 8cad cf3d 63cb 2cbc
000003c0: e433 f3bc 6a6d cb3c 3ba9 0bbe a95a 8cbd
000003d0: 89c2 813d 9571 63bd 695e 993d e3d9 29bd
000003e0: 56ad ed3d 4c3c dd3d 3eaf be3d d4c3 ff3c
000003f0: 885f 16bd d190 013d 7968 d8bc 2603 1ebd
-0.018692955 0.07010005 0.09607071 -0.0877547 0.117218174 0.09441981 0.011782724 0.09519222
-0.0033407311 0.08499492 -0.089782275 -0.12095256 0.031841274 0.06085376 0.030657325 -0.039583102
0.11068982 -0.10400738 0.08390673 0.076250054 -0.0046985713 0.12463041 -0.1211632 -0.05664955
0.09535594 0.009475155 0.11052578 -0.02410552 -0.05614611 -0.059558664 -0.03696689 0.06499034
-0.09621801 -0.036446348 0.06494501 -0.10401336 -0.023043897 -0.009563851 -0.00058004574 -0.097560585
-0.010428847 -0.043075807 -0.05521498 0.12942064 -3.5900623e-05 -0.08865674 0.01624521 0.07081295
0.082025394 0.077973135 0.020224774 0.08908992 0.0830075 0.030638613 -0.05782885 0.09719599
-0.055537812 0.07451188 0.086865634 0.07372182 -0.10025856 0.016735941 0.08455643 0.085856065
-0.07472119 0.030741699 0.068101816 0.023679014 0.08336527 0.0896159 0.073064856 0.088096336
0.040030207 -0.10481278 -0.02439159 0.11876083 0.11115415 -0.08809531 0.005053874 -0.13173802
0.01996156 -0.060091726 0.12650579 0.041025966 -0.12873766 0.094039164 -0.09164785 -0.05599851
-0.10718471 -0.05053696 0.1072991 0.022383448 -0.028098218 0.060672358 -0.10553119 -0.08388411
-0.014282549 0.10595287 0.0028868986 -0.0643933 -0.030639512 0.088699535 0.07343919 -0.06944115
0.0854843 -0.09824445 -0.069853745 -0.04752902 -0.012641305 -0.027477363 0.07889155 -0.0423274
0.04836801 0.053311888 -0.07528673 -0.04517472 0.010757711 -0.03501764 -0.058811985 0.03846284
-0.07655591 0.02461035 0.07297154 0.034567628 0.049830366 0.1020623 -0.040337242 0.044713154
0.09894237 -0.024314407 0.040891275 -0.018135155 0.0047333776 0.0033201962 -0.102259494 -0.034611706
0.13334869 -0.04351409 0.05131221 -0.029132463 -0.019014735 0.13179418 0.02819479 0.03512173
0.015071874 0.081986725 0.06937965 -0.10657782 0.10655971 -0.016530529 0.095756896 0.056559578
-0.08794899 -0.011515538 -0.032347336 -0.03137927 -0.012973972 0.06658036 0.13081078 0.07392117
-0.007198143 -0.009042014 -0.11441447 -0.08751768 -0.030575873 0.03730716 0.015467441 -0.08905801
-0.08844407 0.1026739 0.12026076 0.09588024 -0.009094923 -0.06072978 0.061889753 0.0746558
0.009690501 -0.09110409 0.07720347 -0.094657555 -0.079735 0.1117304 -0.04751031 -0.028584788
-0.026697988 0.014712538 0.007502567 -0.042161718 -0.067506194 -0.0759589 0.054775115 0.1119939
-0.07597324 -0.039339427 -0.113523446 0.026788915 0.058962137 0.07858715 0.01578356 0.0044111907
0.0059973914 -0.10784222 -0.05907284 -0.091677055 -0.10558174 -0.056851473 -0.014941483 0.031572007
-0.08117741 0.018311592 0.08106112 -0.009423475 0.07981925 0.052241232 -0.09013852 -0.13689955
-0.095905416 0.065396935 -0.070126034 -0.12849572 0.04020892 -0.094104454 -0.07688724 -0.10853595
-0.102295265 0.009441419 0.017196817 -0.07806818 -0.09851829 -0.05516602 -0.05210542 0.09040899
0.044048414 -0.06930079 0.023559876 -0.05697045 0.019348454 -0.10692651 0.10140523 -0.010546538
-0.02968783 0.024832446 -0.13638775 -0.068532296 0.06335933 -0.055528242 0.074887104 -0.04146756
0.11605327 0.10802516 0.093107685 0.031221308 -0.0367122 0.03163225 -0.026417004 -0.03857722

net.2.lin1.bias f4 [64]
00000000: d13a 78bd 869b 1ebd b91f e93d 7530 70bc
00000010: c257 64bd 3084 c33d a719 bb3d d8b3 ebbd
00000020: bc02 6ebd e2da 043d 964e de3d 3477 54bd
00000030: 93ed d43d 775a 493b 5315 753d 836d bebd
00000040: 55e5 bb3a ddb1 a2bd deec b13d 6944 d5bc
00000050: f488 bbbd 5cd6 6f3c e88e febd dab5 b83d
00000060: 968c b03d 28eb c83c ebff 8bbd 24e4 b2bc
00000070: 620b dd3d 16c4 d03d 84f3 08bd 7eb6 a13d
00000080: e923 8b3d a44c dc3d 8021 ba3d 37ae 103d
00000090: 9639 ef3c 85c3 d43d 17bf df3d 2b13 52bd
000000a0: 605f b43d a65b 793d c4cb c5bd 83e9 e83c
000000b0: ef6f d5bd 71ec e23c 82fc c3bd 6746 313d
000000c0: fc6c 22bd 9856 263d 56d4 99bd f7fb 35bd
000000d0: 7b0c 97bc a9b7 9abc 5862 493d b14e d2bc
000000e0: 6804 02be 6912 f33c 2160 3cbd 3733 ce3d
000000f0: ec75 10bc c607 3dbc f886 59bd 97fc d6bd
-0.060602967 -0.038722537 0.11383004 -0.014659991 -0.055747755 0.09546697 0.09135752 -0.11508912
-0.058108076 0.032435305 0.10854833 -0.051871493 0.10396876 0.0030724087 0.05983479 -0.092982315
0.0014335314 -0.07944081 0.08687757 -0.026033597 -0.09156981 0.01463851 -0.12429601 0.090190604
0.08620565 0.024526194 -0.06835922 -0.021837302 0.10793187 0.101936504 -0.03343536 0.07896136
0.06793959 0.107568055 0.09088421 0.035322394 0.029202264 0.10388855 0.10925119 -0.05128781
0.08807254 0.06087842 -0.09658006 0.02843166 -0.1042174 0.027700635 -0.095696464 0.04328003
-0.039654717 0.040609926 -0.07511203 -0.044429746 -0.018438568 -0.018886404 0.049166054 -0.025672289
-0.12696993 0.029671865 -0.045990113 0.10068362 -0.008817177 -0.011537498 -0.05310723 -0.104973964

net.2.lin2.weight f4 [64, 64]
00000000: 590d d1bd 7f6c c33d d3e5 973c d67d a1bc
00000010: 7c49 fd3d dfee 05bd 2525 c1bc cca2 e73d
00000020: ce91 c83d 822a acbd 296e 343d 17c9 66bd
00000030: 8e7b f6bd f885 d73b 29e1 14bd b48b d5bd
00000040: 235a 0f3e b5e4 8abd 14f9 423c 8f78 df3d
00000050: be18 28bc 159e 3abd ccf5 a1bd 50a9 1b3b
00000060: cbd2 00be 5697 e13d a300 23bd c862 e5bc
00000070: 5937 5f3c 045e bfbd 658f f13d 6f26 d7bc
00000080: 5c2e a5bd 0f1a aebd db5f b83d 1fa6 a0bd
00000090: 7b0d d93d 3f3f 943d c112 0a3d 042a 323d
000000a0: cb5f a73d 5080 8abc 103e 8cbb f113 d53d
000000b0: e9bd a2bc bee6 033d b694 95bc 6cc1 f03c
000000c0: 5a73 7abd addf 4abd fa6b 1f3c 856e d1bc
000000d0: 6b17 b63d 3147 edbd be1b a23c 9d91 0fbc
000000e0: 8434 cfbd 8612 4f3d 6617 093e b90c 2bbd
000000f0: 1213 e5bc 7493 ee3d 9f6f f5bc b64b ec3d
00000100: e45b 8c3d ad95 f23d 3a44 b1bb 9339 443d
00000110: eb6c 0c3e 1f70 f3bc 3c35 e13d 17f7 cd3d
00000120: dd19 cdbd 6f51 143d 28e3 83bd c3d5 ccbb
00000130: 8d19 683d a894 ad3d d71e 9d3d 87fa 5d3d
00000140: 29e6 cebd a9a0 b23d 5978 243d 4479 053b
00000150: 0f22 8ebc e450 e33d 9ba6 ddbd 06d0 f1bd
00000160: 1c55 9b3d 9147 4fbd df5d 4c3d 9e0d ae3d
00000170: 26dd 5b3d d3e1 93bd e58b 0fbd 223b bb3d
00000180: ae56 e33c b55a e53d 94a7 f73d 000c b93d
00000190: e328 803d 77be abbd 6689 d8bd 2981 d9bd
000001a0: 79b0 fbbd cfbf 20bd 536c eb3d 37d0 77bd
000001b0: 3b58 45bb a393 ea3c 8595 aa3d f3be 343d
000001c0: 1bc6 fb3b 6400 13bd 3a42 babd 6ff5 bebd
000001d0: c0c9 6dbd a704 823c 5eb0 4cbd b7e2 d83c
000001e0: 54b9 ef3d f0df d13d db21 8d3c f863 903d
000001f0: f4dd a8bd c445 003d 0812 2d3d 9caa a0bd
00000200: 7b26 833c fd23 e3bd 3ab3 733d 6ff3 a63d
00000210: 79ea 223d 6117 ec3c 94e2 e0bd fa70 043e
00000220: b920 993d f375 02bd 1554 e63a 91a8 dc3c
00000230: 9035 e1bd 75f2 dc3d 7601 e53d 8017 5e3d
00000240: 0564 063e 60ff f5bd 685c e7bd f5aa 983d
00000250: 886c 6c3c 2e4f 863d 47f1 063e fb22 a0bd
00000260: 279f ec3d d0db 51bd 592f e73d a6fa 92bd
00000270: 7acb bbbd fcb2 e2bd 6c2e c7bd 7f80 8d3d
00000280: 1710 97bd bc97 bb3d 2d90 693d 2878 0c3e
00000290: 34a3 88bd fd0e e7bc 4769 a5bd a1ed 363d
000002a0: 1ce9 c43d a2fc 34bd 9b5c f33d 97c7 92bc
000002b0: ac6e 0b3e 20e1 8fbd 5979 45bc d667 d13d
000002c0: a686 9cbd 6d26 c6bd 044e 8cbd 6ae5 ea3d
000002d0: 16d2 053e 9c6e db3d 1461 fcbd 06f1 8f3d
000002e0: ce70 15bd fd93 093d a501 fd3d d547 eb3d
000002f0: e638 c6bc 5174 57bc b5e2 5ebd 0baa 023e
00000300: b924 c5bd 9918 d6bd da63 c53d 8ded c73d
00000310: 2c46 583d 5f34 943d 0f67 b0bc 8339 9b3b
00000320: 8e22 bf3d eadb 6bbd ebf3 c3bd ee73 03be
00000330: d0e5 c3bd 0592 663d 3980 cc3c 22f8 f73d
00000340: 68c3 3fbd 6e2d d23d d504 25bc 3bb8 323d
00000350: b243 98bc 421f 02bd 2b19 563d 85e7 bdbd
00000360: 1fc2 38bc 0b2a 993d 744e be3d 80bb 2ebd
00000370: 943f 803b abef 9ebd df50 efbd 7c9d c23d
00000380: 75df f63d e656 2bbd 871c 2f3c 21ea b73c
00000390: a3a2 c7bd 94a3 023d 2881 c6bd c825 e6bd
000003a0: 92f3 bc3d 3f2a a3bd 445d 6e3d 8718 213c
000003b0: 3e67 843d 15e6 c13d 4975 b83d 585f 9c3d
000003c0: beeb 903d 1c69 58bd 1c7b 36bc ab51 213d
000003d0: e504 02bd 8a4a 613d 03b4 2a3d 40f7 43bd
000003e0: 54af 84bc 18b8 303c c8db 99bd 969a 413d
000003f0: 2490 013d c1b2 9cbd a159 4e3d 2a6d a23d
-0.10207624 0.09542178 0.018542206 -0.019713324 0.12367532 -0.03269851 -0.023577282 0.11310348
0.09793435 -0.08406545 0.04405037 -0.056344118 -0.12035285 0.0065772496 -0.036347542 -0.10427037
0.13999228 -0.06781904 0.011900205 0.109116666 -0.010259805 -0.045560915 -0.0790821 0.002375204
-0.12580411 0.11015193 -0.03979553 -0.028001204 0.013624036 -0.09344104 0.117949285 -0.026263444
-0.08065483 -0.08501064 0.09002658 -0.07844185 0.10598274 0.07238626 0.03370929 0.0434971
0.08172568 -0.016906887 -0.0042798594 0.10404194 -0.019865947 0.032202475 -0.018259387 0.029389106
-0.061145164 -0.04952972 0.009730333 -0.025565395 0.088911854 -0.11585844 0.01978862 -0.008762744
-0.101174384 0.050554775 0.13387832 -0.04176018 -0.027963195 0.11649218 -0.029960452 0.11537878
0.06853464 0.11844955 -0.0054097446 0.04790647 0.13713424 -0.02971655 0.10996482 0.10056894
-0.10014699 0.036210474 -0.06439811 -0.0062510683 0.056664992 0.084756196 0.07671898 0.054194
-0.10102493 0.0872205 0.040153835 0.002036647 -0.017350225 0.11099413 -0.10822793 -0.118072554
0.07584593 -0.05060536 0.04989421 0.08498691 0.0536777 -0.07220807 -0.035045523 0.09142138
0.027751293 0.111989416 0.1209251 0.09035492 0.062577985 -0.08385938 -0.10573082 -0.106203385
-0.12289519 -0.039245423 0.114952706 -0.060501304 -0.0030112404 0.028634852 0.083293 0.044127416
0.007683528 -0.035889044 -0.09094663 -0.093241565 -0.058053732 0.015871359 -0.049972884 0.026475294
0.117052704 0.10247791 0.017228058 0.070503175 -0.08245459 0.031316534 0.042253524 -0.07845041
0.01600956 -0.110908486 0.059497096 0.081519 0.03977439 0.028819742 -0.10980716 0.12933722
0.074769445 -0.031850766 0.0017572666 0.026935847 -0.10996544 0.107884325 0.11181919 0.05422163
0.13124092 -0.120115995 -0.11296922 0.074544825 0.014430173 0.06558071 0.13177978 -0.07819172
0.115537934 -0.05123502 0.11288328 -0.07176714 -0.091696694 -0.11069295 -0.09725651 0.06909274
-0.07376116 0.091598004 0.057022262 0.13717711 -0.066717535 -0.02820539 -0.08076721 0.044660214
0.096147746 -0.044186242 0.118828975 -0.017917437 0.13616437 -0.07025361 -0.012052857 0.10224883
-0.0764287 -0.09675298 -0.06850818 0.114695385 0.13068423 0.107144564 -0.12323204 0.070283934
-0.036484532 0.0335884 0.12353829 0.1148831 -0.024197053 -0.013150291 -0.054415423 0.12760179
-0.09626145 -0.104539104 0.09638186 0.09762106 0.052801296 0.072365515 -0.021533517 0.0047370805
0.09332763 -0.057582773 -0.09568008 -0.12837192 -0.09565318 0.0562916 0.024963485 0.121078745
-0.046817213 0.10262571 -0.010071953 0.043632727 -0.018586967 -0.03176809 0.052270096 -0.092726745
-0.011276751 0.07478722 0.092923075 -0.042659283 0.003913829 -0.07760557 -0.11685347 0.09502694
0.1205434 -0.04183092 0.010687954 0.022450509 -0.09747817 0.03189428 -0.09692603 -0.11237675
0.09226145 -0.07967042 0.058194414 0.009832508 0.064650044 0.09467713 0.09006745 0.07635373
0.07076214 -0.052834615 -0.01113775 0.039384525 -0.03174295 0.055002727 0.04167558 -0.047843218
-0.016196884 0.010786079 -0.07512623 0.047266565 0.031631604 -0.07651282 0.050378446 0.07930978

net.2.lin2.bias f4 [64]
00000000: bc95 abbd 2a75 3dbd c25c ddbc daba 8bbd
00000010: 1690 f7bd 5cc5 f13c cf25 903c 93e9 37bd
00000020: 867a 4f3c 6a86 83bc 4d93 39bd 11ef 7f3d
00000030: f771 9d3d 5898 69bd 0a48 d63c ce34 9e3d
00000040: cc05 3c3d d24e 753d 7723 96bd d7e1 7bbd
00000050: 90ef 9ebd f0e0 d3bd f931 033d 2f56 da3d
00000060: 4d8f a5bd 0e5b cabc 206a 29bc 598f 93bd
00000070: 7371 5e3d 0c73 08be 93bd b5bd 72f4 9fbd
00000080: 3f47 03be beb3 513c bd54 ab3d 18ac f0bd
00000090: 7757 06bd fe5e 48bd 3112 8a3d 9761 083c
000000a0: 656d 0d3d 7083 d43d e9f5 c93d c76b 223d
000000b0: 5e86 2c3d 1005 c3bd 7928 e4bd 7bc7 733c
000000c0: 71a4 dabd 8798 d6bd 0383 b53d 700b 60bd
000000d0: 405a 293d 4be1 cf3d bf2a 793d 56d9 eb3c
000000e0: 4cc1 08be b8c6 b13d 5de0 b1bd b810 7cbd
000000f0: a482 90bc e201 c8bd a14c 9dbd 3df1 043e
-0.08378169 -0.046254314 -0.02702177 -0.068227485 -0.12088029 0.029513054 0.017596154 -0.044900488
0.012663489 -0.016055305 -0.045306493 0.06248385 0.07687753 -0.057030052 0.026157398 0.077249154
0.045903966 0.059889622 -0.07330983 -0.061494675 -0.07760537 -0.10345638 0.03203008 0.106609695
-0.08083973 -0.024701621 -0.010340244 -0.07205076 0.054307412 -0.13325137 -0.08874049 -0.07810296
-0.12820147 0.0127992015 0.08365772 -0.11751574 -0.032798257 -0.048918717 0.06741751 0.0083240485
0.034528155 0.10376632 0.09861357 0.039653566 0.04212033 -0.0952245 -0.11140532 0.014879103
-0.10675896 -0.10478311 0.08862879 -0.054698408 0.041345835 0.10150393 0.06083178 0.028790157
-0.13354987 0.08680481 -0.08685372 -0.06153938 -0.01764042 -0.09765984 -0.076806314 0.1298265

net.3.lin1.weight f4 [64, 64]
00000000: ac4e 563d c045 14bd 40f0 203d 78bc 5b3d
00000010: cd20 eebc 55b9 d93c 7b79 3c3c 788c b5bd
00000020: 1c51 563d e786 1bbd b36a 353d d821 b83d
00000030: 16de f83c b2a1 1fbd 2dac 94bd 3e7e e3bd
00000040: 5849 cabd a6a6 73bc 4317 3ebd 2c29 fe3d
00000050: 68bd c9bc af36 983d 6e26 09bd 976d 993c
00000060: 405b f13d 7ab8 203d 0e7f 95bc 94ed 81bd
00000070: 5c53 cd3d efa2 d23d cd90 543d 9cea 07be
00000080: a6ea c7bc 07a3 91bd 6718 c93d 4a75 a1bd
00000090: f48d ce3d d0e1 4d3d 63ef 06be c9fe 10bd
000000a0: 0fba ff3d abe9 efbc 3686 8c3c 5e9e e13c
000000b0: d244 353d 8de5 83bc 8d14 bc3b 0651 5dbd
000000c0: 1059 c4bc 588f 883b f625 d3bd 15e2 df3d
000000d0: 5def 94bd 78dc 05be f903 c73d 8df1 9d3d
000000e0: 9e24 383d b6c3 303d ecd5 0fbd 68cd 833d
000000f0: 6b2d cd3d 4297 e53d e6b0 f6bc deca f4bd
00000100: 77a6 e5bd 18e8 8abc 87c1 7abc fb98 b8bd
00000110: 11a8 5dbd 928d 94bd 5ac8 f03d 1210 16bd
00000120: 6a99 2dbd e38b c23d ac02 e23c cb86 9b3d
00000130: a847 f3bc 9ec2 d93c 0f45 0f3e aa1c e2bc
00000140: 8472 aa3c 91bf 0c3d 4a6f bebb 40ff 6f3c
00000150: cf7b 80bb 84fb 9e3d ef13 e63d 6710 053e
00000160: 7d4e c1bc c788 9ebd e318 a0bd 3d64 df3d
00000170: 4a44 933d b2b3 793d 629b 49bd ccae e93d
00000180: 6599 bb3d cbd6 853d 3be8 6c3d edf1 debd
00000190: 3144 23bc 619a 24bc 2bbf b6bc 7d0e 2a3d
000001a0: 149a 993d 6498 39bd 6730 b93d 1f2e 723d
000001b0: 6f6a 43bd 444a 003d 6cd2 b73d c875 ac3d
000001c0: 9500 d43c 4f19 09be 0a1b 383d 3f03 27bd
000001d0: 7609 9bbb 86cb e73d 9ccb 3ebd 2bbf 99bc
000001e0: 2573 f8bc fd3a 15bd 5086 eb3c d084 c73d
000001f0: 6a86 993d 04db 5a3d 5789 c1bd 0393 173d
00000200: c0d0 f4bd 5617 f73c 8cdb 0d3d 9104 0fbe
00000210: b2aa b8bd de01 113d 8fa0 a63d 2890 9b3c
00000220: c897 31bd fe27 463c 91dc 0cbe 3996 58bd
00000230: d4db 41bb 2ae3 0e3d 5e6c 91bc e802 1d3c
00000240: 0dfe 4dbc f6d0 013d 14bd fdba 2511 0a3d
00000250: a330 9cbd 7a70 e2bd b62a a93a 4f0f a43d
00000260: 07be f7bd d25a b9bd 544f 32bc 4c92 babd
00000270: 7460 e63d 365c a8bd 4c7c 893d efe3 1abd
00000280: 0249 973c b556 ccbd f73c b23d 80ac 9bbc
00000290: 1517 d1bd 25c4 78bd 65a3 473d 567f 833d
000002a0: b506 4abd f8b7 9a3d 1078 0b3d 1dfe 0bbe
000002b0: 3510 1dbd ffa2 d6bd 536d 5f3d 6d32 c3bc
000002c0: 0b45 d13d 8580 9bbc aec1 bfbd 6405 01be
000002d0: 89c8 babd f70a 4dbd baed a23d b6f7 e03d
000002e0: aa16 64bd 6120 d5bd 3486 2fbd 5b1a 82bd
000002f0: ef93 f9bc 2f68 713d ffed 6abd e6a0 b5bd
00000300: 756b b3bd bcf9 3cbc 46a7 503d 3aaa 2cbd
00000310: 81fd bb3d f74b cc3d 2793 30bd 4736 c1bb
00000320: dddd d63d 1371 a83d a873 e63d 64f1 8fbd
00000330: 64ae 37bd fbfd e63d f2c5 17bc 8c3e ebbc
00000340: 0a9f a1bd 31ad 92bd bad2 373c ffac dabd
00000350: 514e fd3c 9b75 913d 4c15 863d 1076 d33c
00000360: 8514 b73d d4ae bb3d 5a6c 98bd 5c76 ecbc
00000370: 353f 94bc d2e0 26bd d3f6 843d 3617 cfbd
00000380: d8de cfbc 17b8 683d 1d26 ca3d cfe2 cfbd
00000390: f38c 543d b5e6 f23c 8910 9e3d 3a17 0b3c
000003a0: f2c0 4c3d 47ad 7c3d 79aa 8ebd 2fb6 d13d
000003b0: 6066 be3c cd77 ce3d d06f 0bbd ab26 a73d
000003c0: c59e bfbd 6d95 e03d 7f2a cebd 42e6 de3d
000003d0: 8760 61bd 5dd4 e9bd 6b4d 4f3d 96d0 9dbd
000003e0: fc68 82bc 2b5e aa3d 5d0e 89bd 0716 403d
000003f0: dd32 9fbc c601 193d b299 44bd 3b5c ce3d
0.05232112 -0.03619933 0.03929162 0.053646535 -0.029068375 0.026577631 0.011503573 -0.08864683
0.052323446 -0.03797045 0.04429121 0.0899083 0.030379336 -0.038972564 -0.072594024 -0.11108063
-0.098772705 -0.014871275 -0.046408903 0.12410197 -0.024626449 0.07432305 -0.033483915 0.018729014
0.11784983 0.03923843 -0.018249061 -0.063441426 0.10025665 0.10284983 0.051895905 -0.1327309
-0.024403881 -0.07111173 0.098191075 -0.07883699 0.10085669 0.05026418 -0.13177256 -0.035399232
0.1248666 -0.029286226 0.01715384 0.027541336 0.044255085 -0.01610067 0.0057397545 -0.054032348
-0.02396825 0.0041674785 -0.10309975 0.109317936 -0.072722174 -0.13072383 0.097175546 0.07712088
0.044956796 0.043155394 -0.03511612 0.064356625 0.100184284 0.11210491 -0.030113649 -0.11952756
-0.11213391 -0.016956374 -0.01530493 -0.09013554 -0.05411536 -0.07253565 0.11756964 -0.03663642
-0.042382635 0.094993375 0.027589165 0.07594069 -0.029697254 0.026582059 0.13991188 -0.027601559
0.020806558 0.03436238 -0.0058116065 0.014648259 -0.003921009 0.077628165 0.11234271 0.12994538
-0.023596996 -0.07740932 -0.07817247 0.10907791 0.071907595 0.060962386 -0.04922045 0.11410293
0.09160117 0.06535109 0.05783866 -0.108859874 -0.009964989 -0.010046572 -0.022307953 0.041517723
0.07500091 -0.045311347 0.09042435 0.059126016 -0.047708925 0.031320825 0.08975682 0.084209025
0.025879184 -0.1338856 0.04494766 -0.04077458 -0.0047313524 0.11318116 -0.046580896 -0.018767914
-0.030328343 -0.03643321 0.028750569 0.09742129 0.074963406 0.053431526 -0.094500236 0.037005436
-0.119538784 0.030162495 0.034633204 -0.13966586 -0.090169325 0.03540217 0.08136093 0.018989637
-0.04335764 0.012094496 -0.13756014 -0.05287764 -0.002958049 0.03488461 -0.017751869 0.009583212
-0.012572777 0.03169342 -0.0019358718 0.033707757 -0.07626464 -0.110566095 0.0012906406 0.080107324
-0.12096792 -0.09050526 -0.010883171 -0.09109935 0.11248866 -0.08220713 0.06713161 -0.03781503
0.01846743 -0.099774756 0.08703034 -0.019003153 -0.10209481 -0.060733933 0.04873981 0.06420772
-0.049322803 0.075546205 0.034050047 -0.13671155 -0.038345534 -0.10480308 0.05454762 -0.023827756
0.10218247 -0.018982181 -0.09363113 -0.12599713 -0.0912028 -0.050059285 0.07955499 0.10984747
-0.055685677 -0.104065664 -0.042852595 -0.06352683 -0.030466048 0.058937248 -0.057355877 -0.088685796
-0.0876073 -0.011534151 0.050940774 -0.04215453 0.091792114 0.09975427 -0.043109085 -0.005896363
0.10491536 0.08224692 0.112525284 -0.070284635 -0.044844046 0.11278912 -0.009263502 -0.028716348
-0.078916624 -0.0716194 0.011219675 -0.10677528 0.030921133 0.071025096 0.06547031 0.025813133
0.08939461 0.09164205 -0.074425414 -0.028865032 -0.018096546 -0.04074175 0.064923905 -0.10111849
-0.025374815 0.056816187 0.09870551 -0.10150682 0.051892232 0.029651025 0.077179976 0.008489424
0.049988694 0.061688688 -0.06966109 0.10239827 0.023242176 0.10081444 -0.03404218 0.08161672
-0.09356455 0.10966001 -0.10066699 0.10883762 -0.055023696 -0.11417458 0.05061094 -0.077058
-0.015919201 0.08318742 -0.06692193 0.046896007 -0.019433433 0.037355207 -0.047998138 0.10076185

net.3.lin1.bias f4 [64]
00000000: cfd8 bdbc 54bd f63c 82e3 ce3d da81 a6bc
00000010: 87d1 5d3c 7ae7 36bd 6d28 afbd a664 44bc
00000020: 72ed c13d 7d9b ca3d 44d8 e0bd a239 a2bc
00000030: a5d7 c53d 29d1 f0bd f645 cf3a e6d6 9f3d
00000040: 98b3 38bd 5ecc 473d 0a37 2dbd 409f 73bd
00000050: 06a0 a73b d282 a9bd 4c92 babd ceae 213d
00000060: aeaf b0bd f467 1f3c 68ed b6bd 2b43 1f3d
00000070: 402d 31bc 0da0 1d3d 626e cb3c 16ba 893d
00000080: 60cd b33d 1d17 5d3b d36b 03bd 22c8 41bd
00000090: 6721 b5bd 1a75 093d 4339 f8bd 25e3 713b
000000a0: ec56 49bd 7b13 f73d 723e b93d ee10 4fbd
000000b0: 8e60 f7bd 9e3c 8abb d597 3a3d 0755 643d
000000c0: de0d 933d 17cd f5bd d70a 4f3d 9bcb a73d
000000d0: 54c8 a33d a72d 22bd e6c2 083e 6f64 fd3c
000000e0: 35e0 25bd 3bcd fabc 2510 333c 3499 b43d
000000f0: a75f 4f3d aab8 e13c 978c 41bd 10a3 123d
-0.023174671 0.030119576 0.101019874 -0.02032559 0.013538725 -0.044654347 -0.085526325 -0.011986887
0.09469117 0.09892938 -0.109787494 -0.019802872 0.096602716 -0.11758644 0.0015813697 0.078046605
-0.04509315 0.048778884 -0.042288817 -0.059478045 0.005115512 -0.08276905 -0.09109935 0.039473347
-0.08627258 0.009729374 -0.089320004 0.038882416 -0.010814011 0.038482714 0.024832908 0.06724946
0.087794065 0.00337357 -0.03208525 -0.047310002 -0.088442616 0.033558942 -0.12120297 0.003690907
-0.04915516 0.120642625 0.090451136 -0.050553255 -0.12078963 -0.004218652 0.045554955 0.05574515
0.07180379 -0.120020084 0.050547447 0.081931315 0.07997194 -0.03959432 0.13355598 0.03093168
-0.040497024 -0.03061544 0.010929142 0.08818284 0.05062833 0.027553875 -0.047253218 0.03580004

net.3.lin2.weight f4 [64, 64]
00000000: 045e 9e3d 69a1 e3bb 92d8 a53c 6648 f3bd
00000010: 82ef 97bd 14e9 0d3d afef 78bd 57ac 0f3d
00000020: 3f09 a43d 6572 e7bd 2714 91bd 4386 833d
00000030: 0324 b23d 1424 603c 28cf a03d 78a9 633d
00000040: 42ca c73c 42b8 463d 6a5d c7bd 3b82 063e
00000050: d89a 8dbd d0a8 c63d af8b 8ebd 7e3a 4cbc
00000060: a8e4 5ebd 103d 773c f8a5 dc3c acf0 43bd
00000070: e6b2 573d c9ee c2bd 9aaf 28bc 1719 86bd
00000080: b939 a4bd 7b31 8e3d b818 913d 9dd2 f53d
00000090: 2711 debc 0038 fabc aa08 1d3b b759 3f3d
000000a0: 219d 0fbc f493 a83d 4e69 56bd 2061 ce3c
000000b0: 1209 c33d 46a9 c4bc 70a1 5a3d f98c 763d
000000c0: f3a0 7fbd ff22 c4bd 86b2 9e3d f48b ccbc
000000d0: bc13 24bd 14dc 89bd 8997 e5bd 2071 53bd
000000e0: bc43 61bc 626e 26bd 8cff e4bd 5205 b83c
000000f0: b80d a83d 81e3 a1bc a8ed 97bd f059 0fbe
00000100: 9c6e bb3d 0c12 e1bd 888a 153d 9716 4d3c
00000110: 9f2f 15bd 40dc bb3d a823 e73d da81 ea3d
00000120: c9a5 cebb 4431 06be 1d36 a5bd f9f1 b63d
00000130: ac1e 073d 2cc9 d03d 4de4 c4bb ae0d d53d
00000140: 6803 c63c df0e c63d c858 663c 7a95 93bd
00000150: 652c 9bbd 0c09 62bd 5189 a1bd a8ea b83d
00000160: f45e e53d 4fa4 8cbd 3d17 603c 50bf 1cbd
00000170: 26d1 423d 4600 9cbd e0f1 843d 6c5b 343c
00000180: ca1b fdbd 29e4 a23d a63d f03b 3d1f a23d
00000190: a703 2f3c 84ce 4ebc 2557 243d bcdf bcbd
000001a0: 9162 783d 30f8 c8bc a4e9 aebd 2051 803d
000001b0: f4b4 e53c 8668 993d 6463 ab3d a56e 143d
000001c0: cf48 7d3d 63cb f43a da6e 973c a4d1 6cbd
000001d0: a965 e8bc 10c4 04bd 74d4 b9bd 09b9 bd3c
000001e0: df43 89bc 40af 293c 911c 29bd 6d46 3fbd
000001f0: 4066 20bd 3ea1 acbd f38f d0bd 7d2e 0abd
00000200: 7a62 9ebd 49ed e0bd 90ff 733c d2b4 8f3c
00000210: 4e38 b53a e152 fbb9 3aa3 51bd 3d32 373d
00000220: 6f2f e9bd ea60 7e3d fc96 d33d e333 d03c
00000230: df08 223d c621 7c3c 012c 463d b1b4 bfbb
00000240: 6f4f b83d 9fe0 533d 16bb 003d 1e05 a93c
00000250: b089 6ab8 14fb b0bd 26ed bbbd 81e9 adbd
00000260: 6d04 fd3d 444d b63d c7a7 b9bd e884 733d
00000270: 6a0a 4abd 31b0 463d 4aa5 8a3d 4910 333c
00000280: ed46 3cbd 6e73 22bd 199d 84bd 1f60 663d
00000290: 97e8 3f3d d68a e33d 4969 7f3d bf3a 4f3d
000002a0: 1f1b c2bd 5457 a7bd 670d 7abc 707d 123d
000002b0: 32ad 9e3c 8c4e 0cbe 70ef 85bd 8da8 06be
000002c0: 95c2 b83c 9637 babc 4775 74bd a8b0 c6bc
000002d0: 49d2 883d d4e3 e7bd e462 ae3d 00da e03d
000002e0: a56a 55bd 8a89 2d3b 5997 d2bd 79b4 b4bd
000002f0: 6e0a 103d e4c5 803d f60b efbc 161c f8bd
00000300: 536b a2bd f854 02bd 4fb4 05bd d941 a03d
00000310: 3bbb ab3d 18f4 d4bd c57b e93d 440b 9a3d
00000320: 7884 0bbe 5369 dfbd a6ce e4bd 359c fd3d
00000330: d61d 263d 1047 44bc 21e0 e6bd 13c4 d1bd
00000340: 6648 f73d 8dc4 b1bd ba44 543d e3bf 9cbd
00000350: d860 873d 6231 fc3d 188a ca3c a878 febd
00000360: c11a df3d a420 57bd e9a1 1cbd 5380 a1bd
00000370: c34c cc3d f887 81bd ccc7 e7bd a757 c73c
00000380: f87d 593d 84b0 593d f17f e1bd c3b5 d23d
00000390: a91c b73d 92cc 023e 1844 8dbd f4e3 3d3d
000003a0: 96d4 5fbc 37a6 6dbd c2a8 bc3d e4b3 f7bb
000003b0: 668b ddbc a4fb 74bd fcf5 9bbd d372 8fbd
000003c0: c0df b03d bfe0 843d 6079 263b aa3b ca3d
000003d0: 06e6 ac3c e231 92bd 7788 00be dac8 a93d
000003e0: 6dc9 51bc 2373 a63c caa5 aebd 9aad e43c
000003f0: 1354 d83d 15fb 9e3a 5a07 5e3d 7647 cebc
0.07732776 -0.006946732 0.02024487 -0.11879043 -0.07418729 0.03464611 -0.060775455 0.035076465
0.08009576 -0.11301116 -0.07083922 0.06422093 0.08698275 0.013680477 0.07852012 0.05558154
0.024388436 0.048515566 -0.09734614 0.13135616 -0.069143 0.09700167 -0.06960236 -0.0124651175
-0.054417282 0.015090242 0.026934609 -0.047836944 0.052660845 -0.09518201 -0.010295773 -0.06547754
-0.08018822 0.069430314 0.07084793 0.12003062 -0.027107788 -0.030544281 0.0023961463 0.046716418
-0.00876549 0.08231345 -0.05234652 0.025192797 0.095232144 -0.024006497 0.053376615 0.060193036
-0.062409353 -0.095769875 0.077488944 -0.024969079 -0.040057883 -0.0673143 -0.11210544 -0.051621556
-0.013749059 -0.040632613 -0.11181554 0.022463474 0.08205742 -0.019761803 -0.07418376 -0.13999152
0.091519564 -0.1098977 0.036509067 0.012517593 -0.03642237 0.09172869 0.11286098 0.114505485
-0.006306384 -0.13104731 -0.08066962 0.08932871 0.032988235 0.101946205 -0.006008661 0.10403
0.024171546 0.09670805 0.014059253 -0.07206245 -0.07576827 -0.05518441 -0.07887519 0.09029132
0.111997515 -0.06867277 0.013677415 -0.038268387 0.04756274 -0.0761724 0.064914465 0.011008125
-0.12358816 0.07953674 0.007331568 0.079161145 0.010682023 -0.012622479 0.04012217 -0.092223614
0.060640875 -0.024532408 -0.08540657 0.06265473 0.028040387 0.074906394 0.08368567 0.03623833
0.061837014 0.0018676337 0.018485475 -0.057817116 -0.028368788 -0.032413542 -0.09073725 0.02315952
-0.016755996 0.010356724 -0.04128701 -0.046698023 -0.039160013 -0.08429192 -0.10183706 -0.03373574
-0.07733627 -0.109827586 0.014892474 0.017542277 0.0013825984 -0.000479362 -0.051181056 0.044725645
-0.11386 0.062104143 0.10331532 0.025415367 0.03955924 0.015388912 0.04838181 -0.0058503975
0.08999526 0.051727887 0.03142842 0.020632323 -5.591818e-05 -0.08641639 -0.09176092 -0.08491803
0.1235436 0.08901456 -0.09065204 0.05945292 -0.049326338 0.048507873 0.06769808 0.010929176
-0.045966078 -0.039660864 -0.064752765 0.056244012 0.046852674 0.11110465 0.062356267 0.050593134
-0.09477829 -0.081709534 -0.015261984 0.035764158 0.019369695 -0.13701838 -0.0653981 -0.13150235
0.022553721 -0.022731584 -0.059682157 -0.024254158 0.06680734 -0.11322752 0.08514956 0.1097908
-0.052103657 0.0026479685 -0.102827735 -0.08823485 0.035166197 0.06287745 -0.029180508 -0.12114732
-0.07930627 -0.031819314 -0.03264266 0.078250594 0.08385321 -0.1039812 0.1140056 0.0752168
-0.13624752 -0.10908761 -0.111722276 0.1238331 0.040555798 -0.011979833 -0.11273218 -0.10242476
0.12074356 -0.08680067 0.051823355 -0.07653787 0.06610268 0.123141065 0.024724051 -0.12425357
0.10893775 -0.052521363 -0.038240347 -0.07885804 0.09975579 -0.06324762 -0.11317405 0.024333788
0.05309865 0.053146854 -0.11010731 0.102885745 0.08941013 0.1277335 -0.068977535 0.04635997
-0.013661524 -0.058019843 0.092118755 -0.0075592864 -0.02704401 -0.059810296 -0.07615277 -0.07004323
0.08636427 0.064881794 0.0025401935 0.09874661 0.021105777 -0.07138421 -0.12552057 0.082902625
-0.012804371 0.020318573 -0.085277155 0.02791481 0.10562911 0.0012129272 0.05420623 -0.02518056

net.3.lin2.bias f4 [64]
00000000: a480 bfbd cb0c 913d e321 39bb 4974 e53b
00000010: a111 d5bd da71 9bbd 5d01 d33d a58e 1cbd
00000020: 5cbc cf3d 36b1 dd3d cce7 6a3c 674c 76bd
00000030: fc29 af3d 2d26 bb3d 121c ca3b 722a ad3d
00000040: f406 b9bd dd7e b0bb c9d3 b43d 829c 40bd
00000050: 6cc2 9fbd 06c9 d0bd 8c66 9cbb fd72 babd
00000060: 4830 1cbd ddb1 ae3c fde6 b0bd 5dcf df3d
00000070: 9f7c 053d 2816 c8bd 8b3d a8bd 0f1b aa3d
00000080: e5a8 40bd af05 e2bc 51be f6bd a0d4 d2bd
00000090: a535 743d 7aba d63c 847d 0a3e 09b2 ec3d
000000a0: 77b1 d2bd 2004 ea3c 99b2 253c 42bd c53d
000000b0: beca eb3c 06fe 7dbd 8bd0 fe3d 49f3 dbbd
000000c0: 8179 043d a934 a6bd fa1f 913d a08b 86bd
000000d0: 947e f1bc 05d9 573d f6b9 be3d 3b39 7c3d
000000e0: b041 01be 236f 773c a47c cd3c c031 9cbd
000000f0: b249 273d 5b1f 093e 3de6 f13d 4f1b e63d
-0.09350708 0.07082518 -0.0028248958 0.0070023877 -0.10403753 -0.07590075 0.103029944 -0.038221974
0.101433486 0.10824816 0.014337491 -0.060131457 0.0855293 0.09138141 0.006167897 0.084553614
-0.09034529 -0.005386217 0.08829457 -0.047024257 -0.07800755 -0.10194592 -0.0047729667 -0.091039635
-0.038131982 0.021325046 -0.086378075 0.10928223 0.03258955 -0.09769851 -0.082148634 0.08305942
-0.04703607 -0.0275906 -0.12048019 -0.10294461 0.059621472 0.026211966 0.13524443 0.11557395
-0.10287755 0.02856642 0.010113382 0.09655239 0.028783198 -0.062009834 0.1244212 -0.10739762
0.032342438 -0.08115513 0.07086177 -0.065696 -0.029479302 0.0526972 0.09312813 0.061578017
-0.12622714 0.015102181 0.025083847 -0.076266766 0.040841766 0.13390867 0.118114926 0.112356775

net.4.lin1.weight f4 [64, 64]
00000000: adbf 83bd d024 dfbd 28b8 cabd 8087 d0bd
00000010: e913 bc3d 7172 be3c e17b cc3d dec0 dcbd
00000020: 1bfc 5f3c 918e 35bd c72f bdbc a463 793d
00000030: 1980 a33d 728f 60bd 822a d8bd 080c cbbd
00000040: 1f17 7f3c df61 48bd bbc2 cd3b 93e0 89bd
00000050: 4ca7 3ebd cfde d23d 18ce 0e3e 4e4d b1bd
00000060: 4fda cabd a044 ad3d a331 393d 5fcf eb3d
00000070: 00a5 04bd 854b c6bc 957d b63c 7de7 b13c
00000080: 7c5a ddbc b84d 96bc 1de5 f7bd 7f6d 503c
00000090: b112 f8bc f9bc de3d 239e 6bbd daf4 063e
000000a0: c896 35bd 86ea 7ebd 395f 03bd 56b8 df3c
000000b0: 9cbb a4bd 1392 d73c 70f8 e2bc 9670 1cbd
000000c0: 8cfe ea3d ad5a b5bd fbbe d8bc 3555 ed3c
000000d0: 36b8 333d fd5e 0c3e f4ac e73d 726e e93c
000000e0: 78ec 9f3b e9d5 d6bd 66cb a63d c124 01be
000000f0: 5acd 80bd a386 083e 256d 87bd 69e4 503d
00000100: ef3a 0cbe 533a b33d 3af8 c93d 30ae e0bc
00000110: 6be9 9cbd 5f50 803d d362 063e aed4 b5bc
00000120: 9ba2 91bd 6fb3 023d c651 aa3d 9b89 09bd
00000130: fbbd 293d 808b c93d 15ca fabd 0d18 ebbc
00000140: 957e 323d 14f0 ef3d 2f5d ce3d a593 c93b
00000150: 3bce b43d 6296 80bd 07bc b8bd 9bf4 973d
00000160: 3d0c d33d 374b 44bd 1e27 31bd 2fc9 9abd
00000170: 21c2 dfbd dec0 c5bd f280 d83b f7ae fe3d
00000180: f2e4 b1bd 1922 a13d 67a8 66bd 19f6 fabd
00000190: d492 b83c 3394 c4bd 4d94 8bbd 05b0 76bc
000001a0: 8575 81bd aa61 563d a8d0 fb3b fd62 ad3d
000001b0: 2a32 b3bd 8136 eb3d 056f 87bd 3f1c dfbd
000001c0: 880a 083e 1418 b53c ae72 393d f4d0 083c
000001d0: 81fb f7bd 1e57 45bd 1d66 28bd 6964 3fbd
000001e0: 6882 30bd 570e 203d 6048 95bc 5e18 8fbd
000001f0: a6f2 3abd 1a0d eb3d 4828 fa3c 8a11 f33d
00000200: e8e7 74bd c1de bf3d 0a7f 5cbc 63fd 0e3d
00000210: 6811 c13c 058a 8c3d de88 e43c 2cfc 8dbd
00000220: 0727 0fbd 6559 913d c299 b1bd 2618 b73c
00000230: 13dd 92bd 5a8b 21ba 8e9c 41bd 9142 b23d
00000240: 0568 d6bd 49b8 42bd ce6d b43d 3879 1b3d
00000250: 2980 8b3d d3e9 bd3d cddf 253d 7beb c73c
00000260: f9ad 9b3c d2be 96bd 6ae8 dc3c df93 a03d
00000270: 8235 cb3d 9ef1 bbbd f7a5 283d 281c d13a
00000280: e8a3 6e3d 3f78 fdbc 28ff d8bd 1843 7a3d
00000290: 07e6 57bc ee51 c3bd 6871 f7bd 67ec fd3d
000002a0: 115c bf3b 57d4 14bd 6092 8abd 3e4d 9cbd
000002b0: 1a8b 043d 2242 7ebd 992b 04be f8ec 993d
000002c0: 64e6 b1bd c57d 83bd 1f02 a43d 7fc6 fb3b
000002d0: 5a2f 873d 4f4c 213d 58d8 fb3d d0af 69bc
000002e0: 7f11 f63a 7c7b c23d f190 47bd c0a1 19bd
000002f0: bfed bfbd 3f40 913d 0d6c 9f3d b70f cabd
00000300: 1d48 35bc ad7a 323d 089c ef3c 9d1c 07ba
00000310: 0351 f33d 40d4 d3bd 049f b33d 68e7 85bd
00000320: b634 68bd 89f6 af3d a306 08be 501b 9b3d
00000330: 77a2 02bc 39b6 93bd 1545 2ebd e672 853d
00000340: 77e2 973d bc0c c2bd e1a4 8c3d aa81 84bd
00000350: d178 ea3d 7df9 3f3d 1c4b 63bd 02a4 bd3d
00000360: 802d 4f3d 29b8 ccbd d020 eebd dee5 66bb
00000370: c80d fdbc 3008 b6bc 0c41 cf3d 792d aabd
00000380: 7555 cb3d 52e8 dcbd 4c24 d4bd c4c9 ca3d
00000390: 51b0 c73d f713 24bd 1cf2 853d 41f2 833d
000003a0: 1ee2 d6bc daf3 3ebd 5e4d e13c 4772 013e
000003b0: 4d2a e83d 45ea 9f3d b88a 13ba d8b0 1bbc
000003c0: c2f2 f6bd 77dd 80bd 2ebe b13d 2f92 043d
000003d0: f993 d93d 3353 833c d12e cabc e514 cbbd
000003e0: 59b9 9abd e134 98bd 1467 1ebd e682 02bd
000003f0: b4cb 6bbd 7b98 40bd 6b17 1f3c 9359 d33d
-0.06433044 -0.10895693 -0.09898406 -0.101820946 0.09183485 0.02324793 0.099845655 -0.10778974
0.0136709465 -0.044325415 -0.023094071 0.06088604 0.07983417 -0.0548243 -0.10554983 -0.09914404
0.015569477 -0.048921462 0.006279317 -0.06732287 -0.046546265 0.102964036 0.13945806 -0.08657323
-0.0990492 0.08460355 0.045213353 0.11514162 -0.03238392 -0.024205932 0.022276679 0.021716828
-0.027020685 -0.018347606 -0.12104247 0.012721418 -0.03028235 0.108758874 -0.057523858 0.13179341
-0.04433325 -0.062235378 -0.032073233 0.027309578 -0.08043596 0.02631477 -0.027706355 -0.038193308
0.11474332 -0.08855186 -0.026458254 0.028971294 0.04387685 0.1370811 0.11312285 0.028495047
0.004880484 -0.10490019 0.08144264 -0.12611677 -0.06289168 0.1333261 -0.066126145 0.05099908
-0.13694356 0.08751359 0.098617986 -0.02742681 -0.076617084 0.062653296 0.13123636 -0.02219614
-0.07111093 0.031909402 0.08316378 -0.033578496 0.041440945 0.09841061 -0.12245575 -0.028697992
0.04357775 0.11715713 0.10076367 0.006151634 0.08828398 -0.06278683 -0.09020238 0.07419702
0.10305069 -0.047923293 -0.043250196 -0.07557904 -0.10925699 -0.09655927 0.0066071684 0.12435716
-0.08686246 0.07867832 -0.056312945 -0.12253971 0.02253095 -0.09598579 -0.068153955 -0.015056615
-0.06321243 0.052339233 0.007684786 0.08466146 -0.087498024 0.11485005 -0.06612972 -0.108940594
0.13285267 0.022106208 0.045275383 0.0083506 -0.121085174 -0.048178785 -0.041113008 -0.046726618
-0.043093115 0.039076176 -0.018222988 -0.069870695 -0.045641564 0.11477108 0.030536786 0.1186858
-0.059791476 0.09368659 -0.013458023 0.034909617 0.02356787 0.06862263 0.027897295 -0.069328636
-0.03494933 0.07097129 -0.08671905 0.022350382 -0.07171073 -0.00061624276 -0.047268443 0.08704103
-0.10469059 -0.04753903 0.08810006 0.0379574 0.06811554 0.09273114 0.040496636 0.024404278
0.019003855 -0.07360615 0.026966292 0.07840704 0.09922315 -0.09176944 0.0411739 0.0015953826
0.058261782 -0.030941127 -0.10595542 0.06109914 -0.013177401 -0.09537111 -0.120821774 0.12398606
0.0058398326 -0.036335316 -0.067662 -0.0763192 0.03235922 -0.062074788 -0.12907256 0.07515901
-0.08686522 -0.06420473 0.08008217 0.0076835747 0.066008285 0.039379414 0.12297124 -0.014263108
0.0018773525 0.09496209 -0.04872221 -0.037507772 -0.09371518 0.07092332 0.07784281 -0.098662786
-0.011064556 0.043574024 0.029249206 -0.0005154105 0.11880686 -0.10343218 0.08770564 -0.06538278
-0.056690894 0.08591945 -0.13283782 0.07573569 -0.007973305 -0.072124906 -0.04254635 0.06516056
0.074162416 -0.09475085 0.06867386 -0.06470044 0.11448825 0.04686879 -0.05549155 0.09259798
0.0505805 -0.09996063 -0.11627352 -0.0035232226 -0.03089036 -0.022220701 0.101198286 -0.083094545
0.09928409 -0.10786499 -0.103584856 0.09901765 0.097504266 -0.040058102 0.06540319 0.06442691
-0.026230868 -0.046619274 0.027502712 0.1264125 0.11336193 0.07808355 -0.00056282757 -0.009502612
-0.12058021 -0.06292241 0.08678852 0.032365974 0.10623927 0.016030883 -0.024680527 -0.09916095
-0.075548835 -0.07431961 -0.03867252 -0.031863116 -0.057567313 -0.047020417 0.009710173 0.10319819

net.4.lin1.bias f4 [64]
00000000: 2ad1 f83d efd7 6dbc 1e86 db3d 7666 78bc
00000010: 060f e73c a8e9 b9bc 1e50 fdbc 49ce b8bd
00000020: 7cff 0fbc 1891 18bd b65d cabd 7e0f af3c
00000030: 4493 a7bc 4c9d 143d 1c38 973a 70af b8bb
00000040: 2a35 d93d 29ef 3b3d 07a9 8cbd 4bcb 82bc
00000050: 1f5d 073d 4f7a fd3d 114b 413d 3ffe 023d
00000060: 607b eabb 8315 3ebd 470a 933d 17f0 45bc
00000070: c780 73bd e061 a3bd bef7 d4bd be8f babd
00000080: bbd9 903d 5573 9abd 09d3 00be e285 8cbc
00000090: ab57 413d 1117 4dbd 8696 efbd f8b0 9b3d
000000a0: 89ba 473d aece 2bbc 9e8c 50bd 9d2e fb3d
000000b0: c37c 9cbd aa91 b5bd 3689 a53c d3fa ffbc
000000c0: f7f2 c3bd 5942 63bc 59c0 a73d 1da8 cabd
000000d0: 4dcb 983d d1ad 0ebc 257c b93d 3677 343d
000000e0: e543 8d3d d8ba fc3d 301c 3abd 8c77 fe3d
000000f0: a005 01bd fd02 d8bd 9cd9 93bd 35c1 f9bc
0.1214927 -0.014516815 0.1071894 -0.015161147 0.028205406 -0.022694424 -0.030921992 -0.09023721
-0.00878894 -0.037247747 -0.09881155 0.021369692 -0.020455964 0.036282822 0.0011537108 -0.005636148
0.10605843 0.045882378 -0.06868177 -0.015966078 0.03304779 0.12376844 0.04719073 0.03198075
-0.0071558207 -0.046407234 0.071796946 -0.012081168 -0.059448984 -0.079776525 -0.103988156 -0.09109448
0.07072779 -0.07541529 -0.12580504 -0.017153684 0.047202747 -0.050070826 -0.11698632 0.076021135
0.04876188 -0.010486288 -0.050915353 0.1226475 -0.07640984 -0.08865674 0.020207029 -0.031247532
-0.09567826 -0.013870799 0.08190984 -0.09895346 0.074606515 -0.008708433 0.09056882 0.044059
0.068977155 0.12340325 -0.045437038 0.124251455 -0.031499505 -0.10547445 -0.0721924 -0.030487636
