data/trained_models/base_k_b_resnet.pth (torch, 201862 bytes, 15 tensors)

net.0.weight f4 [64, 374]
000000 5f 97 ac 3c dd dc 4e bd 00 d6 59 3b 22 31 ce bc
       0.021068273 -0.0505036 0.0033239126 -0.025169913
000010 1e 2f 62 bc e0 62 2b bb 39 d3 2d 3d 53 e2 cb 3c
       -0.013805179 -0.0026151463 0.042437766 0.024888193
000020 9b ec 82 bc 64 61 94 3c 1c d8 95 bd 78 a6 2f 3c
       -0.015981963 0.018112846 -0.0731661 0.010720842
000030 f8 e2 1f bd 2c e5 7a bb 58 49 10 bd 87 29 00 3c
       -0.039034814 -0.003828357 -0.035226196 0.007822401
000040 39 7e dd bc b8 1e 3a bd b0 25 d5 3c d5 53 67 bd
       -0.027037727 -0.045439452 0.026018947 -0.056476433
000050 75 a3 1e bd 29 0a cb 3c d8 93 9f 3c a6 22 8f bd
       -0.038730104 0.024785118 0.019479677 -0.069890305
000060 60 8d 99 bd 7d 52 b0 bc 4a 0d a0 bc 95 4d c2 bc
       -0.07497668 -0.021523708 -0.019537587 -0.023718635
000070 d6 45 01 3b 8e 58 12 3c e9 6f c7 bc 3b 5d 1b 3d
       0.0019725463 0.008932246 -0.024345355 0.03793071
000080 80 81 0c 3c c6 a1 6e bc e0 06 d4 3c a4 1b 66 bd
       0.008575797 -0.014564937 0.025882185 -0.056178704
000090 95 d0 6a 3c 43 e3 e0 bb cd cd 50 bc 0f 6b 92 bc
       0.014331956 -0.006863029 -0.012744379 -0.017873315
0000a0 d1 ab 1d 3c 04 79 17 bc 57 14 93 bc 62 91 4e bd
       0.009623484 -0.009245161 -0.017954035 -0.050431617
0000b0 07 28 1b bc cb 55 35 3d aa bb 01 bd c1 64 7a ba
       -0.0094699925 0.04427127 -0.03167311 -0.00095517567
0000c0 7c 89 ae bc 77 0e b1 3c 22 57 14 bd ff 89 08 bd
       -0.021305792 0.021613343 -0.03621591 -0.03333473
0000d0 d7 98 12 bd 92 e4 0c 3b 10 a5 85 bb 9f 9e 97 bd
       -0.03579029 0.0021498543 -0.004078515 -0.074033014
0000e0 d5 34 dd bc ec 40 39 bd a1 0c 03 3d 32 1d 49 3c
       -0.027002731 -0.04522793 0.031994466 0.012275027
0000f0 10 e2 c3 3c 97 59 bc bc 81 f0 aa 3c fa d6 94 bc
       0.023911506 -0.022991939 0.020866634 -0.018168915
000100 c1 aa 9d bd bc 42 29 bd cc 1d 50 bd 93 62 4f bd
       -0.07698584 -0.04132341 -0.050809667 -0.050631117
000110 16 38 28 bb cd d4 df bc ff 06 3b bd 7c 40 f9 bc
       -0.0025668195 -0.027323151 -0.04566097 -0.030426256
000120 8f 40 58 bd 1f 1b 1b 3d 54 eb 1d bd 84 d5 9a 3c
       -0.052795943 0.03786766 -0.038554505 0.01890064
000130 7d 86 fb bc b1 3a 1f bd 48 0e 99 bc c9 50 d3 bc
       -0.030703777 -0.03887433 -0.018683568 -0.025795357
000140 0a c3 7b 3c 6b 24 ca bc 6d 2b 5c 3c fd 2a 94 3b
       0.015366325 -0.024675569 0.013438088 0.004521726
000150 4a 01 33 bd ac 1b cf 3c fe 66 f2 bc b8 1a 31 bd
       -0.0437024 0.02528175 -0.029590126 -0.04323837
000160 55 86 7a bc 4d f1 30 3d 78 0a 02 bd 56 6a 45 bc
       -0.015290816 0.043198872 -0.031748265 -0.012049278
000170 f1 a2 f6 bb ba eb 1f 3c 63 07 39 bd 20 a7 01 bd
       -0.0075267483 0.009760791 -0.04517306 -0.031653523
000180 25 42 2c 3d 76 e2 0d 3c 05 fd 3f bd 46 5e 2a 3c
       0.042055268 0.0086599495 -0.046872158 0.010398453
000190 bf 12 13 bc 75 ea 06 3d 3b 27 87 3c 8d 62 26 3d
       -0.008976637 0.03293844 0.016498199 0.04062133
0001a0 c1 a3 33 bd 65 bb 7b bd e0 61 91 bc 94 b2 9a bd
       -0.04385734 -0.06145801 -0.017746866 -0.07553592
0001b0 8b a4 db bc ac c0 3d bd d6 9e 3d bd 3a 33 13 bd
       -0.026811859 -0.046326324 -0.046294056 -0.035937525
0001c0 a3 f5 04 3d 84 08 9f bc 32 05 1b bd 25 a7 8b bd
       0.03246082 -0.01941324 -0.03784675 -0.0681899
0001d0 68 dd b2 3c 05 6e 15 3c b7 74 38 3d a1 d6 cb bc
       0.02183409 0.009120469 0.045033183 -0.024882616
0001e0 e5 43 32 bc ba d7 7a bd e1 97 48 3d 71 34 e4 bc
       -0.010880445 -0.06124089 0.048972968 -0.027857037
0001f0 e6 81 3d 39 7b 69 41 bd 82 93 40 bc 28 65 8f bc
       0.00018072836 -0.047219735 -0.011753919 -0.01750429
000200 d1 0b a2 3c c4 36 3d bd 61 22 34 bd 2b d6 37 3c
       0.019781025 -0.046194807 -0.0439781 0.011220495
000210 98 bc 99 bb 5a 24 cf bc 10 0f 91 3c 99 11 63 3a
       -0.0046916716 -0.025285888 0.017707378 0.0008661985
000220 99 3c d6 3a c0 bd 50 bd 05 52 ba 3c 16 2e 20 3b
       0.0016344964 -0.05096221 0.022744188 0.0024441532
000230 9c f4 d4 bc 10 fd 76 bd 8e 4c 94 bd d6 28 c3 bc
       -0.025995545 -0.060299933 -0.07241164 -0.023823183
000240 b5 30 74 bd e9 8e 8f bd 1c 0b ce bc b2 35 9a bd
       -0.059616763 -0.0700968 -0.025151782 -0.07529773
000250 38 05 e3 bc a6 2d 1b bc 9e d2 8f 3b 7d 1a 5a bc
       -0.02771245 -0.009471333 0.004389121 -0.013311979
000260 f9 9e 2b 3d 41 6d 0c bc af 64 9d bd a4 f7 f2 bc
       0.041899655 -0.00857097 -0.076852195 -0.0296591
000270 36 79 af 3c d8 fa f2 bb 06 6a cd 3a b2 f2 45 bc
       0.021420103 -0.007415157 0.0015671856 -0.012081789
000280 57 21 3f bd 67 ad 10 bd 1b b5 93 3c 93 ca 2c 3d
       -0.046662655 -0.03532162 0.018030694 0.042185377
000290 b9 3e bd 3c f0 0f 38 bd 66 09 b3 3b d0 ab 38 bd
       0.023101198 -0.044937074 0.005463767 -0.04508573
0002a0 b1 d4 bd bc cb 95 f1 3c 49 ee 28 3d a9 e1 13 3d
       -0.023172708 0.029490372 0.04124287 0.03610388
0002b0 af 73 09 3d 95 42 74 3c a5 1f 78 bc 89 84 f7 3b
       0.03355759 0.0149084525 -0.015144263 0.007553641
0002c0 c6 fa c6 ba d2 60 58 3c 4a ab 7c bd 49 4a 0d 3d
       -0.0015180937 0.0132066775 -0.06168679 0.034494672
0002d0 06 c9 cb 3a 1b 82 48 3d c9 9a 01 3d 4d 08 41 bd
       0.001554758 0.048952203 0.031641755 -0.047127057
0002e0 e6 90 aa ba 35 9a 02 3d b9 95 f2 3a 30 aa 98 bc
       -0.0013013154 0.031885345 0.0018507756 -0.01863584
0002f0 66 94 0c ba f2 f0 50 3c 0f 2a 07 3d 97 b0 43 bd
       -0.0005362689 0.012752758 0.032999095 -0.04777583
000300 4e 7a c8 bb fe 7e 4a bc 61 1a 34 3d 65 0b 70 bc
       -0.0061180955 -0.012359379 0.04397047 -0.014651154
000310 2e 45 0b 3c 01 f5 38 3d e1 5b a2 3c 8c 8b d9 3c
       0.00850038 0.04515553 0.019819202 0.026555799
000320 b7 47 bb bc 2c a8 46 3c 5c ed 7f bc dc b4 8b bd
       -0.022861345 0.012125056 -0.015620556 -0.068216056
000330 aa e9 14 3c fa be 2f 3c 3a 09 df 3b 87 2b e2 3c
       0.009088913 0.010726685 0.00680652 0.027608646
000340 5e 12 e8 bc 6a d5 32 bc fd 1c b7 bc ad fd 64 3c
       -0.02832907 -0.01091514 -0.02235269 0.013976497
000350 c1 2b f2 bc a6 60 3e bd c9 fe 80 bc 1c 6e 6e bd
       -0.02956188 -0.04647889 -0.015746491 -0.058210477
000360 91 c3 63 bc 45 a7 e5 3c 73 a4 8e bd 5a 75 4c bc
       -0.013901607 0.028033862 -0.0696496 -0.012479151
000370 16 f6 59 bd 43 c1 b9 3c 4d 18 95 3b 23 47 3c bd
       -0.0532132 0.022675162 0.004550016 -0.04596628
000380 16 d7 16 bb dc 5c 05 bd 6b 68 4a 3d 8b 25 13 bd
       -0.0023016385 -0.03255926 0.049415987 -0.035924476
000390 94 cb 12 3d e1 6a 10 3d bd b0 5a bc 27 b6 05 bd
       0.03583868 0.035258178 -0.013347802 -0.032644417
0003a0 a4 1e 2c bb a8 66 9c 3c de 86 29 3c 5d 64 5e bc
       -0.002626338 0.019091919 0.010347096 -0.013573733
0003b0 97 77 b1 3c e0 fe 97 bd 9a 50 0e bd ef 98 2e 3d
       0.02166347 -0.074216604 -0.034744836 0.042626318
0003c0 9f 00 9e bd ae 97 f4 bc 6f 68 69 bd 0e ce c9 bc
       -0.07714962 -0.029857483 -0.05698436 -0.024634387
0003d0 af 1e 5f 3d 0d ee dc bc f5 5c f7 bc 70 81 cb 3c
       0.05447262 -0.02696898 -0.030195693 0.024841994
0003e0 c9 00 28 3d db d5 68 bd 28 e3 06 bd e4 34 6f 3d
       0.041016374 -0.056844573 -0.032931477 0.05840005
0003f0 e4 13 25 bd 25 65 e8 bc 6c d7 c2 3c 6d c1 5f 3c
       -0.040302172 -0.028368542 0.023784362 0.013656956

net.0.bias f4 [64]
000000 42 78 cb bc 9c 54 b2 bc e0 63 a6 bb c6 41 2a 3c
       -0.024837617 -0.02176886 -0.005077824 0.010391658
000010 cc 31 15 bc 2d 09 cd bb 70 56 60 bd 12 b6 c6 bb
       -0.009106111 -0.0062571974 -0.054769933 -0.006064185
000020 da 39 fe bc 7b 91 fc 3b b2 83 a4 bc d2 50 aa bc
       -0.031033445 0.0077077723 -0.020082328 -0.020790491
000030 b3 af 25 3c 47 04 f0 3a c2 f7 e5 3c cc 9f 95 3c
       0.010112691 0.0018311822 0.028072242 0.018264674
000040 d3 fa 43 3d 6e 13 06 bd 09 3b 68 bd 34 0f ed bc
       0.047846626 -0.032733373 -0.056696925 -0.028937913
000050 c1 f7 6d 3d c2 d1 14 bb 49 1b 4b 3c 2d a1 4d bd
       0.058097605 -0.0022708033 0.012396642 -0.050202537
000060 9f 97 6f 3d 14 70 62 3d 17 b8 61 3d f9 81 24 3c
       0.058494207 0.055282667 0.055107202 0.0100407535
000070 e0 0e 8b 3d 6f 92 9b bc ee 1d 3e bd db b8 1c 3d
       0.067899466 -0.018990723 -0.046415262 0.03826223
000080 a3 63 5e 3d 2e 02 86 bc 02 75 90 3b af a2 14 3c
       0.05429424 -0.016358461 0.0044084797 0.00907199
000090 cb b2 8b 3d 1e db 96 3b 38 d4 04 3d 69 ed 3f 3b
       0.068212114 0.0046037575 0.03242895 0.0029285795
0000a0 e8 e0 2f bc a5 94 c3 bc 24 c0 f4 bc ec 91 12 3b
       -0.010734774 -0.02387459 -0.029876776 0.0022364808
0000b0 56 bc aa 3c 46 1d 2e bc eb 62 45 3d 0f 5b 1b 3b
       0.020841759 -0.0106270965 0.04819004 0.0023705398
0000c0 db f7 82 bd 30 1c 6e 3c 16 95 90 3b b1 fb 60 3b
       -0.06394931 0.014533088 0.0044123037 0.0034329707
0000d0 7a c6 81 3b e5 56 8d bd 71 e3 ef bc 8d d6 58 bd
       0.003960428 -0.069013394 -0.029283257 -0.052938987
0000e0 61 12 8a bd f4 89 20 3d e9 15 5b bb ee 8b c6 3c
       -0.06741787 0.039194062 -0.0033429808 0.024236646
0000f0 84 f4 01 3d 29 a7 e1 bc c6 29 c1 3c 5d e8 f6 3c
       0.03172733 -0.027545528 0.02357949 0.030140096

net.2.lin1.weight f4 [64, 64]
000000 cc 68 15 3d 50 81 42 bd 05 26 21 3d 4b 16 78 3d
       0.036476895 -0.047486603 0.0393429 0.060568135
000010 98 68 b9 bd 5e 70 f2 3c de cd 3c 3d 26 8f 30 3d
       -0.09053153 0.029594596 0.046094768 0.043105267
000020 40 e6 73 bd ab 74 aa bc e8 30 4f 3c 59 76 11 be
       -0.059545755 -0.020807585 0.0126459375 -0.14205302
000030 a4 29 c1 bb 21 33 c6 bc 60 36 47 bc 4f 06 c8 bd
       -0.0058948565 -0.024194302 -0.01215896 -0.09766828
000040 80 7a 01 be c7 14 7e bc c4 3d 1c bd 31 90 a1 bc
       -0.12644386 -0.015507883 -0.03814484 -0.019722076
000050 30 cc 4e 3d 91 8b 97 bc 79 ad df 3d b4 f7 4a 3d
       0.050487697 -0.018499168 0.10921759 0.049552634
000060 f4 5d db 3b 30 d9 8c 3d 93 57 86 3d 33 42 a9 3c
       0.0066945497 0.06877363 0.06559672 0.020661449
000070 5a 06 96 3b 37 90 0c bd be 0a 9b 3d e8 a2 78 3d
       0.004578394 -0.03431722 0.07570408 0.060702235
000080 0b 23 2d bd d9 95 b4 bd 92 c1 c8 bd 3e 2d 89 3d
       -0.042269748 -0.08817644 -0.098025456 0.066980824
000090 95 b6 02 3d e2 7b b5 3d 40 9f 62 3d d0 60 f4 bd
       0.031912405 0.088615194 0.055327654 -0.11932528
0000a0 fa a5 d5 3c 13 de 37 3d 15 f9 4b 3d 1a 5f 99 bd
       0.02608012 0.04488952 0.04979809 -0.07488842
0000b0 c5 ba ef bc 42 24 2b bd 5d c4 e0 bd ef 06 7c bd
       -0.029263863 -0.041782625 -0.10974953 -0.06153005
0000c0 bf 41 92 3d 3f 7e e8 3d 15 e0 d1 bc a8 25 04 3e
       0.07141446 0.113522045 -0.025619546 0.1290499
0000d0 c6 b1 59 bd 6a f8 a7 3c 9f de 9f 3d d6 9d ae 3d
       -0.053148054 0.020504195 0.078061335 0.085261986
0000e0 84 84 40 3d b8 4b ea bd ff d2 9d bd d8 0d 14 3d
       0.047001377 -0.114402235 -0.0770626 0.036146015
0000f0 5f ef f5 bc 8e 45 bc bd 76 71 f6 3c a6 a5 a2 bb
       -0.030021368 -0.09192954 0.0300834 -0.0049635945
000100 2b 6b c8 bd 3c 3c 84 bd ec 76 94 bc 9d 95 cf 3d
       -0.09786066 -0.06456801 -0.018123113 0.10135958
000110 3c b1 e0 3d e2 1f d3 bb f1 99 07 be 2b 59 9e bd
       0.10971305 -0.0064430097 -0.13242318 -0.07731851
000120 c1 87 de bb 2a 4b f1 3c 86 9e 29 bd 95 86 c8 3d
       -0.0067910855 0.029454786 -0.041410945 0.097912945
000130 c6 ca bb 3d 8b ce 7c 3d f4 bb 09 be a2 22 df 3d
       0.09169535 0.061720412 -0.13450605 0.108952776
000140 cf 4e 79 bd f2 a1 94 bd 0f a4 6c 3d 99 9a 73 bd
       -0.060866173 -0.07257451 0.057773646 -0.059473608
000150 54 99 f7 3d a1 73 09 bd 15 50 35 bd 22 97 80 3c
       0.12089792 -0.033557538 -0.044265825 0.015697066
000160 76 61 fe 3d d5 d4 07 3e 29 db 28 3c 38 50 ef 3c
       0.12420933 0.13264783 0.010306158 0.029213056
000170 76 29 ef 3d 81 cc 9a bd de e1 df bd 5f 8a 85 39
       0.1167783 -0.07558537 -0.109317526 0.0002547083
000180 80 a3 43 ba 15 23 98 3d a7 5e ba 3d 18 eb 73 3c
       -0.0007463023 0.07428566 0.09100085 0.014887594
000190 54 01 af bd 2e d3 de bd 42 25 bb 3c d3 e8 e0 3d
       -0.08545175 -0.10880123 0.022844914 0.10981908
0001a0 eb 15 52 3d ce 96 62 3d 4e 8d 84 3c 65 48 ad 3d
       0.051290434 0.0553196 0.01618066 0.08461074
0001b0 7e bd 5a bd e1 cf c2 bd 1c 96 c3 bc 61 68 d2 bd
       -0.05340337 -0.09512306 -0.023875289 -0.10273815
0001c0 c5 10 76 3c 85 cf f5 bd 20 e5 06 3e 37 d6 82 3d
       0.015018647 -0.12002472 0.13173342 0.063885145
0001d0 ce 44 f2 3d 2e d1 2a bd e6 1c 90 bd f7 a0 77 3d
       0.1182953 -0.041703396 -0.07036762 0.060456242
0001e0 bb 91 8f 3d 70 00 bc bd 26 85 b8 3c 30 a6 af bc
       0.07010218 -0.09179771 0.022524428 -0.021441549
0001f0 89 48 44 bc 26 0f 2b 3c 1a 3a c4 bd 23 a7 d7 3d
       -0.011980184 0.010440623 -0.095813945 0.10529926
000200 b3 97 df bd c7 be 89 bd f2 75 97 bd ae 1b 12 3a
       -0.10917606 -0.06725841 -0.07395543 0.00055735826
000210 11 3d 0d 3d c8 62 84 3d 62 09 87 bd a0 f8 d7 3d
       0.034482066 0.064641535 -0.065935865 0.10545468
000220 16 95 5a 3d c6 33 56 bd c8 1b 03 ba 3a c8 d8 bd
       0.053364836 -0.05229547 -0.0005001393 -0.10585065
000230 01 95 fa 3c 72 08 45 bc 64 18 95 3d be 67 3a 3c
       0.030588629 -0.012025939 0.07280043 0.011377273
000240 fc 41 e6 bd fc 18 0b 3d db 3d 75 3d 29 db 7a bd
       -0.11243054 0.033959374 0.059873443 -0.061244164
000250 d8 45 97 bc a4 68 f9 bd e1 ab 82 bd aa 21 89 3d
       -0.018465921 -0.12178162 -0.063804395 0.06695874
000260 51 26 a7 bd fa bb 9f bd 79 b0 f1 bc ee 20 71 bd
       -0.08161605 -0.077995256 -0.029503094 -0.058869295
000270 85 44 49 bc b6 a3 e1 3d 5d 9e 04 3e 0b 72 5d 3c
       -0.012284403 0.110175535 0.12951036 0.0135159595
000280 12 3a 1d bd ba 5a a8 3d 6c 05 d6 3d 05 99 df 3d
       -0.03838546 0.0822043 0.10450253 0.10917858
000290 6b cf 72 bd eb 57 f6 bd d9 35 a1 3b c9 84 32 bd
       -0.05927984 -0.12028488 0.004919749 -0.043583665
0002a0 bd 22 92 bd 58 68 84 3d 6e 0e fe bd 95 94 cd 3d
       -0.07135532 0.064652145 -0.12405096 0.100381054
0002b0 2a 4a 1d 3d dc 01 a3 3d d5 d3 b8 bd 71 65 ef 3d
       0.038400806 0.07959339 -0.09024779 0.1168927
0002c0 95 c0 c8 bc 65 73 0f 3d cd 3e b0 bd 71 86 fd bc
       -0.024505893 0.03502216 -0.08605728 -0.030947896
0002d0 e5 61 c9 3b df 86 ca bd 4a b1 e2 3d 92 45 23 bb
       0.006145703 -0.09889006 0.110689715 -0.0024913293
0002e0 aa 89 a4 bd c1 6f 91 3c 0c a0 30 bc f6 0a 31 bd
       -0.0803407 0.017753484 -0.010780346 -0.043223344
0002f0 8e ed 7f bb f1 02 76 bd 24 8a a0 bb 80 a9 df 3d
       -0.0039051506 -0.0600614 -0.00489928 0.109210014
000300 3b 15 0c 3d b0 19 06 3e eb 2d 46 bd 24 95 f3 bd
       0.034199934 0.13095737 -0.048383635 -0.11893681
000310 5a 40 2c bc 85 3e c9 bd fd f2 c1 3d fa e6 80 bd
       -0.0105133895 -0.09826378 0.094701745 -0.06294055
000320 05 60 3b 3c 79 aa 0c 3e 11 50 95 bd aa d2 92 3d
       0.011436467 0.13736905 -0.07290662 0.07169087
000330 7d a2 88 3d 7b 1d d7 3d db 72 9d bd 8a df 02 bd
       0.06671617 0.1050367 -0.076879226 -0.031951465
000340 c6 6f 7b 3d 9b 4b be bc c3 6c de bb 23 d7 d0 3d
       0.061385892 -0.02322941 -0.0067878678 0.10197284
000350 27 52 a4 ba a0 fe c1 bd 08 29 8c bd f9 9a 91 3c
       -0.001253669 -0.09472394 -0.068437636 0.017774092
000360 01 90 0b 3d 8b f8 4a 3d ae cc 40 bd 3e b9 2b 3d
       0.03407288 0.049553435 -0.047070198 0.041924708
000370 c9 1f cb 3d c4 2b c0 3b 3b b8 91 bd 00 8c 0b 3e
       0.09918172 0.0058645923 -0.07115217 0.13627625
000380 f3 96 a3 3d 9d b7 16 bd 7a 1d 67 bd 24 ff a8 bd
       0.07987776 -0.0367962 -0.056424595 -0.08251789
000390 b9 6b 4a bd 14 7d f9 bd 48 d7 ce 3d fa 1f 66 3d
       -0.04941914 -0.1218206 0.100996554 0.05618284
0003a0 39 54 e0 3d 7d 39 7e ba 0c 14 e8 bd b6 78 7f bc
       0.10953564 -0.00096978975 -0.11331949 -0.015592745
0003b0 59 bc d2 bd ba a3 37 3d 6f 86 a6 3c 05 c4 a5 bd
       -0.10289831 0.044833876 0.020327775 -0.080940284
0003c0 4b 00 35 bd bc b8 f2 bd 07 dc dd bd a6 ff d7 3d
       -0.044189733 -0.118516415 -0.108329825 0.10546808
0003d0 1e ca 10 3d 95 e7 9e bd 0c 9a 71 bb 36 1b 97 bd
       0.035349004 -0.077590145 -0.00368655 -0.07378237
0003e0 6c eb 52 bc e8 fa 0e 3e 47 95 7d 3d 64 b4 88 bc
       -0.012873512 0.139629 0.06190994 -0.01668758
0003f0 6d ef ea 3c ba 4a 89 3c ae f6 d3 3d 57 bf 0a 3b
       0.02867862 0.016759265 0.10349785 0.0021171176

net.2.lin1.bias f4 [64]
000000 62 0d af bd 11 b8 09 3d 10 0f f5 3c 56 0d 0b 3e
       -0.085474744 0.033622805 0.029914409 0.13579306
000010 b4 b4 ab bd 52 3b 61 bd 46 02 30 bd d7 91 5b 3d
       -0.08384076 -0.054988213 -0.042970918 0.05360588
000020 cb b7 a6 3d 58 5a 78 bd 1a 0a da bc 2d 55 14 3d
       0.081405245 -0.060633034 -0.026616145 0.036214042
000030 05 96 e3 bd 88 84 5b bd 30 6b db 3d 9e 6b 8a bd
       -0.11112598 -0.05359319 0.10713804 -0.067588076
000040 fb 09 06 bd 6b ab b4 3c cf e4 93 3b 34 01 ee bd
       -0.032724362 0.022054395 0.00451336 -0.11621323
000050 bc 8f 07 be 70 0e 05 3e 42 eb 5d bd 1a 7c 6a 3d
       -0.13238424 0.12993789 -0.054179437 0.05724726
000060 d7 5c 9d 3d d8 6d 23 bd 33 c4 d3 bd ef d8 10 bc
       0.076837234 -0.039899677 -0.103401564 -0.0088407835
000070 ea 68 db bd 55 e9 78 bd 9d 28 12 be 8d 14 83 3d
       -0.1071337 -0.060769398 -0.14273305 0.06400404
000080 86 c0 b1 bc fd e6 55 3d 2a 4a cb 3c f4 48 97 bd
       -0.021698248 0.05222224 0.024815638 -0.073869616
000090 97 26 bc 3d 5f 79 5e bd 31 65 12 bd f2 1d 02 bc
       0.09187048 -0.054314967 -0.035741035 -0.00794171
0000a0 27 58 cb 3d af 48 e7 bd ee 4c 7a bd b6 38 70 bd
       0.09928923 -0.1129316 -0.061108522 -0.058647834
0000b0 c9 d8 80 3d 8c 93 ee 3d fd d8 09 3e 64 03 33 3c
       0.062913485 0.11649236 0.1346168 0.010926101
0000c0 9c ab 24 3d 5a 0d f1 bc 1b 36 af 3c 74 9a 79 3d
       0.040202722 -0.029425312 0.021388104 0.060938314
0000d0 ed a2 08 bd 6a 56 af 3d 68 47 0e 3e 0f 1b 73 bd
       -0.033358503 0.08561404 0.13894427 -0.059351977
0000e0 ba 8d 84 3c 2a 33 e1 bd 2a b5 9e 3d 22 77 09 bd
       0.016180862 -0.10996087 0.07749398 -0.03356088
0000f0 17 20 07 3d 61 bd 25 3d 74 07 91 39 99 f5 05 bb
       0.032989588 0.04046381 0.00027662108 -0.0020440577

net.2.lin2.weight f4 [64, 64]
000000 6c 0f 08 be b5 2c 7c 3d b4 43 94 3c 7b 80 48 bd
       -0.13287133 0.061566073 0.01809869 -0.048950654
000010 5e c0 ae bd be d5 84 bd 96 7a b1 ba 9b c9 1a 3d
       -0.08532785 -0.064860806 -0.0013540562 0.037789922
000020 c2 42 11 bd ad 65 60 3c c1 17 98 3d bd 38 91 bc
       -0.035464056 0.013696116 0.07426406 -0.01772725
000030 45 7e c9 3d 10 7b b2 bc 6c 92 ec 3c 07 8d d1 bd
       0.09838537 -0.021787196 0.028878413 -0.10231977
000040 77 06 88 3d 3b 38 d3 3d 43 26 ed 3b fd ee cd ba
       0.06641858 0.103134595 0.007237227 -0.0015711483
000050 42 21 8c 3d 97 42 c6 bc 3c d6 00 be c0 96 03 be
       0.06842281 -0.024201674 -0.12581724 -0.12850475
000060 db 5e 5a 3d 1a 15 57 bd 41 c3 e1 bd af 71 a4 bc
       0.053313117 -0.05251036 -0.1102357 -0.02007374
000070 08 37 ef bc d7 7b 4f 3d 05 79 3c bd bb 67 cc bd
       -0.029201046 0.050655212 -0.04601385 -0.099807225
000080 55 f6 c4 bd 6f fe 8e bd bb 18 95 bd 06 ba 8d 3d
       -0.096172966 -0.06982123 -0.072801076 0.06920247
000090 f5 d4 bc 3d 17 3e c5 bd 84 50 d8 bd ee 72 a6 bd
       0.09220306 -0.09630983 -0.10562232 -0.0812739
0000a0 57 b1 b7 bd af d6 64 3d 45 05 ef bd f5 ed 94 bd
       -0.08969372 0.0558688 -0.11670927 -0.07271949
0000b0 0a b5 d2 bd 83 70 ae 3d 49 a9 8b ba 2e d8 d0 bd
       -0.10288437 0.08517554 -0.0010655309 -0.10197483
0000c0 25 36 a1 bd 17 1b 00 be e4 9a 75 3c 24 d3 94 bd
       -0.078716554 -0.12510334 0.014990542 -0.072668344
0000d0 c5 d1 d7 3b 49 60 cd 3c f9 92 31 3d 88 ac c5 3c
       0.006586286 0.025070326 0.043353055 0.02413012
0000e0 f8 45 96 bd d8 aa 44 bd 9b 1f 4c 3d de 14 ac bd
       -0.07337564 -0.04801449 0.04983483 -0.084024176
0000f0 0b 20 c8 3d fd 7a ed bd 96 99 bd bd 38 47 88 bd
       0.09771737 -0.11595724 -0.0925781 -0.06654209
000100 29 63 45 bd cd 21 0f 3e c5 83 49 3d 2b 5c d8 bd
       -0.04819027 0.13977738 0.04919793 -0.10564455
000110 e2 1a 40 3d 14 ae 16 bd 23 3f d3 bc cb 2d 65 3d
       0.046900637 -0.036787108 -0.025786942 0.055951875
000120 41 fc 1e bd 4a ea 8b 3d 52 34 ac bd 0d 0e be bd
       -0.038814787 0.068317965 -0.08408417 -0.09280024
000130 a8 74 aa bd 92 5c dc bd 5c b3 dd bd f2 bf 31 3a
       -0.08323032 -0.10759844 -0.10825226 0.0006780616
000140 1f ad 01 3d bc 99 31 3d f6 c2 52 3c 30 90 d5 bb
       0.03165924 0.043359503 0.012863865 -0.0065174326
000150 31 e6 88 bd 6c 75 6b 3d b2 92 aa bb b3 02 a7 bd
       -0.066845305 0.05748503 -0.0052054757 -0.08154812
000160 0f 5a 78 3d 67 aa b1 3d e0 69 95 3d 90 81 df bb
       0.06063276 0.0867508 0.07295585 -0.006820865
000170 ce 77 d8 bc ba fc ec bd 9a 76 ce bd 1d 64 40 bd
       -0.026424315 -0.11571641 -0.10081215 -0.046970475
000180 5c cd 5f 3b 66 74 89 bd 6e 10 70 3d 94 cd bc 3c
       0.0034149503 -0.06711654 0.05860942 0.023047246
000190 dd 0c b0 bd f6 5f ba bd 07 5a 10 be 47 7f 08 be
       -0.085962035 -0.09100334 -0.14096843 -0.13329802
0001a0 c6 d1 0a 3d c2 2b 43 3d a2 ad c5 3d 66 f2 83 3d
       0.03389146 0.047649153 0.096522585 0.06442718
0001b0 c3 4a b5 bd 82 79 9a bd cf 41 17 3e 1e e2 d7 3d
       -0.0885215 -0.07542707 0.14771198 0.10541175
0001c0 7d 5f b7 bd 73 db 1c bd 91 aa 8f bd 46 35 cb bd
       -0.0895376 -0.03829522 -0.07014955 -0.099222705
0001d0 9b 17 11 be 85 fb 0b bb 71 50 2b bd ac ed 9b bb
       -0.14169161 -0.0021359634 -0.04182476 -0.0047585573
0001e0 47 5e a4 bd de 50 9a bd 96 0b 12 3e 20 82 cf bd
       -0.080257945 -0.075349554 0.14262232 -0.10132241
0001f0 01 f0 51 bd 07 9d ae 3d 71 4c 4d bd 58 19 47 3d
       -0.051254276 0.08526044 -0.05012173 0.048608154
000200 24 f0 ad 3d e7 a7 8f bd 21 59 a4 bd 56 a8 a1 bd
       0.08493069 -0.07014447 -0.080248125 -0.07893436
000210 ca eb 5d 3c fc 57 f6 bb 20 4a ec 3c 83 b9 42 3d
       0.013544986 -0.007517813 0.02884394 0.0475402
000220 10 82 1f bd 86 c8 48 3d 3e 3d 9b bd 73 35 89 bd
       -0.038942397 0.04901936 -0.075800404 -0.06699648
000230 b4 e3 b5 3c b1 79 bf bd 50 2d 7e 3c 1f 9c 8c 3d
       0.022203304 -0.09349383 0.015513733 0.06865715
000240 14 9d ae bd 88 04 ee b8 97 42 bb bb 24 74 de bd
       -0.08526054 -0.000113495684 -0.0057147252 -0.10861996
000250 ed 6f 83 3c 41 a2 ab bd 09 bc 02 3d fe d9 6e bd
       0.016044581 -0.08380557 0.031917606 -0.058313362
000260 60 09 9e 3d 83 af a4 3c 0e e2 ee 3c 3a ae 8b 3d
       0.07716632 0.020103222 0.029160526 0.068203405
000270 5e 09 79 bd 4f 0a c7 bd b1 16 2b bd 20 9a 90 bd
       -0.06079995 -0.09718763 -0.041769687 -0.07060647
000280 9c 96 f4 3d 40 0d 79 bd bd b6 c5 bc f7 6a 39 3c
       0.11942789 -0.06080365 -0.024134988 0.011317006
000290 4f fc ee bd 58 66 84 bd 1e f2 70 3d e6 e5 0b 3d
       -0.11669218 -0.06464833 0.05882465 0.034154795
0002a0 58 98 b3 bd 71 84 de 3c 4c c9 93 bd cf 7d 01 bd
       -0.08769292 0.027162762 -0.07216129 -0.03161412
0002b0 40 ae 12 3e 03 b3 fa bc 2d 68 8b bd 3e 53 a1 3d
       0.14324284 -0.030602938 -0.06806979 0.07877205
0002c0 65 d8 3d 3d ba 11 38 bc d2 97 1f 3b 31 51 c4 3d
       0.046348948 -0.011234695 0.0024351967 0.095857985
0002d0 6c 59 2d 3d 4b 2f cd bd 22 84 a5 bd 8e 69 80 3d
       0.042321607 -0.10018786 -0.08081843 0.06270133
0002e0 fe b2 44 bc cd 17 08 be 83 4a fd 3c 98 8c cb bd
       -0.012005566 -0.1329033 0.030919319 -0.099389255
0002f0 e5 1a 03 3e 89 81 9f bd 48 43 85 3c 58 7b 15 3c
       0.12803228 -0.07788379 0.016267434 0.009123646
000300 a4 7f f1 3d 98 56 c7 bd f5 0b e0 bd 26 03 97 3d
       0.11791924 -0.09733313 -0.109397806 0.073736474
000310 88 56 cf bd f8 92 68 3c 7a 4c b6 bd 10 d7 2e bd
       -0.101239264 0.014195196 -0.089013055 -0.04268557
000320 89 6d ba 3d 9e 09 1a bd eb d8 cd 3c dd 4c 53 bc
       0.091029234 -0.037606828 0.025127849 -0.012896744
000330 19 eb 4c 3d cc da f8 ba a6 a7 43 bc fa ba d8 bd
       0.050028894 -0.0018986105 -0.011941826 -0.10582538
000340 1b 25 18 3d b4 56 cf 3c dc ff 09 bc e7 0d 5c bc
       0.03714476 0.025309898 -0.008422818 -0.013431049
000350 76 8f 9b bd 9d 75 18 3c f9 90 c6 3d e1 70 c2 bc
       -0.075957224 0.009305385 0.0969562 -0.023735465
000360 57 7b 8a bd 64 ce 4f bd 6a 10 a0 3d 38 41 00 be
       -0.067618065 -0.05073394 0.07815631 -0.12524879
000370 33 fc 81 3d d1 93 48 bd d8 d8 9a bd 74 8d 9c bd
       0.06346931 -0.048969094 -0.07560891 -0.076441675
000380 9f 07 a7 3b ae d9 a9 bd 24 a9 42 bd f4 13 8d bd
       0.005097344 -0.08293472 -0.047524586 -0.068885714
000390 58 4c 80 3c 0b e6 ce 3d f2 c4 c5 3d 0a 0e fc bd
       0.015661404 0.10102471 0.09656705 -0.12307365
0003a0 ff 5c 0f bb fc 27 e8 bb 7d 61 0c bd b0 3c 9f bc
       -0.0021875498 -0.0070848446 -0.03427266 -0.019438118
0003b0 c8 0e 9c 3d 64 e2 f4 bc 66 84 94 3c d7 39 98 3d
       0.07620007 -0.029893108 0.018129539 0.07432907
0003c0 fa df 1b 3d ea 39 48 3d ad 73 0b 3b df 4c df 3d
       0.038055398 0.048883356 0.0021278665 0.10903334
0003d0 d0 95 0d bd 31 1e f1 bd ef 02 e1 3d 30 db 23 3d
       -0.0345667 -0.11773337 0.10986888 0.040003955
0003e0 24 6e ba 3d a6 a7 d2 bd da 94 b8 3d ee 3b 84 3d
       0.09103039 -0.10285883 0.09012766 0.06456743
0003f0 03 52 81 3c 09 ca b7 3d d5 0f bd bd b2 71 72 3c
       0.015786177 0.08974082 -0.09231535 0.014797615

net.2.lin2.bias f4 [64]
000000 08 be 9d 3d 68 50 51 bd f1 8c 99 bd 56 71 dc 3d
       0.07702261 -0.051102072 -0.074975856 0.107638046
000010 c5 bb b6 3d db 02 6f 3d 2e af b3 bd 80 f2 08 3e
       0.08922533 0.058352333 -0.08773647 0.13373756
000020 1d 55 72 3d 3c 40 a0 3d 87 38 96 3d 47 0c c6 bd
       0.0591632 0.07824752 0.073350005 -0.096703105
000030 bf e8 be 3c dc a7 17 3c b1 0f 25 3d 47 b7 14 3e
       0.023304341 0.009256329 0.040298168 0.1452304
000040 a6 e5 13 3e 6d b3 cc 3d 9a 5f b9 3c 6f db d4 bd
       0.14443073 0.0999516 0.022628594 -0.10393416
000050 d4 2d d5 3d b3 39 00 3e 99 0a 87 3d fc ec 00 3d
       0.10409132 0.1252201 0.06593818 0.031476006
000060 39 fe 0f 3d f9 b3 3a bd d3 49 cf 3d c3 8a 69 bd
       0.035154555 -0.04558179 0.10121503 -0.0570171
000070 2f 21 28 bd f8 be 2f bd 4f 82 4e 3d 0d 43 1d 3d
       -0.04104727 -0.04290673 0.05041724 0.038394023
000080 88 07 f5 3d c9 79 be 3d 84 88 03 3e 84 2e 02 bc
       0.11964327 0.093005724 0.12845045 -0.0079456605
000090 a5 17 f6 3c e3 9a 00 3e e9 c0 7b 3d 57 e1 93 3d
       0.030040571 0.12559085 0.06146327 0.072207145
0000a0 08 61 27 bb 9b 14 b9 3d 10 63 8b bd 25 ac df 3d
       -0.0025540013 0.09037133 -0.06806004 0.10921506
0000b0 cc da 45 bd e3 d6 75 3d 50 a5 3a 3d 8a 86 ec 3a
       -0.048304364 0.060019385 0.04556781 0.0018045467
0000c0 d6 d5 96 bd c0 4c 5f bd 38 14 a7 3d 67 e9 cd bd
       -0.07365005 -0.054516554 0.08158153 -0.100542836
0000d0 b1 aa 0b 3e d6 c1 b9 bc 39 c3 bc 3c 34 f5 f6 3c
       0.13639332 -0.022675436 0.023042308 0.030146219
0000e0 58 3d 55 3d 5c f5 a9 3d a3 15 f3 3c 47 8a da 3d
       0.052060455 0.08298752 0.029673403 0.106709056
0000f0 d2 b4 54 3d d3 d4 87 3d 36 be db bd 1a 64 e1 bd
       0.051930256 0.0663239 -0.10729639 -0.11005421

net.3.lin1.weight f4 [64, 64]
000000 8a 5c 4b 3d 66 50 b2 3d 9e 57 8e bd 45 82 9d 3d
       0.0496488 0.08706741 -0.069503054 0.076908626
000010 f2 c1 40 3c af 0a 3c bd 65 f3 58 bd 9c 44 6a 3d
       0.01176499 -0.045908626 -0.052966494 0.057194337
000020 01 83 da 3d 0e 56 d4 bc 0e 22 06 3e d3 8f 0e 3d
       0.10669518 -0.02591994 0.13098928 0.03480513
000030 10 b9 cb bd af ee 6e bd eb e1 06 bd a3 24 b2 bc
       -0.09947407 -0.058333095 -0.032930296 -0.021745985
000040 ec 07 47 bd 2d 5c f5 bd a6 6d 88 3d cd 57 df bd
       -0.04859154 -0.11980472 0.06661539 -0.109054185
000050 c2 21 85 3d 6e eb c8 bc 37 f3 2d 3c 0b 9c cc bd
       0.065005794 -0.024526324 0.010617069 -0.099907
000060 5b 1c a5 bd 48 55 4a bd 0c 27 0f 3d f5 cc 07 3e
       -0.08062049 -0.049397737 0.034949347 0.13261779
000070 fa c3 8d bd 2a 24 b1 bd cf 46 2c 3d 8a 79 a2 bd
       -0.06922145 -0.08649476 0.042059716 -0.07933338
000080 f4 cc b5 bd dc 1c b9 3c 3d 9a ed bd c9 f7 7c 3c
       -0.08876982 0.022596769 -0.11601684 0.015439936
000090 9b 04 83 3d d0 22 dc 3c 96 5b 9e bd 9d c6 08 bd
       0.06397363 0.026872069 -0.077323124 -0.033392537
0000a0 b9 ca c7 bd af 7f d9 3d 2e 7a c6 bd c6 82 89 3d
       -0.09755463 0.10620057 -0.09691273 0.06714396
0000b0 ec 53 c2 3d f3 9e 4e 3d 95 be e4 bd f2 06 db bc
       0.09488663 0.050444555 -0.11169163 -0.02673671
0000c0 91 6d c4 3c dc 67 e1 3d 94 2b 22 3d d1 f6 7e bd
       0.023978027 0.11006138 0.03959234 -0.0622471
0000d0 3f 22 57 3d 0b 51 33 bd d5 d9 a5 3d 10 92 f7 bc
       0.052522894 -0.04377846 0.08098189 -0.030221015
0000e0 c0 29 4d 3c f6 c3 15 bd f0 fa 0d 3e 0d 57 4b 3d
       0.012522161 -0.036563836 0.13865256 0.049643565
0000f0 de f9 e6 bd 47 41 33 3d fc 58 77 3d 44 eb e8 3d
       -0.11278127 0.043763425 0.060387596 0.11372998
000100 55 d5 b6 3d fb 6b f6 3d fd b6 c2 3d 40 8f 2a 3d
       0.089274086 0.120323144 0.095075585 0.04164052
000110 76 c9 56 bd 82 b9 a3 3d 91 ed b1 3d 88 7e cb 3d
       -0.052438222 0.07994367 0.0868789 0.09936243
000120 71 f5 5f bd 70 00 cb 3c d4 cb 9b 3d ae ef f8 3d
       -0.05467743 0.024780482 0.076072365 0.1215509
000130 fd e7 0c 3e 47 31 2b 3d 41 ca 5c 3d 1c 84 a3 3d
       0.13760372 0.04179504 0.05390382 0.07984182
000140 96 65 58 3d 4c 0e 57 bd 9a 3b 85 3d 0e b0 b9 bd
       0.052831255 -0.05250387 0.06505509 -0.09066783
000150 68 a9 72 bd 76 ab 16 3d 91 c3 9c 3d aa fb ca bd
       -0.05924359 0.03678461 0.07654489 -0.09911282
000160 49 65 50 bc 5d ff 74 3d 5e 32 86 3c 8a fb c8 3d
       -0.012719461 0.059813846 0.016381439 0.09813602
000170 ac cc 87 3b df 85 2f 3c 16 f2 ba 3d 2e b1 cc 3d
       0.004144272 0.01071307 0.091282055 0.09994732
000180 d5 b0 5c bd 15 f9 f6 bc dc a1 8c 3c 78 09 fd bd
       -0.053879578 -0.030148068 0.017167024 -0.12355322
000190 37 07 00 bd 04 6b 83 3d 13 b2 3d 3d 78 ef 26 bd
       -0.03125688 0.06416896 0.046312403 -0.04075572
0001a0 de 6d b7 3c da 66 5c bd 60 d8 81 3d cc 12 ca 3c
       0.022391256 -0.053809024 0.063400984 0.024667166
0001b0 d5 23 1b bd 73 53 87 bc 70 c5 b6 bd fc ba e7 bd
       -0.03787597 -0.016519284 -0.08924377 -0.11314961
0001c0 16 f2 a6 bd f9 e5 15 bd 07 cf 5e bd 78 ee 02 3e
       -0.08151643 -0.036596272 -0.054396655 0.12786281
0001d0 cf d9 c8 3d a2 26 31 bd 6f 32 73 bd 61 da 45 bc
       0.09807169 -0.043249734 -0.05937427 -0.012075991
0001e0 3d 44 a7 3b 4a 91 9c 3c 4c 89 75 3d db 98 a8 3d
       0.00510457 0.019112248 0.05994539 0.0823228
0001f0 e1 22 da 3c e5 2a e6 3d 10 e1 11 3e 4e 7e e0 3d
       0.02662796 0.1123865 0.14246011 0.10961591
000200 b2 34 5d 3d 5f 33 b9 bc be 9e 22 3c 55 b4 e6 bd
       0.054005332 -0.022607503 0.009925542 -0.11264864
000210 ac 8c 8c bd e1 f5 f5 bc 26 fe 37 3d b4 e5 04 3e
       -0.068627685 -0.03002447 0.04492011 0.1297825
000220 09 ae d6 3d b5 3b ae 3d 04 c8 10 3d 36 c3 b7 bd
       0.10482413 0.08507482 0.035347 -0.089727804
000230 77 05 b1 3d d9 47 03 3e 90 b8 d0 bb 90 40 fa bc
       0.086436205 0.12820376 -0.006369658 -0.030548364
000240 58 f3 64 bd 32 f6 cb 3d ec ea f0 3d 8b ed 60 bd
       -0.055896133 0.099590674 0.11763558 -0.05491404
000250 83 43 a4 3c 75 cc 52 3d 44 af 6e 3b 8b f9 bc bc
       0.020051723 0.051464517 0.0036420384 -0.02306821
000260 73 89 f5 bc b9 5b d4 3c 31 6d fd bc ec 7f 20 3d
       -0.029972767 0.025922643 -0.030935856 0.039184496
000270 96 69 a2 3d ea 6e 3f 3c 3f 5e ca bb 5c d3 94 3d
       0.07930295 0.011684159 -0.006175786 0.07266876
000280 ec f8 a7 3d d9 6e f1 bc cc 5a bd bd e4 66 be bd
       0.08201775 -0.029471802 -0.09245834 -0.092969686
000290 14 26 ef 3d b4 8a a9 bc 5a 41 ac 3c b7 0f 85 bb
       0.11677185 -0.020696022 0.021027256 -0.0040607112
0002a0 dd a7 ee 3d 89 7d 6f 3b 69 0f 02 3d 80 0c 6b bd
       0.11653111 0.003654333 0.031752978 -0.057384968
0002b0 71 f3 94 bc 7c d8 09 be 98 59 d9 bd 09 34 e4 3d
       -0.018182488 -0.13461488 -0.10612792 0.111427374
0002c0 94 fc 7d 3c 1f a6 70 bd a0 71 af bd cc f7 20 bd
       0.015502114 -0.058752175 -0.08566594 -0.039298818
0002d0 bf b5 11 3c d0 3d b2 bc 3a 16 4e bd dd ee 01 be
       0.008893429 -0.02175799 -0.050314166 -0.12688775
0002e0 90 2f fb bc 04 0f b4 bd 86 91 95 3d 15 ff 5b 3d
       -0.030662328 -0.087919265 0.07303147 0.053710062
0002f0 16 28 df bc 2a 3d a4 3d eb 37 dd bd 68 b7 cc bc
       -0.027240794 0.080194786 -0.10801681 -0.024989799
000300 fb 0f 00 3e 02 a6 d2 3b 1d a3 41 bd 73 0e 38 bd
       0.12506096 0.006428481 -0.047274698 -0.044935655
000310 cf 5a 05 bd 56 68 8a 3c e3 6f a6 3c a6 37 e0 3d
       -0.032557305 0.016895454 0.020317024 0.10948114
000320 30 57 dc 3d 42 9d 9c 3d 33 ce 50 bd a1 da b9 3d
       0.10758817 0.07647182 -0.050977897 0.09074903
000330 7c 8f bd bd 9c 44 e7 3d 73 4b 10 3d be 52 d8 3d
       -0.09255883 0.11292383 0.035228204 0.10562657
000340 95 6c cc 3d b9 1a f1 3c f5 1f 01 be f8 e5 d9 bd
       0.09981648 0.029431688 -0.12609847 -0.10639566
000350 7d 0d 1c 3d e9 4d d2 bd fa 93 11 be dc 1c cd bd
       0.0380988 -0.102687664 -0.14216605 -0.1001527
000360 c2 4f 5d 3c a0 0f 93 bc 4a 60 eb 3c 2d d5 1d bd
       0.013507785 -0.017951787 0.028732438 -0.03853338
000370 f5 2f e2 bd 42 c8 de bd bc c2 aa bd ee c4 ba bd
       -0.11044303 -0.1087804 -0.08337924 -0.091195926
000380 1e d4 14 bb 8d dd cf 3d 23 5a f3 bd 16 eb 04 be
       -0.002270944 0.10149679 -0.118824266 -0.12980303
000390 ca 88 15 3c 08 ff ba bd 10 7c 0c 3d a9 d4 1b bd
       0.009126851 -0.091306746 0.034298003 -0.038044605
0003a0 4b 72 40 bd 31 0a c7 bd a1 a3 e5 bd 5c fb 30 bd
       -0.046984 -0.09718741 -0.1121285 -0.043208465
0003b0 cd c4 f5 bc 42 b9 c1 3d ed 82 7f bc 43 13 ea 3d
       -0.030001068 0.09459163 -0.01559518 0.11429455
0003c0 09 4c 5e 3c de eb 1e 3d b6 f2 2f 3d 68 e6 04 3c
       0.013567933 0.03879916 0.042956077 0.008111574
0003d0 84 97 92 bd 36 62 07 bd ea 85 bb bd b1 eb 65 bd
       -0.071578056 -0.033052646 -0.091564015 -0.056132976
0003e0 61 79 84 bd c7 01 aa 3d 32 0f dd bb 4b 76 9e bd
       -0.06468464 0.0830112 -0.006746196 -0.07737406
0003f0 b0 65 be 3d 90 f8 a9 bd 24 aa 28 bd 27 3e df 3d
       0.09296739 -0.08299363 -0.041177884 0.109005265

net.3.lin1.bias f4 [64]
000000 d3 6d ff 3d d1 61 00 be 30 b7 b5 bd 57 b7 0e 3c
       0.12472119 -0.12537314 -0.08872831 0.008710704
000010 94 b1 a7 3d f9 6e 1d 3d 05 79 b9 3c 31 b3 ca 3d
       0.08188167 0.03843591 0.022640714 0.09897459
000020 1a e6 f4 bd ea f5 e3 3c d5 f9 ff bd 98 a7 f7 3d
       -0.11957951 0.027827222 -0.124988236 0.12092513
000030 d8 98 b5 3c d2 2e 5a bd bb 60 14 3e 8d 3a af 3d
       0.022167608 -0.053267308 0.14490025 0.085560896
000040 34 26 93 bd 1c 20 d0 3d 71 1b ef 3d d6 94 8c 3d
       -0.07185021 0.101623744 0.11675156 0.06864326
000050 9a ef fe 3d ba 5c 8c bd de 31 25 3d ec d2 c1 3c
       0.12448044 -0.06853624 0.04033076 0.023660146
000060 0e e7 56 3d 5c 80 e6 bd 1f bc 0c 3e cd ba 9b bd
       0.052466445 -0.11254951 0.13743638 -0.07603989
000070 6d fb ae 3c 9d a2 e6 bd 50 fe 94 3d 0d 3b b0 bd
       0.021360124 -0.11261485 0.07275069 -0.08605013
000080 9d c0 11 bd 07 7e 95 3c e8 f5 67 3d ef 89 d6 3d
       -0.03558408 0.018248571 0.056631 0.104755275
000090 b8 42 4c bb 67 07 11 3d e1 8a ba bd cc fb 8f 3c
       -0.0031167697 0.03540745 -0.0910852 0.01757612
0000a0 d7 16 c7 3d f2 75 85 3d ab 6a 32 3c 01 e6 c9 bd
       0.09721153 0.06516637 0.010889689 -0.09858323
0000b0 ed 75 60 bd d4 da 0d bd b7 f5 32 bd 86 92 bf bc
       -0.054799963 -0.03463252 -0.043691363 -0.023385298
0000c0 6d 45 5c 3d 26 ce 97 3d fe c6 35 bd e5 b7 1f 3c
       0.053777147 0.074123666 -0.044379227 0.009748434
0000d0 73 cd ec bd 87 41 fc 3d 9e 5f 11 bd 62 a5 91 3c
       -0.11562624 0.12317186 -0.03549158 0.017779056
0000e0 a8 2e ff bd 93 a2 fc 3d 6c d1 74 bc ac 23 3b 3c
       -0.12460071 0.12335696 -0.014942508 0.011422079
0000f0 8e a5 11 3e 3a aa 90 3d 53 95 e2 bd c5 34 10 be
       0.1422331 0.07063718 -0.110636376 -0.1408263

net.3.lin2.weight f4 [64, 64]
000000 7f 6a f9 3c bc 6c a0 bb 9b 9e 25 3d ef b8 b4 bc
       0.03044629 -0.0048957746 0.04043446 -0.02206084
000010 64 6f 90 bd 66 5d c4 3b 18 36 91 bd ae 0b 94 3d
       -0.07052496 0.0059925793 -0.07090396 0.0722879
000020 95 ed 54 bd 54 61 60 3d c6 36 9c bd fc ee be bd
       -0.05198439 0.05478032 -0.07627635 -0.093229264
000030 40 9c b8 bd b1 a7 46 bc 32 18 a5 bc 06 74 4e 3d
       -0.09014177 -0.012124942 -0.020153139 0.050403617
000040 95 49 e4 3d 46 78 32 3d 80 27 3c bc 07 34 87 bd
       0.11146847 0.043571733 -0.011484027 -0.0660172
000050 3d 42 9f 3d ab 9d 7b 3d 2f b3 9b 3d a7 79 f8 3c
       0.07776306 0.06142966 0.07602536 0.030331446
000060 4f 78 e3 bc c1 9f b4 bd f7 37 99 3d a1 72 63 3c
       -0.027767329 -0.08819533 0.074813776 0.01388231
000070 9e 07 8e 3d 83 12 54 3d e4 2e 01 3e 6e c4 cd bc
       0.069350466 0.051775467 0.12615544 -0.025118079
000080 dc 06 0c bd 54 e6 8b 3c 6e ad fd ba a7 45 d4 bc
       -0.03418623 0.017077602 -0.0019354054 -0.02591212
000090 fd e5 2a 3d 80 c5 3e 3d 11 c1 c8 bd 1e 85 b7 3d
       0.04172324 0.04657507 -0.098024495 0.08960937
0000a0 27 c8 82 bd da 1e 02 3e 36 b8 75 bc 2a 00 a2 3d
       -0.06385832 0.12707081 -0.014997533 0.079101875
0000b0 76 16 69 bd 50 50 c4 3d 1a 08 b2 bd 1f 84 a3 bd
       -0.056906186 0.09585631 -0.086929515 -0.079841845
0000c0 9d f0 36 bd 2a 55 d6 3d 27 f5 69 3d f2 7e a8 3d
       -0.04466306 0.104654625 0.05711856 0.08227338
0000d0 64 f1 11 be 8b fc f4 3d 74 3f 9b 3d f6 02 34 3d
       -0.1425224 0.11962231 0.07580462 0.043948136
0000e0 62 f1 ed bd 8c 2f b2 3d a5 28 f9 3b 0c e0 93 bd
       -0.11618306 0.08700475 0.007603722 -0.07220468
0000f0 1e 5b 30 bc d0 dd c8 bd eb ec cd bd d7 ad 8a 3d
       -0.0107639115 -0.098079324 -0.10054954 0.067714386
000100 a6 26 cc bd ed d4 c2 bd 60 0b 54 3d 3a 45 b9 3d
       -0.09968309 -0.095132686 0.05176866 0.09046407
000110 1c 3d a7 bd 2b a3 ec 3d 7e 60 b5 3d c1 ef 99 3c
       -0.081659526 0.11554559 0.08856295 0.018791081
000120 4e 12 00 be 26 01 f9 3c e6 33 26 3c 9e 39 7e 3c
       -0.12506983 0.030396055 0.0101442095 0.015516667
000130 1a c1 02 bd 27 49 a0 bc 9d 81 11 bd 8b 76 77 3d
       -0.031922437 -0.019566132 -0.035524 0.060415786
000140 27 1f 63 3d 3a 4b 97 bc 65 a0 03 bd 02 73 c3 bd
       0.05544963 -0.018468488 -0.032135386 -0.095434204
000150 4b c3 bc 3c 5e 1c c4 3d 49 92 b3 bc 0a 84 dc 3c
       0.023042342 0.09575723 -0.02192034 0.02691843
000160 85 74 39 3c 6c bf 63 39 61 60 9e bc 3c 94 8b 3d
       0.011319284 0.00021719717 -0.019333066 0.06815383
000170 02 00 0a bc 18 08 19 3d c5 60 2d bc c2 aa b4 3d
       -0.008422853 0.037361234 -0.010582154 0.08821632
000180 46 65 cb 3d f0 ab 87 bc 9b 0b 27 3c b4 b6 fc ba
       0.09931426 -0.016561478 0.010195638 -0.0019280524
000190 a6 36 11 bd 7c db ce bb 76 75 1f bd 0e 14 95 bd
       -0.035452507 -0.0063127857 -0.03893038 -0.07279216
0001a0 67 ce 45 bd ba 59 6a ba e7 8b c5 3d 30 4b 4f bb
       -0.048292544 -0.0008939762 0.09645825 -0.0031630509
0001b0 85 22 c7 bd 6f 6f b4 bd 82 75 6f bd 4b fb f7 bc
       -0.09723381 -0.08810317 -0.058461674 -0.030271193
0001c0 0d b8 88 3d c9 35 08 3e 2e 30 bf 3d a2 9b 86 3c
       0.0667573 0.13301767 0.093353614 0.016431633
0001d0 bf 8c 85 3d 98 8a 87 bd f5 cb 83 bd b7 64 29 3d
       0.06520986 -0.066182315 -0.06435386 0.041355815
0001e0 fd 48 4d bd 04 f3 99 3d cc 0e 15 be c3 13 39 bd
       -0.050118435 0.07517055 -0.14556426 -0.045184862
0001f0 ce c6 f3 bb c9 97 33 3d d7 57 12 bd 75 ed 02 be
       -0.007439471 0.043845925 -0.0357283 -0.12785895
000200 0d 6d bc 3d 23 2b b5 bc ab 3f 24 3d 79 84 6c bd
       0.09200487 -0.022115296 0.04009978 -0.057743523
000210 9f 42 4d bd 9e 37 d9 3b fc fe d4 bd c6 27 8c bc
       -0.050112363 0.0066289445 -0.10400197 -0.01710881
000220 21 e2 03 3d fe db 39 bd d3 a6 b0 3d b0 44 0b 3e
       0.032198075 -0.045375817 0.08625569 0.13600421
000230 14 cc 8a 3d ab 8c 90 3c 48 75 86 3d 58 22 b5 3d
       0.06777206 0.0176452 0.065653384 0.08844441
000240 d6 b6 e4 bd 98 d0 c9 3c c5 58 0f 3e b2 91 ed 3c
       -0.11167686 0.024635598 0.13998707 0.029000137
000250 95 2a c9 3d 4d 51 c8 3a df 76 9f 3c 97 ad c1 bc
       0.09822575 0.0015283019 0.019465862 -0.023642344
000260 38 bf b4 bd 76 c1 05 3d 40 18 0e 3d 51 42 3b bd
       -0.088255346 0.0326552 0.034691095 -0.04571754
000270 9e 76 90 3d 0c 43 fb bc 88 0d 8f bd 65 64 90 bd
       0.070538744 -0.030671619 -0.06985003 -0.07050399
000280 07 3e 2f bd f1 7c 98 3b 06 9e ee bb 64 e9 bd 3d
       -0.042783763 0.004653566 -0.0072820215 0.09273031
000290 a8 32 d8 3c 84 b1 9f 3d b1 25 49 bc 58 58 e5 3c
       0.026391342 0.0779753 -0.012277053 0.027996227
0002a0 73 1b 6a 3d a2 be b2 3d 33 d8 c6 bc 1c 17 f4 bc
       0.057155084 0.087277666 -0.024273014 -0.029796176
0002b0 98 29 f8 3c 56 c0 c5 bd 10 aa 0a be 53 88 0f be
       0.030293271 -0.09655826 -0.13541436 -0.14016847
0002c0 10 1b b5 bd 24 c4 20 3b 21 27 01 3e 8f 1f ca bd
       -0.088430524 0.0024530971 0.12612583 -0.098693006
0002d0 52 00 99 3d d8 ae 02 3e 1b 21 2a bd cb d1 d2 bd
       0.07470764 0.1276201 -0.041535478 -0.10293921
0002e0 6a ab eb bd d2 c0 83 3d f0 50 5a bd cc 2c ac 3c
       -0.11507304 0.06433262 -0.053299844 0.021017455
0002f0 12 78 5d bd fa 82 3b bb 13 cb 5c 3d 00 cb 85 bd
       -0.054069586 -0.0028612004 0.053904604 -0.0653286
000300 ec dc e2 bd 2e 80 b5 bd 6d f3 a3 bd ba 84 6f 3d
       -0.11077294 -0.08862339 -0.08005414 0.058476187
000310 b9 e1 e2 bd b1 21 3f 3a 44 15 51 bc f1 b2 b5 3d
       -0.110782094 0.0007291092 -0.012761418 0.08872021
000320 d4 75 62 3d ba 92 f0 3c 97 81 2c 3c 41 17 e5 bd
       0.05528815 0.02936684 0.0105289435 -0.11186076
000330 51 15 c7 3d 9e 95 0e 3d 7e 8f f1 3b 5e 4d b4 3c
       0.09720863 0.034810655 0.007371842 0.022009548
000340 7a e8 f4 bd 42 20 0c 3d 0a b7 e1 bd c2 01 09 be
       -0.11958404 0.03421045 -0.1102124 -0.13379577
000350 68 20 3b 3b a5 8b 0a be 4a 3a db 3c b8 3c b9 bd
       0.0028553251 -0.13529833 0.026761193 -0.09044784
000360 d3 b1 87 3d 95 f0 27 3d 74 64 07 bd d0 0a 10 3e
       0.06625714 0.04100092 -0.033054784 0.14066625
000370 e1 19 89 3d 82 b1 bb bd 4a e1 81 3d 7c 3f 6c bc
       0.06694389 -0.09164716 0.063417986 -0.014419433
000380 e6 02 79 bc 88 92 4d 3b 2f 23 0c bd f9 58 15 3d
       -0.015198445 0.0031367857 -0.03421324 0.036461804
000390 3d 93 0b bd fe 1c 3e 3d e8 1e 07 bd b0 1c a8 3d
       -0.034075964 0.046414368 -0.03298846 0.08208597
0003a0 6f 15 75 3d 9a 44 18 bc e9 e4 19 bd cf 51 42 3d
       0.059834894 -0.0092937 -0.03757182 0.0474413
0003b0 91 c2 77 bd f1 98 d5 3d 60 0e dd bd 80 64 b0 bc
       -0.060488287 0.10429562 -0.107937574 -0.021532297
0003c0 00 de 88 3d 95 54 57 bd 96 f1 f9 bd 54 33 89 3d
       0.06682968 -0.052570898 -0.12204282 0.06699243
0003d0 95 28 83 bd 0e c7 15 be 19 5e f4 3d c7 d3 c8 bd
       -0.06404225 -0.14626715 0.1193201 -0.09806018
0003e0 79 a9 fb 3d 71 72 13 be 8b 7f 94 3d 92 c9 04 bd
       0.12288184 -0.14399125 0.072508894 -0.032418795
0003f0 69 5d 12 be 39 8c 8e bd 51 74 09 3d 10 a8 87 3d
       -0.14293446 -0.06960339 0.033558194 0.06623852

net.3.lin2.bias f4 [64]
000000 92 a3 0c 3e 80 fd c2 bd 41 a7 68 bd ea c8 eb bd
       0.13734272 -0.095210075 -0.05680013 -0.11512931
000010 e6 2a 02 3d 3b 1f 16 bd 2e e9 2f bd 5e be 05 3e
       0.031779192 -0.036650877 -0.042946987 0.130609
000020 92 cd 85 bd 2a 2a 94 bc f7 7b 02 bc 9f 94 64 3d
       -0.0653335 -0.018086512 -0.007964126 0.0558058
000030 30 a5 06 be 07 d4 c9 3d 7e c2 9f 3c 46 33 cb 3d
       -0.13148952 0.09854894 0.01950192 0.09921889
000040 16 91 81 bc 35 98 10 3e 21 40 da 3b 51 2f 4a bd
       -0.015816253 0.14120562 0.006660477 -0.04936153
000050 57 53 17 3d 0c c5 76 3d b4 47 b5 bd de 69 85 bd
       0.036944713 0.060246512 -0.08851567 -0.06514333
000060 2c fd db bd 8a d6 62 3d 4d c5 0e bd 34 83 d8 bd
       -0.10741648 0.05538038 -0.03485613 -0.105719
000070 ec 9f b8 3d 0e 7a ac bc ad 91 9d 3c 2a b0 a1 3d
       0.09014878 -0.021054294 0.019234503 0.07894929
000080 8a d2 02 3e 5f cb f2 bd fe 79 04 bd 2f 05 f9 bd
       0.12775627 -0.11855196 -0.032342903 -0.12159192
000090 ec 11 b2 3c eb d5 cd 3d b4 7a 6b 3a fe 12 9a bd
       0.021737061 0.10050567 0.0008982823 -0.07523154
0000a0 d2 21 09 3e 86 6e 7c 3d 2a 63 86 3d 7a 5d ad bc
       0.13391808 0.06162884 0.06561883 -0.021162737
0000b0 64 60 0e be 7e 1f 5b bd 6f 62 8c bd dd 5a b1 bd
       -0.13903958 -0.05349683 -0.06854712 -0.08659909
0000c0 d4 79 91 bd 47 08 ad bc d3 f4 23 3d c3 df 96 3d
       -0.07103315 -0.021122111 0.040028404 0.07366898
0000d0 7f b7 11 bb a5 fd c2 3d 1c 5c d8 3d 54 89 3f 3d
       -0.0022234616 0.09521035 0.105644435 0.046761826
0000e0 d2 b6 29 bd c9 06 ba 3d fa 3b 81 bd ac 32 d4 bd
       -0.041434117 0.090833254 -0.06310268 -0.103612274
0000f0 b7 d2 c7 bb 25 19 43 3c 5e c1 88 bd 34 35 42 bd
       -0.006098117 0.01190785 -0.06677507 -0.04741402
