data/trained_models/base_Boil(K)_resnet.pth (torch, 202006 bytes, 15 tensors)

net.0.weight f4 [64, 374]
00000000: 0864 f1bc c64c f43c 3a63 ae3b 15b6 c13a
00000010: cac2 57bd a427 9f3d 7280 173d 84f2 953d
00000020: 2730 833d 5621 41bd 30b4 d63c 1afc 4cbd
00000030: 9025 0d3c 0854 c4bc e754 873d 92b4 5dbc
00000040: 5f47 3b3d 5fe8 22bd 824f e93c 35d5 2a3a
00000050: 2fd4 b73d 400b bb3b 2bd9 9c3c 026a b43d
00000060: 34d9 263c 0e25 08bd 6f4f e5bb 6455 b13d
00000070: 5e12 fcbc e850 88bc 87d9 3d3d 98e9 83bb
00000080: 18cb 20bc e3d7 453d 5adc f3bc 1a8f 01ba
00000090: 1f5c 0bbd 5b07 453d a5b1 433d e79c 65bd
000000a0: 11bc 4ebb f70b 30bc a10a 783c d29d a53d
000000b0: 3b3b 90bc b08c 62bb 8f89 253d b682 4dba
000000c0: efbe c13c 688b 953c fa81 09bd e76f b93c
000000d0: 5adf 7a3d 8ae6 273d c9e4 2a3d bd77 0a3b
000000e0: 13a8 d13c d232 2e3d d64f 973c 8bc9 25bd
000000f0: eb8d 4c3d b054 e4bb 0a65 7f3b 95bb 253d
00000100: 5a01 133d 53cc 233d 4903 193c a302 4d3d
00000110: 2a3b 10bd 8344 8d3d 2273 073d d8c9 793c
00000120: a90f 623d f0d3 6ebc b27e 093d 9888 5e3d
00000130: 2b0b f83c 5d83 8e3c a9c2 30bd 685e a33b
00000140: bb91 953d d009 41bd 60e7 1abb bb8b abbd
00000150: 94e2 1dbd c5f6 073c 86d6 ffba 8569 8b3b
00000160: ba4f ab3c 7187 023d 5c35 24bc d03c f63a
00000170: 61f3 c6bc a9ca 41bd acb8 323c bb9c 063d
00000180: 61f1 4cbd 2097 873a 067d 373c 5502 4e3d
00000190: 67ca 7dbd 00fd bd3b 80b2 58bd 48e6 09bd
000001a0: b5dd 833d d607 bb3d 6bf0 a23d feef 3f3d
000001b0: fe05 f93c d7d2 123d 5562 903d 9420 aabc
000001c0: e8ba 1ebc 1289 913c 84c9 76bc 9224 593c
000001d0: 9097 77bc ab86 933d 38aa aabb a916 2b3d
000001e0: 36b5 333d 9ee2 783d d230 4fbd 129d d2bc
000001f0: 73d1 4e3d b121 24bd 43f7 4e3d 28b8 43bc
00000200: e649 213c 0a9c a43c 19ea e9bc c4a7 533d
00000210: 5402 993d a515 2e3d 4408 653c f0e4 eab9
00000220: 37a1 2e3d e42e adbb efae a83d 8414 3dbd
00000230: e66c f23c 3e8d 983d 5f8f 8b3d ff4a 7b3b
00000240: f854 593c 8290 813c 56b8 c33c ad4c 393d
00000250: 05cd 673b 59f7 b4bc b1e0 cebc 180f 86bc
00000260: ae9b 90bc 4361 803d 8a7e b0b9 b1cd 043d
00000270: 6598 783d fca1 8b3d f6e8 ae3c b162 533d
00000280: 8494 43bd f0d3 e2b9 8e51 d83c 0cf8 f6bc
00000290: f07e 20bc 1b70 f33b 6f89 473d ba6e 8f3c
000002a0: 72e5 e63c e8f7 4dbc bc52 3fbc 8226 08bd
000002b0: 0ece dcbc b001 27bb 3120 4a3d 17fd dabc
000002c0: 3af1 d93c 3d92 e03b 703a f13a ff0b 33bd
000002d0: c5ba 2a3d f85a 76bc 357c 25bd 3378 9b3c
000002e0: 5076 203c eed5 d4bc b1b6 3c3d 827d cb3c
000002f0: 5071 dcba 3864 07bc 7048 bfbb f7f3 053d
00000300: 02f1 e53c 79bc 483d 5510 38bd a76d 14bd
00000310: 1773 3d3d ad59 d4bc eb66 41bd f76e 053c
00000320: f8b5 d43c 536e 5f3d d2d4 743c 0ac2 9f3a
00000330: 6cfc 4c3b f3dd 87bb 3f0b 1bbc ef33 b63c
00000340: 60f1 9abc 57b9 b63d 4104 9e3d 901f debb
00000350: 645a 44bd 81ea a13d d201 33bc cf1c 3c3b
00000360: 3ced b1bc 9e38 073d d2c4 813d 2d34 673d
00000370: 44f5 e33c 15b7 f5ba 365d e13c af38 a93d
00000380: 2d93 2abd b6b9 4fbd f025 16bc 1a9e bcbc
00000390: 46e2 533c 38b2 46bc 85a0 863d deca 6b3d
000003a0: cd67 ac3d e9bf 0b3d 145a 533c c22f a0bb
000003b0: 578b c9bb c07c 14bc c68d 993c af04 093d
000003c0: d222 083d b426 2e3d 5208 093d b8fd 403d
000003d0: 072c e43a 400e 4b3d 1820 8d3c b019 5fbc
000003e0: fe49 d03c 981b 933d 8477 233d c5c6 60bd
000003f0: 9751 ccbc c169 83bd 1f24 35bd cd17 debc
-0.029466644 0.029821765 0.0053218873 0.0014778996 -0.052676 0.07771233 0.03698773 0.07321647
0.06405669 -0.047150932 0.026208967 -0.05004511 0.008614913 -0.02396585 0.06607991 -0.013531821
0.04572236 -0.039772388 0.028480295 0.00065167557 0.08976018 0.005708128 0.019146523 0.08809282
0.010183621 -0.033238463 -0.0069979946 0.08658865 -0.030770477 -0.016640142 0.04635003 -0.0040256493
-0.009814046 0.04830159 -0.029768158 -0.0004942283 -0.0340234 0.048102718 0.047776837 -0.056057837
-0.0031545202 -0.01074504 0.015139253 0.080867425 -0.017606368 -0.003456872 0.04041439 -0.0007839607
0.023650615 0.01825495 -0.03357122 0.022636367 0.06124816 0.040991344 0.041722093 0.0021128498
0.02559284 0.042528935 0.018470686 -0.04047541 0.04994003 -0.0069681033 0.0038970136 0.040462095
0.03588996 0.03998978 0.009339162 0.050051343 -0.035212673 0.06897833 0.033068784 0.015245877
0.055190716 -0.014576897 0.03356809 0.054329485 0.030278763 0.017396623 -0.043154392 0.0049856193
0.073031865 -0.0471285 -0.0023636445 -0.08376261 -0.03854616 0.008298581 -0.0019518889 0.0042545223
0.02091204 0.03186745 -0.0100224875 0.0018786434 -0.024285974 -0.047312412 0.010908287 0.032864314
-0.050034884 0.0010344721 0.0111992415 0.050295193 -0.061960604 0.005797982 -0.052904606 -0.03366688
0.06438772 0.09132354 0.07956012 0.046859734 0.030398365 0.035845604 0.07050005 -0.020767488
-0.009688117 0.017765556 -0.0150626935 0.013253348 -0.015111819 0.0720342 -0.00520828 0.041769657
0.043873988 0.060762994 -0.050583668 -0.025709663 0.050492715 -0.040071193 0.050528776 -0.011945762
0.009844279 0.020093936 -0.02855401 0.051673666 0.07471147 0.04250111 0.013979021 -0.0004480253
0.042634215 -0.005285131 0.08236491 -0.046162143 0.029592942 0.07448815 0.06814455 0.0038344262
0.013264887 0.015815977 0.02389161 0.04523914 0.0035370004 -0.0220906 -0.025253626 -0.01636462
-0.017652359 0.06268551 -0.00033663615 0.032422725 0.06069221 0.068180054 0.021351319 0.05160779
-0.047749057 -0.00043263985 0.026406076 -0.030147575 -0.009795889 0.0074291355 0.04871505 0.017508853
0.02818558 -0.0125713125 -0.01167744 -0.03323985 -0.026953723 -0.0025483184 0.049347106 -0.02673201
0.026604284 0.0068533705 0.0018404257 -0.043712612 0.041682024 -0.015036337 -0.040401656 0.018978214
0.009793833 -0.025980916 0.046072666 0.02484012 -0.0016818438 -0.00826364 -0.0058374926 0.032703366
0.028069023 0.049007867 -0.04493745 -0.036237385 0.046252336 -0.025921667 -0.04721729 0.008144132
0.025965676 0.054548573 0.014943318 0.0012188565 0.0031278385 -0.0041463315 -0.0094631305 0.02224156
-0.018913925 0.089220695 0.07715655 -0.006778665 -0.047937766 0.07906056 -0.010925727 0.0028703695
-0.021719567 0.03301298 0.063363686 0.056446243 0.027826913 -0.0018746579 0.027510267 0.08262765
-0.041644264 -0.050714217 -0.009164318 -0.023024607 0.012932366 -0.012127452 0.065735854 0.057566516
0.08418236 0.034118567 0.012899894 -0.0048885057 -0.006150644 -0.009062946 0.01874436 0.033451732
0.033236332 0.04251738 0.0334552 0.047116965 0.0017408141 0.049574137 0.017227218 -0.013616964
0.025425907 0.071829975 0.0399089 -0.05487706 -0.024941249 -0.06416655 -0.0442239 -0.027110958

net.0.bias f4 [64]
00000000: 4167 89bd 86c6 a63d 1779 2e3d c713 98bb
00000010: a588 833c c88d 9fb9 d391 dcbc c45d 6f3d
00000020: de67 b9bc 9fdd 673c 6b08 3f3d fa05 9f3c
00000030: 4617 a0bd 7dc8 383d 0f24 48bd dde1 c6bd
00000040: a32f ea3d db74 e83c 35d7 58bb d160 893b
00000050: aa10 bd3c 5828 78bd cfda 153d 3a73 6e3c
00000060: 1eb4 7d3d fecf 32bb a29d 1fbc 46d1 303c
00000070: e9d7 d33c ace6 5a3b 5c8e 03bd 7ec6 24bd
00000080: aef9 b6bd c006 e8bc bead 6f3d b9a7 5dbd
00000090: 8ff6 d53d 891f babb e83b 9c3d 6e39 723d
000000a0: 708a 73bc 2818 31bc 657a c33d d2b1 bfbd
000000b0: a406 023c 254f b0bd 040d ee37 e5f6 28bd
000000c0: 7234 4d3b 3b2c 16bd 50f6 8bbd df84 69bd
000000d0: 91f3 313d 3f5d 72bc 0e2b ba3c 67af 7f3b
000000e0: c854 693d 7c01 c6bc c7c7 d9bc 0977 91bd
000000f0: 42f0 003d 4cda 9ebd 22a2 59bb 08b4 a4bd
-0.06709147 0.08143334 0.04259595 -0.0046410295 0.016056368 -0.00030432479 -0.026925003 0.05843903
-0.022632536 0.01415196 0.046638887 0.01941203 -0.07816939 0.045113076 -0.048862513 -0.09711049
0.11434867 0.028376034 -0.0033087258 0.0041924496 0.023079235 -0.06058535 0.036585625 0.014553839
0.06193935 -0.0027284618 -0.009742172 0.010792082 0.02585979 0.0033401651 -0.032118186 -0.04022836
-0.08934341 -0.028323531 0.058515303 -0.05411503 0.10447418 -0.005680029 0.07628614 0.0591368
-0.014864549 -0.010808982 0.09544829 -0.093600884 0.007936154 -0.086088456 2.8377872e-05 -0.041251082
0.0031311777 -0.036663275 -0.0683409 -0.05701148 0.043445174 -0.014792739 0.022725608 0.003901446
0.05696562 -0.02417063 -0.02658452 -0.07102782 0.031479128 -0.077564806 -0.003320821 -0.08042151

net.2.lin1.weight f4 [64, 64]
00000000: 4895 933d 8f0e 23bd a7ac 0bbe 68e8 a23d
00000010: f5b2 dc3c 366b 153e 87c8 d13c 3d86 7ebd
00000020: c8ab 4cbd eaf3 34bc 4e6a f5bd 2321 aabc
00000030: 4b1b b83c e3a4 bf3d ba7e d5bc 0451 49bd
00000040: ae6e a43b 7cdd 9abd 4bba d73d f0bb a63c
00000050: d11d 72bd b878 343e e8ad b8bd b6f1 03bc
00000060: 1639 cebd ba23 343d 55c8 5b3d c549 24bd
00000070: 0ed8 b53c 5a38 34bd 3142 133e 2ac0 8a3d
00000080: a893 8b3b 513e 173d 16a0 c6bd ec99 8cba
00000090: 3c02 93bd d31f 0e3e 0ae6 853d be97 0a3c
000000a0: ed3e 933d 37ec 0e3e 0b54 02be 7ae2 853d
000000b0: 4a29 bc3d 5721 9fbd 1554 003d ab8e 8a3c
000000c0: 77e6 6cbd f310 21bc dc6a 2fbc 2c58 57bd
000000d0: c718 803d b660 533d 1aa8 96ba 040e a7bb
000000e0: e5ef 93bd c590 b93d 4d64 193e df1c 273e
000000f0: e11f 5c3d 1246 acbc 99cc f1bd 4697 8dbd
00000100: 6eca 81bd 31ba 25bd 9624 053e f54b 8a3d
00000110: a4d2 b6bd 1253 97bd 1ac2 723d c6a2 bd3c
00000120: 7b94 8b3d 8719 ecbc 5357 dd3d b709 b4bd
00000130: 623b c4bd 2d9b b53d 7d65 02be 3997 f0bd
00000140: 23b2 333d b6e0 6abd 75e7 3d3c ca1d fd3a
00000150: 27df 393d 8b4d 0bbe 9443 a03d 214b 983d
00000160: fac0 603d 2e23 2b3d c889 ccbd 3b58 5e3d
00000170: 2267 63bd cb15 e9bd 8189 4ebd 5184 0fbe
00000180: 0513 11be 9887 193d d397 813d 0612 703d
00000190: 6aeb 3fbd 35c2 93bd 8cd9 a53d f0c7 9abd
000001a0: 8c56 03bd c283 c9bd 9778 35bd 4fd7 efbd
000001b0: 640e 02bd b97e 0c3d a16e 143d aab7 313b
000001c0: 37ed 20bc 5871 03be 2083 fa3d 465a 0abe
000001d0: e4a0 4d3d 056f 3e3d 1b55 f1bc 863f 9cbd
000001e0: fe3a 443d 4d42 503b b2bb 813d dafb 89bd
000001f0: a534 cbbd ef27 903d 6296 edbc edc0 16bd
00000200: ad03 04bd 4b1b 1dbe 25be 143d 0e4c 0c3e
00000210: 9d9c 333d 4a94 1c3e 01f5 cb3d 096b b03d
00000220: 2315 593c 2f79 e8bd b329 73bc 6d3d 84bd
00000230: 78a1 92bd 8c53 e4bd 6fbd 8abd cc04 f23d
00000240: 8347 c7bc aa79 11be 6c8a d0bd abaa 39bc
00000250: c9d0 1d3d 1882 fc3d 7591 51bd 1a2b 7e3d
00000260: 569d 20bd 2eb7 433d 2cad 10be 947c 1fbe
00000270: d56f d3bd 6632 89bc 3c4f 8ebb 1327 383e
00000280: 3f89 2b3d 14e6 be3c 60f5 df3a da04 b13d
00000290: e955 67bd 36c6 86bd bb09 07bd 24c1 26bd
000002a0: be79 1fbd c8f5 ff3d fc79 c0bd e24e d93d
000002b0: 4080 bf3d 50c5 353c e95f 323d f8e0 053e
000002c0: 32aa b5bd 6e19 6c3c 4716 803d c211 cb3d
000002d0: cbba 82bd 5e43 0d3e ece6 4f3d 33d6 553c
000002e0: 8cfc 8ebb 4c73 c2bd feaa af3c d144 34bd
000002f0: e667 80bd 6458 1f3e e54a 853d fc1c 2a3c
00000300: 275c 223c 8a1d ca3d 73b3 413d 2fd6 90bc
00000310: 0d04 0a3d 2162 b53d 85e7 f7bd 8d39 953d
00000320: bd64 c43d 6478 b23c a1c6 24bd 5c1a 7c3d
00000330: 1a8c b93d f54d bd3d e8e1 32bd 57e9 09be
00000340: de12 6e3d a9bf ad3d c09a d1bd f831 d3bd
00000350: a52d cc3d d95a e9bc 132a 47bd 9836 41bd
00000360: c82e 96bd ffcc fc3c 36e4 df3d 88d4 823d
00000370: 195a 533d 974d cf3c d5c6 f33c f547 cbbd
00000380: 575a 8abd eccb 913d a35d 3d3b 069b 333d
00000390: c44e d7bd e3b8 ddbc c48e cbbc 3e71 313b
000003a0: 6b7a 0cbe 6ece 64bc e59a e43c 28f7 2bbd
000003b0: f78b 96bd c01c a1bd 0f9b 393d 2123 f8b9
000003c0: a833 3ebc 59f7 44bc 533c ccbd e692 d1bc
000003d0: 7025 ab3c 6b14 d53c 0aa0 593d 897a d33d
000003e0: 7389 a33d 4249 0f3d 7f3c 11be 67cd 97bd
000003f0: 3978 16bd d69e d4bd 475a 4b3b dd34 0cbe
0.072062075 -0.039808806 -0.1364008 0.07954484 0.026940802 0.14591679 0.025608314 -0.06213974
-0.04996851 -0.011044482 -0.11983167 -0.020767754 0.022473952 0.093576215 -0.026061404 -0.04914953
0.005018077 -0.07561776 0.105335794 0.020353287 -0.059110466 0.17624176 -0.09017545 -0.008053234
-0.10069482 0.043979384 0.05365785 -0.040109415 0.02219775 -0.043999054 0.14380719 0.06774934
0.0042595454 0.036924664 -0.09698503 -0.0010727025 -0.071781605 0.13879327 0.06538017 0.00845903
0.071897365 0.13957296 -0.12727372 0.065373376 0.09187563 -0.07770031 0.031330187 0.016913733
-0.057836976 -0.009830701 -0.01070663 -0.05257432 0.06254726 0.051605903 -0.001149419 -0.0050981063
-0.072234906 0.09060816 0.14979668 0.16319607 0.05374134 -0.021029506 -0.11806602 -0.06913619
-0.063374385 -0.04046077 0.13002238 0.06752769 -0.08926895 -0.07388891 0.05926714 0.023148905
0.0681543 -0.028820766 0.108076714 -0.087909155 -0.09581639 0.08867488 -0.12734027 -0.117475934
0.043871056 -0.057343207 0.011590828 0.0019311246 0.04537883 -0.13603799 0.078253895 0.07436205
0.054871537 0.041781597 -0.09987217 0.054283362 -0.055518277 -0.1138111 -0.050424103 -0.14015318
-0.14167412 0.037482828 0.06327786 0.05861094 -0.046855368 -0.072147764 0.080981344 -0.07557666
-0.03206496 -0.09839584 -0.044304457 -0.11710989 -0.031752005 0.03430054 0.036238316 0.002711753
-0.009822181 -0.12836206 0.12232041 -0.13510999 0.050202265 0.046492595 -0.029459527 -0.07629304
0.04790782 0.00317778 0.06334628 -0.0673749 -0.099221505 0.07038867 -0.029002372 -0.036805082
-0.032230068 -0.15342443 0.03631415 0.13700888 0.04385053 0.15290943 0.0995884 0.08614165
0.013249668 -0.11351239 -0.014841485 -0.064570285 -0.07159704 -0.11148748 -0.06774413 0.11817321
-0.024326092 -0.14206567 -0.10182652 -0.011332194 0.03852919 0.12329501 -0.05116411 0.062052824
-0.039212547 0.047782116 -0.1412856 -0.15574867 -0.10324065 -0.016747665 -0.0043429416 0.17983656
0.041878935 0.02330307 0.0017086677 0.086435035 -0.056478415 -0.065807745 -0.032968264 -0.040711537
-0.03893446 0.12498051 -0.09398267 0.10610749 0.093506336 0.011094406 0.0435485 0.130741
-0.08870353 0.01441036 0.06254249 0.099154964 -0.06383284 0.1379523 0.050757334 0.013051557
-0.004363602 -0.094946474 0.02144384 -0.04401094 -0.06269817 0.15561062 0.065084256 0.010382887
0.009909666 0.098689154 0.047290277 -0.017680256 0.03369527 0.08856607 -0.12104706 0.072863676
0.09589527 0.021785922 -0.04022849 0.061548576 0.090599254 0.09243385 -0.043672472 -0.13467918
0.058123462 0.08483822 -0.10234594 -0.10312265 0.099696435 -0.028485702 -0.04862411 -0.047171205
-0.073331416 0.030859469 0.109322 0.06388193 0.051599596 0.025305552 0.029757896 -0.09925834
-0.06755512 0.07118973 0.0028894923 0.043849014 -0.1051307 -0.0270657 -0.02484835 0.0027075554
-0.13718574 -0.013965232 0.02790589 -0.041983753 -0.07350915 -0.07866812 0.04531389 -0.0004732842
-0.0116089955 -0.012021863 -0.099724434 -0.025582742 0.020891875 0.026010713 0.05313114 0.10326106
0.07985201 0.034981973 -0.14183234 -0.07412224 -0.036735747 -0.10381858 0.0031029151 -0.1369204

net.2.lin1.bias f4 [64]
00000000: 6929 05be 60a1 1d3e c55a 24bc 306e 3a3d
00000010: 9a72 00be b19c 833d 3584 d5bb 7e28 813d
00000020: 10ed 33be e3cb 31bd 91d1 193e e15c 36be
00000030: 5676 acbd 8cd6 2fbd c351 36bd 86d4 ba3c
00000040: 0e56 123c 52c4 483d 8d62 cabd 76a3 b23d
00000050: a8b4 1abe 38ac ac3d 081a 37be b234 9f3c
00000060: 92de 4e3d 3638 d0ba a37c 023e 744d 7bbd
00000070: 17ac 07be 393c 5ebc e89e 543d e625 5d3c
00000080: eee6 1c3e cdb5 13bd 93e1 0bbc 008f 0e3d
00000090: 3511 bebd 64bf 63bc d497 a4bc ac51 1a3d
000000a0: dfd7 07bd 237e ed3d 04f8 0a3e 946a c33d
000000b0: 8780 fa3c b238 a3bd 4520 d9bd 12aa e93d
000000c0: e94d a03d ef2b aabc 8af7 853d fe51 d8bc
000000d0: 25fd e3bd 97a8 05be 3476 cc3d 65e2 2b3c
000000e0: 5e1b 03be 6f44 8abd f49d 3d3d 3023 58bd
000000f0: 1478 013e 3ddb 2bbe 5ffd 98bd f223 1ebd
-0.13004078 0.15393591 -0.010031407 0.04551524 -0.12543717 0.06426371 -0.0065160044 0.063065514
-0.17570901 -0.043407332 0.1502135 -0.17808868 -0.08421008 -0.042929217 -0.044511568 0.022806417
0.00893165 0.04901535 -0.09882078 0.08722584 -0.15107977 0.084312856 -0.17881024 0.019434307
0.05050523 -0.0015885893 0.12742858 -0.061353162 -0.13249241 -0.013564163 0.051909357 0.013497805
0.15322468 -0.03606205 -0.008537668 0.034804344 -0.09280626 -0.013900612 -0.020091929 0.037675545
-0.033164855 0.11596324 0.13571173 0.095418125 0.030578865 -0.07969798 -0.10601858 0.114093915
0.0782736 -0.020772902 0.06541355 -0.026406284 -0.11132268 -0.13052593 0.09983483 0.010490988
-0.12803409 -0.06751334 0.046293214 -0.052767932 0.12643462 -0.16782852 -0.07470202 -0.0386085

net.2.lin2.weight f4 [64, 64]
00000000: bef6 0a3e b530 23be a691 0c3a dbc9 0abe
00000010: cf77 693d 137c 9a3d c769 c1bd 3a47 f2bc
00000020: 6b8b b33d a7b0 b43b 45de 6fbd e4c6 95bc
00000030: 62d2 183e 20a5 033e 8b2e 3b3d 8cf9 bdbd
00000040: e389 02bd 59ef b93d 5c16 4d3d 39e5 fc3b
00000050: f123 113e 2b2e b2bd 5a04 48bd 3af9 d4bd
00000060: 17e9 9ebc 5d35 03be 043c 8cbd be9a 21ba
00000070: 202a c83d 7e4e 8f3c 58d2 753c 1fe1 c53d
00000080: 9b8c 9ebd c165 213e 4e8f 97bd 25ff 7f3d
00000090: b2ad b43c cd0b 0cbe d681 90bd 6e71 cfbd
000000a0: 858f 953d 3c67 853d 02ae 4cbd 8ffe b33d
000000b0: 8d00 ccbd d24d 9cbd cf07 68bd 11f8 e4bd
000000c0: f42f 8b3d 1ef1 c1bd 1748 d13c 28d7 56bd
000000d0: e35a 96bc cc3a 8f3d e40b 953d df3e a93d
000000e0: 1078 133e 2d0f a8bd f488 b2bd 910b f23d
000000f0: 86bb 13bc 70df 923d c606 353d 24df cbbc
00000100: 77b1 a0bc 4428 bc3d f421 78ba d8c9 773d
00000110: a494 11be 0aba 9bbd 71ad 01bc c76e a73d
00000120: e16b 03be c06a e53b c6cf e0bd ba0d eebd
00000130: 6639 7f3d 5208 a2bc 7867 af3d 5221 993d
00000140: b841 e3bb 2021 9fbd 50e3 be3c a2fb 07be
00000150: 5b4a a93d cce4 8ebd e0be 14be 121d 66bd
00000160: 2964 cd3d 5008 873d 374d 03bd d8be f1bc
00000170: b53b fcbc 914f 073d 62d5 7e3d c400 04bd
00000180: f05d 3f3d 01d8 20be 26aa ecbc d146 02be
00000190: 1553 ad3d 9571 cc3d b6bc a1ba 2779 103e
000001a0: d906 f1bd 198e 93bd 7bdb debd ee41 5c3d
000001b0: 1bc0 643d c71a 8c3d abbc 8239 5692 bb3d
000001c0: f257 cbbd f83e 9f3c 2f40 393d fce4 83bd
000001d0: 05d4 813d 1058 11be 444b 29bc 7513 db3d
000001e0: 9a54 32ba 3f0e b9bd 5e34 763d 96f9 c6bd
000001f0: 4c07 293d 3606 24be e7c1 b93b ee87 5fbd
00000200: bd31 7f3d 3aec b53d 244d 1a3d a91d fcbd
00000210: b0f7 813c 3449 063d d8c4 cebc ddc2 c03d
00000220: ba8d fbbc 0b4c b23d c2dd 093e 40f9 b1bd
00000230: 8b86 8bbd fdf5 9bbd f3b5 0cbd c666 9fbd
00000240: 7d02 823d e6db 24bd e395 763b 869d 8c3d
00000250: 62a8 85bc f95b 4c3d 4577 52bd 7066 853d
00000260: 79f6 74bd c2f3 28bd f013 73ba a43a c43d
00000270: eef6 04bd d426 f63d c55b 8fbd d43e 47bd
00000280: 7693 8fbc 75bd 7abc 0386 863d ffcb 683d
00000290: 59a4 a8bd b43b ae3d f620 9f3d 3cf4 803d
000002a0: 4504 b7bd ba12 9d3d af0a 1abc 8341 35bd
000002b0: 1a59 573d 992b 92bd 0b7a 873d a242 cabd
000002c0: c28e 243d 615f 67bd d93a 55bc 830e 8bbd
000002d0: f375 8b3d 2c94 08be 775c 56bc 0f99 d6bd
000002e0: 8d4a 87bc a976 9e3d 958e f33d 2900 053d
000002f0: 6417 df3c 3b4c aabd 1b6c ea3d 7e6e 91bd
00000300: a8a2 4bbd 9e1c 103d 4e1b e43d 1f9a 233d
00000310: 6784 423d 8eaa 6ebc ed8b 01bd b64f b0bc
00000320: 6409 36bc d2a1 0c3d 1bc5 6fbd 2970 46bd
00000330: 543e c3bc babd 22bd 6a6c b63d 76fa d03c
00000340: 96ee 56bd 46ea a1bd a10b b8bb a628 a9bd
00000350: 9dcb 3bbd 7b25 9cbd b9a2 ab3b 5e57 c3bd
00000360: 4534 903c d81c 1cbe e638 14be 1901 333d
00000370: ecc3 af3c 6af9 fc3d 7d57 0bbd 3068 5cbc
00000380: c315 06be 8426 bf3d 2946 a83c f261 65bd
00000390: 9bd5 69bd a811 f23c c881 133e 9eb6 debd
000003a0: 7c90 f83d b075 31bd 208f f9bd edda 763d
000003b0: a642 86bc c73d 013e f003 81bc 34a6 e0bd
000003c0: 2c77 883b ce25 ff3d 06d5 063d ad53 63bd
000003d0: 40d0 9bbd 9300 003e 308b 1d3d 25f3 7ebc
000003e0: 5270 783d 5d56 05bc c4e2 473d 965e 9d3d
000003f0: 66f4 9d3a 78c9 223c cc8c e73d 101a b83d
0.13570687 -0.15936549 0.00053622795 -0.13553564 0.056999024 0.075431965 -0.094440036 -0.02957498
0.08766826 0.0055142227 -0.058561582 -0.018283315 0.14924005 0.12855959 0.045698684 -0.09276113
-0.03186978 0.09078855 0.05007015 0.007717755 0.14173867 -0.08700212 -0.048832275 -0.10399099
-0.019398255 -0.12813325 -0.068473846 -0.0006164721 0.0977366 0.017493483 0.015003763 0.09662079
-0.07741662 0.15761472 -0.0740038 0.062499184 0.02205548 -0.13676377 -0.07056014 -0.10129057
0.07302765 0.06513831 -0.049970634 0.087887876 -0.099610426 -0.076320305 -0.05664807 -0.111801274
0.06796256 -0.094698176 0.02554707 -0.052451283 -0.018353885 0.069936365 0.072776586 0.08263945
0.14401269 -0.082060196 -0.08717528 0.11818612 -0.009016877 0.071715236 0.044195913 -0.024886675
-0.019615872 0.091873676 -0.00094655086 0.060495228 -0.14216858 -0.076038435 -0.007914887 0.08175426
-0.12834121 0.007001251 -0.1097713 -0.11623712 0.0623106 -0.019779358 0.08564657 0.074770585
-0.0069353245 -0.0776999 0.02330175 -0.13279584 0.08266135 -0.06977233 -0.14525938 -0.056180067
0.1002887 0.06593382 -0.03205606 -0.029509947 -0.03079019 0.033034865 0.062215216 -0.032227293
0.046720445 -0.15707399 -0.028889727 -0.12722327 0.08463112 0.099826016 -0.0012339565 0.14108716
-0.11768884 -0.07204837 -0.10881706 0.053773813 0.05584727 0.06841045 0.000249361 0.09158771
-0.099288836 0.019439206 0.045227226 -0.0644016 0.06339268 -0.1419375 -0.010332886 0.106970705
-0.0006802768 -0.0903592 0.060108535 -0.097155735 0.041266724 -0.16017994 0.005668867 -0.054572992
0.062303293 0.08882947 0.037671223 -0.12310345 0.015865177 0.032784656 -0.025240347 0.09412167
-0.030707229 0.0870591 0.134635 -0.08690119 -0.068127714 -0.07615278 -0.034353208 -0.07783274
0.06348131 -0.040248774 0.003762596 0.06865983 -0.016315643 0.0498924 -0.051383276 0.06513679
-0.059805367 -0.04124809 -0.0009272685 0.09581497 -0.032462053 0.120191246 -0.069999255 -0.048643902
-0.01752637 -0.015303959 0.065685295 0.05683517 -0.08234472 0.08507481 0.07769959 0.06296584
-0.08936361 0.076695874 -0.009401961 -0.04425193 0.05257521 -0.07137222 0.06615075 -0.098759905
0.040175207 -0.056487445 -0.013014519 -0.06789877 0.068096064 -0.13337773 -0.013083569 -0.10478412
-0.01651504 0.077374764 0.1189243 0.032470856 0.027232833 -0.08315321 0.11446401 -0.07101153
-0.049715668 0.03518354 0.111380205 0.039941903 0.04748955 -0.014567031 -0.031627584 -0.021522384
-0.011110637 0.03433401 -0.058537584 -0.048446808 -0.023833431 -0.03973172 0.08907397 0.025510054
-0.052473627 -0.07906012 -0.0056166206 -0.08259706 -0.045848478 -0.07624336 0.005237904 -0.09538148
0.017603049 -0.15245378 -0.1447483 0.04370222 0.021455728 0.123522595 -0.034018982 -0.013452575
-0.13094239 0.09333518 0.020541267 -0.05600161 -0.057088476 0.029549435 0.14404976 -0.10874675
0.12136933 -0.043325126 -0.12185502 0.060267378 -0.016389202 0.12621222 -0.015748948 -0.10969201
0.004164597 0.124583825 0.032918 -0.05549972 -0.0760808 0.12500219 0.038462818 -0.0155609
0.060653992 -0.008138266 0.048800245 0.076840565 0.0012050986 0.009935729 0.11306152 0.08989346

net.2.lin2.bias f4 [64]
00000000: 19bc 633d c0ad a73d 2e8c a8bd 209f 31bd
00000010: 549b eb3d c233 073d 02db 81bd 1c3c 673d
00000020: e5db 02be 4115 a4bc 6958 6abd 7156 033e
00000030: 4aad 3bbd dc72 c13d 91e1 fdbd cb2f 013d
00000040: 5933 6fbc 403c f43d e04d 34bc c84c 4bbd
00000050: 5276 8e3c 6dc2 a43c 7e83 23be 34aa cc3d
00000060: 5117 b13d b327 91bc 1c0a 31bd 32c5 d43c
00000070: 540b 0c3e 2c45 2b3e ca61 e8bd bda7 08bd
00000080: a618 f6bc 5c8a 033c 29d1 04bd a806 5dbd
00000090: 6f83 163e 0d31 edbd 9260 263e 4434 813d
000000a0: 1c07 ed3c abb3 833d 6dd1 103e 711c d9bd
000000b0: a8a9 873d 32f2 1bbe a8a5 96bd e6d9 2ebe
000000c0: 0882 22bd 7fe8 0ebe 322c b2bd 3e66 27be
000000d0: f2a2 ff3d c60b ecbc 9ac4 8f3d 3c6d 02be
000000e0: 44dc f43d 7fe2 f73c 5bfd ea3b f1d3 f1bd
000000f0: a959 85bd e22f bc3c 043c 6f3d 4579 02be
0.055599306 0.08187437 -0.08229862 -0.043364644 0.11504236 0.033008344 -0.063406006 0.05645381
-0.12779196 -0.020029666 -0.05721322 0.12825944 -0.04581956 0.09445736 -0.12396539 0.03153972
-0.014599645 0.11925554 -0.011004895 -0.04963377 0.017390404 0.02011224 -0.15968129 0.09993401
0.086470254 -0.017719125 -0.04322253 0.025972936 0.13676196 0.16725606 -0.11346777 -0.033363093
-0.03004105 0.008028593 -0.032426033 -0.053961426 0.14698575 -0.11581621 0.16247776 0.06308797
0.028934054 0.06430753 0.1414239 -0.10601128 0.06624156 -0.15229109 -0.07355815 -0.17075309
-0.03967479 -0.13955878 -0.08699836 -0.16347596 0.12482251 -0.028814208 0.07019921 -0.12736982
0.11956075 0.030259369 0.0071713156 -0.11808003 -0.06511242 0.022972051 0.058406845 -0.12741573

net.3.lin1.weight f4 [64, 64]
00000000: 136c bb3b a79a 11be 73eb 15be 1f13 073e
00000010: 73a5 073d b0aa 113d 7368 003e fa5e d33c
00000020: 9bf8 e83d 66d8 dfbb 6699 523d dfe2 9cbd
00000030: 578e 07bd 7cdf 6fbd c5f4 a4b9 e7a9 3e3d
00000040: 10ca f8bd 791e 8abc 31eb f7bd eeea 44bd
00000050: 170e 693d f7f3 a23d d071 6f3d 0aec 1abd
00000060: 3ddb abbd df91 173c 49e5 b23c 2e61 10be
00000070: aa53 1bbe 7b8f 05be 2eb3 7b3c 5e4e cfbc
00000080: a794 24bd 08da be3d 1c73 b4bd 9e6a 143e
00000090: fbcb 2abd 1bda e13d 9a55 b5bc b14f aebd
000000a0: 2329 3abd 1112 c33b ee2c cdbd d4d7 d63d
000000b0: 2879 14be 2039 2a3c 0c1a b8bd 50c9 113e
000000c0: d50f ec3b f2d2 803d e62b 2f3d 6fb2 853c
000000d0: 482d 7a3d 4e67 1f3e 3873 e3bd cd15 0a3e
000000e0: acaf 8d3d 5061 013e 97d9 263d bbfa be3c
000000f0: 4a68 14be 0c7e 223d 8b74 3cbd 4350 d33d
00000100: 4447 0e3d c4ef 5e3d a0a2 86bc c4aa a7bc
00000110: a0cb ce3d 2205 793d 1b18 5abd 337c c33d
00000120: bc14 30bd 2a27 1bbc 9ea8 e33c 1032 053d
00000130: db63 8d3d 53ae 073b f372 c73d 5bcc 07be
00000140: ba04 1a3d 02ad b13b 2dc7 19bd 1938 9f3d
00000150: abe5 07bc 3c70 8abd f309 22bd dfb6 87bd
00000160: 3215 ffbd 17d9 4fbd a90a 5c3d e71c 0bbd
00000170: c34e c6bd b5ba acbd af01 d93d 2265 04bd
00000180: 540f 00bd aee0 f63d 30b8 e03d f7d4 13be
00000190: 86ef 8abc 4b7a 883d 2134 b13d 47e1 2f3b
000001a0: dc7e 053d 627c 12be d67e d43d f6b8 d33d
000001b0: 344c aebd 18af 793c 5f6e 093d 4eac 3f3d
000001c0: de97 433d 39bd b7bd be29 8c3c 7043 933d
000001d0: 3581 00bb 91ff 8b3d 4d38 e13d c4e8 1b3d
000001e0: d559 e63d 7f27 3dbd c449 9ebd deae ca3c
000001f0: 1839 953d df7c 8fbd c7c3 b43d b138 863d
00000200: c394 9ebd 0fbf a53b cd6e 233d 6850 0e3e
00000210: efe7 70bd 1a8a 013e 9b02 a73d 94b1 25bd
00000220: ffdb c7ba 3710 ba3d d5ad d7bd 73c8 1bbe
00000230: e5d8 8f3d eee0 3abd a9e1 1abd f86c ce3d
00000240: aa5e 23be acc3 f33c da2d c4bd d733 41bd
00000250: a4cc 783d 236c 193e 8954 013e 552d 68bd
00000260: 72f6 173d 5b8a 823d 4a8a d0bd 21e8 64bd
00000270: e3a7 a9bd c58b 96bd e499 e53d 16ce babd
00000280: 7604 21bd 9b7e 56bd 16a5 4abd 9012 183e
00000290: 1b44 25be 12ca 933d db6a b3bd 1fd6 dbbd
000002a0: c72f eb3c 65c1 583d 33fd 42bd 8a67 7e3c
000002b0: c819 063d 63de 06bd d763 d0bd 4915 e73d
000002c0: 39e0 dfbd e58c 1a3d c23c a13d 10e1 2c3e
000002d0: cd32 2b3d f697 09bd 3020 623d ba02 2ebd
000002e0: b283 7a3d c419 c6bc 24d1 d23d 74be 5e3d
000002f0: c0a4 943d ef50 423c 1219 bcbd fae1 0b3e
00000300: 35e9 3ebd 700b d73d da89 bcbd 106c bebd
00000310: 29dc 32bc dc2e 33bd 8404 8a3d 9aad c33d
00000320: 71de 10be e441 38bd 7a67 db3b 18e7 073e
00000330: cf20 aebc 6c3a 553d 8db8 233c c94a 913c
00000340: 26e6 e0bd b39d 893d 1e51 ee3d 9b11 893d
00000350: a344 6b3d 9edf e3bd 9b90 f5bc 7f6f f33d
00000360: 8489 463d a637 aa3d f036 af3d 933d fdbb
00000370: 0927 2cbb 71e8 933d 6944 12be d36e ecbd
00000380: b853 223c ed70 a4bb 4372 81bd cd90 af3d
00000390: e365 23bd 04ac c7bd 2418 e33c d081 bf3d
000003a0: b42d 25bd d643 123d 10a3 b33d f4d8 2bbc
000003b0: fc6b 203c 1ba1 a63d f5f4 c73d cd84 ddbd
000003c0: e40d e83d 6d8c 1dbe 33d2 04be fe63 21be
000003d0: 8b28 e63c 9898 a9bd fee7 ad3d 2b91 6a3d
000003e0: ba15 88bd 1efb bc3d 8108 4bbd 6ec8 2b3c
000003f0: a43d 67bd 3d9f 223a 39ed 143d c6ba 933d
0.0057196706 -0.14219151 -0.14640598 0.13190888 0.03311677 0.03556317 0.12539844 0.025802124
0.11375543 -0.0068312166 0.051415823 -0.0766046 -0.03309473 -0.05856274 -0.00031462885 0.04654875
-0.12147915 -0.016860234 -0.12105406 -0.04807561 0.056898203 0.07956689 0.05845815 -0.03782276
-0.08391426 0.009251087 0.021837847 -0.14099571 -0.15168634 -0.13043015 0.015362544 -0.025305923
-0.04018083 0.0931893 -0.08811018 0.14493796 -0.041698437 0.110279284 -0.022135545 -0.08511294
-0.045449387 0.0059530814 -0.10018335 0.10490385 -0.14499342 0.010389596 -0.08989343 0.14236951
0.0072040358 0.062902346 0.042766474 0.016320435 0.06107834 0.15566751 -0.111059606 0.13484879
0.069182724 0.12634778 0.040734854 0.023312917 -0.14492908 0.03967099 -0.04600958 0.10318043
0.034735933 0.054427877 -0.016434968 -0.02046717 0.10097432 0.06079591 -0.053245645 0.095451735
-0.042988524 -0.009469787 0.027790364 0.032518446 0.069038115 0.002070327 0.09738722 -0.13261549
0.037602164 0.0054222355 -0.037543464 0.07774372 -0.008294503 -0.06759688 -0.03956027 -0.06626677
-0.124552146 -0.050744142 0.053721104 -0.03396311 -0.09682991 -0.08434049 0.10596024 -0.03232301
-0.031264618 0.12054573 0.10972631 -0.14436708 -0.016959917 0.066639505 0.08652521 0.0026837157
0.032591686 -0.14305261 0.103757545 0.10338013 -0.08510628 0.0152394995 0.033552524 0.046795182
0.047752254 -0.08971638 0.017109748 0.07190597 -0.0019608263 0.06835855 0.10997067 0.03806378
0.11247603 -0.046180245 -0.077289134 0.024741586 0.072862804 -0.07006239 0.08826404 0.06553782
-0.07743218 0.0050581763 0.03990059 0.1389786 -0.05881494 0.12650338 0.08154794 -0.040452555
-0.0015248059 0.09085124 -0.10531203 -0.15213184 0.07023791 -0.045624666 -0.037812863 0.10079378
-0.1595408 0.02975639 -0.09579058 -0.04716858 0.060742036 0.14982657 0.12629904 -0.056683857
0.037100263 0.063740455 -0.101826265 -0.055885438 -0.08283975 -0.07350878 0.11210993 -0.09121339
-0.039310895 -0.052366834 -0.049473844 0.14850831 -0.16139261 0.07216276 -0.087606154 -0.107342
0.028709305 0.05291881 -0.04760475 0.015527615 0.03273943 -0.03292693 -0.10175293 0.11283357
-0.10931439 0.037732024 0.07872917 0.1688273 0.041796494 -0.033592187 0.055206478 -0.04248307
0.06116075 -0.024182208 0.10293797 0.05438085 0.07257986 0.011860116 -0.09184469 0.13660422
-0.046609122 0.105002284 -0.092059806 -0.09297955 -0.010916748 -0.04374586 0.067391425 0.09554596
-0.14147355 -0.044984713 0.006695685 0.13271749 -0.021255879 0.05205767 0.009992731 0.017735856
-0.10981397 0.06719532 0.116365656 0.06692811 0.057438504 -0.11126636 -0.02997618 0.118865006
0.04847099 0.08311395 0.085554 -0.0077282875 -0.0026268384 0.07222069 -0.14283909 -0.115445755
0.009907655 -0.0050183446 -0.06320622 0.085725404 -0.03989209 -0.09749606 0.027721472 0.09350932
-0.04032679 0.035709225 0.08771336 -0.010488737 0.0097913705 0.08136197 0.09763519 -0.10816345
0.113307744 -0.153856 -0.1297081 -0.157608 0.028095504 -0.08281058 0.084915146 0.05726735
-0.06644769 0.09227584 -0.049568657 0.010484798 -0.05645527 0.0006203538 0.036359046 0.072133586

net.3.lin1.bias f4 [64]
00000000: 52d0 523d 7b58 bc3d 09e6 f1bd 5955 593d
00000010: b310 08be 254d 2c3d 6300 eb3d fb09 11bc
00000020: 701c 04bd e2dd 653d 6e40 27bd f69d 98bc
00000030: 1983 073e 92dd 053d 1286 14be 0e3a dd3d
00000040: 0269 0fbe 96c6 e33d d1f2 223e 3fc9 5e3c
00000050: dd83 db3c 50fc dcbc a9d4 d4bd a988 e5bd
00000060: b25a b2bd 76e7 13be 2a6f 103e 54f6 eabd
00000070: d05b b0ba 559e 2abe 73ed 173d c756 f8bc
00000080: 13df c43d 2201 1fbe bcdd 2fbe 1daa 8d3d
00000090: 3085 53bc 75aa e53a 59b2 fabd 3b91 f5bc
000000a0: 3f8c ae3d e01a 053e f747 73bd d2d0 cebd
000000b0: 6330 f83d ba37 bebd 3f3b 0cbe 1381 6e3c
000000c0: 584a 24bd 55b9 253d 0ce1 e93d 39a5 ed3d
000000d0: 5d93 05bd d9e5 34be 013e b93d 25c0 c03d
000000e0: 73f9 563d ca07 c73d c05c 9ebd 9a63 e43c
000000f0: 2cf9 da3d d4c6 7bbd 8332 3f3b 6213 73bd
0.0514682 0.09196564 -0.11811454 0.05305991 -0.1328762 0.04206576 0.11474683 -0.008852477
-0.032253683 0.056119807 -0.04083293 -0.01863001 0.13233604 0.03268201 -0.14504269 0.10802089
-0.14004901 0.11121862 0.1591294 0.0135977855 0.026796276 -0.02697578 -0.10392124 -0.112077065
-0.08708705 -0.14443764 0.14104906 -0.114727646 -0.0013455097 -0.16661961 0.037091684 -0.030314816
0.096128605 -0.15527776 -0.17174429 0.06917212 -0.012910172 0.0017522114 -0.12241048 -0.029976478
0.085228436 0.12998533 -0.059394803 -0.10098423 0.12118604 -0.09287973 -0.13694476 0.014557141
-0.040109962 0.04045995 0.114198774 0.11603779 -0.03261124 -0.17665805 0.090450294 0.09411649
0.052483987 0.097182825 -0.077325344 0.027879525 0.10692057 -0.061468914 0.0029174394 -0.059344657

net.3.lin2.weight f4 [64, 64]
00000000: dab5 e23d 27fa ae3d 0987 84bc 71e0 4f3d
00000010: 030d 4fbd 9ab6 6fbd ddc7 1fbe 5870 2a3e
00000020: fd83 aebd b32b edbd 97fc 7e3c e4a3 e43d
00000030: b6da 793c d8c1 9c3d f0b2 943d 429d cfbd
00000040: b2aa f7bd 1a5b 4bbc a91e debd ff22 6a3d
00000050: c205 0d3d 3e35 c5bc c833 973d 53a1 5cbd
00000060: d16d c23d 69c0 9f3d c582 d2bd 73d9 00bd
00000070: 3092 aa3d 6ca6 1c3e 2ed0 e4bd b41d e63d
00000080: d5da 23be 801f 51bd ff15 0cbc 72fe 273d
00000090: 7b10 bb3d dbdf 97bc a0d4 1c3a 364f 123e
000000a0: e1f5 0fbd 5a12 bebd faef 9f3d 082a f13c
000000b0: e6d1 80bd abac e93d 402d 243e f53b 953d
000000c0: 1357 083e ad26 883d 7229 4a3d 1221 00be
000000d0: b7f3 0c3e 25b5 fcbc 6a0f 64bd 92ee 58bd
000000e0: 5b62 6cbd 094e 0f3d 25e1 96bd b23b 933d
000000f0: 1aa7 2dbe 4c2a dabd de70 ad3d fb39 aa3d
00000100: d304 0dbe 8327 d7bd 9d99 c1bd 4d4d c2bb
00000110: b76c 87bd c7be 343d d640 bcbd 0463 053d
00000120: 67c6 f4bd d971 60bd 081a ddbd 07e9 babd
00000130: 0d69 d03d ad8a 9e3d 63ab a43d 974e 77bd
00000140: a002 7ebd 522d db3d 6657 dc3d 742a 50bd
00000150: f06b 9b3d dc38 f23d 0195 ff3b 5423 13be
00000160: 48d8 c5bd 14c2 783d 9b02 7cbc d3fd 013d
00000170: 8a7c ed3d 933d 953d 7b16 883d 6aa9 023d
00000180: 8450 aa3d 14ce c7bd aa6d 8cbd 91a0 263c
00000190: 6e3e e63d 09ca 943d cd3c d2bc 826f fdbd
000001a0: 2b79 3a3d 43cb 4e3a 3ab1 533d 2355 e1bc
000001b0: 8442 cabd 2f88 26bd 56d8 323d e59f 953d
000001c0: 486b 22be 4925 83bd 19c9 fe3c 4c25 32bd
000001d0: 8acc dcbd 9c38 1cbe 425c 21bd 2ec0 6cbd
000001e0: 7837 a4bd 5fab cd3d 8989 09be 36aa 2d3d
000001f0: caf6 f83d 0b6b f43d 8245 debc b14c e3bc
00000200: 9ad1 fbbc b626 b5bd 12c3 373d 0adb bbbd
00000210: 4226 49bd e194 97bd 9964 833c 1f83 723d
00000220: 0de9 9bbd cb4a 17bc 6f51 283d 1b7c c1bc
00000230: be1e 79bc b6a9 ce3c 3ad4 003c 0b95 0cbd
00000240: 8908 d6bd 7d33 b53d 23e9 bb3d 4d41 203d
00000250: dd4d 30bb 1aa6 c6bd 9fcd b4bd ac2d fcbd
00000260: bcf2 b8bd 6627 29be 92dd c6bd 0851 4c3d
00000270: 4755 093d 547f edbc abb9 823d 5c59 b8bd
00000280: 0afe 18bd ed4e 48bd 0172 e7bd fcc3 0d3d
00000290: 59a7 81bd 4a6f b6bd 0174 febd da67 e5bd
000002a0: 22be 063e a8de 833d c5ff ea3b 311c 97bd
000002b0: ee21 003e 413b b1bd a5c5 07be 8ee5 35bd
000002c0: c831 10bd badf fcbd 5fe7 f33d a65d d73d
000002d0: 3ae4 28bd dead 89bd a4aa be3d 7a98 5e3c
000002e0: f054 d83d e17d dabc 4cfc a9bd ebcd 86bd
000002f0: f194 97bd 8688 03bd f627 f6ba 12e7 a2bc
00000300: fb1c ae3d 5f12 b93c 7375 053e 3931 b8bd
00000310: 1a4d 283e 6c49 a93d 65a4 f4bd aae5 113e
00000320: ad6b 923d 162a b83d b307 2a3d f5ad b23d
00000330: af8b 0dbd d389 febd 9c67 7abd 8ccd 19be
00000340: 24b9 80bd 6701 77bd c2e6 8c3d c191 72bd
00000350: f643 c13c 7acf 123e 42a2 b7bd 7f31 0d3e
00000360: 6a5e 953d 0dcb b73d f1f2 9abd 45ad 833a
00000370: be95 7a3c 98d9 ecbc 7151 81bd 63cb 9dbb
00000380: daf7 86bc 572a 283c f447 5f3d ae4f febd
00000390: bc73 d93c 3134 8c3d 1980 e73d c895 e83d
000003a0: 4dc8 063c 6fc3 1b3c 9a7d 0a3e c408 33bd
000003b0: c2be ab3d c787 55bd c906 903d f2a5 983c
000003c0: f1d2 cb3d e33f d0bc 42e1 24be 2ed4 07be
000003d0: 830e 213e b83d 683d f815 09be 854b ab3b
000003e0: 55d8 5ebc 8f83 22be 4615 c93d 66a9 dabd
000003f0: dccf 7d3d 5d89 84bd 4765 eebd 4be2 9abc
0.11069842 0.085438065 -0.016177671 0.050751153 -0.05054952 -0.05852375 -0.15603586 0.16644418
-0.085212685 -0.115806006 0.015563152 0.11164072 0.015249899 0.0765416 0.07260692 -0.101374164
-0.120931044 -0.012411857 -0.10845692 0.05716228 0.03442932 -0.02407324 0.07382923 -0.05386479
0.09493602 0.07800371 -0.102788486 -0.031457376 0.08328664 0.1529786 -0.111725196 0.11236134
-0.16001447 -0.05105543 -0.008550166 0.041014142 0.09134003 -0.01853936 0.00059826113 0.14288029
-0.035146598 -0.09280844 0.07809444 0.029438987 -0.06290035 0.11409887 0.16032887 0.072868265
0.13314466 0.06648002 0.04935593 -0.12512615 0.13764845 -0.030848095 -0.055678762 -0.052961893
-0.057710987 0.03498653 -0.07367162 0.0718912 -0.16958275 -0.10652599 0.08468793 0.0831184
-0.13771372 -0.10505583 -0.094531275 -0.005929625 -0.066125326 0.044127252 -0.09192054 0.03256513
-0.11951905 -0.054796074 -0.10795981 -0.09126478 0.10176287 0.07741294 0.08040502 -0.060377683
-0.062014222 0.107020035 0.107588574 -0.050821736 0.07588947 0.11827251 0.007799745 -0.14368945
-0.09660393 0.060731962 -0.015381481 0.031736206 0.115960196 0.07287135 0.06644913 0.031899847
0.083161384 -0.09756103 -0.06856854 0.010170118 0.11242376 0.07265098 -0.025663758 -0.12374784
0.04552571 0.0007888565 0.05168269 -0.027506417 -0.09875968 -0.04065722 0.043663345 0.07305888
-0.15861237 -0.06403596 0.03110175 -0.0434926 -0.107812 -0.1525597 -0.039394625 -0.057800464
-0.08018392 0.10042452 -0.13431372 0.042398654 0.12156446 0.11934479 -0.027132753 -0.02774653
-0.030739594 -0.08845274 0.044863768 -0.09172638 -0.04910875 -0.07401443 0.01603918 0.059207078
-0.0761281 -0.009234141 0.041093286 -0.023618748 -0.015205083 0.025227409 0.007863099 -0.034321826
-0.10450847 0.08847711 0.09175327 0.039124776 -0.002690188 -0.0969965 -0.088282816 -0.12313399
-0.09030673 -0.16518936 -0.0971023 0.049881965 0.033528592 -0.028991379 0.063830696 -0.09001419
-0.037351646 -0.048903394 -0.113010414 0.034610733 -0.06330747 -0.089079455 -0.1242447 -0.11201449
0.13158467 0.06438953 0.0071716034 -0.07378424 0.12512943 -0.0865388 -0.13258989 -0.044408374
-0.035203725 -0.1234736 0.11909365 0.10515909 -0.04123328 -0.06722616 0.09309891 0.013586158
0.105630755 -0.026671352 -0.08300075 -0.065822445 -0.07401455 -0.03211262 -0.001878022 -0.019885574
0.08501621 0.022591768 0.13033085 -0.089937635 0.16435662 0.08265957 -0.11945418 0.14247766
0.07149444 0.08992402 0.04151125 0.08724586 -0.03455704 -0.12428632 -0.061133966 -0.15019816
-0.06285313 -0.06030407 0.06879951 -0.059221033 0.023591977 0.14336959 -0.08966495 0.13788413
0.07293399 0.08974276 -0.07565869 0.0010046145 0.01529449 -0.02891235 -0.06314362 -0.0048155054
-0.016475607 0.010264001 0.05451198 -0.124175414 0.026544444 0.06845892 0.113037296 0.113566935
0.008226466 0.009507044 0.13524476 -0.04370953 0.083859935 -0.05213144 0.07032544 0.018633816
0.09952343 -0.025421089 -0.16101554 -0.13264534 0.15728192 0.056699485 -0.13387287 0.0052275085
-0.013601382 -0.15870498 0.09818511 -0.106768414 0.06196581 -0.064715125 -0.11640411 -0.018906733

net.3.lin2.bias f4 [64]
00000000: 44df 1e3d c932 fe3c f232 96bd 6bf7 6ebd
00000010: bcc8 b93d b7c0 d4bd 1944 cfbd 7061 e2bc
00000020: f78a 1fbe a4a9 eebd 252a eb3b 6fe0 0f3e
00000030: c82f 7cbd dba3 fd3d aa58 06be e5ed c5bd
00000040: 7da7 b63d 6fd3 173e b5f0 40bd 6f18 423d
00000050: e4e0 0d3d ae50 003d 7bab 3b3d f54f e53d
00000060: 4f1c b93d a159 a93d dbee 013e 6aa4 57bd
00000070: f7f2 52bd 07be 863c 72ed 603d 1574 813d
00000080: 6a63 acbc 749b aabd 3bc1 9bbd 90f8 73bd
00000090: 6c71 313d ec00 9a3d de76 9e3c 9d4e 1fbe
000000a0: 88cf d2bd 9ac6 d7bc 5151 d33d 539b dabd
000000b0: b66d 803d 00ff c438 efa9 a33d ec0b a2bc
000000c0: 15f6 173e be29 1dbe 3476 68bd dca3 c13a
000000d0: d3a0 e23d ea46 0e3d 5099 5c3c 532d 633c
000000e0: e0e8 a43d b538 0cbe 8ea9 acbd 27aa a23c
000000f0: 8403 6ebc cc24 2fbe 59f7 213d 0116 e3bd
0.03878714 0.031030076 -0.07333936 -0.058341425 0.0907149 -0.1038832 -0.101204105 -0.027634352
-0.15580355 -0.1165345 0.007176655 0.14050458 -0.061569005 0.123847686 -0.1311976 -0.096645154
0.089186646 0.1482675 -0.047104556 0.047386583 0.0346383 0.031326942 0.045817833 0.11196891
0.090386026 0.082690485 0.12688772 -0.05264703 -0.05150124 0.016448034 0.054913945 0.06320969
-0.021043498 -0.083304316 -0.07605215 -0.05956322 0.04332106 0.07519707 0.01934379 -0.15557332
-0.1029349 -0.026339818 0.10318244 -0.10674157 0.06270926 9.393506e-05 0.07991397 -0.019781075
0.14839967 -0.15347955 -0.056753352 0.0014773565 0.11065831 0.034735598 0.013464287 0.013865787
0.0805223 -0.13693507 -0.084307775 0.019856526 -0.014527205 -0.1710388 0.03954253 -0.11088181

net.4.lin1.weight f4 [64, 64]
00000000: 3df0 453c 1660 c33c fe3a 9d3c 9684 a93d
00000010: 175d 18be 6d08 a33d cfe7 083e 0ad5 15be
00000020: 4d2d e53d d853 e23d 6965 9c3d b271 863d
00000030: 95bb fb3c efe3 2cbe d8c9 2d3e 6440 763d
00000040: e53f 1abe 12f6 cfbd e079 443d a0d4 1ebe
00000050: 4a26 71bc 00a4 803d a74a 993d 88fd 18be
00000060: 9965 ca3b 7054 c1b9 b2da f03b f721 21be
00000070: 15f5 043c 5a7b 23be d0c6 5a3d ca01 35bc
00000080: 5435 8c3d 3374 2fbc 3375 2b3d c770 df3d
00000090: 6238 2ebe 0fa2 9d3c c163 72bd db71 e6bd
000000a0: 97cc 2b3e ec43 42bd 4e06 e4bd 6720 52bd
000000b0: aa81 83bd 816e 363d cda9 38bd 04eb ae3d
000000c0: 4cc1 01bd 2e81 e83d 4ea2 63bd 1c47 2c3d
000000d0: ac6a 173c 25ee cb3d b01f e0bd fdd1 d2bd
000000e0: 0bd4 7cbd 2f62 1f3e fa76 9bbd b539 1ebc
000000f0: 610b 86bc fe12 123e 8d4b c83c a070 fa3b
00000100: 6d57 63bd 27f4 0a3e 5a51 8e3d 8c7c 83bd
00000110: 4798 eb3d c2fe c7bc 57e8 9b3d c9e8 dcbc
00000120: 5ab8 d8bd 6eca a9bd d054 c3bc f0d3 28bd
00000130: 70e2 b4bd a84c 9cbc 0351 29bd d157 b6bd
00000140: 234b 0dbd cbcd ddbc 62d7 e3bd 33a3 843d
00000150: a478 a03d 58bf 98bd e976 c1bc 010c 7dbd
00000160: 30a4 c43d 00e0 94bd a6fb b4bd a11c ec3d
00000170: 258a bcbd df61 b4bd 307b d3bd 4663 0c3e
00000180: ba96 013e d57c b53d 5fcc b83d cbb0 3c3d
00000190: 7c2f 243d 8311 1e3e eb77 d43c da37 c03c
000001a0: a6fd e63d dd61 3c3d fb8d 1dbd 7490 b7bd
000001b0: 2091 b4bd 7c65 8ebd 2320 973b dc65 dc3d
000001c0: 7b24 8e3d 166c f5bd aa15 033b 5695 23bd
000001d0: ad48 55bd b70d bebd aa5b 823c 248f d53c
000001e0: 99ad eb3d 36d9 91bd dd51 933d 505c 98bd
000001f0: 6cc2 06bc 7f73 99bd 19f1 1a3e beeb f9bd
00000200: dec8 e73d 1ca2 04be e335 a53c a86a 4f3d
00000210: 4715 46bd 4412 b9ba 2e4c 81bd f832 2f3d
00000220: 13b5 5a3d d11a c73b aa9a cbbd 31f2 873c
00000230: 66f8 6b3d d49d ddbb e2f3 1fbd be7c ab3d
00000240: 3093 18be 1031 fe3c 2f13 433d ae32 43bd
00000250: f4a8 fdbd 1a5b 6fbd 68a8 b2bd aab3 2c3d
00000260: fcdd 1b3d ebe3 22be 4b6f 06be f0b1 b2bd
00000270: 92ff 3dbc 1ded 29be 9cf4 483d 7a57 8bbd
00000280: 1f86 013b 85f2 92bd efc8 613d e1d3 913d
00000290: 5c65 9b3c d905 e6bb 6861 a2bd 3003 c33d
000002a0: a61d e13d 683c 5c3d 7be4 8cbc 8f8d 423d
000002b0: 56a6 91bd 1619 1e3e fff9 ecbd 28a4 b9bc
000002c0: 0d69 123d c9e3 6f3d 60cf 59bd 09e4 623c
000002d0: 7759 39be 7e55 0c3e a10c 9c3a 7361 5e3c
000002e0: 58df 8a3d c021 dbbc 81c3 3ebd 1f66 34bd
000002f0: 0a02 60bc d942 313e 8fda 9bbd db62 6dbd
00000300: 0be5 7ebd b307 47bb b1e6 f7bd 8ce5 af3d
00000310: bca4 0ebb fb90 a53c 644c fe3d e228 8c3d
00000320: d4d9 f3bd 5c64 b9bd ee80 ebbc 962b c9bd
00000330: 79ee df3d d2ab 063d 490a ff3d bcf7 88bd
00000340: 9eb8 183c 638f f33d 6bc6 aabd 284f fe3d
00000350: f37e bb3c 89d1 c1bd 0d78 8d3d c8b2 80bc
00000360: f5bf 13bd 5936 a9bd 86c4 7f3d 568b cebd
00000370: 3816 183e a1ff c5bc 1b6f babc 0fc5 f23c
00000380: 1ca0 2bbd e4ae 043d 1f35 c3bd 9a32 aebd
00000390: 9072 b03d 34c5 18bd babd 043e 691d 07bd
000003a0: 8087 53bd f942 82bd a3f2 843d 5bf6 c53d
000003b0: d613 9f3d 1074 ebbd e369 bf3d 3dcb 18bd
000003c0: 5761 88bd aaf0 143b 3bdc 093e a771 2c3d
000003d0: f621 d73d 7cbc 003e b4da de3d 5f74 84bd
000003e0: ccda bb3d 96a1 cc3d 7baf 5b3d 9c6b 913d
000003f0: 5879 c5bd c60a c63c 5660 893d 927f 89bd
0.012081203 0.023849528 0.019193169 0.08277242 -0.14879261 0.079605915 0.13369678 -0.14632049
0.11190281 0.11051148 0.0763653 0.065646544 0.030729095 -0.16883825 0.16971529 0.06012
-0.15063436 -0.10154356 0.04796779 -0.15510798 -0.0147186015 0.062812805 0.07484942 -0.14940464
0.006176662 -0.0003687474 0.0073502893 -0.15735613 0.008115073 -0.15965024 0.05341226 -0.01104779
0.06846109 -0.010708856 0.041859817 0.109101824 -0.17013696 0.019242315 -0.059177164 -0.11252185
0.16777264 -0.047428057 -0.11134015 -0.051300433 -0.06421216 0.04453898 -0.04508381 0.085409194
-0.031678483 0.11352764 -0.055574708 0.042060003 0.009241741 0.09957532 -0.10943544 -0.10293958
-0.061725657 0.15564798 -0.07591052 -0.009657313 -0.016362848 0.14265057 0.024450088 0.0076428205
-0.055503298 0.13569699 0.0694911 -0.0642024 0.11503654 -0.02441347 0.07612675 -0.02696647
-0.10582037 -0.082905635 -0.023844153 -0.041217744 -0.08832252 -0.019079521 -0.041337024 -0.089034684
-0.034495484 -0.027075669 -0.111250654 0.0647644 0.078355104 -0.07458371 -0.023616271 -0.061779026
0.09601629 -0.07269287 -0.08837061 0.11528898 -0.092060365 -0.0880773 -0.103262305 0.13709745
0.12655154 0.088617004 0.09023356 0.04606704 0.040084347 0.15436368 0.025936088 0.023464132
0.11278848 0.045991767 -0.03846548 -0.08963099 -0.08816743 -0.0695295 0.0046119853 0.10761616
0.06940552 -0.119835064 0.0020001926 -0.03993734 -0.052071262 -0.0927996 0.01591285 0.026069231
0.115077205 -0.07121508 0.071933486 -0.07439482 -0.008225065 -0.07492732 0.15131034 -0.122031674
0.11317609 -0.12952465 0.020167297 0.050638825 -0.048360135 -0.0014119823 -0.06313358 0.042773217
0.053395342 0.006076195 -0.09941609 0.016594978 0.057609938 -0.0067631993 -0.039050944 0.08373402
-0.14899898 0.031029254 0.047625717 -0.047655754 -0.12385741 -0.05843649 -0.08723527 0.04216353
0.038053498 -0.15907256 -0.13128392 -0.08725345 -0.011596577 -0.16594358 0.049061403 -0.06803794
0.001976378 -0.07175163 0.055123266 0.07120491 0.01896923 -0.00701974 -0.07928735 0.09522092
0.10991983 0.053768545 -0.017198792 0.047498282 -0.07111804 0.15439257 -0.115711205 -0.022661284
0.035744715 0.058566842 -0.053176284 0.013848313 -0.18100534 0.13704488 0.0011905619 0.013573038
0.06780881 -0.026749492 -0.046573166 -0.044042703 -0.013672361 0.17310657 -0.07610046 -0.057955604
-0.06223015 -0.003036958 -0.12104548 0.085887045 -0.002176567 0.020210734 0.12416914 0.06843735
-0.11906782 -0.09052345 -0.028748002 -0.098227665 0.10934157 0.032878704 0.124531336 -0.066878766
0.00932136 0.11892583 -0.083386265 0.124174416 0.022887683 -0.09463794 0.069076635 -0.01571025
-0.036071736 -0.08262319 0.06244328 -0.1008517 0.14852226 -0.024169745 -0.022758057 0.02963498
-0.04190074 0.03239335 -0.095316164 -0.08505745 0.08615601 -0.037297443 0.12963 -0.032987032
-0.051642895 -0.0636043 0.06491592 0.09666129 0.07767455 -0.114967465 0.09346368 -0.037303198
-0.06659191 0.0022726455 0.13462918 0.042100575 0.105045244 0.12571901 0.10881558 -0.064675085
0.091725916 0.099917576 0.053634148 0.07100603 -0.09642285 0.024175059 0.06707828 -0.06713785

net.4.lin1.bias f4 [64]
00000000: 324c 77bd 5933 d7bd 0663 d7bd 1067 c8bd
00000010: 8604 e3bd 9ee2 853c 4e4a fdbd 2e90 95bd
00000020: a1b6 0a3e 8072 1e3e 8d95 5c3d 594d d03d
00000030: b581 083d 9135 f83c a653 01be 161f 07be
00000040: aa9b bcbb fed2 0bbe d97d 0a3e ca98 28bc
00000050: 5d91 623d afeb 98bd cb4c 313e bbc0 38bc
00000060: 8845 e7bc 5fe8 783d cca4 7fbd 4350 05be
00000070: 051e 2ebe 20c7 27bd 9214 14bd dc73 033e
00000080: eaac 88bc d17b 88bd 3872 aa3c 5851 8f3d
00000090: b3d9 78bd e88d bb3c 59e3 d83d 4228 c83d
000000a0: c062 053e 0689 763d 4daa 403d 0a4d 213e
000000b0: 7654 85bd c2de 233e fa2d 26be fb8c 483d
000000c0: 2c04 443d 8e85 8ebd 94c4 3f3c 0071 cfba
000000d0: 41f0 08be 248d aabd 38c8 f43d fc90 0c3e
000000e0: 12e1 d7bd 3f4a 86bd 0589 b33c 84a3 863d
000000f0: 1c04 8d3d bc56 0d3e 69df 0ebe 5fb9 0d3e
-0.0603754 -0.10507841 -0.10516934 -0.097852826 -0.11084847 0.016343411 -0.12367688 -0.07302891
0.1354623 0.15473366 0.05385356 0.10171003 0.033326823 0.03029898 -0.12629566 -0.13195452
-0.0057558613 -0.13654706 0.1352457 -0.010290334 0.05531441 -0.07466828 0.1731445 -0.011276419
-0.028231397 0.06076848 -0.062413022 -0.13018899 -0.17003639 -0.040961385 -0.03615243 0.12837166
-0.016684014 -0.06664241 0.020806417 0.06997937 -0.06075449 0.022894815 0.10590238 0.097733036
0.13025951 0.06018927 0.04703741 0.15752044 -0.0651025 0.16002944 -0.16228476 0.048962574
0.04785554 -0.06959067 0.011704583 -0.0015826523 -0.133729 -0.08327702 0.11952251 0.13727182
-0.10540976 -0.0655713 0.021915922 0.06574157 0.068855494 0.13802618 -0.13952412 0.13840245
