data/trained_models/base_cp_a_resnet.pth (torch, 201882 bytes, 15 tensors)

net.0.weight f4 [64, 374]
00000000: 087c 87bc d6c5 8b3c 764a c93c eaac 673b
00000010: d9d8 a1bb 19a0 ba3c 8ad0 52bd 978f 9dbc
00000020: 1d39 49bd 68a4 12bc 3807 703b e4d7 56bd
00000030: fdb3 0a3d 7b30 62bd b78d 4f3c 4079 00bd
00000040: 3b2a b8bc 00bf 363b ecb7 443c df39 113c
00000050: 19aa bcbb 04cb f63a b21a e93c 4e20 0abd
00000060: b5fa e4bb 72a1 aa3c 888a 4bbd adfe 79bd
00000070: e070 cfbb bb7f 493d edad 483d dd16 103d
00000080: bfd7 593d 6233 92bd 8de2 e5bc 0a19 81bc
00000090: 99ed eebc a83c 12bd 2743 00bd 3eaa a8bc
000000a0: 488d f7bc d4c1 91bd c0ce 153d 45b5 3dbd
000000b0: 8e11 9bbc 413d 3d3d d68d e03c a9d0 4d3d
000000c0: c1fb 78bd 7cc1 763c 38dc 053c 0f9c 7ebc
000000d0: 0dfd 823c 1577 8bbd 41f6 73bc e470 ef3a
000000e0: 3029 8fbd a785 c83c 8c3d 63bc 554a 353d
000000f0: dbd8 163d ee58 eebc df5d 7a3b 24a0 3cbd
00000100: a7ec 53bd ddc5 08bd abf0 d3bc 736a c7bc
00000110: b893 10bb a817 42bd 3424 df3c 1b8c b93c
00000120: 57ad 20bc 73a0 c1bc bc69 49bb 7823 4c3c
00000130: b754 0dbc 4dd0 4b3c e8f7 73bc 44d6 0f3c
00000140: 64c5 08bc 84b9 08bd 68d4 1dbd 2762 00bd
00000150: e03c 56bc c56b d73c 9ce2 89bd df92 eebb
00000160: 1ca1 15bc 17c3 39bd 88fb 8a3a e82a 7f3c
00000170: 240e 35bd f6e5 92bc 2dde 503d 4c78 d9bb
00000180: d0f7 cd3b 58fb c4bc c05c 49bd 94d0 c43c
00000190: 8dc7 87bd 1e3d 843c a886 22bd 96e4 87bc
000001a0: 3446 5c3b 673c 6cbd a9ee 5abd f0bd a53c
000001b0: 7e72 cd3c 0886 30bb a742 ad3c 2c74 fbbc
000001c0: 32ec 1abd 2cbb f73b 26f2 da3c a739 f4bc
000001d0: e807 c839 b68c 3a3b 14b4 043c 97f3 0f3c
000001e0: fb24 6ebd df7f 28bd 24c3 dbbb a074 683c
000001f0: d94c 49bd 826c d63c caf7 d63c d35d 343d
00000200: 03a5 69bd e810 b23b 76a0 a33c 9e47 4cbd
00000210: fdc3 80bd e5c1 f5bc 766c 9b3c b5bd 44bd
00000220: 881f f8bc c07e d5bc 045c 8abd 3ec6 a53c
00000230: d6e2 973a c893 f03c 45ac 08bd 197d 4cbd
00000240: 4097 a0bc 0322 cc3c 63a1 133d 5b5d 35bd
00000250: 6479 a93c b757 103d e006 6b3c eb64 023d
00000260: 2941 4dbd 0568 8dbd 2b2c f0bc 3809 48bd
00000270: cfdd 7abd 3900 3dbc 8b2e 363d 2773 323d
00000280: 86f9 1cbd e039 aa3b 8c66 ccbc c1b1 37bd
00000290: 118a c03c 09b3 c3bc f2c3 b83c 9ae4 bcbc
000002a0: d82b 693c e003 06bd 4ba9 523d 34d1 90bc
000002b0: 2838 593c 1c90 65bc d04c 783c 7d0b 38bd
000002c0: ae2d 36bd 4a04 cebc 127d 23bd 1326 b5bc
000002d0: 6ccf 443c f49a ed3b ebe3 1d3d cbb7 cbbb
000002e0: 557c 4b3d bc42 53bc 11b9 f9bc 422a b03c
000002f0: 6218 18bd cb59 46bd fb1f ebbc 9467 3fbc
00000300: e03c 7d3c 42c8 983c 1b35 453d c0c8 aa3b
00000310: e089 613c f24c f53c bfd4 c53c fe62 1a3c
00000320: 74d6 bfbc fa89 08bb 253e 6cbd d59c 623b
00000330: 04f3 a83c d5c8 f63c 9a77 323d 2d67 96bd
00000340: eb2b 5dbd 7c62 76bd 7bf3 253c 5c35 df3a
00000350: fc67 37bd b662 dbbb 0000 a1bb 5614 7bbc
00000360: aa53 f43c 01e1 683d e535 4cbd ebb4 72bd
00000370: c1d1 05bd 329b 693c 0480 19bc 29d6 57bc
00000380: 38a9 d3bb 1a5c f13c 3698 c7bc b4af 4fbd
00000390: 6ca6 17bd 3076 50bd 0915 3cbc 4315 e43c
000003a0: 975e f3bc 6e0e ffba 0609 9a3c cbf8 5dbc
000003b0: 3a44 843c 3c4c 82bd 370e bdbc 181c 21bd
000003c0: ac61 b53c c1be 203d b4d3 bebc a7ab 01bd
000003d0: 15d1 67bd d1cf 58bd 94bc 78bd d4f5 ef3b
000003e0: 7197 473d d8c4 9bbb c547 87bd 27e1 e0bc
000003f0: 3611 87bc 1fd8 863d 10f3 60bc 0478 a4bc
-0.016538635 0.017062109 0.024571639 0.0035350868 -0.0049391803 0.022781419 -0.05146841 -0.019233508
-0.049126733 -0.00895033 0.0036625396 -0.052451983 0.033863056 -0.055222016 0.012668065 -0.031365633
-0.022481075 0.002788484 0.012006741 0.008863895 -0.005757582 0.0018828814 0.028455112 -0.033722214
-0.0069878944 0.020828936 -0.04969266 -0.061033893 -0.0063305944 0.04919408 0.048993994 0.035178054
0.053184267 -0.07138707 -0.02806213 -0.01575901 -0.02916603 -0.035702378 -0.03131404 -0.02058899
-0.030218735 -0.07117048 0.036574125 -0.04631545 -0.01892927 0.046200994 0.027411383 0.050247822
-0.060786966 0.015060779 0.00817018 -0.015540137 0.015989805 -0.068098225 -0.0148902545 0.0018267897
-0.06990278 0.024477793 -0.013869654 0.04426034 0.036827903 -0.02909514 0.0038202924 -0.04605116
-0.05173936 -0.033391822 -0.025871595 -0.024342751 -0.0022060703 -0.04738584 0.027238943 0.022649815
-0.009806952 -0.023636078 -0.0030733189 0.012459628 -0.008626155 0.0124397995 -0.014890648 0.008779112
-0.008347843 -0.033380046 -0.038532645 -0.031343605 -0.013076037 0.026296506 -0.067326754 -0.007280692
-0.00913265 -0.045352068 0.0010603527 0.0155741945 -0.04420294 -0.01793192 0.050993133 -0.006636655
0.006285645 -0.024045631 -0.04916072 0.024025239 -0.06629858 0.016142424 -0.0396792 -0.01658849
0.003361118 -0.05767479 -0.05345026 0.02023217 0.025079008 -0.0026935358 0.021149946 -0.030695044
-0.03782291 0.0075601544 0.026726793 -0.029812647 0.00038152863 0.0028465218 0.008099575 0.008786104
-0.058140736 -0.041137572 -0.006706612 0.014187962 -0.049145553 0.026174787 0.026241202 0.04403479
-0.057042133 0.0054341443 0.019973975 -0.049872987 -0.06287382 -0.029999683 0.018972617 -0.04803248
-0.030288473 -0.026061416 -0.06755832 0.02023613 0.0011587988 0.029367343 -0.033367414 -0.04992399
-0.019603372 0.024918562 0.036042582 -0.044278484 0.020687766 0.0352399 0.014344901 0.031834524
-0.05011097 -0.06904606 -0.029317936 -0.048836917 -0.06124669 -0.011535698 0.04447798 0.04356685
-0.0383239 0.0051948875 -0.024951242 -0.044847254 0.023503335 -0.023889082 0.022554372 -0.023058224
0.014231645 -0.03271854 0.05143098 -0.01767788 0.013258018 -0.014011409 0.015155032 -0.04493283
-0.044477157 -0.02514853 -0.0399142 -0.022112882 0.012012344 0.007251138 0.038547438 -0.006216978
0.04967912 -0.012894329 -0.030483754 0.021504525 -0.03713263 -0.048425477 -0.028701773 -0.01168241
0.015456408 0.018650178 0.04814635 0.0052119195 0.013765782 0.029943917 0.024149297 0.009423016
-0.023417689 -0.0020834194 -0.057676453 0.0034578342 0.020623691 0.030125061 0.043571092 -0.07343898
-0.05399696 -0.060152516 0.010128851 0.0017029452 -0.0447769 -0.006695117 -0.00491333 -0.015324673
0.02982505 0.056855205 -0.049856085 -0.059254568 -0.03267074 0.014258193 -0.0093689 -0.013173618
-0.0064593814 0.029462863 -0.024364572 -0.050704673 -0.037023947 -0.050893962 -0.011479625 0.02784217
-0.02970819 -0.0019459256 0.01880313 -0.013548086 0.016145814 -0.06362197 -0.023078067 -0.039333433
0.0221413 0.039244417 -0.023294307 -0.03165784 -0.05659588 -0.052932564 -0.060726717 0.007323006
0.04872841 -0.00475369 -0.06605486 -0.027451111 -0.016487699 0.065841906 -0.013729826 -0.02007676

net.0.bias f4 [64]
00000000: 35f1 7f3d 6b47 323d 6d1f d53c 26d4 413d
00000010: 0c0a 44bd 15c6 f93c 5933 e73c 3c4c 5a3d
00000020: 1e05 663c 8a35 a1bc 8ceb 3abd 56bd 913d
00000030: cc70 45bd 62cb 053d ff4d 24bb 3c7f 353b
00000040: 15b8 83bd 6a3e 98bc b398 9cba a5cc 11bd
00000050: ecca eb3b 1a88 eabb 8148 c8bc 28e7 0e3b
00000060: d8dd 9f3c ecb2 0fbd 0663 513c 631c 193d
00000070: 1379 79bd 9859 603d e706 843d f54e d2bc
00000080: 0e28 753b 3f95 383d 61b5 44bc a27e 04bd
00000090: aad6 1ebd 14dc ab3c 490d f03b 475b 8abc
000000a0: 59f0 c4bb 2e8a 1fbd 9820 793c ea43 0bbc
000000b0: af32 fd3c 4dc7 7e3d f4ed 333d 3bda 903b
000000c0: d01f b93b 3188 4e3c 3dbc 193d 66b7 4d3c
000000d0: 1702 c7bc 8aed 34bd bc87 853d 3fea 5e3d
000000e0: 30b6 7abd 6139 1cbd 711f d5bc 4dcb 62bd
000000f0: b5ca ffbb 43d5 4e3d ea2b 23bc 0aaf 02bd
0.062485892 0.04352514 0.026015962 0.04732146 -0.047861144 0.03048996 0.028222727 0.05329536
0.014039306 -0.01967885 -0.04563479 0.07116191 -0.048203275 0.032664664 -0.0025070903 0.0027694246
-0.06431595 -0.018584449 -0.0011947363 -0.035595555 0.007195821 -0.007157338 -0.024448635 0.002180526
0.019514963 -0.035082743 0.012779957 0.037380587 -0.06090648 0.054772943 0.06446629 -0.025672415
0.0037407908 0.045064207 -0.012006135 -0.03234733 -0.03877894 0.020978965 0.0073258025 -0.016889228
-0.006010097 -0.038950138 0.015205525 -0.008500079 0.030907957 0.062201787 0.0439281 0.0044205463
0.0056495443 0.012605713 0.037533034 0.012555933 -0.024292989 -0.044171847 0.0652003 0.054422613
-0.061208904 -0.03814066 -0.026015969 -0.055369664 -0.007806147 0.05049635 -0.0099592 -0.03190521

net.2.lin1.weight f4 [64, 64]
00000000: 5e59 493d 3a79 ccbc 4ee8 fc3a eef2 58bc
00000010: 412b 073e e47b a1bc 80d8 aebc 5a0e c4bc
00000020: 0f8f 793d 4479 ea3c 2f5e 363d f6b5 c93d
00000030: 67f4 a1bd abb7 843d 26c0 393c 23d3 b2bd
00000040: 9856 d2bd c9ae 123d 6db3 f6bb 07dd b73c
00000050: e9f2 78bd f36a a73c 20f3 dd3d 5c8e 9dbc
00000060: 796c 03bd 0147 fcbd 40ed 873d bf9a 81bd
00000070: 54fa b2ba 8708 213d 56e2 09bd 695a 863d
00000080: b2d4 4abd fbce 9dbc a2f7 0f3d e63d 763d
00000090: 9e63 02be a8af c93d 3ca3 3e3c 2285 52bd
000000a0: 1291 c93d fd86 c8bd 7ec6 2f3d 9223 a23d
000000b0: 348d c53d a758 e33c dc8b ce3d 1ccf babd
000000c0: e2cb 663d 470b fe3d 2b39 853d 6b1d b53c
000000d0: 8488 4fbd f513 0cbe 797e a83d 6eca 0d3d
000000e0: c1df 9f3d 3637 dfbd 32af 93bc 10d3 a7bd
000000f0: 69f7 863d fc3a 8a3d ce8f 723d 359f 633d
00000100: 32f0 e83d be93 c4b9 67dc a2bd a534 a1bc
00000110: e750 7bbc 4988 9d3c db7e 92bd c805 173d
00000120: 08c7 c13c 8631 803d 3020 08b9 7dfa adbd
00000130: 84c5 25bc aec2 8fbc cf8c cdbc c0ff 52bd
00000140: 4a5e 33bd 8854 4e3d 6355 72bd db2b 9fbd
00000150: 4463 b73d 57bf db3c 3c3c 9fbd 752f 93bd
00000160: cad6 a33c 3585 5e3d 6223 edbd c2d3 9d3d
00000170: 6cc4 9bbb 6caa 92bc b230 043e 0e85 87bd
00000180: cba5 913d e663 813d fc4b 0f3e 0ec4 e3bc
00000190: 3705 b73d 4c55 b9bd aeab 3c3d 9146 733d
000001a0: 62a6 21bd aa1b a2bd 95f5 6dbd 73ea e0bd
000001b0: 05b9 ac3c 4251 9339 5079 a4bd 4e2e 0e3d
000001c0: f179 01bb e4a2 74bc 93a7 823d 22c4 9d3d
000001d0: 0178 953c 9beb d8bd 43c9 b7bd b821 abbd
000001e0: 1c0d 97bd e5af 57bd 81e1 d3bc f761 f8bd
000001f0: ebfa a3bc 042d ccbd 63a3 ce3d ce8e 1bbd
00000200: ef07 063e 21ef cf3d 30da da3d ddb5 333d
00000210: b7b3 1abd 8bba 36bd adfb 6bbc aab3 c83d
00000220: a031 b0bd 68ed 97bd 9c77 bebd 2a7c bf3d
00000230: da58 05bc f08d 013d 436c b0bd 0a2d ad3d
00000240: 6929 203d 3a48 a4bd 61ed c13d c84a 653d
00000250: 73ec a1bd b673 53bd d5e1 67bc 3de4 a13d
00000260: 70bc 963d acb4 aabc 6f3e c8bd 9f10 0f3d
00000270: bbe6 5abd b449 e53d 9ce2 0fbd f1e8 f3bd
00000280: 676b 683d 50ef c73d f010 16bc 637e 0fbd
00000290: cb4a 783c 10cf 2cbd 55dd d53d 3d25 9cbc
000002a0: d98a 123c bf67 073d 514b 463d 2f27 e93c
000002b0: a073 943d 6bb5 5d3d 0abe c5bd 333e 92bd
000002c0: f534 453d 1cd3 b8bb 8c70 f33d ca8c dd3c
000002d0: 59ba 83bc 3848 afbd e4c8 123b a4c2 f63c
000002e0: 55d7 383b a2ff e93c 165e 003d d2c6 6c3d
000002f0: 4a40 ea3d 0c3d 5d3d a1ca ec3c 1d48 4f3d
00000300: 15bd b9bd a573 843d 0440 493b 6319 8b3d
00000310: d5b2 0abb a9e5 d13d 9c32 8b3a 80aa a636
00000320: fa7c 5a3d 2c09 28bd 389e 6dbd 2b39 1d3d
00000330: d7ff 683d 6fb8 cdbc 3f9d f03c 5606 f63d
00000340: 721b a0bd 6180 6f3d 96f8 f83d 5599 7dbb
00000350: a36c 813d f85e eb3d 6d91 44bd 7e89 a03b
00000360: 06f5 de39 d07f 623d 86c0 ce3d 5aa3 8c3c
00000370: 4db5 0a3d 0a04 3f3d 29a3 fd3b 1a8d 64bd
00000380: babf cabc 0603 263c 879c 593c eb68 aa3d
00000390: 5e4e 0abe 318a 9fbd 8fdf a83d 773a ed3d
000003a0: f5fd 433b 28e3 783c 8867 c03c ee70 89bc
000003b0: 2e61 ba3b 37e9 c13c 3304 aa3c 2410 bc3d
000003c0: fc71 073e 8cc1 3abc a35c 923c b217 643d
000003d0: 0b71 a93d 0608 cc3d 12c1 00be 768f 7abc
000003e0: 350c ccbd dacd 33bd 44e9 5fbd 7065 e03d
000003f0: ba10 92bd 4906 87bd e4e1 f93c 0027 93bd
0.049157493 -0.02496015 0.0019295306 -0.013241513 0.13200094 -0.019712396 -0.02134347 -0.023932625
0.060927447 0.028622277 0.044523414 0.098491594 -0.07907944 0.064803444 0.011337316 -0.087316774
-0.10270423 0.03581122 -0.0075287134 0.022444261 -0.060778532 0.02043674 0.10837388 -0.019232921
-0.03208587 -0.123182304 0.06637049 -0.063283436 -0.0013654926 0.039314773 -0.033663116 0.06560213
-0.04951925 -0.019263735 0.03514827 0.060117625 -0.12733313 0.09847957 0.011635598 -0.051396497
0.09842123 -0.09791372 0.042913906 0.07916941 0.09646073 0.027752234 0.1008527 -0.09121534
0.05634678 0.12404495 0.065050445 0.022108754 -0.0506673 -0.13679488 0.08227248 0.03461688
0.078063495 -0.108992025 -0.018027876 -0.08194554 0.065901585 0.067495316 0.059219174 0.055571754
0.113739386 -0.0003749411 -0.07952195 -0.019678423 -0.015339113 0.019230025 -0.07153102 0.036870748
0.023654476 0.06259446 -0.00012981961 -0.084950425 -0.010117892 -0.017548885 -0.025091557 -0.051513433
-0.043791093 0.050373584 -0.059163462 -0.07772037 0.0895448 0.026824636 -0.07775161 -0.07186786
0.01999988 0.054326255 -0.11579014 0.07706405 -0.00475364 -0.01790353 0.12909201 -0.06617175
0.071117006 0.06317882 0.1399383 -0.027803447 0.089365415 -0.09049472 0.046062164 0.05939347
-0.039465316 -0.07915433 -0.058095533 -0.10982218 0.021084318 0.00028098567 -0.08030951 0.03471213
-0.001975652 -0.014931414 0.063796185 0.07703425 0.018245699 -0.10591813 -0.089739345 -0.08356041
-0.07375547 -0.05265798 -0.025864365 -0.1212806 -0.020017108 -0.099695235 0.10089757 -0.037977986
0.13088964 0.10153032 0.10686147 0.04387461 -0.037769046 -0.044611495 -0.014403266 0.09799893
-0.08603215 -0.074183285 -0.093001574 0.09349854 -0.00813886 0.031629503 -0.08614399 0.08455856
0.03910199 -0.080215886 0.094691046 0.05597952 -0.07906427 -0.051624022 -0.014152964 0.07904861
0.0736016 -0.020838104 -0.09777533 0.03492796 -0.053442698 0.111956984 -0.03512822 -0.119096644
0.05674305 0.09762442 -0.009159312 -0.03503264 0.015154551 -0.042189658 0.10442606 -0.019060725
0.008944237 0.033057924 0.04841167 0.028461067 0.07248616 0.05412809 -0.09655388 -0.0714077
0.048146207 -0.0056404006 0.11886701 0.027044673 -0.016080068 -0.085586965 0.0022397572 0.030122109
0.002820452 0.028564278 0.031339727 0.057806797 0.114380434 0.054013297 0.028905215 0.050605882
-0.09069268 0.0646737 0.0030708322 0.067919515 -0.002116372 0.10248882 0.0010619941 4.9670343e-06
0.053341843 -0.041024372 -0.058012217 0.038384598 0.056884613 -0.025112359 0.029371856 0.12012927
-0.07817735 0.05847204 0.12156789 -0.003869613 0.06319549 0.11492723 -0.04799025 0.004899203
0.00042525696 0.055297673 0.10095315 0.017167736 0.03386431 0.04663471 0.0077403975 -0.055798627
-0.024749625 0.010132557 0.013281948 0.08320793 -0.13506457 -0.0779003 0.082457654 0.11583417
0.002990601 0.015190877 0.023486868 -0.016777482 0.0056878543 0.023670776 0.020753955 0.09182766
0.13227075 -0.011398684 0.017866438 0.05568666 0.08273514 0.09962468 -0.1257365 -0.015292993
-0.09963266 -0.043897487 -0.05466582 0.10956848 -0.071320966 -0.06592996 0.03050322 -0.07185173

net.2.lin1.bias f4 [64]
00000000: ba36 dc3c 7e7a 3fbb 508d 8f3d 796f fc3d
00000010: f817 b93b c603 293c e534 b73d 3b77 fdbd
00000020: 173b 1e3b d106 8fbd 515a ee3d 06e2 e8bd
00000030: fff7 da3c ef69 18bd a063 d5bd 0fb4 0d3d
00000040: 67e0 7c3d 09a8 29bc 5f67 8fbd 8480 1d3d
00000050: d2bf 69bb 9788 e83c d872 e43c 5b25 d43d
00000060: e4a3 013e 47ed e4bd e99f bbbd 0137 51bd
00000070: 0a5c 963d 6813 8dbc 3179 783c 8ce3 803d
00000080: 7d26 493c 75cd 07be 11c7 e4bd 6cd0 feba
00000090: 2a51 aa3d d97f 6dbd a65b 8b3d 33c9 1f3d
000000a0: 3c02 be3d 66d6 92bd 8c40 d73d d4b3 26bd
000000b0: a8db a9bb 2992 c03d 7d42 7cbd eba6 953d
000000c0: 1afd 1bbd a50a 103e 91d2 a63c 9323 c73c
000000d0: 906c 0a3e 3739 393d bb8f 3c3d d1e5 88bd
000000e0: 251f 10bd e7f6 12bd 3d71 0d3e 17f7 eabd
000000f0: 477f a0bd b97c 3a3b cadc afbd bdaf b6bd
0.026881564 -0.0029217298 0.07009375 0.12325949 0.0056486093 0.010315841 0.08945636 -0.12376257
0.0024144107 -0.06983722 0.1163832 -0.113712355 0.026729582 -0.0372104 -0.104193926 0.034595545
0.061737444 -0.010355004 -0.07002138 0.03845264 -0.0035667312 0.028385444 0.027886793 0.103586875
0.12660176 -0.111780696 -0.0916136 -0.051077846 0.07341774 -0.017221168 0.015165613 0.06293401
0.012277243 -0.1326197 -0.111707814 -0.0019440777 0.08316262 -0.057983253 0.0680459 0.039010238
0.0927777 -0.071697995 0.10510358 -0.04069884 -0.005183656 0.09402878 -0.061586846 0.07307228
-0.038083173 0.1406656 0.020364078 0.024308955 0.13517976 0.04522058 0.04603551 -0.06684459
-0.03518595 -0.035879996 0.13812728 -0.1147291 -0.07836776 0.0028455688 -0.08587034 -0.08920238

net.2.lin2.weight f4 [64, 64]
00000000: 1542 dfbc 4507 f5bd 9758 08bd a33f 6539
00000010: e794 42bc b90b bc3b beea 61bc 2065 d0bd
00000020: b541 7fbd 94a6 f63d 0ad4 17bd 207b 17bd
00000030: d82c 59bd 7dd3 a13d 4b0b 833c 5b2e bfbd
00000040: 643f a7bc 84b0 193d 546e 203d 184b aa3d
00000050: 742d d2bd 7d71 aa3d 6977 f53d d3dd e23c
00000060: cda5 113e c827 7abd 74df 133b 6a1c bf3c
00000070: b5a1 153d 126d 11be ff55 073e fdbf 003d
00000080: 1ac8 a2bd a210 c7bd 2468 37bc c6d6 04bd
00000090: 7b41 95bd d59b be3d 2d5c 0abc 3fd4 b73c
000000a0: a1e6 ee3d d573 bebc ce1d afbd 5d02 193d
000000b0: 0016 893c fe09 df3d 8a11 6fbd d923 8dbd
000000c0: 7c4f f23d c1f0 3bbd f353 2dbd 5cd8 f5bc
000000d0: c764 d83d ee18 54bd 8988 bb3d c1e7 f13d
000000e0: 8aa7 adbc 5ee5 f13c 8533 f13d 21c5 88bd
000000f0: 1791 0bbe c6b8 d73b 6e18 a1bc 1d15 a9bd
00000100: b213 083e c4fd d43d bb58 a83c aa37 a83d
00000110: d3ae cd3c ae2a d23d b1d0 4bbd e2aa b1bd
00000120: a82c 8abd d8b9 873d ae11 b93d 6ac4 8dbd
00000130: ea5b e3bd 0bc6 30bd 478f 24bd 8ef4 143d
00000140: ad54 b23d 49db d1bd 4ee6 f9bc 28cd e13d
00000150: f1de 4f3c 414a 0d3e fca0 97bd 4646 aa3d
00000160: 71c3 a2bd b590 cfbc 1a70 89bc caaa d5bd
00000170: f8c9 f83c 0549 72bc 5640 273d 671c ad3d
00000180: 2ac9 aa3d 2ec2 88bd c16b bd3d e778 bdbd
00000190: e720 3d3d 603b 973c 2fd5 bc3b 1cb9 b43d
000001a0: 1ed9 a03c e621 98bb 4e33 58bd 650b ac3d
000001b0: 8bc2 65bd 9f51 96bd b3b8 b3bb 1201 e33d
000001c0: 08bb ab3d d8f3 963d 774f 0d3d 892f 5a3d
000001d0: 293e 33bc 092d 103b 8019 d63d fd1d 113e
000001e0: 0934 b13d 99cf a63d d262 863b 4ea9 98bd
000001f0: b48a 033d 4e7a 77ba a432 d53d ba7f 8cbc
00000200: 72c4 863b 5d03 893d 44f7 eabd f019 8b3d
00000210: 1e6a b0bd 77dc bd3c ba03 a4bd a30f bdbd
00000220: e5f4 623c 38e8 23bd ccdc e8bd 8318 95bd
00000230: a82c c1bc 7cb2 303d 3538 d1bd 82e4 f73b
00000240: 374c 57bd bb77 d93d f1f8 9bbd 344d ff3c
00000250: b0d4 29bd d096 d7bd a6a7 7fba 96ac c63d
00000260: c9f3 89bd e256 ac3d 4888 a03c e10c a3bd
00000270: 9f8e 2d3c fd37 633d aaa9 ce3c 1588 f13d
00000280: 0483 7a3c 7630 0cbd 32db d0bd 89d4 bcbd
00000290: 0c9e 2f3c 4afe 053e a5d9 cfbb 8b93 fabd
000002a0: 5cf0 0bbd cc46 febc 75f9 97bd e7ca e63d
000002b0: 5221 9b3d e676 9fbc c9a2 d6bd 37bb 833d
000002c0: 00b6 a43d 871f b4bd cefb fa3c 8354 ed3c
000002d0: c916 f13d 6535 eabd 66fb 783d ed5d 54bb
000002e0: 53e4 c6bd cabb c33d f0fe 9d3d 256d 843d
000002f0: bc43 48bd f8f9 d73d f414 98bc 7114 60bd
00000300: 0752 cfbd 9e98 1c3c 1b3c fa3d 74ce 7dbd
00000310: f810 e43d 48b1 97bc bbab f13d cf22 d3bd
00000320: f17c 0dbe 6d86 333d 6460 5a3d 96dc 963c
00000330: 7e3a 67bc 179f 96bd c888 a0bd 34f7 0e3d
00000340: 8d7c e63c 5639 073d e1a9 313c aff2 0fbc
00000350: ae0f 7cbd d7b4 98bd a682 7dbd 0fed c1bd
00000360: 0ad7 053e 9534 c0bd 8375 8bbd f520 723c
00000370: 05ee 13bd 0152 90bd 1fb2 ff3d dd9d 11bd
00000380: 3565 013e cc9b 983d 965e ba3d 0653 803c
00000390: cfe1 013e b4fc f03b 6f80 2e3d 9d45 203d
000003a0: fc5c b4bd ac26 9bbd 0513 76bd 7673 083c
000003b0: db50 d93c 882e c7bd d210 d6bd f132 82bd
000003c0: 3b4a 8ebd 90d0 5b3d acfa 963d 46b3 413d
000003d0: bd98 0abd 42d1 0e3e 6581 333d b703 873d
000003e0: 68f5 323d cea8 0c3c d6cc 7b3d b62b 06bd
000003f0: f952 00be 8754 0dbd d58b ecbd 0894 a23c
-0.02725319 -0.11964277 -0.03328761 0.00021862848 -0.011876321 0.005738702 -0.013788877 -0.10175538
-0.062318522 0.12043491 -0.03706745 -0.036982656 -0.053021282 0.07901666 0.015996596 -0.093350135
-0.02041597 0.037521854 0.039167717 0.08315104 -0.10262576 0.083224274 0.11985666 0.027693665
0.14223404 -0.061073095 0.0022563608 0.023328979 0.03653117 -0.14201763 0.13216399 0.031433094
-0.079483226 -0.09719969 -0.011194263 -0.032431386 -0.0728788 0.09307066 -0.008444828 0.022440074
0.11665083 -0.023248592 -0.08550607 0.03735577 0.016734123 0.10890578 -0.058366336 -0.06891603
0.11831567 -0.045883898 -0.04231639 -0.030010395 0.10566097 -0.051781587 0.091569014 0.11811782
-0.021198053 0.029528316 0.11777405 -0.06678224 -0.13629566 0.006583306 -0.01966497 -0.0825598
0.13288763 0.103999645 0.020550122 0.08213742 0.025107777 0.10262047 -0.04975957 -0.086751714
-0.06746799 0.06627244 0.09036575 -0.06922229 -0.111015156 -0.04315762 -0.040175702 0.036366038
0.08707557 -0.102469034 -0.030505326 0.110254586 0.012687431 0.13797857 -0.07403752 0.08314185
-0.07947434 -0.025337556 -0.016777087 -0.10432966 0.030369744 -0.014787917 0.04083284 0.08452683
0.0833915 -0.06677662 0.09249068 -0.09251576 0.046173956 0.01846093 0.005762718 0.08824369
0.01963478 -0.004642713 -0.052783303 0.08400611 -0.056093734 -0.07339787 -0.0054846643 0.110841885
0.08385283 0.07370728 0.03449961 0.05326799 -0.010940113 0.00219995 0.104540825 0.14171596
0.08652503 0.08145065 0.004101136 -0.07454167 0.0321147 -0.0009440527 0.104100496 -0.017150749
0.0041127736 0.066900946 -0.114729434 0.067920566 -0.0861399 0.023176415 -0.08008523 -0.09231498
0.013852333 -0.040016383 -0.11370239 -0.07280066 -0.023580864 0.043138966 -0.10215799 0.007565082
-0.05256292 0.1061854 -0.07615841 0.031164743 -0.0414626 -0.10526812 -0.00097524596 0.09700887
-0.067359515 0.08415009 0.019596234 -0.07961441 0.010593086 0.055473316 0.025227387 0.11793534
0.015290026 -0.034225903 -0.10198058 -0.09220225 0.010718834 0.13085285 -0.006343084 -0.12235173
-0.03416477 -0.031039618 -0.07420627 0.11269169 0.07574715 -0.019465875 -0.104802676 0.06432193
0.08042526 -0.08795076 0.030637648 0.028970962 0.11771924 -0.114359654 0.060786627 -0.0032404617
-0.09711518 0.09557302 0.07714641 0.0646613 -0.04889272 0.10545725 -0.018564679 -0.054706994
-0.10123067 0.009557871 0.122184955 -0.061964467 0.11136049 -0.018517151 0.11800333 -0.103093736
-0.13817193 0.04382937 0.05331458 0.01841573 -0.014113067 -0.07354563 -0.07838589 0.03490372
0.028135562 0.033013664 0.010843725 -0.008785888 -0.06153839 -0.074563675 -0.061892174 -0.094690435
0.13070312 -0.09385029 -0.06809523 0.014778365 -0.036115665 -0.07046891 0.12485146 -0.03555094
0.12636264 0.07451591 0.09100072 0.015664589 0.12683795 0.0073543433 0.042602953 0.03912889
-0.08806798 -0.075757354 -0.060076732 0.008328309 0.026527813 -0.09725672 -0.10452427 -0.063573726
-0.06947752 0.053665698 0.073720306 0.04729011 -0.03383707 0.13947013 0.043824572 0.065925054
0.04369107 0.008585168 0.061474644 -0.03275653 -0.12531652 -0.03450444 -0.11550108 0.019845977

net.2.lin2.bias f4 [64]
00000000: 2b80 163e 26e3 f6bc dfc3 df3d e0d4 a0bd
00000010: 77ef 0a3d 8533 0d3d 9ac1 11bd a7d2 0d3d
00000020: 0155 c43d f027 d43d 3c0e 323d da9a c7bd
00000030: 879e 8b3c b8f7 3dbc b298 363d ab35 91bc
00000040: ba94 9dbd ea92 563c 32b1 0e3e 03b1 3f3d
00000050: 7d73 6939 cfb1 373b 70d6 823d 7865 883d
00000060: f858 c63d a0e0 debd 5b74 013d 11c8 12be
00000070: 0cc1 ed3d af63 293d ce7b 0a3e 438b 413d
00000080: cbe8 11bb 7a1a 973d e2d7 8fbd 2c3c a6bd
00000090: cd2a 0abe 8703 283c f2eb 08be 3b9c af3d
000000a0: 9ba5 cf3d 9383 ae3d cab9 4fbb 6a57 88bd
000000b0: cc9f 93bd 4a97 2d3d 9f24 0e3e d4f0 d33d
000000c0: ba54 ed3d 2ed8 823d 5d73 7b3d 3bdd 99bd
000000d0: 3839 063c a7d5 51bc ae17 b73d f91a 953d
000000e0: 712e 89bd f731 fabd bb69 19bd e63c a23d
000000f0: d632 08bd 3562 8d3d 314f e3bd 8751 11be
0.1469733 -0.03013761 0.10926031 -0.07853103 0.033919778 0.03447296 -0.035585023 0.03462472
0.09586526 0.1035918 0.043470606 -0.097463325 0.017043365 -0.011594705 0.044579215 -0.017725786
-0.07694383 0.0130965505 0.13934782 0.04679967 0.00022263634 0.0028029566 0.06388557 0.06659979
0.09684938 -0.108826876 0.031605106 -0.14334132 0.116090864 0.04135483 0.1352379 0.04725195
-0.0022264 0.07378097 -0.07023598 -0.081169456 -0.1349289 0.010254747 -0.13371256 0.085747205
0.101390086 0.085211895 -0.0031696432 -0.06657298 -0.07208213 0.04238061 0.13881157 0.10348669
0.11588426 0.06388889 0.061389316 -0.075128995 0.008192353 -0.012807286 0.089400634 0.07280535
-0.06698311 -0.12216561 -0.037454348 0.07921772 -0.033251606 0.06903497 -0.11099089 -0.14191256

net.3.lin1.weight f4 [64, 64]
00000000: a1e7 b8bd ff62 c4bd c042 3a3d 91bb 7d3d
00000010: db2b 2b3d b27b a9bd fbd7 803d b75f c4bd
00000020: 6065 3ebc 9fd8 cb3d 3475 43bd db33 d53d
00000030: 6c37 cbbd 1da0 4b3d a54f 5a3d 9a8e 96bd
00000040: 7dba c33d c4aa a53b ed9b 293b 405c 783c
00000050: e22a edbc bc39 5bbd b013 4d3d fc04 983d
00000060: 0644 dabd 88eb 623d 916b 57bd 2351 083d
00000070: 26df e1bb 3373 b93d 641d 86bd 149b 603c
00000080: cd77 a0bd 161b d53d 5095 a53d 46a9 ce3d
00000090: d703 26bd c786 873d 01ac 6a3c 594d 443d
000000a0: e935 043e d7b3 a8bd 0c3f 01be 84aa 653d
000000b0: 49b0 e63d 82fc 90bc d3bc 0cbd 403a 8b3d
000000c0: 49d2 2a3d cadc 713d 5278 093e 56e0 9b3d
000000d0: bcb8 4bbd 6ef7 b2bd d12f f1bb 9100 a03d
000000e0: 4570 3e3d e499 813d beea df3c 7b49 dc3d
000000f0: 2cc1 9cbd a945 b73d 8529 0f3d 37a3 003c
00000100: ed6a 01be 514a dbbd c8ec debd a476 893c
00000110: d962 eebd 9d09 153d 6e53 b73d 0c75 943d
00000120: 4d30 13bd 6911 09be c365 aabc f0f4 eabd
00000130: e093 113e e29c cfbd bfcf 64bd fcc0 22bd
00000140: 4d82 893d 2db3 a03c d407 c0bc c1a1 813d
00000150: 412f 59bd 1e86 893d 73f9 913d b0a3 8bbc
00000160: cb1e 193d 84ff 9f3d 88e2 ec3d 020c fc3d
00000170: eb9f db3c ebe2 b5bd ccf7 d43d d1c3 92bd
00000180: ee9c 77bd 0942 06be b2cb 88bd 94b4 c7bd
00000190: 6129 a0bd 1848 e8bd 0f3a 4abb 15b7 303d
000001a0: ed7a cc3d 93dd 393d c9de e23d 425c 053d
000001b0: 1850 63bd 56a7 9a3d 8c38 c7bc 82c3 84bd
000001c0: 68e2 19bd be20 a0bd d123 a23c cc3e a1bd
000001d0: b481 ccbd bcfd 133e e4d6 14be a002 843d
000001e0: e992 a4bd e6ca bf3c 7044 aa3b 6030 3ebd
000001f0: c51b fabd 2aab 79bd 167c 683c 6ad9 90bd
00000200: 316d ea3d ff9b 193d 3e46 003e b6d7 053e
00000210: 8640 40bc 0e04 ffbc d257 8b3d 3f04 0e3e
00000220: 7849 9e3c ad4c 4c3d 2f61 a13d 2e96 a33c
00000230: 4234 9ebc 4b89 07bd 145c 283b 3ff0 d7bd
00000240: 20eb 63bc 99ac fe3b 563e e33d 451d 973c
00000250: a1aa 7abd 8caf 8abd a996 71bd 3484 923d
00000260: cdb0 e13d c0e5 82bc fd32 9f3d 60a4 b93c
00000270: f956 94bc 4112 d83d 4640 a5bb 228c d1bd
00000280: 5f2b b7bd ea0e ac3d aaf8 813d 4f14 193d
00000290: 518f c63d e375 afbc a79c 09bd 8b72 e53d
000002a0: c5bc 973d 8eae ffbc 8ea5 b73c d2df 09be
000002b0: 619c e0bc 0460 dd3d cbe3 4bbd b0c6 e0bd
000002c0: d329 bbbd a6e1 8e3c 9204 fc3d a02c 29bd
000002d0: 08f5 453d 52cc 9d3d e69e 2f3d a1df 83bd
000002e0: 9a3f e7bd a882 6cbc 3a23 3f3d a0cb dabd
000002f0: 6862 323c bf3a 713d ac4c ffbc 8d64 9e3d
00000300: 4765 903b dc60 a4bd 6122 873d 5588 f2bd
00000310: 00e6 7a3d 1daa 3abc fd72 57bd c30f b8bc
00000320: e1db 6bbd c4e3 5b3d ad73 b13d f971 b2bd
00000330: bb9b 86bd 44a1 fbbb 56a4 cd3d d994 903d
00000340: 743d 313d ae63 f43d bba6 fa3d ec9d aabd
00000350: f988 49bc 6fb3 533d f17b 093e ff57 84bd
00000360: 7064 e4bd b6b9 7abd 6dfe 903c 3024 e53d
00000370: 8c4f a839 9b15 97bd d660 49bc 14a6 f43d
00000380: c9c6 22bb 5e76 643d 8992 68bd a19f 0f3d
00000390: 665c b13d 770f c5bd 3754 e8bd 13dd c73d
000003a0: 4cb3 9dbd c62f 50bc c0c8 ef3d 3af3 d6bd
000003b0: 131a 22bc 367e e13d 1bdb 6abd 222b 133d
000003c0: 7d10 423d 2c08 c53d 74de a93d 0299 493d
000003d0: bfd9 07be 433f 313d 4b5c d8bd cd2a ad3c
000003e0: 3bac 9dbd 4f5e 9fbd 479c d3bc f53f cd3d
000003f0: 0dff 893d 60ea 6abd ae3a 03bd 8e00 13be
-0.09028555 -0.095891945 0.045473814 0.061946455 0.04178987 -0.08275546 0.06291195 -0.09588569
-0.011620849 0.099534266 -0.047719195 0.10410281 -0.0992268 0.049713243 0.05329861 -0.07351418
0.09557054 0.0050557572 0.0025880293 0.015158713 -0.028951112 -0.053521857 0.050067604 0.07422826
-0.10657506 0.0554004 -0.052592818 0.033280503 -0.0068930564 0.09055176 -0.065485746 0.0137088485
-0.0783535 0.10405557 0.0808512 0.1009088 -0.040531006 0.066175036 0.0143232355 0.047925327
0.1291119 -0.08237427 -0.12621707 0.05607082 0.112640925 -0.01769853 -0.034359764 0.0679822
0.04170445 0.05904845 0.13424805 0.07611148 -0.049736723 -0.087386 -0.0073604365 0.07812608
0.046493787 0.063281804 0.027333613 0.10756203 -0.07654032 0.089488335 0.034951705 0.007851413
-0.12638445 -0.10707534 -0.10885006 0.016780205 -0.116399474 0.03638612 0.0895146 0.072488874
-0.035934735 -0.13385548 -0.020800477 -0.11472499 0.14216566 -0.10137345 -0.055862185 -0.039734825
0.06714306 0.019616688 -0.023441233 0.0632968 -0.05302358 0.06715034 0.07127657 -0.017045826
0.037382882 0.078124076 0.11566645 0.12306978 0.026809653 -0.08881172 0.10398826 -0.07166255
-0.060452394 -0.13111128 -0.06679477 -0.097512394 -0.078203924 -0.11341876 -0.003085736 0.04314335
0.09984384 0.045377325 0.11077649 0.032558687 -0.055496305 0.07551448 -0.024318956 -0.06482603
-0.037569433 -0.07818745 0.01979247 -0.07873306 -0.099856764 0.1445226 -0.145351 0.06445813
-0.080358334 0.02341218 0.0051961467 -0.046432853 -0.12212328 -0.06095425 0.014189741 -0.070727184
0.11446608 0.037502285 0.12526795 0.13070568 -0.011734134 -0.031129863 0.0680386 0.13868807
0.019322142 0.04987781 0.078798644 0.019969072 -0.019312028 -0.033089917 0.0025689648 -0.1054387
-0.013911039 0.00777204 0.11095874 0.018446574 -0.06119788 -0.06771764 -0.05898157 0.07154122
0.1102005 -0.015978694 0.07773397 0.022661388 -0.018107878 0.10550357 -0.0050430624 -0.10231806
-0.08943819 0.08401282 0.06346257 0.037372883 0.09695304 -0.021418517 -0.03359666 0.11203488
0.07409052 -0.031211164 0.02241781 -0.13464287 -0.027418317 0.10809329 -0.049777787 -0.10975397
-0.09138837 0.017441582 0.12305559 -0.041302323 0.048329383 0.07704987 0.042876147 -0.06439138
-0.11291428 -0.014435448 0.046664454 -0.1068337 0.01088772 0.058893915 -0.03116449 0.07734022
0.0044066045 -0.08026287 0.06598354 -0.118424095 0.0612545 -0.011393097 -0.052599896 -0.022468453
-0.05758274 0.05368401 0.086646415 -0.08713145 -0.06572672 -0.0076791365 0.1004111 0.070596404
0.043271497 0.11933075 0.122388326 -0.083309025 -0.012300723 0.051684793 0.13426186 -0.064620964
-0.111519694 -0.061212264 0.017699445 0.11188543 0.00032102724 -0.07377168 -0.012291154 0.119457394
-0.0024837723 0.055776946 -0.05678037 0.035064343 0.08660202 -0.0962209 -0.11344188 0.097589634
-0.07700214 -0.012706703 0.11708212 -0.104956105 -0.009893912 0.11010401 -0.05733786 0.035929807
0.047379006 0.09620699 0.08294383 0.049218185 -0.13266657 0.04327322 -0.105644785 0.021138573
-0.07698866 -0.0778166 -0.025831355 0.100219645 0.067381 -0.057352424 -0.032038383 -0.1435568

net.3.lin1.bias f4 [64]
00000000: 2529 213d 5281 0abe af90 d83d 10f0 eb3c
00000010: 9ae9 55bd 5d6d 32bd 675a 013d 02c6 febc
00000020: 2725 14be 5b01 72bd 2a5f 42bd ec6f c7bd
00000030: 2471 3d3d 3347 80bd 852b b7bd 7906 06bd
00000040: 41b0 20bd 4b35 a4bd 8f35 ddbd 9958 c8bd
00000050: fadc 25bd c47a fcbd 24aa 30bd 27a2 12be
00000060: b000 c6bd 76b4 a23d 9e58 a1bc 2285 4f3c
00000070: 3222 7ebd 944c 87bd fadf aebd ce7e da3c
00000080: 408d e7bc 255d c93d 4d9e 07be 305b 983d
00000090: 557e 9c3d 7a97 ad3d 7b4c 173d 03ca 9a3d
000000a0: 5a49 f83d 2665 40bd 5f75 e4bd 7413 af3d
000000b0: d6a7 01bd b75b b43d f370 843d 073c 0abe
000000c0: cb90 a53d 9e8d b93d 9528 d6bd 423e 743d
000000d0: 42f9 9d3d 265a 913d 322d bebd c016 b93b
000000e0: 1819 b0bd 128f 3bbd 783a 043e c6dc ac3d
000000f0: b217 693d aa58 03be 826e d23d 700c 983d
0.03934588 -0.13525894 0.10574471 0.028800994 -0.052224733 -0.04356133 0.031580355 -0.031100277
-0.14467297 -0.059083324 -0.047454037 -0.09738144 0.046250477 -0.0626358 -0.089438476 -0.032721017
-0.03923059 -0.08017977 -0.10801231 -0.09782524 -0.040493943 -0.12328103 -0.04313101 -0.14319669
-0.096681 0.079445764 -0.019695576 0.012666019 -0.06204433 -0.06606403 -0.08538814 0.026671793
-0.028265595 0.09832219 -0.1324398 0.07439268 0.076412834 0.084761575 0.03693817 0.07558062
0.12123366 -0.046971463 -0.11155199 0.08548632 -0.0316542 0.08806556 0.06466856 -0.13499461
0.08084258 0.090602145 -0.10456959 0.059629686 0.07713558 0.070972726 -0.09285964 0.005648464
-0.08598536 -0.04579074 0.12912929 0.08440547 0.056907363 -0.12826791 0.10274984 0.07424247

net.3.lin2.weight f4 [64, 64]
00000000: b085 363d adb0 e1bd 38e6 163d 33d9 773c
00000010: 9c0a 06be 961d 383d 792e 3abd 083c 353d
00000020: 1a66 7a3d 8d87 4dbc 9898 1b3b 1614 8a3d
00000030: bb81 013e db88 4bbc 48aa 9a3b 9ffa 7dbc
00000040: 2a0c b93d 2897 e73a da52 493d c63f aabd
00000050: a46a 21bc b37e 79bd 03de 35bd ab63 063d
00000060: 0cd2 0abe 5b53 cb3c 386d d53d e3af ccbc
00000070: 2f0a 00be 2e11 b33b fe56 7f3c d0ad 91bd
00000080: 7559 8d3c a6ee 8f3d 3544 0abe 1607 83bd
00000090: ecd2 cdbd 3fd4 263d c413 26bd 0408 613a
000000a0: decb 833a e4c7 6cbd 9103 c1bd ceae b2bc
000000b0: 5e46 d6bd b45a 063e 85ec a4bd 2785 98bc
000000c0: 9c2a f93d d26d 053e 24e3 9ebd 668c c83d
000000d0: 9e17 cfbd 2e58 52bd d2a7 f1bc e6df 91bd
000000e0: d5ee 6cbd 527e 7d3d f723 b53d 4bcc b03d
000000f0: 0352 05bd 6915 bc3c e1e0 fe3b fbc1 353d
00000100: a370 0c3a 9dc6 b63c da0c 093e f838 ff3a
00000110: fe03 963d 43f3 56bd b718 e63d 2eee d53d
00000120: c85a 90bc 6b82 82bd 6f5b bcbd 22fb 8b3d
00000130: 21da 8abd 0f81 49bb 84a4 74bd 9caf 9b3d
00000140: dcd9 bfbd 514b 27bc 5b0e 00be 5339 d0bd
00000150: 0cfa 46bd aa9a 77bd a3a4 f9bd f343 cabc
00000160: 5d2d 92bd 738e 003e bcbe 9c3c 4a48 623d
00000170: f69a dc3d 4675 9a3b 6fc6 b5bd 61f4 2ebd
00000180: bd6e 77bd 0796 d33d efc5 a8bd 8186 c3bd
00000190: df8e 9e3d 17d0 e33d b5e4 563d 879e a83d
000001a0: 97e4 f03c 67aa 53bd 1d15 973c 14ba c6bc
000001b0: 458a b73d e9a7 84bd 0515 703d ef11 08be
000001c0: f2c3 f8bb 150e a8bd f48e 463d 661d 82bd
000001d0: 79de 873d 7805 edbc 6ca7 383c 6f90 ed3d
000001e0: 92f6 b6bd 0be3 923d 79fb ac3d cc94 a93d
000001f0: e649 123d fa96 f6bd 5013 3fbd 52fe 583d
00000200: d92d 8fbd 88c7 6c3d 7b06 bc3d f428 9ebc
00000210: eef4 c3bd d40f d03d d092 043e c0dd 503c
00000220: 435f 0fbc cc37 a03d f355 a13d e15a cbbc
00000230: 56dd 49bd ae85 d2bd 5d36 563d 1bb4 ea3d
00000240: 3414 bebd 45ed 3a3d 265b 483d 10c0 f63d
00000250: 1572 083e 55c7 943c 43bd b23d 22df 94bb
00000260: 69a9 c73d 7e5f 06be af41 cc3d a6ef c4bd
00000270: 3637 dbbd de30 77bd e47b f53d 8c08 02bd
00000280: fcdd 06be 5e0e e2bd 45c3 773d e709 e6bd
00000290: ef9c bc3d b9bf c73c e8f0 04be 7e68 653d
000002a0: 9239 c3bd fb56 bdbd c535 fb3c 7905 c2bd
000002b0: e74f a9bd 9932 fabd d31f 2fbd 2e56 0bbd
000002c0: 7c5a 22bc 605b e3bd b071 b53d c942 503d
000002d0: 54ac 193d 4cce 033d 5655 d83d 9a03 e83d
000002e0: 1eab 1b3c 0f8f cabd dcdd c8bd 8fcb 07be
000002f0: 2a43 193d c293 713d 09fe 9ebc e9bd 303d
00000300: c01b 683b 4175 9b3d 3ca1 c3bc 00f1 0c3d
00000310: 9146 da3c 82ad d6bd 8182 80bd 55a9 7a3d
00000320: 1923 1ebd 3308 16bc 5edb 9b3c 8b2e 9e3d
00000330: 1579 bc3d 172b 92bd 9b85 ee3d 672d 56bc
00000340: 4064 b4bd 515b bd3d f3af 5bbd 171d 7e3d
00000350: d1b7 4abd f437 b3bd 9809 60bd d6bf bd3c
00000360: 10eb ddbd e01c 903c c398 4abd 7ea8 3fbd
00000370: 1330 47bd 0f5d 0c3d ee4f 6c3d 5781 22bd
00000380: c340 eebc 7525 04bd 4b7f 693c 1755 d6bd
00000390: 553a bd3d 0432 e03d 844a 963d 49a5 44bd
000003a0: 6e55 abbd fd7c 073d 5abb b53d 59ce 1e3c
000003b0: 503c 30bd 25b6 e63d 728b 64bd de0b f63c
000003c0: bda2 dc3d 06e9 c1bd 7392 b4bd 99d3 02be
000003d0: 311f 76bd e888 d6bc e27f 2abc d946 e83d
000003e0: 80af e23d 6a5b d33c 5706 243d e849 3c3d
000003f0: 8361 da3c 79a1 86bd f056 04be a99f 37bd
0.044561088 -0.11020026 0.036840647 0.015127468 -0.13089985 0.04495009 -0.045454476 0.044246703
0.061132528 -0.012544525 0.0023742076 0.06742112 0.12647144 -0.012422766 0.004720006 -0.015501647
0.09035523 0.001766895 0.04915128 -0.08312945 -0.009852085 -0.060911845 -0.04440118 0.032809895
-0.13556689 0.02482002 0.104212224 -0.024986213 -0.12503885 0.0054646945 0.015584705 -0.0711323
0.01725457 0.070279405 -0.13502581 -0.06397836 -0.10049996 0.040729757 -0.040546194 0.0008584263
0.0010055264 -0.057807818 -0.09424508 -0.021811869 -0.1046264 0.13120538 -0.08052925 -0.01861818
0.1216633 0.13030174 -0.077581674 0.09792404 -0.101119265 -0.051353626 -0.029498968 -0.07122783
-0.057844955 0.061888047 0.088447504 0.08632716 -0.032548916 0.022959428 0.0077782725 0.044374447
0.00053573604 0.022311503 0.13383809 0.0019471934 0.0732498 -0.052478086 0.11235183 0.1044582
-0.017621413 -0.063725315 -0.09197127 0.06835009 -0.06779886 -0.003074709 -0.059727207 0.07601854
-0.09367725 -0.010210828 -0.12505476 -0.10167184 -0.048578307 -0.060450234 -0.12189605 -0.024690604
-0.071375586 0.1255434 0.019133918 0.05524472 0.10771744 0.004713687 -0.08875739 -0.042713527
-0.060408343 0.1033135 -0.08240878 -0.09547139 0.07742094 0.11123674 0.052464206 0.08233362
0.029405875 -0.05167618 0.018442685 -0.02425865 0.0896192 -0.06477339 0.058613796 -0.13288091
-0.007591718 -0.08205811 0.048476174 -0.063532636 0.0663423 -0.028933272 0.011270385 0.11599814
-0.08933748 0.07172211 0.08446402 0.08280334 0.035715006 -0.12040515 -0.046649277 0.052976914
-0.069911666 0.057807475 0.091809236 -0.019306637 -0.09568201 0.10159269 0.1294663 0.012748182
-0.0087507395 0.078231424 0.07877722 -0.024823608 -0.049283348 -0.102794036 0.05229794 0.11460134
-0.09281197 0.045636434 0.04891505 0.12048352 0.13324769 0.018161455 0.08727505 -0.004543201
0.09749109 -0.13122365 0.09973466 -0.09616022 -0.1070389 -0.060349338 0.11986521 -0.031746432
-0.13170618 -0.110378966 0.060488958 -0.112323575 0.0920962 0.024383413 -0.12982523 0.056007855
-0.09532465 -0.09245106 0.030665288 -0.094737 -0.08267193 -0.12216682 -0.04275496 -0.034017734
-0.0099092685 -0.11101413 0.08859575 0.05084494 0.03751786 0.032179162 0.105631515 0.11328812
0.009501247 -0.098905675 -0.09807941 -0.13261245 0.03741757 0.058978803 -0.019408243 0.043149862
0.003541693 0.07590724 -0.023880593 0.034409523 0.026644977 -0.10482313 -0.06274892 0.061196644
-0.03860769 -0.009157228 0.0190255 0.07723721 0.09202782 -0.07137125 0.11646577 -0.013072348
-0.08808184 0.09245933 -0.053634595 0.06203946 -0.049491707 -0.087509066 -0.05469665 0.023162764
-0.1083585 0.017591894 -0.04946209 -0.046791546 -0.04862983 0.034268435 0.057693414 -0.03967413
-0.029083615 -0.032262284 0.01425154 -0.10465448 0.092396416 0.1094704 0.073384315 -0.04800919
-0.08365904 0.033078182 0.08873625 0.009692752 -0.04302627 0.1126521 -0.055797048 0.030034956
0.10773227 -0.09468274 -0.088169955 -0.1277603 -0.06008834 -0.026188329 -0.010406466 0.11341638
0.1106863 0.025800426 0.04004511 0.04596892 0.026657825 -0.06573767 -0.12923789 -0.04483

net.3.lin2.bias f4 [64]
00000000: d7a4 cc3d ea4a 5fbd 1c7f fcbd 13d9 3e3d
00000010: 84d9 6c3c 44dc 963d 6357 c1bc 5dd1 92bd
00000020: bf7d 0d3d afae eebd ba6e 2f3d 15cd 1b3d
00000030: 276d f6bd c25e 3f3c 6a50 42bc c1d7 d8bc
00000040: b326 b03d 0f21 a03d c2d7 be3c 0a0e 2b3d
00000050: 99a0 e83d 1075 a1bd 6369 453c 6c32 893d
00000060: 05fb 773d 9b1d 3a3c 97b9 f0bd 6826 473d
00000070: 37df 043d 3d3d 103e 290c 4abd 3ee7 df3b
00000080: cb54 123d 56fa d63d b6ed 213d 7dcf a5bd
00000090: 77f9 f5bc f19f c03d 7d3d 073d 7ec5 cebc
000000a0: 540a 98bd b6ed 6d3d 2516 16bd c048 0c3c
000000b0: f216 0dbb c50a bcbd 514e 0b3e 6875 143e
000000c0: dcee 153e 65f0 9abd ee06 7abd 6df7 10bc
000000d0: aa5c 213d c4bd 063d 3f70 ef3d bf94 c93c
000000e0: 5800 e93c 36c3 023d eec9 a8bd d057 ebbd
000000f0: 171f b1bd fe39 c5bd 19dc 43bd a110 cd3d
0.09992378 -0.054514803 -0.12328932 0.046593737 0.014456157 0.07366231 -0.02360124 -0.07168839
0.03454375 -0.11654412 0.042830206 0.03803738 -0.12032538 0.011680307 -0.0118599925 -0.026470067
0.08601131 0.078188054 0.02329624 0.041761436 0.113587566 -0.07883656 0.012049052 0.0669907
0.060542125 0.011359598 -0.117541485 0.04862061 0.032439437 0.1408586 -0.049328003 0.006832986
0.035725396 0.104969665 0.03953334 -0.08096216 -0.03002618 0.094055064 0.033017624 -0.025240656
-0.07423845 0.058088027 -0.036642212 0.008562267 -0.002152857 -0.091817416 0.13604094 0.14497912
0.14641899 -0.07565383 -0.061041765 -0.008848053 0.039395012 0.03289582 0.11691331 0.02460706
0.028442547 0.03192445 -0.0824164 -0.11491358 -0.08648508 -0.09630202 -0.047817323 0.10012937

net.4.lin1.weight f4 [64, 64]
00000000: adb4 c93d ba9b 023e b8e4 82bd afce 003d
00000010: 6b07 1ebd f943 b23b e84e 5bbd cc5b 323d
00000020: fc06 993c 849c 49bc d26e 753d 044c b1bd
00000030: 269f c8bd f937 c7bd 04b9 9ebd 2f15 c7bd
00000040: c355 ba3d 690f c4bd 1f5d 8b3d 40d9 f0bc
00000050: 8771 a1ba 7d44 8d3d bed8 10bd d509 9f3d
00000060: 2fbf c8bc 2433 653d 2c8f a63d d5e0 ac3d
00000070: aa80 d4bc ed1c 1e3d 5a66 ae3d 55ee 88bc
00000080: caed 97bc fb6b 873d d75a e3bd 3752 323d
00000090: c89a 8f3d 11f6 78bd 255d d73d 6454 94bd
000000a0: ac08 abbd 1ac1 893d 5ec9 e3bd 3a10 d4bc
000000b0: 8578 efbd 3ea2 623c 5df5 15bc 3b67 babc
000000c0: 900f 08bc 625b 88bb b18e e33c 5a5d d3bd
000000d0: 77fd d43d 06a8 153d 4ef2 053e f570 cebd
000000e0: 81a6 a63d 8858 b13c 4cd0 e83d 8dc9 f43c
000000f0: f5ec 473d 1c1e 94bd 4abf 163d a56b 8abd
00000100: 4dd5 e5bd d05d 023d faa1 71bd 1deb d7bd
00000110: 0ace 95bd e28a b83d b48e eb3c 2439 a0bd
00000120: d590 cebd 6586 f4bb dd39 263d a63d fb3d
00000130: 97a5 973c 8a98 68bd ba3a 173d ab2c 9abd
00000140: d812 013d 14a2 ccbd a63c d5bb 39dd f6bb
00000150: 78aa e7bd 6fbc 84bc 0cf9 07bd c406 aabd
00000160: 19b0 663d a9da dabd a661 0bbe 217c 6bbd
00000170: 69ec d2bc e0f2 aa3c fe25 77bc 1990 823d
00000180: 2007 1dbd 8a39 9a3d 76a3 823c a7d0 f93c
00000190: 731c ca3d 8a3e 523b 2a4d 073d c5f1 343d
000001a0: 37e9 0dbd 073a 953b dc6f d2bd ee5c b2bd
000001b0: 4bab e1bd 9642 b73d 0ff3 a7bc 4f9a 983d
000001c0: 1861 ae3c 9ba2 a83c beed a2bd a2fd 313b
000001d0: ab55 42bd a162 d33b 5012 813b b25c d13d
000001e0: 3252 c1bd afc4 85bd 2255 03be da01 0a3d
000001f0: 527d 64bd b37c e43d cbf4 933c 3741 1ebd
00000200: f236 c13d a363 f4bd 7463 b33d f200 6a3d
00000210: 6ba0 a5bc 41cf 3cbd a288 a7bc 188b 5c3d
00000220: 4742 b73b d207 873c c4ce a9bd ece9 c53d
00000230: 6770 b03d ea08 e4bd eb35 41bd 6254 8b3d
00000240: 156b 85bd 11b7 313c dd66 913d 4dd4 883d
00000250: 872a df3d 7982 263c 4126 3ebd e37a ce3d
00000260: fba9 963d 3cdd 99bd 05e7 dc3d 6c51 083d
00000270: 70ba 673d 1d1d 92bd 5fda 9fbc c43a f33d
00000280: cc79 fa3d 4d97 91bd a43c 843d 8aa3 e9bd
00000290: c67e cf3d eb5e bd3d 5a33 5f3d ed02 d33d
000002a0: d260 cabd 43df a1bc 09c4 ab3d 83ae b83d
000002b0: d4e0 3a3d 116a d8bd f0a1 c83d 6064 dcbd
000002c0: f891 483d eb4d 2cbd 33d9 f43d e3f0 ce3d
000002d0: 971c a8bc cb89 163d 4d6f 4b3c 890c 0c3d
000002e0: 363b f13c 1a5f d13d fb76 8bbb 2da2 8abc
000002f0: 23cc 133d 4a06 dd3b bf56 d0bd 80c4 323d
00000300: 413f b6bd 5ace 4e3c 1f40 bcbd f3c4 b33d
00000310: 44ce 80bd 109f afbd be37 7b3d 7024 1fbc
00000320: a9e1 e8bd 5ca5 c8bd c8bc 533d be4d 303d
00000330: 29ac 013e 3b4c 00be d826 cc3d 0c89 043d
00000340: 1f1b 28bd d7c9 c33d 80a8 7638 c434 f3bd
00000350: ceae acbb 4fc3 313d 38bb 86bc f686 babb
00000360: 1e0d 933d 6ee0 9f3c 2ab7 913d f08f f93d
00000370: f458 9dbd 004a 473d 570f eabd db0d 3f3d
00000380: 72f8 a8bd b99f d43c 3960 b33c 096f 673d
00000390: 4af5 b7bd c457 ccbd ed91 bc3d f4d4 2b3d
000003a0: 84eb e7bd 68cb 473c 3319 603d dee3 56bd
000003b0: 768a 93bd 49c7 243d 1f25 debd 3f27 ad3d
000003c0: e133 993d e0e1 d03d 685d d0b9 a890 d73d
000003d0: fcb3 ba3d d7c6 e33d 047e 00be 2d04 7e3c
000003e0: 4194 2fbd 4f63 ef3d 823c 3abd e5ed 59bc
000003f0: 8930 943b b2d1 c63c 8981 a2bd 6dca cd3c
0.09848914 0.12754717 -0.06391281 0.03144711 -0.038581293 0.005440232 -0.053542048 0.043544576
0.018680088 -0.012305383 0.05992014 -0.08657077 -0.0979598 -0.09727473 -0.07750133 -0.09720837
0.09098389 -0.09573252 0.06804871 -0.029400468 -0.0012317159 0.06897829 -0.03536295 0.07765547
-0.024505226 0.055956975 0.081327766 0.08441321 -0.025940258 0.038601805 0.08515616 -0.016715208
-0.018546004 0.066123925 -0.11101311 0.043535437 0.07011944 -0.060781542 0.10515813 -0.07242659
-0.083512634 0.06726284 -0.11122392 -0.025886644 -0.11692909 0.013832627 -0.009152737 -0.022754302
-0.008304492 -0.0041612843 0.027778002 -0.1032054 0.10399907 0.036537193 0.13080713 -0.100801386
0.08137227 0.02164866 0.113678545 0.029881263 0.048809964 -0.072323054 0.03680352 -0.06758813
-0.112223245 0.031827748 -0.058992364 -0.10542891 -0.073146895 0.09010865 0.02875457 -0.07823399
-0.10086218 -0.00746231 0.040582526 0.12267618 0.018511577 -0.056786098 0.03692124 -0.07528051
0.03151211 -0.099918514 -0.006507474 -0.007533696 -0.11311811 -0.016203133 -0.033196494 -0.08302072
0.056320284 -0.10686237 -0.13611469 -0.057491425 -0.025747495 0.020867765 -0.015084742 0.06375141
-0.038336873 0.07530506 0.015947085 0.030495001 0.098687075 0.0032080733 0.033032574 0.044175882
-0.03464624 0.0045540365 -0.10275242 -0.08709131 -0.11019 0.08948247 -0.020501642 0.07451307
0.021286532 0.020585349 -0.07955502 0.0027159234 -0.04744498 0.0064509665 0.0039389506 0.10222758
-0.09439506 -0.06531655 -0.12825444 0.033693172 -0.055783577 0.11156597 0.018061062 -0.038636412
0.09434308 -0.11933067 0.087592036 0.057129808 -0.020218095 -0.04609609 -0.020450894 0.053843588
0.0055926177 0.016483221 -0.082913905 0.09663758 0.08615189 -0.11134513 -0.04717056 0.06803204
-0.06514565 0.010846869 0.07099698 0.06681118 0.10896783 0.010162943 -0.0464232 0.100820325
0.0735664 -0.075129 0.10786251 0.033280775 0.056574285 -0.07134459 -0.019513307 0.11876443
0.12230262 -0.071089365 0.06456879 -0.11408146 0.10131602 0.0924662 0.054492332 0.103032924
-0.09881748 -0.01975978 0.08387 0.090176605 0.04562457 -0.105671056 0.09796512 -0.107613325
0.04896733 -0.042066496 0.1195549 0.10104539 -0.020521445 0.036752503 0.012416673 0.034191642
0.02944718 0.10223217 -0.004256127 -0.016923035 0.03608335 0.0067451345 -0.101727955 0.04364443
-0.088987835 0.01262244 -0.09191918 0.087777995 -0.06289342 -0.08575261 0.061332457 -0.009713277
-0.11371166 -0.09797165 0.051693708 0.04304289 0.1266333 -0.1252908 0.09968346 0.03235726
-0.04104149 0.09559982 5.88079e-05 -0.118752986 -0.005269862 0.04339915 -0.016446695 -0.005692358
0.07180236 0.019516196 0.07115014 0.12185657 -0.07682982 0.048654556 -0.11428707 0.046644073
-0.08250512 0.025955068 0.021896468 0.056502376 -0.08982332 -0.099776775 0.09207521 0.041951135
-0.11324218 0.012194492 0.05471153 -0.052463405 -0.07204144 0.040229116 -0.10846924 0.08454751
0.07480598 0.10199332 -0.00039742445 0.10525638 0.091163605 0.1112191 -0.12548071 0.015503925
-0.042865995 0.116888635 -0.04546786 -0.013301347 0.0045223874 0.024269912 -0.07934863 0.025120938

net.4.lin1.bias f4 [64]
00000000: 9709 f13d 275d 5f3d ece3 79bd e40f 86bc
00000010: 248d f5bd 8b30 04bc 4efb 263d 8281 bb3d
00000020: cfcb 253c 4227 54bd 75f9 02be d4eb c9bd
00000030: 135c df3d a97d da3c a09d a73d f8b7 cfbb
00000040: c64f 3dbd 2291 853d 318c d33c d164 f7bc
00000050: 7a13 0cbd a484 883d 6338 6ebd 08df aebd
00000060: 758a 01be 0dff 01be 53b7 c93d 9d2f e4bc
00000070: dcff 8abd 7067 6ebd 245a 133d aab2 523b
00000080: 9751 da3c ffe2 2abd 2dc7 303d 8ca9 f03d
00000090: 8ec0 1fbd af1f 3cbd 46b9 8f3d 4183 e53d
000000a0: aa8e b33d 658e 9a3d ff15 3dbd 61d6 313d
000000b0: 4145 c53d f6b9 da3d bf99 b13b c30e acbd
000000c0: 3477 d5bc 4a3e 413d 6063 11be 5176 e53d
000000d0: a084 fe3c d64c d93d f732 883b 3262 5bbc
000000e0: 9872 8d3d 2e52 1f3d 4f24 ab3d ee71 983d
000000f0: 7657 12bc 8582 c13d 4f22 f5bd 5122 103e
0.11769407 0.054532196 -0.06100838 -0.016365 -0.11989811 -0.008068214 0.040767007 0.09155561
0.010119393 -0.05179525 -0.12790473 -0.09859434 0.10906234 0.026671248 0.081843615 -0.0063390695
-0.046218656 0.065218225 0.025823684 -0.03019944 -0.03419826 0.06665924 -0.058159243 -0.085386336
-0.12650473 -0.1269495 0.098494194 -0.027854735 -0.067870826 -0.058204114 0.035974637 0.003214995
0.026650233 -0.041720387 0.0431587 0.117510885 -0.039001994 -0.045928653 0.0701776 0.11206675
0.087674454 0.07546691 -0.046163555 0.04341734 0.0963235 0.106800005 0.0054199393 -0.08401253
-0.026057817 0.047178544 -0.14198065 0.11204208 0.0310691 0.106103584 0.004156466 -0.013390111
0.06906623 0.038896732 0.08356535 0.07443605 -0.008931985 0.09448723 -0.119694345 0.1407559
