data/trained_models/base_rho_b_resnet.pth (torch, 201902 bytes, 15 tensors)

net.0.weight f4 [64, 374]
00000000: 76ea b83d 0fc6 343d 3c12 11bd 26e7 24bb
00000010: 51f2 a23c 4fd4 c1bc 08fb 2abd 21a6 103d
00000020: aeb8 76bd 8d61 5d3d 06e7 6d3b 1c7b 4a3d
00000030: bcd2 15bc ff9f 6c3d e4ea 95bb fc1b 4c3d
00000040: a77e 003d 66e9 453d 2abc 9bbc 79bb 76bc
00000050: fc19 913d ac81 4bbc 748e 1abd e07a 4ebd
00000060: 61b0 0d3d 9761 383d 575c 27bd efe2 49bc
00000070: cc53 1cbc 8db0 4a3d 0e38 2cbd ec0c 503c
00000080: da8e 2c3d 4bd0 e4bc 4a24 0ebd 757b 62bd
00000090: 3a3f 7bbd a530 633c 17c2 0abd 9610 cebc
000000a0: 6eb8 1fbd 12f3 39bd d19b 68bb cd7c 153d
000000b0: 0e3f 083c 6e22 f43c f34b 39bd ca1d 643c
000000c0: 3252 453b 48c6 19bc 9616 9c3c f178 8d3d
000000d0: e7cd 903c 2b12 40bc dd05 c6bb 3096 cfbd
000000e0: eb3b bf3c e505 db3b 5638 af3c e849 25bd
000000f0: e62c d93c e0bf 863b 8a0f 1ebd 16c1 8b3c
00000100: ff81 c73c 475d b8bd 1c1c 65bd f6a7 053c
00000110: 9184 3c3d 13aa cdbb 44a6 133d f398 91bd
00000120: 3b37 d8bc 4d12 203d a37b c5bc d974 14bd
00000130: 020f 04bb 2d1a e53d dc8f 143c bff3 a73d
00000140: a509 3b3d 8106 573d 0fb4 213d cacd c53c
00000150: 45c5 513d 583f 113d 8266 693d 2652 4abd
00000160: c31f 53bd 8044 09bb b491 83bc 551a 53bd
00000170: 52f0 3dbd 8322 233d abde 253d c103 2c3d
00000180: b8a7 93bb 2c52 733c f538 9f3d d3f2 5dbd
00000190: 0ad6 9e3c 18ca 94bb d850 84bb 3845 adbb
000001a0: 7db6 4abd b9e3 8abc dc03 113c 4783 1d3d
000001b0: 7a8b 3abd 38d3 9bbb 6756 6c3c 17aa 383d
000001c0: ad47 1a3d c66f 18bd 735e 50bd b021 ca3c
000001d0: 19bb 163d dccc 8e3d b367 053d 9cee 033d
000001e0: 8ca5 c739 9284 bbbc b2ce 923c 5a7a cc3c
000001f0: eee5 f9bc 7b49 213d f0e5 35bb 3cc9 29bd
00000200: 99e1 393d 647f a0bc bef1 8d3c e5db dfbd
00000210: eab7 40bd e591 4a3d 37ad 45bd 8830 6ebb
00000220: 21ab 203d 144c 30bd 83b2 eb3c f414 a5bc
00000230: ff6d d03c 8fd6 b2bc 9d9a d3bc 5ef0 813c
00000240: 48a9 003d fbc2 0cbd 3e95 d93c b1a3 f03c
00000250: 74f3 24bd 8aeb 86bc a0b9 46bc c8ae 78ba
00000260: 40a3 023c 602b cdbc afbd 2f3d 878b 2c3d
00000270: eebd 9bbc d3b9 b73c d7cd 2b3d 76ff 953c
00000280: 90ce 80bc 44d8 2fbd caba 803c 7cb3 6f3c
00000290: 4399 183d 70e9 30bc 1b37 f8bc 2f13 e4bc
000002a0: 4a5a 28bd 4cfa 603c 4bc3 223d f11b 123d
000002b0: e10d 47bd b438 0c3c ed8e 2a3d f962 3cbd
000002c0: e847 97bc 5584 f03c 2981 1a3c 9ad4 933c
000002d0: f055 00ba 06d7 e43c 3202 f83c 3d3a 5cbd
000002e0: 20dd f8bb 42ee 8b3c 02e1 e6bc 09d5 37bd
000002f0: 7657 a1bc 8fb5 303d 86d9 d43c 43e6 043d
00000300: 0ccd 673c e705 37bd f4e7 a7bc 265a dd3c
00000310: 7848 0ebc f3af 1f3d 44c5 363d 6898 93bd
00000320: c3e5 e23c 6021 0bbc dec6 0fbd cab6 fe3c
00000330: 8890 f1bc a924 bf3c e5be 08bd e15d 67bb
00000340: 270f 2cbd f45a 523c 7918 ec3b 8874 123c
00000350: 907a dcbb f189 4bbd 0346 8ebb 15ac 3fbc
00000360: 4832 b8bc 9df2 b9bb 6112 3f3d 015e 7d3c
00000370: 133e ecbc a082 b6bd e4e2 51bd a912 c8bc
00000380: 7fc3 1f3d 3cba 3a3c 412d 07bd 2ddf 4abd
00000390: 2d84 553d f937 173d 1538 bc3c ab50 59bc
000003a0: 9c83 03bc ae58 063d 2528 333d 8d95 38bd
000003b0: d04a 233d 7c96 ffba c265 1b3c 3a05 e83c
000003c0: db2f 403c 8705 5dbd 31f8 d7bc e777 ddbc
000003d0: 23d7 78bd 9913 5cbd 6320 bb3c 3106 38bd
000003e0: cc04 48bc 25a8 07bc cb12 7dbc 1aa0 81bb
000003f0: 5a8e f33c 9feb 383b b363 c2bc 5853 f53b
0.09029095 0.044134196 -0.03541778 -0.002516219 0.019890936 -0.023660807 -0.04174331 0.035314683
-0.060234718 0.05404811 0.003630103 0.049433812 -0.009144481 0.05776977 -0.0045751203 0.049831375
0.031370785 0.04831829 -0.019010622 -0.015059345 0.07085034 -0.012421053 -0.03773351 -0.05041015
0.034592036 0.045014944 -0.040859547 -0.012322172 -0.009541463 0.04948478 -0.042045645 0.012698393
0.04212842 -0.027931353 -0.034702577 -0.05529352 -0.061339594 0.013866578 -0.033876505 -0.025154393
-0.038994245 -0.045397826 -0.0035493264 0.036495972 0.008315815 0.029801574 -0.045238446 0.013923118
0.0030108807 -0.009385653 0.019053739 0.06907833 0.017676307 -0.011723082 -0.0060431794 -0.10136068
0.023344 0.0066840523 0.021389168 -0.040353686 0.026510667 0.0041122288 -0.038589038 0.017059844
0.02435398 -0.09002166 -0.05593501 0.008157721 0.046024863 -0.006276378 0.036047235 -0.07109251
-0.026393523 0.039079953 -0.024106806 -0.036244247 -0.0020150547 0.11186633 0.009067502 0.08200788
0.045663495 0.052496437 0.039478358 0.02414598 0.05121352 0.0354608 0.056982525 -0.04939475
-0.051543962 -0.002094537 -0.016060688 -0.051538784 -0.046371765 0.039827835 0.040495556 0.041995768
-0.0045060776 0.014851134 0.077745356 -0.054186653 0.019389171 -0.004540693 -0.0040379576 -0.0052877925
-0.04949044 -0.01695429 0.008851018 0.038455274 -0.04554317 -0.004755404 0.014424897 0.045084085
0.03766601 -0.03721597 -0.050871324 0.024674267 0.036799524 0.069726676 0.0325696 0.032209978
0.0003807958 -0.022890363 0.017920826 0.024960686 -0.030505147 0.039376717 -0.0027755462 -0.041451678
0.045381162 -0.019591995 0.017327186 -0.109306134 -0.047050394 0.049455542 -0.048260894 -0.0036344845
0.0392257 -0.043041304 0.028771644 -0.020151593 0.025443075 -0.021830825 -0.025830561 0.015861686
0.03141144 -0.034365635 0.026560422 0.02937493 -0.040271237 -0.016469736 -0.012129217 -0.00094864937
0.007973492 -0.025045097 0.042905506 0.04212525 -0.019011464 0.022427475 0.04194435 0.01831029
-0.015723497 -0.042930856 0.015714068 0.014630195 0.037255537 -0.010797843 -0.030299714 -0.027841179
-0.04110173 0.01373155 0.039737027 0.03567118 -0.04859722 0.008558441 0.04164021 -0.045992825
-0.018466905 0.029359976 0.009430208 0.018045712 -0.0004895618 0.027934562 0.030274484 -0.053766478
-0.0075947195 0.017081384 -0.028183464 -0.0448809 -0.019695025 0.043141898 0.02598263 0.032446157
0.014148008 -0.044683363 -0.020496346 0.027020525 -0.00868427 0.038986158 0.04462172 -0.072068036
0.02769745 -0.008491844 -0.035101764 0.03109302 -0.029487863 0.02333291 -0.033385176 -0.003530376
-0.042006638 0.012839068 0.007205066 0.008938916 -0.006728478 -0.049692098 -0.004341842 -0.011698742
-0.022484913 -0.0056746737 0.046648387 0.015464307 -0.028838193 -0.089116335 -0.05124177 -0.02442296
0.0390048 0.011396941 -0.033002142 -0.049529243 0.052128006 0.036918614 0.02297596 -0.013263862
-0.008026984 0.032799415 0.043739457 -0.045064498 0.03986627 -0.0019499804 0.00948471 0.028322805
0.01173016 -0.05396035 -0.026363464 -0.027034713 -0.060752045 -0.053729627 0.022842592 -0.04492778
-0.012208175 -0.008279835 -0.015446375 -0.003955853 0.029730964 0.0028216613 -0.02372918 0.007486742

net.0.bias f4 [64]
00000000: 852d 18bd 4775 0d3d dc6d 483d 270c d0bb
00000010: 323b 33bd 0b88 063d b445 03bd c1a3 a4bb
00000020: 0280 4f3d 9adf c9bc 3a74 d3bc 385b 83bd
00000030: 6bcd e63c bc65 f4ba a6eb b9bc 79b8 40bd
00000040: daab 1bbd 3e72 323c df0e 36bd f12c 0ebd
00000050: 669c 3a3d 2d29 24bd a111 163d 587c f7bc
00000060: 5f84 da3c 1b3c 1bbd 07e3 dfbb 5d7f 9ebc
00000070: f14d 313d b23c ae3c 98c3 e43c e097 903c
00000080: 68ce 12bb a0c2 69bd d244 4d3d 57cf 2ebd
00000090: d8a3 663d 250e 07bd 208e 4bbd 77a3 50bd
000000a0: fa3e b2bb bc9e adba 7f17 5a3c 39cf 383d
000000b0: 5296 31bc e3cf f43c e409 10bd 4e3d db3c
000000c0: 9ea6 613d 047f 0f3d e1fa 603c 6413 113d
000000d0: f51e cfbc 06dc 373d b03d 34bc 6492 cb3b
000000e0: 7021 94bb 0a1b d5bc 0f65 1d3d 2fee 523b
000000f0: c22a e6bc 9605 0abd ccd4 623b 4319 303d
-0.037152786 0.034535673 0.048932895 -0.006349105 -0.043757625 0.032844584 -0.032048896 -0.005024404
0.050659187 -0.024642754 -0.025812257 -0.06413883 0.028174123 -0.0018646042 -0.022695374 -0.047050927
-0.038005687 0.010891495 -0.044447776 -0.03471083 0.04555931 -0.04007833 0.036637906 -0.030210659
0.026674448 -0.037899118 -0.0068324837 -0.01934784 0.04328722 0.021269176 0.027925298 0.017650545
-0.002240086 -0.057070374 0.05011446 -0.042678203 0.056308597 -0.032972474 -0.049696088 -0.050937142
-0.0054396363 -0.0013246159 0.013311266 0.045119498 -0.010839062 0.029884284 -0.035165682 0.02676263
0.05509054 0.03503324 0.013731689 0.035418883 -0.025283316 0.044887565 -0.011001036 0.0062125195
-0.0045205876 -0.02601387 0.038426455 0.0032185426 -0.02809656 -0.033696733 0.00346117 0.04299284

net.2.lin1.weight f4 [64, 64]
00000000: d92f 99bd 2eae e93c bb46 0cbe 1e1a 8039
00000010: dd3e 29bd 27b3 a53d 38dc 993d 2fc6 e2bd
00000020: 5e07 d9bd 73f5 9cbd 2aee 083e 9ee6 b83d
00000030: 8927 b73d 2b00 e0bb 03c3 b93b 9dd8 1dbb
00000040: 8ce7 c83d 660d 5d3d 8a5d 44bd a125 8a3d
00000050: f404 703d dfbb 48bd b3e7 86bd 49d6 313c
00000060: 0d67 82bd a69e 4abc faaf 4f3c 62b2 c03d
00000070: 1894 9338 8f12 0a3d 2af5 d6bc e27a 113d
00000080: ea13 00bd e966 38bc 3d45 c3bc 19e4 bbbd
00000090: dda0 253d 7060 213d d5ab 263c b3ed f6bd
000000a0: 56be 123d 9c06 a23d 21fb d6bd 5aca b7bd
000000b0: c0f9 58bd 3b3a 303d 35e9 64bd b654 f33d
000000c0: 449f 8c3d e36a 203d 06d5 7abd eb7c ef3d
000000d0: 1323 dd3d 93eb 8a3d 4e8e 7bbd 99bb 973d
000000e0: 6dee 833d 73ed c0bd 122a 603d ea67 013e
000000f0: 06fe d4bd 93e5 edbd a11a b0bd e4de 57bb
00000100: 7e69 ae3d 27c5 0ebe 04f8 89bd 141d c73d
00000110: 077b d13c c765 8c3d b559 7f3d 1c9d 9e3c
00000120: 88c6 853d 9c55 503d 1ddc c73d 1f56 ca3d
00000130: 7fb6 993d 3d7f 08be 2574 19bd aecf ca3d
00000140: f0cb e4bd afce 07be ea68 683d 3320 03be
00000150: 5911 fe3d 4d45 e7bc dec5 6f3b 06c9 54bc
00000160: 37a7 56bc 8481 cabd f8f0 843d b618 51bd
00000170: d1dd 20bc 73b5 ab3d cd7f 1cbd 8a60 d23d
00000180: d4da ecbd 9dff e73d b29e 163d a02d a2bd
00000190: 305f 823d ba8c 70bd 41ed 6ebd aee6 e53d
000001a0: cfe2 0f3d d3e9 9a3d 361c de3d 0fc0 e7bc
000001b0: 14c8 febd e8c4 c63d 9e9c 633c 2039 8cbd
000001c0: ddac b73d f794 943c d9b3 c1bd b2ef f03b
000001d0: 7db0 98bc b08d f23c 4374 b63d c16a ccbd
000001e0: 5ae0 e3bc d6ca 27bd 67ca 05bd 2c23 2fbc
000001f0: b6bb 76bd b4e5 483d 0932 31bd 21c8 84bd
00000200: 7afd 12bd 6b3a 993d 173d 08be 9b1f 57bd
00000210: 7826 593d f46d 423d ffda 18bd 0df0 ffbd
00000220: 307a 16bd da26 febd 6aff 23bd fcf1 3dbc
00000230: 652f 00be ddea 133e 20b7 573d 14fa 973d
00000240: 1b28 863c c5c9 843d d32c 1fbe d39c 553c
00000250: 6aa1 883d 0aa2 b83d 602c 093d d748 efbd
00000260: bb82 f33d cef0 bd3d 8f69 6ebd 308c 05be
00000270: aded e43d a422 a4bc 3ce8 313b 5ead 963d
00000280: 515c 93bd 7b6e e53d e6f6 18be ae8c d83d
00000290: 031b 6b3d 0a14 953d a187 d83d 3188 973d
000002a0: 3469 1dbe 691e 07be b7fd 9c3c d343 8e3d
000002b0: b452 edbd 2604 b0bd 2840 b43d 9ac0 32bd
000002c0: 2067 d0bc 69a6 733c 0af8 96bd d327 29be
000002d0: da03 f73c 68bb 943d 10f2 e3bc bc28 6c3d
000002e0: 6dd8 b83c ad77 09bd 4652 a73d ed59 223c
000002f0: e936 96bd 5fa9 bdbd d6d8 d8bd 501e 62bc
00000300: 2195 49bd 40b5 ecbb 43a4 3a3e fb90 68bd
00000310: a529 37bd 7655 ea3d e8c8 dd3d 0354 63bd
00000320: 61e4 9fbd 05b0 22bd 997e 16be 65e6 45bd
00000330: fecd fb3c 76b3 bc3d 5998 d13c 8103 ea3c
00000340: 20d0 ce3d 6864 363d 4362 abbd cdbe 643d
00000350: 9824 e43d e48a 763c 0dab ae3d 0ccf f5bd
00000360: d4db 913d c6f5 fcbd f342 b1bb 7810 d43d
00000370: 25ad 943c d419 933d ec32 adbd e196 213d
00000380: 16b1 b9bd a013 d53b 9fda 303c 8683 dfbd
00000390: 382a 4abd cb3d 17bd 867e 0b3d ae76 1d3d
000003a0: 9ece 17bd 8e1e bdbd 2e81 03bc 79c5 a3bc
000003b0: dc5e 833d a894 9b3b 91a5 a9bd e3bd 163e
000003c0: 2d4e abbd ed47 f3bc 7f85 113e 7f59 1ebd
000003d0: ee16 a83d bad8 99bd f74c c33d caad 043b
000003e0: 0edf a33d da90 a4bd 0f82 da3c fb40 6a3d
000003f0: db6f 69bd 3fb6 f4bb 82bf 56bc aa59 ddbd
-0.07479829 0.028525438 -0.13698857 0.0002443352 -0.041319717 0.08090811 0.075127065 -0.11072957
-0.10597108 -0.07664003 0.13372102 0.09028362 0.089430876 -0.0068359575 0.005668999 -0.002408541
0.09809789 0.053967856 -0.04794077 0.067454584 0.058598474 -0.049007293 -0.06587162 0.010854312
-0.063673116 -0.012366926 0.012676233 0.09409024 7.037091e-05 0.033709105 -0.02623995 0.03551758
-0.03126899 -0.011255004 -0.023836726 -0.091743656 0.040436614 0.03939861 0.010172804 -0.12057056
0.03582605 0.07911417 -0.10497118 -0.089741424 -0.052972555 0.043024283 -0.055886466 0.11881392
0.06866315 0.039164435 -0.06123831 0.11693748 0.107977055 0.067832135 -0.06141501 0.07408828
0.064419605 -0.0942029 0.05472762 0.12637296 -0.104000136 -0.116160534 -0.08598829 -0.003293925
0.08516215 -0.13942395 -0.06736758 0.09722343 0.02557136 0.0685535 0.06234141 0.019362025
0.065320075 0.050862893 0.0975878 0.098797075 0.075055115 -0.13329788 -0.03746428 0.09902893
-0.111717105 -0.13262437 0.05674068 -0.12805252 0.124056526 -0.028231287 0.0036586444 -0.012987381
-0.013101391 -0.098879844 0.06491274 -0.051048957 -0.00981851 0.08384218 -0.038207818 0.102723196
-0.11565176 0.11328051 0.036772437 -0.079188585 0.06365812 -0.058727957 -0.05833173 0.11225639
0.03512841 0.0756413 0.108452246 -0.028289823 -0.124405056 0.09705526 0.013892321 -0.06846833
0.08968518 0.018137438 -0.09458131 0.0073527927 -0.018638844 0.029608577 0.08908894 -0.09981299
-0.02781694 -0.040964924 -0.03266373 -0.010689538 -0.06023761 0.049047187 -0.043260608 -0.06483484
-0.035886265 0.074818455 -0.13304554 -0.052520376 0.053015202 0.04746814 -0.037318226 -0.12496958
-0.03673762 -0.12409754 -0.040038504 -0.011593338 -0.1251808 0.14445062 0.052664876 0.074207455
0.016376546 0.06483797 -0.15544443 0.013037878 0.06671412 0.090152815 0.033489585 -0.11683815
0.11890169 0.092744455 -0.058206137 -0.13041759 0.111781456 -0.02003605 0.002714648 0.07357286
-0.07195342 0.11202713 -0.14937934 0.105737075 0.057398807 0.07279213 0.10572744 0.07399023
-0.15372163 -0.13195194 0.01916395 0.0694653 -0.1158804 -0.08594541 0.08801299 -0.04364071
-0.025439799 0.014871218 -0.073715284 -0.16519098 0.030153204 0.072623074 -0.027825385 0.057656035
0.022564137 -0.033561397 0.08169989 0.009909135 -0.07334692 -0.092608206 -0.10588233 -0.013801172
-0.049214486 -0.007223755 0.18226723 -0.05677889 -0.04471745 0.11442082 0.108293355 -0.05550004
-0.07807232 -0.039718647 -0.1469673 -0.048315424 0.030737873 0.09213917 0.02558534 0.028566124
0.100982904 0.04452935 -0.08368351 0.055846024 0.11139792 0.015047763 0.08528719 -0.12002382
0.07122007 -0.12351565 -0.0054095923 0.10354704 0.018148968 0.07182661 -0.08456978 0.03945053
-0.090669796 0.0065025836 0.010794311 -0.10913758 -0.04935667 -0.036924165 0.03405621 0.03844326
-0.03706228 -0.092343435 -0.008026404 -0.019991623 0.06414577 0.004747946 -0.082835324 0.14720874
-0.0836452 -0.029697383 0.14211081 -0.03865957 0.082074985 -0.075120404 0.09536164 0.0020245188
0.08001529 -0.08035441 0.026673345 0.057190876 -0.05699144 -0.0074680145 -0.013107182 -0.10808118

net.2.lin1.bias f4 [64]
00000000: cf09 a9bd 87a3 1bbe 4392 8abb b328 e7bd
00000010: f5c8 c63d 57c8 9bbd 769a a53d 607e 3e3d
00000020: f157 00be 4ad9 86bd 0be7 4cbd c45c b83d
00000030: d99b 35bd 158d 873d 8d46 c83d bc28 c6bd
00000040: 8709 1c3d c651 b43c 10b3 fcbc 22da eeba
00000050: 72ef 7a3d 29a1 043e 9cd5 d7bd 9170 b73d
00000060: 2d39 c13d a83e 94bc d8fe c13d cc57 aabc
00000070: 2ae9 4b3d 193e cbbd 0463 023e 6a5b afbd
00000080: 0a74 d53b aa27 babd 3e87 7bbc ddcf db3d
00000090: 3c44 ecbd 129f cf3d 0d65 2dbd 0f3b 203c
000000a0: 3376 9abc 50f4 b6bd 619d cc3d fd84 593d
000000b0: 212b 92bd c0a2 003d 40b9 2bbd 186f cc3d
000000c0: 9778 e43d b205 84bd 74cb f6bc bb05 47ba
000000d0: 72f9 5c3d e13f 193e bab6 e73d 3d61 99bd
000000e0: 41c0 c1bc fe78 dbbd f17e c23c 29e7 053d
000000f0: 2864 043e bc64 98bc 85ed d5bd e522 ad3d
-0.08253824 -0.151991 -0.0042288615 -0.1128706 0.09706298 -0.07606571 0.08086102 0.04650724
-0.12533547 -0.06584413 -0.050025027 0.09002069 -0.04433808 0.06618706 0.097790815 -0.09675738
0.038095023 0.022011649 -0.030847102 -0.0018222968 0.06126351 0.12952103 -0.1053879 0.08957017
0.094347335 -0.018096283 0.09472436 -0.020793818 0.04978291 -0.099239536 0.12733084 -0.08562358
0.006514077 -0.090895966 -0.0153520685 0.10733006 -0.11536452 0.10137762 -0.042332698 0.009779706
-0.01885519 -0.08933318 0.09990955 0.053105343 -0.071371324 0.03140521 -0.041924715 0.09982127
0.11155813 -0.06446399 -0.03012631 -0.00075921015 0.053948827 0.14965774 0.11314149 -0.0748925
-0.023651244 -0.10716437 0.023742171 0.032691155 0.12928832 -0.018602721 -0.10445694 0.08453921

net.2.lin2.weight f4 [64, 64]
00000000: 631c c1bb e7cb 7ebd 9005 d53d 16ef 993c
00000010: 5932 51bc b6cd 00bc 7403 febc 068f 463d
00000020: a951 e73d c4b0 dcbc bdbb 2bbd dc6c 643d
00000030: 27de 953a ba20 4b3d 301b 993c f9d2 7d3d
00000040: 6bf2 aa3a 35bf cfbd 5628 8d3d d10e cebc
00000050: f358 83bc d44b b4bc 9079 7e3d d35e 1b3c
00000060: bceb 953d c4e2 04bb 249a 78bd 5bf7 933a
00000070: 0729 c03d 4149 a1bc d9c6 4fbd 297b b4bd
00000080: 101a d23d d3a8 583c 4ce1 ddbc d7f3 88b9
00000090: e124 ebbd 0d42 b63d 608c cfbd 73d5 2f3c
000000a0: 80a8 623d cd55 ae3d d7cb 6dbb 09e5 01be
000000b0: 91d8 4a3d 3891 b83d d960 c9bd a96d 95bd
000000c0: fe8e f4bd 227f bb3c 5d4e 4fbd e878 ba3c
000000d0: 25f4 90bd 36bc 9fbd 3c1f 07be 6e2c 043e
000000e0: 3418 c9bd 6b69 9bbb 269a 9c3d b2b9 88bd
000000f0: b864 59bd 74ed af3d 575f 57bd 5431 5cbd
00000100: ca35 ae3d 491b 0e3c bef3 23bd 976f 0ebc
00000110: 06b4 4cbc 1f25 d2bd d7a5 cebd 1e35 e43d
00000120: 9895 3c3c ece9 f43c 4057 3e3c fe26 babb
00000130: daa1 883d 1cd7 f83a 1da8 053d 59ce a3bd
00000140: 543a 753d 22d2 843d 7b4d 0dbc 8ab8 abbd
00000150: d84c 12bd 3f7c 813d 413f 40bd d5ae 013e
00000160: 3251 743d c6d2 95bd 8257 3dbd d080 e43d
00000170: 5502 aa3d df10 3e3d 6181 893d adb0 d33d
00000180: ba33 82bd ffe5 ee3c cb5d 8d3d 873b a03d
00000190: 078b e63d 8f50 423c ec29 aa3b df1f 2d3d
000001a0: 426e 793d 43e9 933d 49c4 0a3e 3096 c13c
000001b0: 510f 3b3c 7392 d3bd 0c27 243d 0e1f 903d
000001c0: b2af b0bd 23d3 7fbd 67ce ecbd 3e53 cd3c
000001d0: 85bb f8bd 6d86 07bd 37c3 003e f005 0cbe
000001e0: ef4a 463d 7b5b afbd f719 4fbb bc58 483d
000001f0: 3f42 e6bd 1ab6 debb 2b26 f6bb fb15 91bd
00000200: 07bb cfbd 1f20 9a3d 14c5 ac3d 390e 98bc
00000210: 9c73 ff3d d5c7 2dbd 0dad 723d ad70 a43d
00000220: 9dbc c7bc 2043 d9bd c759 17bd 1dd1 7a3c
00000230: 3f86 a4bd 17d6 03be a36e 823d 901a b0bd
00000240: 6699 443c c6bb 0cbd 5cc5 7d3c 93cf fdbc
00000250: 52a3 03be e985 ff3d c704 8ebd bd9d 973d
00000260: b0ce c53c 22b0 83bd b19b 003c c09c bebd
00000270: 77dd 603c f448 183d 0e8a cabd 55f3 2dbd
00000280: 936d ec3d 28cd d03c a267 e4bd 4789 b1bc
00000290: 1612 143e 8a64 7e3d 68a6 62bd 78f1 083d
000002a0: 5a58 19bd e55f fbbd 4e64 c4bd 5058 17bd
000002b0: 8868 10be 6fee 09be 4c6d 103d 2577 e8bb
000002c0: 1195 e33d 196a d63d a84e c0bc 2152 c93d
000002d0: 9501 1fbd 3d96 0ebe 06ed 7f3d 8562 b03d
000002e0: e8e4 b5ba ae9b 8d3c 7821 83bc 4132 dcbd
000002f0: c28b e4bd 0fa5 873c b412 0fbe 069c 293d
00000300: 0960 e2bd 6951 29bd fd59 4cbb 3748 01bc
00000310: 547e 6bbd 8bd2 e53d 18a1 64bc 174b fb3c
00000320: e221 ef3d 0e74 cfbd 766f 93bd 0c29 bbbc
00000330: 164b 413c 76db 93bb 269f 3cbc e333 a1bd
00000340: 35c1 1f3d c91e 10bd 8aec c0bd 51b8 773d
00000350: 46f3 1abd df0d abbd ac08 c4bd a69e 923c
00000360: 275d d6bd 0fd6 dd3d fad2 f73b bd5c 763d
00000370: b363 4f3d 57e5 273e a6b7 b6bd c8d6 5c3d
00000380: 89ed d1bd 1a96 88bd 44f1 6cbd 3eaf 42bb
00000390: 7d7f b6bd 8a5b b0bd 8206 a83d e809 a1bd
000003a0: 81c7 8b3d 260f d23d ac02 f03d 82d1 c4bc
000003b0: 23ae c7bd 2472 813d 865f ddbd 56e5 113e
000003c0: 3ed3 8c3d 774f ffbd 9961 eb3d 532c 81bc
000003d0: b1f2 bb3d c7a6 c03d 7569 fcbd d91a 053d
000003e0: da2d e83b 1fe8 81bd 9cac 993c 31e0 813d
000003f0: 4d19 e8bc 7919 80bd fdfc 11be 6b6b 8abd
-0.0058932765 -0.062206175 0.104014516 0.018790763 -0.0127683515 -0.007861545 -0.031007506 0.04847624
0.11294872 -0.026939757 -0.041927088 0.05576788 0.0011434004 0.049591757 0.018689722 0.061968777
0.0013042217 -0.10143892 0.06892459 -0.02515355 -0.016033625 -0.022008814 0.06212765 0.009483057
0.073203534 -0.0020276764 -0.060693875 0.0011288928 0.09382825 -0.01968825 -0.050726745 -0.088125534
0.10258877 0.013223845 -0.027084969 -0.00026121616 -0.114816435 0.08899317 -0.10134196 0.010732043
0.055336475 0.08512459 -0.0036284828 -0.12685026 0.04952294 0.09012073 -0.09832925 -0.07296307
-0.11941336 0.02288777 -0.050611842 0.02276273 -0.07077817 -0.0779957 -0.13195509 0.12907574
-0.098190695 -0.0047427914 0.07646589 -0.066760436 -0.05307457 0.085902125 -0.052581158 -0.05375798
0.08506353 0.0086734975 -0.040027373 -0.008693597 -0.012494093 -0.102609865 -0.10090225 0.11142944
0.011510275 0.029896699 0.011617482 -0.0056809178 0.06671496 0.0018985006 0.03263103 -0.07998342
0.05987008 0.06485392 -0.00862443 -0.083848074 -0.035717815 0.06322526 -0.046935324 0.1266435
0.059647746 -0.073155925 -0.046226032 0.111573815 0.08301226 0.04640281 0.0671413 0.103364326
-0.06357522 0.029162405 0.06902655 0.07823854 0.11256986 0.011860027 0.0051929858 0.042266723
0.060896166 0.072222255 0.1355144 0.023631185 0.011417226 -0.10330667 0.0400763 0.07037173
-0.08627261 -0.062457215 -0.115628056 0.025064107 -0.121451415 -0.033087183 0.12574469 -0.1367414
0.048411306 -0.085623704 -0.003160117 0.04891275 -0.11243104 -0.0067966105 -0.007511874 -0.070842706
-0.101430945 0.07525658 0.08436027 -0.01856147 0.124732226 -0.042426903 0.059247065 0.08029304
-0.02438193 -0.10608506 -0.036950853 0.015308646 -0.08033418 -0.12874638 0.063687585 -0.085988164
0.011999464 -0.034358762 0.015488949 -0.030982768 -0.1285527 0.12476713 -0.06934505 0.07403133
0.024146408 -0.06430079 0.00784962 -0.093072414 0.013724676 0.03717895 -0.09889613 -0.042468388
0.11544337 0.025488451 -0.11152579 -0.021671904 0.14460024 0.0621076 -0.05533448 0.033433408
-0.037437774 -0.1227415 -0.09589444 -0.036949456 -0.14102376 -0.13469861 0.035260484 -0.0070942813
0.111124165 0.10469455 -0.023475006 0.09830118 -0.038819868 -0.13924499 0.062481903 0.08612541
-0.0013877423 0.017286148 -0.01600717 -0.10751773 -0.11159469 0.016558198 -0.13971978 0.04140856
-0.110534735 -0.041337404 -0.0031181567 -0.0078907525 -0.057493523 0.112217985 -0.013954423 0.030675454
0.116763845 -0.101295575 -0.07198994 -0.022846721 0.011797687 -0.0045122458 -0.011512553 -0.07871225
0.039002616 -0.03518561 -0.09420116 0.060478512 -0.03782966 -0.08352255 -0.095719665 0.017897915
-0.10466986 0.10831844 0.007562992 0.060147036 0.05063219 0.1639608 -0.08921747 0.05391577
-0.10250384 -0.066692546 -0.057847276 -0.0029706503 -0.08911035 -0.0861121 0.08204366 -0.078632176
0.06825162 0.102567956 0.117192596 -0.024025682 -0.09750011 0.06320599 -0.10809235 0.14247641
0.06876229 -0.124663286 0.11493225 -0.015768206 0.09177149 0.0940681 -0.12324802 0.032496307
0.007085544 -0.06343102 0.018759064 0.06341589 -0.028332377 -0.062548585 -0.14256664 -0.067587696

net.2.lin2.bias f4 [64]
00000000: da0a cfbd f755 d03d b447 b03d 62e1 07bd
00000010: 4d9e 803d 5fe9 85bc 9df5 05bd a4ec d5bd
00000020: 5392 1dbc 456f e5bd 953c 9c3d 2035 0a3d
00000030: 9162 3c3c d30b cf3d c8df cc3b 1524 77bc
00000040: 201e 26bd bddd 4e3d 1d0f 573d 4ad5 ddbd
00000050: 152b 043d 435c 303d e350 18bd 7927 bb3b
00000060: 69eb d9bd 9ff2 d2bd 33df 1d3c 2955 a33d
00000070: a6e9 0cbc 0ad6 533c f270 af3d 482c 8cbd
00000080: 3906 d8bd 5106 c9bd 981b 923d 6956 c6bd
00000090: 642c 913d 65cd d7bc 537a dbbd 6a93 41bd
000000a0: 2e39 d5bd 3376 9fbd 53d1 95bd da8f 6d3b
000000b0: cc2f fb3b 2f42 bdbd d1c8 8dbd e9e0 27bc
000000c0: 2caf a0bd eb8f 593d 1950 4bbd 86ef 373d
000000d0: 4877 2e3c 1f4c 3c3b 0ad6 67bc 3c8a d73d
000000e0: 0e13 bbbd 8dc0 003e 8dad c6bc 6b89 a73d
000000f0: 129c cc3d 5d47 4cbd 187d a3bd 0d6a 723d
-0.10109492 0.101726465 0.08607426 -0.033173926 0.062801935 -0.016346632 -0.03270494 -0.10445526
-0.009617406 -0.112028636 0.076287426 0.03374207 0.011498109 0.10109677 0.0062522627 -0.015084286
-0.040556073 0.050504435 0.052504648 -0.10831697 0.03226765 0.043056738 -0.037186515 0.0057114926
-0.10640604 -0.103001826 0.009635734 0.079752274 -0.008600628 0.012929449 0.085664645 -0.068443835
-0.10548062 -0.09815658 0.07134169 -0.0968445 0.07088545 -0.026343057 -0.10716691 -0.047259726
-0.10411297 -0.077862166 -0.07315316 0.0036249072 0.00766561 -0.09241139 -0.06923068 -0.010246494
-0.078459114 0.053115766 -0.049636934 0.04490616 0.010648556 0.0028731895 -0.014150152 0.10524413
-0.09134494 0.12573452 -0.024252677 0.08180507 0.099907055 -0.049872745 -0.07982844 0.05918317

net.3.lin1.weight f4 [64, 64]
00000000: 34d9 d6bd a1a2 703d 0621 813d aa1e ad3d
00000010: 9525 eebc 5f32 de3d ef09 84bd f469 debd
00000020: 31b3 d9bd ece0 c6bd 223b fd3c 9b0c aa3b
00000030: 9a84 fbbd 0a7e ad3c 892a acbb 2b04 d1bc
00000040: 6741 b53c 00cb 9abd d4b8 35bc 733c a5bc
00000050: 7ab6 d7bd 069c 1b3d 5d7e 733d f3c5 edbd
00000060: 9106 1e3d 82ca f9bd 4e5a 0bbc d516 11bd
00000070: facc e1bc 55aa 52bd 0570 193d 9f27 0c3d
00000080: f5e7 823d 1118 c4bb fb56 17bd 9736 763d
00000090: 04b3 563d 9552 07be beaa 3abd 7d15 b3bd
000000a0: 6bff 283d d14f febd f651 783d 1e47 05be
000000b0: e238 a03d 4e0d 883d e31c a6bd 06f0 20be
000000c0: 14c4 1f3d 14fe 31bd 44b4 963d 6923 6b3d
000000d0: dddf e7bd a83c a2bd ab60 38bd b6a8 42bd
000000e0: 4c92 8e3c f509 153d 94d7 0839 790c c0bc
000000f0: f741 bcbd 18d2 5cbd bf70 1fbd 8a67 c53a
00000100: 783f 8b3d 4291 c03a 7c12 14be 6e38 f0bc
00000110: 4b76 df3c ad80 cf3d 2029 e73d 28ee 9c3c
00000120: df0a c2bd 6aac 77ba 0811 f53d db1a c33b
00000130: 648f 8cbc 034c 80bc be2a 2dbd a72e 9bbd
00000140: fb41 b3bd 2107 07be d4c9 103d 1098 943d
00000150: 5c57 093c fb2d a23d e41a 8ebd adc9 9ebc
00000160: c94d 933d 6851 6a3d 8b9e 5e3b 0530 c2bd
00000170: cb63 473d 561a 503d 0e9d 28bd 2568 543c
00000180: 799c dfbd be17 c33d 0b86 efbd f95b ea3d
00000190: d80f 0abe 56f5 8d3d 9910 6e3d 5532 573d
000001a0: 9ade d03d 5f66 febc e492 963d ee28 1abd
000001b0: 8059 74bc b001 123c 086a b03c 491b 3c3d
000001c0: cd67 34bd 08dd aa3d 93e3 ce3d 5c2c 803d
000001d0: 7dcc 11bd a139 083d 0464 0b3d 4351 90bd
000001e0: 92db 40bd fbc3 39bd 2642 d6bc 45ee 2a3d
000001f0: c976 cf3c 94b9 d63c d798 1bbc b40c c9bd
00000200: d596 cc3b d321 eb3c 51cf a13c 6b30 2f3d
00000210: ef75 edbc 9ca3 a33c a365 593d 5e13 92bd
00000220: b359 b7bd cc83 e93d fb3b 8d3c 7af8 2f3d
00000230: 7ee5 c6bc 5886 b6bd 1f0c dc3d 6895 6f3c
00000240: 55a8 a8bd 0d1f db3d 6e0b ba3d 3657 02bd
00000250: 9b1d 673d 7190 a7bd 03dc d3bd c671 043e
00000260: 9ae4 1b3c 4d34 4d3d 8f28 a83d ca8d b63d
00000270: 55f0 e13d f717 06be 0823 163d 15dc 9b3a
00000280: f6b1 8a3d 54ad b8bd 0d26 e9bc e7d2 92bd
00000290: 71a7 f43d 3dfb 7abb 09e1 91bd 3786 bebd
000002a0: 95e9 973d 95b5 223d 1478 e43c 118e bbbd
000002b0: c141 ae3d 671b 663c d068 08bd 4638 23be
000002c0: 333f 34bd b0e8 ddbd c57a 12bd 2a18 bf3c
000002d0: b25a 5b3c 821d a23d b32d 93bd 4304 b7bd
000002e0: a6c6 0439 b17c 483d 8712 2ebb 04ac d23d
000002f0: a809 6fb9 9114 3abd ba94 723d d277 f03d
00000300: d23e ac3d d20c d7bc 8b56 04be 04b0 04be
00000310: 83cc c83c b5cf 89bd 69e3 df3d 7611 a5bc
00000320: 0f27 9a3b dead d63d cb2b a93d abe0 a4bd
00000330: 65b1 99bd 6b6a d83d adad 1d3c 9c6e f63b
00000340: a5c6 a93d 76d9 0fbb 1b47 b5bd d7c0 e13c
00000350: 9fc6 3a3d 4b30 ae3d 0c04 ecbd 7750 013e
00000360: d961 263d e332 3f3d 6a96 e23d dd89 823d
00000370: cbf5 443c 803d 7ebc b504 da3c 45f3 2c3d
00000380: b602 d8bd ff87 bebd efc8 c43d 19b0 cebd
00000390: 7ecd f73d 366b 4b3d 2404 53bd 1be6 26bd
000003a0: db0b bebd 95f9 f6bc af1c c93d d645 d23d
000003b0: 8ca6 f43d d5b5 67bd 97f0 2dbd c2d3 e1bc
000003c0: e067 7f3d f5f6 d8bc 72ef c83c 55a0 173d
000003d0: fe5d 8c3d 51ef 4fbd fb81 a23d 6c76 fcbd
000003e0: a121 edbb 4cc2 133c 627d a5bd 24e1 b83d
000003f0: 51bb 883d f2db f63d 6962 5bbd eecc ef3c
-0.10490647 0.058748845 0.06305127 0.08453114 -0.029070655 0.10849451 -0.06447207 -0.10860053
-0.10629881 -0.09710869 0.030911986 0.005189491 -0.12281151 0.021178264 -0.005254094 -0.025514683
0.022125913 -0.075582504 -0.01109143 -0.020170426 -0.105328515 0.037990592 0.05944668 -0.116100214
0.03858048 -0.121968284 -0.008505417 -0.035422165 -0.02756356 -0.051431973 0.037460346 0.034217473
0.063918985 -0.0059843143 -0.036948185 0.060110655 0.052416816 -0.13215096 -0.04557299 -0.08744333
0.04125921 -0.124175675 0.06062504 -0.1301541 0.078233495 0.06643163 -0.081109785 -0.15716562
0.039005354 -0.0434552 0.07358602 0.057406817 -0.113219954 -0.079217255 -0.045014065 -0.047524177
0.017403744 0.03638645 0.0001305028 -0.023443447 -0.09192269 -0.0539113 -0.038925882 0.0015060764
0.06799215 0.0014691728 -0.14460176 -0.029323783 0.027278086 0.10131965 0.11287141 0.01915653
-0.0947473 -0.0009447994 0.11966139 0.005954129 -0.017158218 -0.015661245 -0.04227709 -0.075772576
-0.08752819 -0.13186313 0.03534873 0.07255566 0.0083826445 0.07918926 -0.06938723 -0.019383276
0.07192571 0.05720654 0.003396901 -0.09481815 0.048679154 0.050806366 -0.041165404 0.012964283
-0.10918517 0.09526013 -0.116954885 0.11443324 -0.13482606 0.0693156 0.058121298 0.052538235
0.10198708 -0.031054674 0.07352236 -0.03763669 -0.014913917 0.008911535 0.021534935 0.04592446
-0.044044305 0.083429396 0.10102 0.06258461 -0.035595406 0.033258084 0.03403093 -0.070467494
-0.0470844 -0.045352917 -0.026154589 0.041731138 0.025325196 0.026211537 -0.009496889 -0.09816876
0.0062435665 0.028702652 0.019752176 0.042770784 -0.0289869 0.019975476 0.053075444 -0.071326
-0.08952656 0.114020914 0.017240515 0.042961575 -0.024279352 -0.08912343 0.107444994 0.014623024
-0.08235232 0.10699282 0.09084211 -0.031821452 0.05642472 -0.08181847 -0.10344698 0.12934026
0.009514952 0.050098706 0.08210861 0.08913763 0.11032168 -0.1309508 0.036654502 0.0011891151
0.067722246 -0.09017435 -0.028460527 -0.07169133 0.119459994 -0.0038296722 -0.07123 -0.09302943
0.07417599 0.03972395 0.027889289 -0.091579564 0.08508635 0.014044619 -0.033303082 -0.15939435
-0.044005584 -0.10835397 -0.035761613 0.023326952 0.013388323 0.079157844 -0.07186451 -0.0893636
0.00012662503 0.04894704 -0.0026561336 0.102867156 -0.00022796413 -0.04542977 0.059223868 0.11741604
0.084104195 -0.02625123 -0.12923639 -0.1295777 0.024511581 -0.0672907 0.10932047 -0.020149928
0.004704363 0.10482381 0.08260306 -0.080506645 -0.075045384 0.105671726 0.009623927 0.00752051
0.082898416 -0.0021949685 -0.08851453 0.027557774 0.045599576 0.08505305 -0.115242094 0.12628351
0.04062066 0.04667939 0.110638455 0.063739516 0.012021492 -0.015517592 0.026613573 0.042224187
-0.10547392 -0.09303283 0.096086375 -0.10092182 0.120997414 0.04966279 -0.05151762 -0.04074679
-0.09279605 -0.030148307 0.09819924 0.102672264 0.11945829 -0.056569893 -0.042465772 -0.027566794
0.062354922 -0.026484946 0.024528239 0.03701814 0.06853865 -0.05076534 0.07934948 -0.12327275
-0.007236675 0.009018492 -0.080805555 0.09027317 0.06676353 0.1205367 -0.053560648 0.029272523

net.3.lin1.bias f4 [64]
00000000: 59f9 d33c 87ec 55bd a04a bdbd efcd 633d
00000010: 0ed3 b83c a802 d9bc a52a 8cbd f04a c23d
00000020: c9f0 dabd c105 2d3d a2dd f93d 2ef7 07be
00000030: f231 b13c acd8 5d3b 6ef4 b83d 7c8b 59bd
00000040: 2e81 ac3d 144f b7bd 75e0 a33d b007 89bd
00000050: fb29 5abc 583a dbbd 6099 a5bd b8f5 b23d
00000060: 6cac d03d 2dae a9bd 7c5d 08bd f2aa 013e
00000070: f7d6 aabc bee3 04be 8ac8 c2bd 2ce0 2bbd
00000080: 3df7 8bbd 0c04 903c 4b85 cabd b1e2 fdbd
00000090: 5ae6 a6bd 71da 713d bf60 e63c e9e3 8dbd
000000a0: 66b4 c8bc 8a94 db3d f66b 303c b36f 703d
000000b0: 0c60 cd3d 58a0 c3bc 34ff 3cbd 5a7f 4a3d
000000c0: de15 73bc 680e 68bc 746d ea3d 9df5 48bc
000000d0: b542 263d 6def 01bd 9311 9a3c 96ae e03d
000000e0: 7971 56bb 9d68 f23c bde8 3bbc e7d6 0ebd
000000f0: 5329 a23d 41da 2ebd d327 e2bd cc46 b1bd
0.025875734 -0.052227523 -0.09242749 0.055616315 0.022561576 -0.026490524 -0.06844071 0.094869494
-0.106904574 0.042241815 0.12200476 -0.13277885 0.021630261 0.003385107 0.09030996 -0.05311154
0.084230766 -0.0895063 0.08001796 -0.066909194 -0.013315673 -0.107044876 -0.080858946 0.087382734
0.10189137 -0.082851745 -0.03329228 0.12662867 -0.020854456 -0.12977502 -0.09510906 -0.041961834
-0.06834266 0.017580055 -0.09888705 -0.123967536 -0.08149405 0.059046213 0.028122304 -0.06928236
-0.024500083 0.10721691 0.010767927 0.058700275 0.10028085 -0.023880169 -0.04614182 0.04943786
-0.0148367565 -0.014163591 0.11446658 -0.01226559 0.04059096 -0.031722475 0.018807208 0.109707996
-0.0032721444 0.0295909 -0.011469063 -0.034872916 0.07918038 -0.042688612 -0.11042752 -0.086560816

net.3.lin2.weight f4 [64, 64]
00000000: a12b 023e 96b5 643b 92fd cabd 575f 89bd
00000010: fd62 bd3c f5a9 1b3d cb59 93bc cb54 a3bd
00000020: 80c5 4c3d 639b 8fbd c922 193d 0625 7ebd
00000030: a8e0 1d3d 3f91 35bc 8c42 773d 363f 9e3c
00000040: c9d3 3cbd eeab 0e3e c6b9 cc3c 11cd 7fbd
00000050: 78e7 4f3d 507c 003e b11e 383d 4bec edbd
00000060: 2190 e83d d0c8 c83d 5129 79bd 6d34 b2bc
00000070: aa48 8d3d 5019 923d 347b 9d3d f823 d4bd
00000080: 579d b5bc 6b4e 963c d536 59bc 0869 79bd
00000090: e89c 273d 0c0c ba3d 5494 00bc c6a0 91bd
000000a0: 356f 88bc b094 04bb 7ff9 d03c 3521 133c
000000b0: 9ff5 e6bd 25fd 6dbd 4f4e a13d 06e8 6dbd
000000c0: 6fb4 66bd f870 20bc da13 183c 8b87 1d3d
000000d0: e053 593d 431d a5bd ec28 e5bd f305 cabd
000000e0: 6e66 d63d 48dc 05bd 9562 9f3d bf5c e13d
000000f0: 99ae cc3c 3b03 59bd b5fd 443c bab2 ad3d
00000100: 0c1d 8e3d 7d63 86bc d64b e2bc 891f a23d
00000110: 3dd0 b5bd dd8c 1a3d 19af 4abc a142 e0bc
00000120: 190b e5bd afbe 4bbd bef4 e5bd 3f61 2e3d
00000130: 0ea5 45bd 4706 ef3d 0d18 df3d 7a36 463d
00000140: b1c9 edbc fe37 6bbd 9665 e2bc ac9f c9ba
00000150: 1fd4 c5bd 999d 253c 0493 f5bd 9447 89bc
00000160: 0a57 043e f2f6 643d 7ea4 98bd 2efd 25bd
00000170: 622e d83c df47 373d 8366 183d 70e9 0abd
00000180: 1fa6 98bc e0da dcbd 44e7 9cbd 7c0d f5bd
00000190: 82dd 613d 34c1 043e 21d0 3dbd 8d22 c73d
000001a0: 452c 063c 757c b23d e755 463d 8c3c 04be
000001b0: 1b92 6f3d bbfa 923c b499 8fbc 0b76 323d
000001c0: 8c90 dfbd 6ac0 c63d 82e5 10bd abce be3d
000001d0: e9cf a93d 4601 cbbd 565a f8bd 95ef 9ebc
000001e0: f693 a93c fb57 d93b a61d f3bd 43d2 d23d
000001f0: 1d30 b5bc 63d1 d43d 7789 efbd c350 db3d
00000200: e4aa 833d f542 763d d29b b8bd 069b 4bbd
00000210: 4448 3f3d f3c1 593d baef 36bd 4445 a8bc
00000220: 43f1 913d e7d1 a73d c09e c2bd d862 e5bc
00000230: 0eab 30bd 5bfa e7bd 4b47 813d 57ed 1e3e
00000240: 866e 723d 4635 40bd f96f 6dbc 227c b23c
00000250: ecba 66bd b2ef acbd 8ae3 6d3d ae88 c5bb
00000260: 4999 ce3d 62b6 15bd 91e0 e2bc caae 003d
00000270: fd27 89bd 5312 ba3d f429 fe3c 7a10 c93d
00000280: 084c 18bd 2f22 d33d d431 a9bd ba94 cd3d
00000290: 1fa8 19bd 31c9 a3bc 7ce7 a0bd 1169 5b3c
000002a0: 4f56 27bd b0f3 853d b5db 073d 61ed adbd
000002b0: 8323 41bc 8598 bc3d e573 b4bd 91b1 b3bd
000002c0: 2ca8 7cbd dc56 30be 0d4b a73c 02c0 f8bb
000002d0: 9738 65bd 7349 eebd 3940 5a3d a38a dfbd
000002e0: 4eac 963d 9896 8ebd 0200 663d ace6 1abd
000002f0: 3f1a b4bd d234 ba3d 559e 84bd 8fc2 f53d
00000300: 9dc2 273d f641 0cbd bb9d f73d 4e51 9fbd
00000310: 2f14 0ebe f60a fdbc 5062 d53d 09a8 87bc
00000320: f030 a1bd 0228 db3b 25e5 c63d e3ed 6dbc
00000330: 8e57 9d3d d63c a0bd 456e 853c a4e1 56bd
00000340: e250 3c3d 4641 cd3d 669b 013e d0d7 d23c
00000350: 4706 b93c 7609 99bd ec96 a63c 7265 a83c
00000360: 5136 90bb 5283 1a3c 9bca 793d 9a21 34bd
00000370: 8c6d 98bd 904d 46bd c122 ef3c c04d 94bd
00000380: dfe3 ab3d c968 c03d 3e57 cc3c c104 aa3b
00000390: 754e 4cbc af6b 6d3d 516d 913b 9275 df3d
000003a0: 340c 003e c054 2abc 2bc8 90bd e25d a1bc
000003b0: 5ea3 e4bd 4e4c c6bc a142 b33d e464 933d
000003c0: 3652 ea3c 4c1c efbd d4ab c6bb 9c83 df3d
000003d0: 74e8 263d 17d5 0e3d 6ce1 e9bc 5ed3 f5bc
000003e0: 3388 c7bd 207d c1bd ad25 49bc 598b e63c
000003f0: 4706 13be aacb 1fbd 8ce4 323d 9ed3 a83c
0.12711956 0.0034898273 -0.09911646 -0.06707638 0.02311849 0.03800388 -0.017987153 -0.07975157
0.04999304 -0.070120595 0.03738669 -0.062047027 0.038544327 -0.011081993 0.0603662 0.01931725
-0.04610041 0.13932773 0.024990927 -0.062451426 0.050757855 0.12547421 0.044951145 -0.11617335
0.113556154 0.09803927 -0.060830418 -0.021753514 0.06898625 0.07133734 0.07689515 -0.10358423
-0.022169752 0.01834794 -0.013257702 -0.06089118 0.04092112 0.09084329 -0.007847864 -0.07110743
-0.01665459 -0.0020230226 0.025509594 0.008980085 -0.11277317 -0.058102746 0.07876264 -0.058082603
-0.05632442 -0.009792559 0.009282077 0.038459342 0.053058505 -0.08062222 -0.11189446 -0.09864416
0.10468756 -0.03268078 0.07782475 0.11004018 0.024985598 -0.052981596 0.012023379 0.08481355
0.06939134 -0.016404862 -0.027624052 0.07916171 -0.08877609 0.037731994 -0.012370848 -0.027375521
-0.11183757 -0.049742397 -0.112283215 0.04257321 -0.04825311 0.11671119 0.10893259 0.048391797
-0.029026838 -0.057426445 -0.02763633 -0.0015382669 -0.096595995 0.010108375 -0.11990932 -0.016757764
0.12923828 0.055899568 -0.074532494 -0.040524654 0.026389305 0.044746276 0.037207138 -0.03391403
-0.0186339 -0.107839346 -0.07661298 -0.119654626 0.055142887 0.12964326 -0.046341065 0.09723387
0.008189266 0.087151445 0.048421767 -0.12913722 0.058488946 0.017941823 -0.017529346 0.043569606
-0.10916242 0.09704669 -0.035375126 0.093167625 0.08291609 -0.09912352 -0.12126605 -0.019401351
0.020700436 0.0066328025 -0.11870889 0.102940105 -0.022117669 0.103915 -0.11696141 0.107087635
0.06429079 0.06012245 -0.09014095 -0.04970839 0.046699777 0.05316348 -0.044662215 -0.02054084
0.07126095 0.081943326 -0.095029354 -0.028001234 -0.04313188 -0.113270484 0.06312426 0.15520225
0.059187435 -0.046925806 -0.014492028 0.021787707 -0.056330606 -0.08444156 0.058078326 -0.0060282564
0.100878306 -0.036550887 -0.027694972 0.03141669 -0.0669708 0.09085526 0.031025864 0.09817596
-0.037181884 0.103092544 -0.08261457 0.10038133 -0.03751385 -0.019993396 -0.07856652 0.013391749
-0.040853795 0.0654062 0.033168513 -0.08492542 -0.011788252 0.09208778 -0.08811168 -0.087741025
-0.06168382 -0.17220634 0.02042153 -0.0075912485 -0.05596217 -0.11635103 0.053283904 -0.10915115
0.07357083 -0.06962317 0.05615235 -0.037817642 -0.087940685 0.09092106 -0.06475512 0.12
0.040957082 -0.034242593 0.120906316 -0.077791795 -0.13874887 -0.030889016 0.10419142 -0.016559618
-0.07870662 0.006688119 0.097116746 -0.014522049 0.07682715 -0.078241035 0.016287932 -0.05246128
0.045975573 0.100222155 0.12656936 0.025737673 0.022586001 -0.07472508 0.020335637 0.020556185
-0.0044010063 0.009430723 0.060984235 -0.043977357 -0.074427694 -0.048413813 0.029191377 -0.07241392
0.08393072 0.09394986 0.024943944 0.005188555 -0.0124698775 0.057964023 0.0044380804 0.10911097
0.12504655 -0.010396183 -0.07069429 -0.019698087 -0.11163972 -0.024206307 0.08752943 0.07196978
0.028603654 -0.11675319 -0.006062964 0.10913774 0.04074903 0.034871187 -0.028549872 -0.030008014
-0.09742775 -0.09447694 -0.012277049 0.028142618 -0.14357863 -0.03901259 0.04367499 0.02060872

net.3.lin2.bias f4 [64]
00000000: d279 b33c 0dad 0c3e fbf2 c9bd 0cd3 c83d
00000010: 6eb1 403d ab2d 20bc 3a36 a1bd 1fa2 b0bd
00000020: ce43 a63d 2a23 e23d ca97 e6bd 9a2f 223d
00000030: a2ea 9abd 295c af3a 1dd2 c13d 0503 083d
00000040: 48ee d6bd e359 e43d 05c6 02be cec5 62bd
00000050: 98c3 d53d c381 50bc 503b c83d 095e 0cbe
00000060: d589 93bb a1c9 64bc 89cb c7bd 58f1 da3d
00000070: c2e0 da3c 2763 08be d75a d0bd 7be5 0b3e
00000080: e04d 3abd 2a64 a8bc 6a5c 0c3e ea92 07be
00000090: dd13 673d c549 0cbe 21d2 833d ab2a 813d
000000a0: ee91 52bd f9a8 7e3d 9bbd 923d 371d bc3c
000000b0: c04c e23d 7f42 17bd f93b 95bd 802e 8e3c
000000c0: 7dff be3c ac34 943d c4bf ee3d bf28 9a3b
000000d0: 5435 9fbd e6d2 0b3d 3201 64bd 5e9a 8c3d
000000e0: a405 a73d 21d7 ca3d 5831 a3bd 2a86 a3bd
000000f0: 22f7 70bd 3b7c 233d 67f3 f03c cbd3 0a3e
0.021908674 0.13737889 -0.09860798 0.09805879 0.04704421 -0.009776513 -0.07871671 -0.08624672
0.081184015 0.11041863 -0.1125942 0.039596178 -0.07564284 0.0013378906 0.09463904 0.033206005
-0.10494667 0.11149957 -0.12770851 -0.055364423 0.10437697 -0.01272625 0.09776938 -0.13707747
-0.004502515 -0.013964088 -0.09755618 0.10690564 0.026718501 -0.13319074 -0.10173576 0.13661759
-0.045484424 -0.020555574 0.13707128 -0.13239637 0.056415427 -0.13700016 0.06436563 0.063069664
-0.0514087 0.062172864 0.071650706 0.02296315 0.11049795 -0.03692865 -0.072868295 0.017356157
0.023315186 0.07236609 0.1165767 0.0047045643 -0.077738434 0.034136675 -0.055665202 0.06865381
0.08155373 0.09904314 -0.07968396 -0.07984574 -0.058829434 0.039913397 0.029412938 0.13557355

net.4.lin1.weight f4 [64, 64]
00000000: 60f0 163e 0412 92bd 1120 b13d 0452 7bbd
00000010: d997 da3c 4bc3 4dbb cbed 9abd 935e f63d
00000020: a57f a53d 5a24 25bd d8d1 1c3e ab07 5d3d
00000030: e432 e5bd 5e47 cabd 92fd 873d a6ad aa3a
00000040: 12a4 e5bd eae2 be3d 93db 9abd 8a12 d43b
00000050: 11e0 fcbd 80c4 b9bc a51a bbbd fe62 113e
00000060: ae21 843c 75cf fcbc 5864 d1bd 3b48 823c
00000070: 9d89 c83d 0c6e 9e3c aa40 b03d 957d 0fbe
00000080: 7a8e ff3d 1f81 76bd 82ec 703d 7415 ed3d
00000090: 1a0f a0bc 6c45 6b3d 981d 053e ab43 aa3c
000000a0: e289 9b3d c7fc cbbc fc7e 5abd 532b 503d
000000b0: e5dc b4bd 43f4 e0bd c5d7 2c3c 865f 733e
000000c0: eb1d 0fbd e251 653d d3df ab3d 7407 43bd
000000d0: b481 8dbc fa6f d7bd 9619 56bc b385 b93d
000000e0: ce02 953d cb2b fa3d b33d 033d 8787 823d
000000f0: 6278 a43d acc3 4f3d 79b8 333e 9001 61bc
00000100: 11b2 a8bd 6505 cb3c 7f66 81bd 1a4b 38bd
00000110: f583 cebc fdc4 83bc bc8b 8a3d ed5b 02be
00000120: 99f0 ec3d e42a 013d 2ce1 a03b c18f bf3c
00000130: 1f9d 6c3d de10 9b3d b6e7 01bd b932 ac3d
00000140: 6286 6cbd 27a2 cbbb ace6 c0bd 3e70 edbc
00000150: 0e56 033e 7948 b7bd 01b0 87bd 03e7 a63d
00000160: de15 89bd a0dc 983d aa79 5b3d 3af0 0d3d
00000170: 5dce c53a 1a3c 8dbd 6d16 7fbd d3fc cdbb
00000180: ab91 2abd 4fe2 6e3d 3d3b bbbd f572 0dbe
00000190: 46d2 8cbd 3a36 b7bb e151 553d 29ba 7cbc
000001a0: 03bf 7c3b 34aa 9b3c 83cd 09bd 8b99 e03d
000001b0: d586 193d 9ef9 bcbd d8ff fdbc 96ba 49be
000001c0: 90ac c1bd 96e1 6fbd c1cf da3d 91ae ecbc
000001d0: 9238 a53d 1269 b93d 3e6a b13d 3380 6a3d
000001e0: 8416 df3c 231c 96bd 94e2 d03d 39f6 d73c
000001f0: aa4d 2a3c b0d6 ce3d 8e1a cb3d 6800 a6bc
00000200: a238 7c3d 0f55 38bd 3b9d 1fbe 6d4c f63b
00000210: 4dd6 1bbc aac9 db3b 55b7 fbbb 9332 ce3d
00000220: 7172 543d d17d 0c3d 1001 14bd 8615 cebd
00000230: d37f aabd 9277 a6bd db58 33bd 52e1 973a
00000240: f581 6f3d 5a20 883d 8299 a03d ec95 3abd
00000250: f5b0 393c 06d9 73bd a2ad ca3d c53c 033e
00000260: f159 163d 9400 d93d a281 a1bd d40d 693d
00000270: 9901 d1bd 9b01 f23d b4af 0e3e ad6f 533c
00000280: 9cb3 1c3d 45c7 b33c 36df dfbd 4fd5 2a3c
00000290: 0706 2d3d 8acb ae3d 0b7e e93d dab3 fa3c
000002a0: d112 afbd 994b 6fbd 39bb a53d 247b 07be
000002b0: 99f9 5a3d 782d a9bb 896b 64bd 4e3f 8d3d
000002c0: 592e d43d dd4c d7bd 86c3 50bd 45ef b8bc
000002d0: 3939 913d 6c88 a83d 43c6 64bd e27d b23b
000002e0: b807 50bc ab37 aabd 2cc8 cf3d d71c 2cbc
000002f0: 8c3e c6bd 5844 023e 00b1 8c3d c249 903c
00000300: 14ea d1ba 9396 39bd 6aa9 033e f6cf 89bd
00000310: 1903 96bd 7deb 683d a98f f2bd 5bbd a6bd
00000320: 27d0 0cbe 0596 b63d ad97 dabd 716f c83d
00000330: e494 3d3d 00d6 13bc 4e27 5cbd 55d6 e3bd
00000340: 92cf 96bd c0d4 e6bd 594e 9a3c b4ac f83d
00000350: 494b c4bd e12c eebd 5ddb a9bc f7d0 b2bd
00000360: 6321 2b3e 18b1 e33d eb6f 92bc 0646 1ebe
00000370: 34f5 a4bd 436a 4dbc 749d 29be b4b4 b0bd
00000380: 492e 4c3c a971 483d e841 d93c 9287 313d
00000390: c61c 523d cfca 3b3d b289 a63d b3ad a8bc
000003a0: cad7 17be b308 dfbd fb56 91bd 759a 81bd
000003b0: 6fdb e4bd 08b8 bfbd ea83 2cbd 11b7 a83d
000003c0: 594b c9bc 2236 183d c02b 29bd 3a45 0abe
000003d0: 3db6 ac3d a64c 383d 4afa a23d e2e2 033e
000003e0: 3fc3 fdbc 6a2c ffbd 27e6 30bd a955 85bd
000003f0: 0c56 edbd cd87 273d 8090 b33c d33e 63bd
0.14740133 -0.071323425 0.08648694 -0.061357513 0.026683735 -0.0031396921 -0.07564887 0.12029757
0.08080987 -0.04031787 0.15314424 0.05396239 -0.11191347 -0.098768935 0.066401616 0.0013021722
-0.112129346 0.09320624 -0.07561412 0.0064719366 -0.12347425 -0.022676706 -0.091359414 0.14197919
0.016129341 -0.030860642 -0.10224217 0.015903583 0.09791873 0.019339584 0.08606084 -0.1401275
0.12478347 -0.060181733 0.0588193 0.115763575 -0.019538451 0.057439253 0.1299957 0.02078422
0.075946584 -0.024900807 -0.053343758 0.050822567 -0.08831195 -0.10984089 0.01054949 0.23766908
-0.03494064 0.055986293 0.083923005 -0.04761453 -0.017273761 -0.10519405 -0.013067624 0.09058704
0.072759256 0.12215384 0.032041263 0.06373506 0.08030774 0.050723717 0.1755084 -0.013733283
-0.082370885 0.024782846 -0.06318378 -0.044993497 -0.025209406 -0.016085142 0.067649335 -0.1273038
0.11569328 0.031535044 0.004909655 0.023383977 0.05776703 0.075715765 -0.031715117 0.08408112
-0.057745345 -0.0062143984 -0.09418997 -0.028984185 0.12825796 -0.0894937 -0.06625367 0.08149531
-0.06693624 0.07463956 0.053582825 0.034652926 0.0015091408 -0.06896229 -0.062277246 -0.0062862425
-0.041642826 0.058321293 -0.09142158 -0.13813384 -0.06876044 -0.005591181 0.05208004 -0.015425243
0.0038566 0.019002058 -0.033643257 0.10966786 0.0374821 -0.09227298 -0.031005785 -0.19700083
-0.09456742 -0.058564745 0.10684157 -0.028891833 0.080674306 0.09053244 0.08662842 0.057251167
0.027232416 -0.073295854 0.10199466 0.026362525 0.010394493 0.10099542 0.09917174 -0.020263866
0.061577447 -0.045002993 -0.15587322 0.007516435 -0.0095115425 0.00670739 -0.007681767 0.1006824
0.051866952 0.034299675 -0.036133826 -0.10062699 -0.08325162 -0.08128275 -0.04378591 0.0011587536
0.058473546 0.066467956 0.07841779 -0.045553133 0.011333694 -0.05953314 0.09896399 0.1281615
0.03670687 0.105958134 -0.078860536 0.056897953 -0.10205383 0.118167125 0.13934213 0.012905044
0.038257226 0.021945605 -0.10931246 0.010426833 0.042242076 0.08534916 0.11400994 0.030603338
-0.08548511 -0.058421705 0.080923505 -0.13230568 0.05346069 -0.005162891 -0.055766616 0.0689684
0.103604026 -0.105127074 -0.050967716 -0.02257503 0.070909925 0.082291454 -0.05585314 0.0054471353
-0.012697153 -0.08311399 0.10145602 -0.010504923 -0.096798986 0.12721384 0.068696976 0.017613295
-0.0016015195 -0.045309614 0.12857595 -0.067291185 -0.073248096 0.056865204 -0.11843807 -0.081415854
-0.13751279 0.08915333 -0.10673461 0.09786881 0.04628457 -0.00902319 -0.05374842 -0.11124865
-0.0736381 -0.112710476 0.018836187 0.121423155 -0.09584672 -0.11629654 -0.020734483 -0.08731263
0.16711955 0.11117762 -0.017875632 -0.154564 -0.08054581 -0.012537542 -0.1656397 -0.086282164
0.012462207 0.04893652 0.026520684 0.04334218 0.05129697 0.04584771 0.08131732 -0.020590639
-0.1482841 -0.10890331 -0.07096668 -0.063282885 -0.11174666 -0.09361273 -0.04211799 0.08238042
-0.024572061 0.037161 -0.04130149 -0.1350297 0.08433197 0.044994973 0.07957895 0.12879518
-0.03097689 -0.12459643 -0.04318824 -0.06510479 -0.11588678 0.040900994 0.021919489 -0.055479836

net.4.lin1.bias f4 [64]
00000000: 7ee5 d1bc 87a9 ee3b 4073 453d 3bd9 b7bd
00000010: cedb 133d bf9b 95bd 4e2d 09bd bd5d 893d
00000020: 507d 32ba f133 2ebd c59f f9bb 30a5 f93d
00000030: 5ae5 913d 384a 3bbd 740d d63c c1ff e7bd
00000040: d5c1 24bd fabc c53c f057 b2bc d2a3 b53d
00000050: 4172 c53d 712b acbb 2f71 82bb 01df f03d
00000060: 1c0c 6f3d 5694 17bd a374 57bd 78db fe3c
00000070: ed76 b9bd c3fb 6e3d 1893 053d c0f9 a83c
00000080: 950d babc 34fb cdbd 20bc 143d cdc1 053e
00000090: b0a1 5c3c 1fb1 eebc 58e2 24bd 7c8a 813d
000000a0: 2855 9dbd b18e e03d e6b0 78bd 334b ad3d
000000b0: 5318 6cbd 3a39 15bd 019d f63d 7f3c da3d
000000c0: d618 083c 385a dfbd bfd3 823c b6cf 5ebd
000000d0: 92e4 073e 5aa8 b5bd 56d8 fdbd d1e4 21bd
000000e0: 662d e0bc 619a 603d a7f5 e23c 4a23 443d
000000f0: 1489 7cbd cd48 82bc 2cac a0bd 192d de3d
-0.025622126 0.007283393 0.048205614 -0.0897698 0.036098294 -0.07305097 -0.03349047 0.06707332
-0.0006808834 -0.042530004 -0.007617923 0.1218971 0.071238235 -0.045725077 0.026129462 -0.11328078
-0.040223915 0.024137963 -0.021770447 0.08869137 0.09640933 -0.005254202 -0.0039807777 0.117612846
0.058361158 -0.0370067 -0.052601468 0.03111051 -0.090558864 0.058345567 0.032610983 0.020626903
-0.022711555 -0.10057679 0.036312222 0.1306221 0.013466284 -0.029137192 -0.04025492 0.06325242
-0.07682258 0.10964716 -0.06071558 0.08461609 -0.057640385 -0.03643153 0.12041665 0.1065607
0.008306703 -0.1090588 0.015970109 -0.054397307 0.13270786 -0.08870001 -0.123947784 -0.039524857
-0.027365398 0.054834727 0.027705027 0.047885217 -0.061654165 -0.015903855 -0.07845339 0.108484454
