data/trained_models/base_mu2_c_resnet.pth (torch, 201902 bytes, 15 tensors)

net.0.weight f4 [64, 374]
0	0x3baeaa8a	0.0053303884
1	0xbc3105ca	-0.010804603
2	0x3c8e1f44	0.017348893
3	0xbd4d0693	-0.050055098
4	0x3c208dbe	0.009799419
5	0xbd6696f2	-0.056296296
6	0x3cb5879d	0.022159392
7	0xbd0bc541	-0.034123663
8	0xbd36fa8a	-0.044672526
9	0x3d4405cc	0.04785709
10	0x3bb8e2fc	0.005642293
11	0xbd1b5c07	-0.03792956
12	0x3cdeba1b	0.027188351
13	0x3d0d14ce	0.03444367
14	0xbd71ac67	-0.059002306
15	0xbbf15be4	-0.0073656905
16	0xbca88a0b	-0.020573637
17	0xbd4bd942	-0.04976774
18	0x3d352f5d	0.044234622
19	0xbd654d47	-0.0559819
20	0xbcd4c08c	-0.02597072
21	0xbccac64a	-0.024752755
22	0xbd0f7eb1	-0.03503293
23	0xbcc5e100	-0.02415514
24	0xbd19fd57	-0.03759512
25	0x3cbc3970	0.022976607
26	0xbd625a83	-0.0552621
27	0x3d104059	0.035217617
28	0x3c33b442	0.01096827
29	0xbcbfbcf3	-0.023405528
30	0x3c2c3c0e	0.010512365
31	0x3ba3f9f6	0.005004163
32	0xbcba288d	-0.022724414
33	0x3c210c32	0.009829568
34	0xbd21972e	-0.039450817
35	0xbd26c8ba	-0.04071877
36	0xbcd9e5ca	-0.02659883
37	0xbd14d8e3	-0.03633965
38	0x3cd4aef0	0.025962323
39	0xbc9dfacd	-0.01928463
40	0xb9dd9f70	-0.00042271195
41	0xbc7747ff	-0.015092849
42	0x3cf21b9e	0.029554185
43	0x3d23c7c7	0.039985444
44	0xbb7c5698	-0.0038503762
45	0x3cd0a510	0.025469333
46	0xbd05d0a4	-0.03266968
47	0x3c949f61	0.018142404
48	0xbd589560	-0.05287683
49	0x3b4b2a02	0.003100038
50	0xbd1fca8e	-0.03901153
51	0xbcc43188	-0.0239494
52	0xbbb331dc	-0.00546859
53	0x3bd2d380	0.006433904
54	0x3cdc59b7	0.026898248
55	0x3ccb44b7	0.02481304
56	0x3cbc0161	0.022949876
57	0xbd59dd4b	-0.053189557
58	0x3d1d6a8f	0.0384317
59	0x3b02b506	0.0019944324
60	0x3cd77d47	0.026304854
61	0xbcd0e726	-0.025500845
62	0x3c35281e	0.011056928
63	0xbd0daf78	-0.03459117
64	0xbd0b4567	-0.034001734
65	0x3d24b7c2	0.040214308
66	0x3d012df3	0.03153796
67	0x3bfec2da	0.007774693
68	0x3cb7679c	0.022388272
69	0xbd074ed3	-0.033034157
70	0xbd4fc0d3	-0.050721
71	0xbcc95098	-0.024574563
72	0xbd1f2e43	-0.038862478
73	0xbc30dd46	-0.010794943
74	0x3ccdb5e3	0.025111144
75	0xbc82b4b6	-0.01595531
76	0xbd4f3a40	-0.05059266
77	0x3cbfad68	0.023398116
78	0x3c5059f2	0.012716757
79	0x3d01819a	0.03161774
80	0xbd6bc987	-0.05756524
81	0x3b373546	0.0027955337
82	0x3cfa6d0b	0.030569574
83	0x3c40210c	0.011726629
84	0xbc7b771d	-0.015348223
85	0x3d0f2932	0.034951396
86	0xbd147dbb	-0.03625272
87	0xbd23bc0b	-0.039974254
88	0xbccd583c	-0.025066487
89	0x3d4f51cd	0.05061512
90	0xbd2b8e8d	-0.041883994
91	0xbd015482	-0.031574734
92	0xbd4c5c34	-0.04989262
93	0x3c1b476a	0.009477476
94	0xbca92648	-0.020648137
95	0x3d0260ed	0.031830717
96	0xbbbcd61e	-0.0057628294
97	0x3b0ec596	0.002178525
98	0xbd11af8a	-0.035567798
99	0xbc1e58fe	-0.009664772
100	0xbcc9f04e	-0.024650719
101	0x3cbbf094	0.022941865
102	0x3be43e76	0.0069654537
103	0xbd3bed04	-0.045880333
104	0x3d147ce8	0.036251932
105	0x3d043156	0.032273613
106	0xbd3b0197	-0.045655813
107	0xbd49b018	-0.0492402
108	0xbd10ef8e	-0.035384707
109	0x3d3ff86f	0.046867784
110	0xbb542fe0	-0.0032377169
111	0x3bf353e1	0.0074257706
112	0x3d3ca20d	0.04605298
113	0xbcd3724e	-0.02581134
114	0x3cfbc2cb	0.030732533
115	0x3c886789	0.016650932
116	0xbcdbdb34	-0.026837923
117	0x3b6b5f35	0.0035914902
118	0xbc11f46a	-0.0089083705
119	0x3ce3f09c	0.027824692
120	0xbba3bbf6	-0.004996772
121	0xbd638977	-0.05555102
122	0xbb5ee511	-0.0034011046
123	0xbcaca17b	-0.021073094
124	0xbd0802e8	-0.033205897
125	0xbbde7861	-0.0067892526
126	0x3caadf00	0.020858288
127	0xbd4f33c9	-0.050586496
128	0xba275810	-0.0006383667
129	0x3cad6b5c	0.021169357
130	0x3ca6355c	0.020289116
131	0xbd43a944	-0.047768846
132	0x3c82dd79	0.015974747
133	0xbd29e6a8	-0.041479737
134	0x3d1b1ff3	0.037872266
135	0xbcce952f	-0.02521762
136	0xbd0e57b2	-0.0347516
137	0xbd41f978	-0.047357053
138	0xbcf2d262	-0.029641334
139	0xbd0b7c64	-0.034054175
140	0x3b06cba7	0.0020568164
141	0xbd6170c6	-0.05503919
142	0x3cd2e987	0.02574612
143	0xbcb8bd10	-0.02255109
144	0xbd4db54f	-0.050221737
145	0xbaeedc0e	-0.001822354
146	0x3c8304dc	0.015993528
147	0xbc13ab3b	-0.0090129925
148	0xbd6f77e7	-0.058463957
149	0xbb560061	-0.0032654034
150	0xbd01ba9e	-0.031672113
151	0x3d337d75	0.043820817
152	0x3d38b831	0.045097534
153	0xbd1c0e48	-0.038099557
154	0xb9dd81d8	-0.00042249146
155	0x3ce36673	0.027758813
156	0xbd0cea06	-0.03440287
157	0xbbc15190	-0.0058996156
158	0x3cd6b8e3	0.026211208
159	0xbc52636e	-0.012841089
160	0xbd046456	-0.03232225
161	0x3d0a5d9b	0.033780675
162	0xbc710c35	-0.014712383
163	0x3c8e3950	0.017361313
164	0x3c62aa4b	0.013834546
165	0x3bff3dbe	0.0077893427
166	0x3d0bbc01	0.03411484
167	0x3c7c5ecd	0.015403462
168	0xbade6071	-0.0016965998
169	0x3ca7fc68	0.020506099
170	0x3d068137	0.032838073
171	0xbbe3a5e9	-0.0069472683
172	0xbbf15eb1	-0.0073660244
173	0x3c9752b8	0.01847206
174	0x3c5e3605	0.013562684
175	0xbc0a152a	-0.0084278975
176	0xbb8f7ee6	-0.004379141
177	0xbd3dd0ac	-0.046341583
178	0xbd14bf47	-0.03631523
179	0xbd4422db	-0.047884803
180	0xbd168b04	-0.03675367
181	0x3c3bfe02	0.011474134
182	0xbca98048	-0.020691052
183	0xbca54757	-0.020175619
184	0x3b2e4036	0.0026588566
185	0xbca6de6c	-0.02036973
186	0xbcbb6b22	-0.022878233
187	0xbbbe8f66	-0.0058154343
188	0x3ced1ecf	0.028945355
189	0xbd49f5a4	-0.049306527
190	0xbca07936	-0.019589048
191	0x3c80260c	0.015643142
192	0x39892776	0.00026160077
193	0x3d48d041	0.04902673
194	0xbb7b13b1	-0.0038311298
195	0x3d1cf743	0.038321745
196	0x3cdb843f	0.026796458
197	0xbc107376	-0.0088165905
198	0xbd264305	-0.04059126
199	0xbd78a0eb	-0.06070034
200	0x3d08f2e6	0.03343477
201	0x3d1e70db	0.038681846
202	0xbd6b58e6	-0.057457827
203	0xbc9fbbde	-0.019498762
204	0x3ca850de	0.020546373
205	0x3ce31b76	0.027723055
206	0x3cf407d2	0.029788885
207	0xbd3c8473	-0.04602475
208	0xbbe2d5a6	-0.0069224415
209	0xbbe033d8	-0.0068421178
210	0x3d151d13	0.03640468
211	0xbc3fcf0e	-0.0117070805
212	0xbc27ec46	-0.010249203
213	0xbc28b9ee	-0.010298235
214	0xbd55e5d0	-0.05222112
215	0xbd778879	-0.060432885
216	0xbc0b6762	-0.008508535
217	0xbbad18e2	-0.0052825073
218	0xbd68f0d4	-0.056870297
219	0x3c4f0492	0.012635367
220	0x3d1f498d	0.038888503
221	0x3cd40764	0.02588243
222	0x3bde2182	0.006778897
223	0x3b2e7537	0.0026620158
224	0xbae3dbf1	-0.0017384273
225	0xbd018078	-0.031616658
226	0xbbac2c1e	-0.0052542826
227	0xbd0fd889	-0.035118613
228	0xbd2f19ff	-0.0427494
229	0xba7b2bf1	-0.0009581438
230	0x3cd9c885	0.026584873
231	0xbcf16896	-0.029468816
232	0xbd446324	-0.04794611
233	0xbc1225fb	-0.008920188
234	0x3c631135	0.013859083
235	0x3c8b4e0a	0.017004985
236	0xbd7562f0	-0.059908807
237	0xbcea0644	-0.02856744
238	0xbd65d1f2	-0.056108423
239	0xbbca510e	-0.0061742133
240	0x3c3c2f48	0.011485882
241	0xbd2adaef	-0.041712698
242	0xbcb87392	-0.022516046
243	0x3cb5865c	0.022158794
244	0xbc90a8aa	-0.01765855
245	0x3c04d2df	0.008106916
246	0x3c83e622	0.016100947
247	0x3cbc3c18	0.022977874
248	0x3c6dcb25	0.014513765
249	0x3b502e1e	0.003176577
250	0x3d069869	0.032860193
251	0x3b078055	0.0020675857
252	0xbcfaa6fb	-0.0305972
253	0xbd6c0c75	-0.057629067
254	0xbd1b1b74	-0.03786798
255	0xbd14092a	-0.036141552

net.0.bias f4 [64]
0	0x3d17ad24	0.037030354
1	0xbc5ec571	-0.013596878
2	0xbd23e7da	-0.040016033
3	0x3c9566d2	0.018237505
4	0xbd55f7c6	-0.05223825
5	0xbc6a06a3	-0.014283809
6	0x3cfe0219	0.03100686
7	0x3ce6fb75	0.028196076
8	0xbd5e6cd4	-0.054303005
9	0x3c28abec	0.010294896
10	0x3d26e306	0.04074385
11	0xbc9abf5e	-0.01889008
12	0x3d7341ba	0.059388854
13	0xbabd1387	-0.0014425375
14	0xbcccadab	-0.024985155
15	0x3d003136	0.03129693
16	0xbccdf226	-0.02513988
17	0x3d4f1153	0.05055363
18	0x3d3e067e	0.04639291
19	0x3d4e759a	0.050405122
20	0xbd0ad5c4	-0.03389527
21	0x3b332c52	0.002733965
22	0x3ca29ec2	0.019851092
23	0xbbd01045	-0.0063495957
24	0xbd38fc1b	-0.0451623
25	0xbc1e69a3	-0.00966874
26	0x3d155fb4	0.036468223
27	0x3d082244	0.033235803
28	0xbd2daf0a	-0.04240326
29	0x3d322a8e	0.043497615
30	0xbc7d8c50	-0.015475348
31	0xbd06b07e	-0.03288316
32	0x3c6dd9cd	0.01451726
33	0xbd4fc5f3	-0.05072589
34	0x3d131249	0.03590611
35	0x3d6371f8	0.05552861
36	0xbd724139	-0.059144232
37	0xbc247402	-0.010037424
38	0xbbe4d978	-0.006983932
39	0x3d24a367	0.040194895
40	0x3c24facd	0.010069561
41	0xbcd8f6b7	-0.02648483
42	0xbc93cf25	-0.01804311
43	0xbcff3f9c	-0.031158261
44	0xbc538452	-0.012909966
45	0xbcd7c614	-0.026339568
46	0x3c856fc5	0.016288647
47	0x3ccc8cb0	0.024969429
48	0xbd27d79c	-0.040977105
49	0xbc777027	-0.015102423
50	0x3c1e2aa3	0.00965372
51	0xbd61a944	-0.055093065
52	0x3a598292	0.00082973496
53	0xbd3a00d7	-0.045410957
54	0xbc7234fb	-0.014783139
55	0x3d4ff374	0.050769284
56	0xbd26e8e0	-0.04074943
57	0xbca6dee0	-0.020369947
58	0x38c950f0	9.599503e-05
59	0xbd1bc65c	-0.038030967
60	0xbcfaf0bb	-0.030632367
61	0x3ab0e64d	0.0013496369
62	0xb9f7c6ce	-0.00047259632
63	0xbcbc80d0	-0.023010641

net.2.lin1.weight f4 [64, 64]
0	0x3d8a9cb7	0.06768172
1	0xbd853e86	-0.06506066
2	0xbcc01685	-0.023448238
3	0xbcc4e090	-0.024032861
4	0x3d72c0d0	0.05926591
5	0xbd47b238	-0.048753947
6	0xbda37352	-0.0798098
7	0xbd9ed75a	-0.07755919
8	0xbdfce0b4	-0.12347546
9	0xbdd9bdf7	-0.10631936
10	0x3deb631d	0.11493514
11	0xbd647d20	-0.05578339
12	0xbe066365	-0.13123854
13	0xbdcd078d	-0.10011206
14	0x3dbb15d7	0.09135025
15	0xbde0e3a5	-0.1098092
16	0x3da845fc	0.082164735
17	0x3da51d08	0.08062178
18	0xbc8031bc	-0.015648715
19	0xbccd66df	-0.025073467
20	0xbc9952e6	-0.018716287
21	0x3dc81f6e	0.0977162
22	0x3dc6ad81	0.09701062
23	0x3b6df42e	0.0036308873
24	0x3d8e9fa2	0.06964041
25	0x3df99299	0.121861644
26	0x3dac8601	0.08423997
27	0xbcc05787	-0.023479236
28	0xbd4c29ac	-0.04984443
29	0x3d489ed3	0.04897959
30	0xbde9a6c5	-0.11408762
31	0xbdb71af7	-0.0894069
32	0x3c880410	0.0166035
33	0xbd4819aa	-0.0488526
34	0x3d7ca3e0	0.06167972
35	0xbdfb4194	-0.122683674
36	0x3d0dbc5d	0.034603465
37	0x3daff1a1	0.08591009
38	0xbd5e3d25	-0.05425753
39	0x3cb18421	0.02166945
40	0x3daafdd0	0.08349192
41	0x3db252f8	0.08707231
42	0x3caf1192	0.021370683
43	0x3dd540a6	0.10412721
44	0x3d160690	0.036627352
45	0x3d94cea0	0.07265973
46	0xbdef5425	-0.11685971
47	0x3dc5de8f	0.0966159
48	0x3ba2ed00	0.0049721003
49	0xbdc389ef	-0.09547793
50	0xbde4aeed	-0.11166177
51	0xbd3f0a1a	-0.046640493
52	0x3c51dcc6	0.012808984
53	0xbdc5bc4f	-0.09655058
54	0x3dc87d64	0.09789541
55	0xbb8ab222	-0.004232661
56	0xbcc8f77e	-0.024532076
57	0x3d906a52	0.07051529
58	0x3d7fc792	0.062446184
59	0x3d538df0	0.051649034
60	0x3cd424be	0.025896426
61	0xbda096ae	-0.0784124
62	0x3d9e7dd7	0.07738846
63	0xbd28c740	-0.041205645
64	0x3dd21913	0.10258689
65	0xbdb48f2c	-0.0881637
66	0xbabac4a6	-0.001424928
67	0xbd112d01	-0.03544331
68	0x3e056378	0.13026226
69	0x3ce7cfdc	0.028297357
70	0xbd2651fe	-0.040605538
71	0xbc7a3cd1	-0.015273289
72	0xbd968f05	-0.073514976
73	0x3d2598fe	0.040429108
74	0x3dd9f04d	0.10641537
75	0xbddae0cb	-0.10687407
76	0x3d32f1d0	0.04368764
77	0x3dd406fc	0.10352895
78	0xbc9953a8	-0.018716648
79	0xbc050156	-0.008117994
80	0xbcf06d8f	-0.029349117
81	0x3c6f8f56	0.014621576
82	0x3d365f8a	0.044524707
83	0xbcaa9298	-0.020821854
84	0x3d90576b	0.07047924
85	0x3de62d07	0.11239057
86	0xbdbfaeb5	-0.093594946
87	0x3d98bfc5	0.07458452
88	0xbd11f31d	-0.03563224
89	0x3d0fab15	0.035075266
90	0xbd29b43e	-0.041431658
91	0x3da7fd1f	0.08202576
92	0x3de3b78d	0.11118994
93	0x3cd5ceca	0.026099581
94	0x3d746948	0.059670717
95	0x3d80bfcf	0.062865846
96	0x3cb9b378	0.022668585
97	0x3d825247	0.063633494
98	0x3db15efc	0.08660695
99	0xbce706e4	-0.028201528
100	0xbd78bf9a	-0.0607296
101	0x3dba16bb	0.09086367
102	0xbc82daee	-0.015973534
103	0x3d7929d2	0.0608309
104	0xbd8a117c	-0.06741616
105	0x3d254b88	0.040355235
106	0x3d8b7ea6	0.06811266
107	0xbdc215b1	-0.094767936
108	0xbc9c890e	-0.019108322
109	0x3caccdec	0.021094285
110	0x3cfd2c6e	0.030904975
111	0x3bee318a	0.007269089
112	0xbdc1c71c	-0.09461805
113	0xbce8dd93	-0.028425967
114	0x3da4113b	0.08011099
115	0x3db10a13	0.086445
116	0x3d3be487	0.045872238
117	0x3d76447b	0.0601239
118	0xbd808999	-0.06276245
119	0x3c4229a6	0.01185075
120	0x3d8e4ee4	0.06948641
121	0x3d92a7c4	0.07160905
122	0xbdf82c4e	-0.121178254
123	0x3d8f6bd4	0.070029885
124	0x3d81d540	0.06339502
125	0x3c9b9112	0.018990073
126	0x3c93c4f6	0.018038254
127	0x3dab1dab	0.08355268
128	0x3c1b486c	0.009477716
129	0x3d1cc984	0.038278118
130	0xbd3a583a	-0.045494296
131	0xbdc66239	-0.09686703
132	0x3a9ddf15	0.0012044633
133	0x3dee9f4e	0.11651479
134	0x3ddeaefb	0.108732186
135	0x3ddbd14f	0.10733282
136	0x3ddca678	0.10773939
137	0xbddbb8e6	-0.10728626
138	0xbc96a17a	-0.018387545
139	0x3de8fa7c	0.11375901
140	0xbdc457ac	-0.095870346
141	0x3da7f879	0.08201689
142	0x3d5c61b5	0.05380412
143	0xbdc23a1a	-0.09483738
144	0xbdab7c62	-0.083733335
145	0x3d95e410	0.0731889
146	0xbdad6a5f	-0.08467554
147	0xbd01ec30	-0.031719387
148	0x3ccf0b2d	0.025273884
149	0x3d70e287	0.058809783
150	0xbd5afc92	-0.053463526
151	0x3d3e9bf5	0.04653545
152	0x3de9926d	0.114048816
153	0x3c74b90b	0.014936696
154	0x3d01ee1e	0.031721227
155	0x3d820de8	0.06350309
156	0x3cedfb3a	0.029050458
157	0x3d0bba76	0.03411337
158	0x3e059cc4	0.13048083
159	0x3ddebb05	0.10875515
160	0x3a20360b	0.00061115687
161	0xbdc8edfd	-0.09811018
162	0x3d8323a1	0.0640328
163	0x3d4b5246	0.04963901
164	0x3d10ff45	0.035399694
165	0xbda4f155	-0.08053843
166	0xbba0a64a	-0.0049026357
167	0x3d2608df	0.040535804
168	0xbccfe5f8	-0.025378212
169	0x3cd5458c	0.02603414
170	0xbdab210c	-0.083559126
171	0xbb73acd8	-0.003718188
172	0x3db8f18c	0.090304464
173	0x3ca7a57b	0.02046465
174	0xbddef1a5	-0.10885934
175	0xbdeb7ea9	-0.11498768
176	0xbd835963	-0.064135335
177	0x3d4bb8b0	0.04973668
178	0x3bbb551e	0.005716934
179	0x3d8bb9c7	0.068225436
180	0x3da81afe	0.08208273
181	0xbd01b29a	-0.03166447
182	0x3c801a41	0.015637519
183	0xbdc8548b	-0.0978175
184	0x3cc75fd7	0.024337692
185	0xbcb44e43	-0.022009974
186	0xbdf137ae	-0.11778198
187	0xbd4321a7	-0.047639515
188	0xbde5f332	-0.112280264
189	0xbd0e75d7	-0.03478035
190	0x3d320d21	0.043469552
191	0x3d5d0098	0.053955644
192	0xbe015bf4	-0.12632734
193	0x3d78ee8f	0.060774382
194	0xbc16acb0	-0.009196445
195	0xbde8c52e	-0.11365734
196	0xbdeb3e7b	-0.114865266
197	0x3d0ee549	0.034886632
198	0xbd3bb59e	-0.0458275
199	0xbd24f25d	-0.040270198
200	0xbbe965b8	-0.0071227215
201	0xbd6c01e6	-0.057618998
202	0xbcde7660	-0.027156055
203	0x3de12dcb	0.109950624
204	0x3a8e2fde	0.0010848006
205	0xbd4e13dc	-0.050311908
206	0xbde45210	-0.11148465
207	0xbdeee131	-0.116640456
208	0xbc432dd6	-0.011912784
209	0x3e016d44	0.12639338
210	0x3d7c75e7	0.061635878
211	0x3d49cbc0	0.049266577
212	0x3de3e380	0.111273766
213	0x3dfdb83b	0.12388655
214	0x3dbc756d	0.09202085
215	0x3d0a749c	0.033802614
216	0x3d9e9ea3	0.07745101
217	0xbc483186	-0.012218839
218	0x3b623ae4	0.0034519965
219	0xbdc76b40	-0.09737253
220	0x3d489170	0.048966825
221	0x3d745db2	0.059659667
222	0x3d23f4dd	0.04002844
223	0xbde6932e	-0.11258541
224	0x3d2b1bda	0.04177461
225	0x3cea0dc4	0.028571017
226	0x3da2f0ac	0.07956061
227	0xbdb005b4	-0.08594838
228	0xbda3c0b7	-0.07995742
229	0x3c7bc187	0.015365965
230	0x3d054a7b	0.032541733
231	0x3da174f2	0.07883634
232	0x3dd290d5	0.10281531
233	0xbd37132f	-0.04469603
234	0xbd5d0d1b	-0.053967576
235	0x3db9508e	0.09048568
236	0xbdc9159a	-0.09818573
237	0xbd64cd14	-0.05585964
238	0xbc850dfd	-0.016242022
239	0x3d13440d	0.03595357
240	0x3d300bad	0.042979885
241	0x3df673e1	0.12033821
242	0x3d78b540	0.06071973
243	0x3d3d9a81	0.046289925
244	0xbdc11856	-0.0942847
245	0xbd904990	-0.07045281
246	0x3d90ace5	0.07064227
247	0xbd97b0c0	-0.07406759
248	0xbce5364b	-0.02797999
249	0x3d45e752	0.048316307
250	0x3d91739b	0.07102128
251	0x3dd92f9f	0.10604786
252	0x3d5c9879	0.053856347
253	0x3de59238	0.1120953
254	0xbd873a0d	-0.06602869
255	0x3dc4fafa	0.096181825

net.2.lin1.bias f4 [64]
0	0x3c4d6da9	0.012538352
1	0x3cb217e9	0.021739917
2	0xbd832415	-0.064033665
3	0x3d253a56	0.040338837
4	0xbd064819	-0.0327836
5	0xbd7cace5	-0.061688323
6	0x3ddcb173	0.10776033
7	0xbdeef467	-0.1166771
8	0x3ceea7bc	0.029132716
9	0x3dcb5fe6	0.099304006
10	0x3dbde900	0.09272957
11	0x3df99876	0.12187283
12	0x3daa5872	0.08317651
13	0xbac87862	-0.0015294666
14	0xbb5ccb80	-0.0033690631
15	0x3d808652	0.062756196
16	0x3d74d61d	0.059774507
17	0x3c5f8235	0.013641884
18	0xbda26753	-0.07929864
19	0x3aa308da	0.0012438551
20	0xbce5a262	-0.028031532
21	0x3cea2d0a	0.02858593
22	0xbc80eb94	-0.015737332
23	0x3d908c80	0.07058048
24	0xbc16f4db	-0.0092136515
25	0x3dd3ce8d	0.10342131
26	0xbc9b5a97	-0.018964095
27	0xbe02037f	-0.12696646
28	0xbd5db8b7	-0.054131236
29	0x3cd0ba2d	0.0254794
30	0x3c855b87	0.016278995
31	0x3cf5d9d6	0.030011099
32	0xbdb05dad	-0.08611617
33	0x3cc35f2c	0.023849092
34	0x3d2379ca	0.03991107
35	0xbcd7c902	-0.026340965
36	0xbd484440	-0.048893213
37	0x3dcb8ff8	0.09939569
38	0xbcbf4c65	-0.023351857
39	0x3ca61a14	0.020276107
40	0x3d01215c	0.031525955
41	0x3deede94	0.11663547
42	0xbdd92b42	-0.10603954
43	0xbd5845ee	-0.052801065
44	0x3d77fea4	0.06054558
45	0xbbe7d256	-0.0070746345
46	0xbc565d6b	-0.013083796
47	0xbd8b5b2e	-0.068045005
48	0xbd2b16b9	-0.041769717
49	0xbcbb30ca	-0.022850413
50	0x3dbc4617	0.09193056
51	0xbd17050c	-0.036870047
52	0x3c6cf06f	0.014461621
53	0x3d5b7ac7	0.053583886
54	0x3c61e78d	0.013788116
55	0xbc563c2e	-0.013075871
56	0x3c978669	0.018496709
57	0x3debbac5	0.11510233
58	0xbd3a2f0f	-0.045455035
59	0xbdb299a5	-0.087207116
60	0xbdf2999e	-0.118457064
61	0xbdf56205	-0.11981586
62	0x3b3ca096	0.002878224
63	0xbd85d21a	-0.06534214

net.2.lin2.weight f4 [64, 64]
0	0xbde8efab	-0.11373838
1	0xbe01a54a	-0.12660709
2	0x3a589700	0.0008262247
3	0xbd723927	-0.059136536
4	0xbbe2ac7d	-0.006917535
5	0x3d2e2edb	0.042525154
6	0x3d45c50a	0.048283614
7	0xbb45e235	-0.0030194644
8	0x3da899c2	0.08232452
9	0x3d445c2a	0.047939457
10	0xbdef6d58	-0.116907775
11	0xbded5a52	-0.11589493
12	0xbd972a71	-0.07381142
13	0x3db6554d	0.089029886
14	0x3d987d15	0.074457325
15	0x3ddffc2b	0.10936769
16	0x3dc0a461	0.09406353
17	0x3d7f07c8	0.06226328
18	0x3dc55c37	0.09636729
19	0xbd4e1a95	-0.05031832
20	0xbd68632b	-0.0567352
21	0xbdbd3829	-0.09239227
22	0x3d51f71d	0.051261056
23	0x3dac3bf1	0.084098704
24	0xbd9385cf	-0.07203256
25	0x3cafdd96	0.021467965
26	0xbd5715c5	-0.052510995
27	0x3d176cfd	0.036969174
28	0xbc9c0dcd	-0.01904955
29	0xbdfdccf8	-0.1239261
30	0xbdcaf106	-0.09909253
31	0xbbdd777e	-0.0067586293
32	0xbd86e701	-0.06587029
33	0x3df2010f	0.11816608
34	0x3d3bbc3e	0.04583382
35	0xbdee4665	-0.116345204
36	0xbd864599	-0.065562434
37	0xbd833b84	-0.06407836
38	0xbddd33e9	-0.10800917
39	0xbda551a7	-0.080722146
40	0x3d163cc3	0.03667904
41	0x3cde3aef	0.027127711
42	0x3c31813f	0.010834037
43	0x3ddf7c05	0.10912327
44	0x3ddfbc92	0.10924639
45	0x3dc282e6	0.09497623
46	0xbc88e691	-0.016711505
47	0x3c0ef32d	0.00872497
48	0x3e00bc2e	0.12571785
49	0x3deaa8ba	0.11457963
50	0x3d1e4e0a	0.038648643
51	0x3dcd9549	0.100382395
52	0xbc233dd0	-0.009963468
53	0xbc9cba90	-0.019131929
54	0xbda78f1e	-0.08181594
55	0xbd9df512	-0.07712759
56	0x3cfc97d1	0.03083411
57	0x3d242579	0.0400748
58	0xbd40de48	-0.047086984
59	0x3da91065	0.0825508
60	0x3d443143	0.047898542
61	0x3d1a356d	0.037648607
62	0xbdd0a39f	-0.10187458
63	0xbd7672b5	-0.060167987
64	0x3cdebf91	0.027190955
65	0xbde59e8c	-0.11211881
66	0xbdc9aa3e	-0.09846924
67	0x3dab1faf	0.083556525
68	0x3dae4a62	0.08510281
69	0x3d277c45	0.040889997
70	0xbc1da91d	-0.009622839
71	0xbd905e0e	-0.070491895
72	0x3d9001fd	0.07031629
73	0xbd849aff	-0.06474876
74	0x3c8ec262	0.017426673
75	0x3dd260de	0.10272382
76	0x3d322910	0.04349619
77	0xbc11fd6d	-0.008910519
78	0x3d208cdd	0.039196838
79	0x3cc12ab2	0.023579929
80	0x3d6f7341	0.058459524
81	0xbcd8e2a2	-0.026475254
82	0x3de18052	0.11010803
83	0x3dec8c82	0.11550237
84	0xbdcb79c0	-0.09935331
85	0xbdcdf4a3	-0.100564264
86	0xbddd23a3	-0.10797813
87	0x3d4ac778	0.049506634
88	0xbdf2c7e2	-0.11854531
89	0x3c07a90c	0.00828005
90	0xbde52d2d	-0.11190257
91	0xbd4a8f90	-0.049453318
92	0xbdd7ade7	-0.10531216
93	0xbdf732ca	-0.12070234
94	0xbdda05b2	-0.106456175
95	0x3dfa22c6	0.12213664
96	0x3bdcfbb2	0.0067438716
97	0x3cb9c7b8	0.022678241
98	0xbd898a45	-0.06715826
99	0x3b6581f7	0.0035020092
100	0x3d82a62b	0.0637935
101	0xbd85a9fe	-0.06526564
102	0xbdb47f5d	-0.08813355
103	0x3dc563c8	0.096381724
104	0xbc760f0c	-0.015018236
105	0xbc06720f	-0.008205905
106	0xbc5134ab	-0.012768905
107	0x3de5fc4b	0.11229762
108	0x3bc488c1	0.0059977476
109	0x3ca48cf6	0.020086747
110	0x3d413de0	0.04717815
111	0xbdd1f325	-0.10251454
112	0xbcec8a9a	-0.028874684
113	0x3d989403	0.07450106
114	0xbde7fbd5	-0.1132733
115	0x3d220b0c	0.039561316
116	0xbb7f637a	-0.0038969205
117	0x3c93b0d4	0.018028654
118	0xbde1e620	-0.11030221
119	0xbdda0ed5	-0.1064736
120	0xbc6c274d	-0.014413667
121	0x3dd2d0aa	0.10293706
122	0xbd7e425b	-0.062075
123	0x3dacfa9b	0.08446237
124	0x3d20f537	0.039296355
125	0x3d527475	0.051380593
126	0xbd7fad6d	-0.06242125
127	0xbd5cf905	-0.05394842
128	0x3dbf0c6f	0.093285434
129	0x3d17dd06	0.03707602
130	0x3d9da1ef	0.07696902
131	0x3c5cf0f9	0.013485187
132	0xbdd8a4fa	-0.10578342
133	0x3da3eb34	0.08003846
134	0x3d86948b	0.06571301
135	0x3d96c670	0.07362068
136	0x37c0edb8	2.299888e-05
137	0x3d95fe0e	0.07323848
138	0x3cd7c18d	0.02633741
139	0x3dca3694	0.09873691
140	0x3ca83fe4	0.020538278
141	0x3de21ec8	0.11041027
142	0x3cd77fb2	0.026306007
143	0x3d325819	0.043541048
144	0x3d265f5b	0.04061828
145	0x3d7b8b5c	0.0614122
146	0xbd9aa88d	-0.0755168
147	0x3c8752f6	0.016519051
148	0x3d23f8cc	0.040032193
149	0xbdc04785	-0.09388641
150	0x3dee13b6	0.11624853
151	0x3c728788	0.014802821
152	0x3d09090a	0.033455886
153	0xbdb40c1d	-0.08791373
154	0x3da0620b	0.078312
155	0xbcb39a45	-0.021924147
156	0x3dbb7db1	0.09154833
157	0x3dbbd2af	0.09171044
158	0xbdc4831d	-0.095953204
159	0x3d52db0c	0.05147843
160	0xbdde15c2	-0.10843994
161	0x3df96a78	0.121785104
162	0xbc71ec8d	-0.014765871
163	0xbdcf9480	-0.10135746
164	0x3d885563	0.06656911
165	0x3da3f965	0.080065526
166	0x3d9ef8fd	0.077623345
167	0xbd9d3a5a	-0.07677145
168	0x3c5fdc70	0.013663396
169	0x3ddce3ce	0.10785638
170	0x3d409969	0.047021303
171	0xbd885914	-0.06657615
172	0x3d236094	0.039887026
173	0xbd0ac16a	-0.03387586
174	0xbc86ea05	-0.016469011
175	0xbd784ac5	-0.06061818
176	0xbd176840	-0.036964655
177	0x3d6b3dd3	0.057432007
178	0xbccead36	-0.025229078
179	0x3de7c4a7	0.11316805
180	0xbc9f56cd	-0.01945057
181	0xbd2bd2be	-0.041949026
182	0x3deb7f2b	0.11498865
183	0x3c1aa9c0	0.009439886
184	0x3df14921	0.11781526
185	0x3de2c2e7	0.11072331
186	0xbcfc0589	-0.030764358
187	0xbc9d2f32	-0.019187544
188	0xbcd87a45	-0.02642549
189	0x3d8a78f1	0.06761349
190	0xbd8a2602	-0.06745531
191	0x3deb637a	0.11493583
192	0x3ca00ad4	0.019536413
193	0x3dc897a8	0.09794551
194	0x3d427183	0.047471534
195	0xbc00a355	-0.007851441
196	0x3d51804e	0.05114775
197	0xbdff43f0	-0.1246413
198	0xbd97fbb1	-0.07421053
199	0xbda54fca	-0.08071859
200	0x3dd2e271	0.102970965
201	0xbd91dae7	-0.071218304
202	0xbaca91af	-0.0015454794
203	0x3de90df3	0.11379614
204	0xbc8bd07d	-0.017067188
205	0x3db6aba5	0.08919457
206	0x3b77e604	0.003782631
207	0x3b9bc882	0.004754127
208	0xbc826726	-0.015918326
209	0x3d5dd40e	0.05415731
210	0xbd8a9ef2	-0.06768598
211	0xbd5822aa	-0.052767433
212	0xbb30c489	-0.0026972613
213	0x3d94f062	0.07272412
214	0xbc98cf3c	-0.018653505
215	0xbd8a1512	-0.067423
216	0xbcdea6ba	-0.02717911
217	0xbdf2a32c	-0.11847529
218	0xbd1ffc1a	-0.039058782
219	0xbd97f7a1	-0.07420278
220	0xbcd6203d	-0.02613842
221	0x3dc2eccb	0.09517821
222	0x3d421e39	0.047392104
223	0xbdc56665	-0.09638671
224	0xbd854750	-0.065077424
225	0x3dc5111b	0.09622403
226	0xbbda3182	-0.006658734
227	0x3d31595e	0.043298118
228	0x3dca9e9f	0.09893536
229	0x3d97001b	0.07373067
230	0x3d8d5347	0.069006495
231	0x3ddce7a6	0.10786371
232	0xbbadeb0f	-0.005307562
233	0x3d2928f6	0.04129883
234	0xbdc4c4d3	-0.09607854
235	0xbd7e1adb	-0.06203733
236	0xba4da278	-0.0007844339
237	0x3d8071d0	0.06271708
238	0x3ccd0046	0.025024544
239	0x3d831aef	0.064016216
240	0x3d6b241a	0.057407476
241	0xbdb541fe	-0.08850478
242	0xbddc39e5	-0.1075323
243	0xbd7b78ca	-0.06139449
244	0x3db81ad4	0.08989492
245	0x3e00692b	0.12540118
246	0x3d9a45ee	0.07532869
247	0x3e03d361	0.12873603
248	0x3d2baea0	0.041914582
249	0xbbde9b27	-0.006793398
250	0x3d81086d	0.06300435
251	0xbd0ba591	-0.034093443
252	0xbdec5c57	-0.1154105
253	0x3d1aa1dc	0.037752017
254	0x3e02470a	0.12722412
255	0xbccff422	-0.025384966

net.2.lin2.bias f4 [64]
0	0x3d091b4d	0.0334733
1	0x3cd31781	0.025768043
2	0x3da62127	0.08111792
3	0x3dbd4a1d	0.092426516
4	0x3dc37798	0.09544295
5	0xbc110beb	-0.008852939
6	0x3dc8b8d9	0.09800882
7	0xbd0e49db	-0.034738403
8	0xbdfd7965	-0.1237667
9	0x3d7c5999	0.061608884
10	0xbd026b1a	-0.03184042
11	0x3da0ae95	0.07845799
12	0xbba7142d	-0.0050988407
13	0xbd6c6422	-0.05771268
14	0xbdc59ea0	-0.09649396
15	0xbd84104b	-0.0644842
16	0x3d10dd16	0.035367094
17	0xbd51d8b9	-0.051232073
18	0x3cd9fb7e	0.026609179
19	0x3c9ee9cd	0.019398594
20	0xbd9bf02a	-0.07614167
21	0x3cfa6abc	0.030568473
22	0x3dba9f2f	0.09112393
23	0xbd5ffb92	-0.054683276
24	0xbd9952a7	-0.07486468
25	0xbdb4b7e4	-0.08824137
26	0x3cb61dc0	0.022230983
27	0x3cfe9084	0.03107477
28	0xbd23b3af	-0.03996628
29	0x3d0ebd39	0.034848426
30	0x3d527c98	0.051388353
31	0x3dab7c48	0.08373314
32	0x3933dac8	0.00017152273
33	0x3d9b37f2	0.0757903
34	0x3bf8ae5b	0.007589144
35	0xbd84da63	-0.064869665
36	0xbd889aaa	-0.06670125
37	0xbd0eb4f6	-0.034840547
38	0x3dee14b3	0.11625042
39	0xbd9f2295	-0.07770268
40	0x3dd0d09a	0.101960376
41	0x3d995702	0.074872985
42	0x3c9bab92	0.01900271
43	0x3decaa51	0.11555923
44	0xbd64bfcc	-0.055846974
45	0xbd473bee	-0.048641138
46	0xbdcedd9c	-0.101008624
47	0xbb3b71aa	-0.0028601685
48	0x3de678d3	0.11253514
49	0xbc381b62	-0.011236997
50	0xbd3d4435	-0.046207625
51	0x3be3bffb	0.006950376
52	0xbd520001	-0.051269535
53	0xbd22324b	-0.039598744
54	0xbd87b0fe	-0.066255555
55	0xbdd39b48	-0.10332352
56	0xbde185ed	-0.110118724
57	0x3dbb58b9	0.09147782
58	0x3db2de43	0.08733799
59	0x3cc60976	0.024174433
60	0xbdbcf1a8	-0.0922578
61	0xbd70a916	-0.058755003
62	0xbddec30f	-0.10877048
63	0xbd4cb730	-0.04997939

net.3.lin1.weight f4 [64, 64]
0	0xbd9fcca0	-0.07802701
1	0xbde12269	-0.10992891
2	0x3d1bbfd8	0.038024753
3	0xbc6cb2c6	-0.01444692
4	0xbbb2d561	-0.0054575657
5	0xbdda33c0	-0.10654402
6	0xbda221fd	-0.07916639
7	0xbd4adec6	-0.04952886
8	0x3dc169bc	0.09443995
9	0xbdc08980	-0.09401226
10	0xbd2d98c0	-0.042382002
11	0x3c62c8a8	0.0138417855
12	0xbc31bab9	-0.010847741
13	0x3da306da	0.07960291
14	0x3d56ce3f	0.052442785
15	0x3d41fce5	0.04736032
16	0x3d581fc5	0.052764673
17	0x3c383706	0.011243587
18	0x38b066c0	8.411473e-05
19	0x3db62d1b	0.08895322
20	0x3de43bde	0.11144231
21	0xbbe0ba44	-0.006858142
22	0xbbbddecc	-0.0057943817
23	0x3d9b7354	0.075903565
24	0x3d99a1f2	0.07501592
25	0xbcd1dd68	-0.02561827
26	0xbdddaad0	-0.108235955
27	0xbbc3e078	-0.0059776865
28	0xbd7b0ea2	-0.06129325
29	0xbd4afcbb	-0.04955743
30	0x3d79e799	0.061011884
31	0x3bdf7320	0.006819144
32	0x3d6fad74	0.058515027
33	0x3d85d0b6	0.06533949
34	0x3d9d17e9	0.07670576
35	0xbc0ddf8d	-0.008659256
36	0x3de25384	0.110510856
37	0x3e023360	0.1271491
38	0xbdb24c2d	-0.087059356
39	0xbd59f867	-0.05321541
40	0x3d3560ed	0.04428189
41	0xbdb1f367	-0.086890034
42	0x3de3d024	0.11123684
43	0x3d93715b	0.07199355
44	0xbdbbdac1	-0.09172583
45	0x3dd0b942	0.10191585
46	0x3d00c15e	0.03143441
47	0x3c904294	0.017609872
48	0xbdbe4378	-0.092902124
49	0xbbb64788	-0.0055627264
50	0xbd84ae3c	-0.06478545
51	0xbdf16079	-0.11785979
52	0x3df8d3eb	0.12149795
53	0xbde721c0	-0.11285734
54	0xbddfe2ac	-0.10931906
55	0xbd935548	-0.071940005
56	0xbd31f09d	-0.043442357
57	0x3cb5f62f	0.022212116
58	0xbdf9e20d	-0.12201319
59	0xbccebd26	-0.025236677
60	0x3e004faa	0.1253039
61	0x3dd89402	0.10575105
62	0x3d65d7ce	0.05611401
63	0x3d09b93d	0.033623923
64	0xbdbdaa86	-0.092610404
65	0xbcef47df	-0.029209075
66	0x3d46c8f3	0.048531484
67	0xbd9416e3	-0.07230928
68	0x3df636aa	0.12022145
69	0xbd2e73dc	-0.04259096
70	0x3c125af1	0.008932815
71	0x3db88fe4	0.0901182
72	0x3d86ba23	0.065784715
73	0x3b999a1b	0.0046875603
74	0x3d6663b5	0.05624743
75	0x3d4b475a	0.049628593
76	0xbdaa0694	-0.08302036
77	0xbdf9c36c	-0.12195477
78	0x3d1365c7	0.035985734
79	0xbca225d0	-0.019793421
80	0x3d627603	0.055288326
81	0xbde1bd7d	-0.1102247
82	0x3d2ae24b	0.041719716
83	0x3dba8b07	0.091085486
84	0x3c9af539	0.01891576
85	0x3d06d31a	0.032916166
86	0x3debd002	0.11514284
87	0xbdb44cc3	-0.08803704
88	0xbde0cc3d	-0.10976455
89	0x3de5f325	0.11228017
90	0xbc4e9ef2	-0.012611138
91	0x3e01f4e5	0.12691076
92	0xbd9229a7	-0.07136851
93	0xbde08592	-0.109629765
94	0x3ce2e32b	0.027696213
95	0x3cc23afa	0.023709763
96	0xbdf504c1	-0.11963797
97	0xbdb2adc2	-0.08724548
98	0x3db7fee4	0.089841634
99	0x3d5f400f	0.05450445
100	0x3da35afb	0.079763375
101	0xbdcaa0ba	-0.098939374
102	0x3db12d2a	0.086511925
103	0x3d360c5e	0.044445388
104	0xbdc8b511	-0.09800161
105	0xbc505289	-0.01271499
106	0x3c93c6a6	0.018039059
107	0x3dd1f850	0.1025244
108	0x3d545d3e	0.051846735
109	0xbdee9770	-0.11649978
110	0xbdd313f0	-0.10306537
111	0xbb486168	-0.0030575637
112	0xbcb3064e	-0.021853592
113	0x3d637e8f	0.055540618
114	0xbd0333ba	-0.032031752
115	0x3db704ce	0.08936463
116	0x3df23f8b	0.11828526
117	0xbbba2c1d	-0.0056815282
118	0x3d91b936	0.07115404
119	0x3d97b518	0.07407588
120	0xbd0e626c	-0.03476183
121	0xbc29c55d	-0.0103619965
122	0xbbde6cf6	-0.0067878915
123	0x3d602441	0.054722074
124	0x3d32671c	0.043555364
125	0x3de19e48	0.11016518
126	0xbca33403	-0.019922262
127	0xbdb1b3f1	-0.08676899
128	0x3dc7fd2d	0.09765086
129	0xbdf03da5	-0.11730508
130	0xbda06259	-0.07831258
131	0x3db9c3da	0.09070559
132	0xbd90a443	-0.070625804
133	0xbde9370f	-0.11387455
134	0xbd9fb1cf	-0.07797586
135	0xbde3e63d	-0.11127899
136	0x3c3565e7	0.011071659
137	0x3ba1ea0e	0.0049412316
138	0x3d9a5494	0.07535663
139	0xbdc9bba1	-0.098502405
140	0xbddfe41c	-0.1093218
141	0x3dac6ad6	0.08418815
142	0xbc975809	-0.018474596
143	0x3ccf0158	0.025269195
144	0xbdc8bd51	-0.09801734
145	0xbcc770a1	-0.024345698
146	0xbc6cbc79	-0.014449232
147	0x3de5e21c	0.112247676
148	0x3d8a0ec1	0.06741095
149	0x3c2ff9f6	0.010740748
150	0xbb522a34	-0.0032068612
151	0xbd735ee3	-0.059416663
152	0x3db19585	0.08671097
153	0xbaad46b8	-0.0013219928
154	0xbb8c7a9a	-0.004287076
155	0x3dcf8be3	0.10134103
156	0x3cea84e2	0.028627817
157	0xbe07fa9a	-0.1327919
158	0x3d140f24	0.03614725
159	0xbe0090d5	-0.12555249
160	0xbd4eafce	-0.05046063
161	0x3c0d25d6	0.008614978
162	0x3dc2dfa2	0.09515311
163	0xbdfd45da	-0.12366839
164	0xbc0bfa0a	-0.008543501
165	0xbdd02918	-0.10164088
166	0x3ce274aa	0.02764352
167	0x3d8f29f2	0.06990422
168	0xbdf507fe	-0.11964415
169	0xbca5e2df	-0.020249782
170	0xbd3d54a8	-0.046223313
171	0xbdac4bb0	-0.08412874
172	0xbdf980ff	-0.12182807
173	0x3ce27ef8	0.027648434
174	0x3d781151	0.06056339
175	0x3cf405a6	0.02978785
176	0xbda9dca1	-0.08294035
177	0xbd5a58c1	-0.0533073
178	0xbde19638	-0.1101498
179	0x3d450d21	0.048108224
180	0x3d5aec1e	0.053447835
181	0xbdf5ee4f	-0.120083444
182	0x3bc1d118	0.0059148185
183	0x3dcc6c03	0.09981539
184	0x3c590842	0.013246598
185	0x3dbec062	0.09314038
186	0x3cbae3c3	0.022813683
187	0x3cdf8dc2	0.027289275
188	0xbcddc32e	-0.027070608
189	0x3c42c7b8	0.011888437
190	0xbd864370	-0.065558314
191	0xbcae51f7	-0.021279318
192	0xbdbd7fba	-0.092528775
193	0xbd60f6f0	-0.054922998
194	0x3b025994	0.0019889819
195	0xbd4c733a	-0.049914576
196	0x3dc34e71	0.09536446
197	0x3df74459	0.12073583
198	0x3dd2c136	0.10290758
199	0x3bfab249	0.007650648
200	0xbdcc972d	-0.09989772
201	0xbdafb916	-0.08580224
202	0xbdc4b879	-0.09605498
203	0x3dd258ef	0.10270869
204	0xbdc7317b	-0.097262345
205	0x3dc07aa3	0.09398391
206	0xbd89b4c2	-0.0672393
207	0xbddb2f26	-0.10702352
208	0x3dd93177	0.10605138
209	0x3cc71088	0.024299875
210	0x3c03a022	0.008033784
211	0xbceb9b87	-0.028760685
212	0x3dbc1853	0.09184327
213	0xbdd79d39	-0.10528035
214	0x3de39092	0.11111559
215	0x3d82464a	0.06361063
216	0x3d8ec376	0.06970875
217	0xbd165d16	-0.036709867
218	0xbd897049	-0.0671087
219	0x3c054dd9	0.008136236
220	0x3caeda7b	0.021344414
221	0x3c42013d	0.011841116
222	0xbc45897c	-0.012056705
223	0x3c8c25a0	0.017107785
224	0xbdd2cbae	-0.10292755
225	0xbd6fc2d2	-0.058535405
226	0xbc262622	-0.0101409275
227	0xbdb6e983	-0.089312576
228	0xbd0ff744	-0.03514792
229	0xbdc791aa	-0.0974458
230	0x3d9df529	0.07712776
231	0xbd849d83	-0.064753555
232	0xbd0c417d	-0.034242142
233	0xbde91db5	-0.11382619
234	0x3d62f07f	0.055405136
235	0xbdb1b325	-0.08676747
236	0x3dbef92a	0.09324868
237	0xbdd1153b	-0.102091275
238	0xbd91b2f5	-0.071142115
239	0x3d4c12d9	0.049822662
240	0xbce7c8b7	-0.02829395
241	0x3c67473a	0.014116103
242	0x3cfc0ee1	0.030768814
243	0xbc905090	-0.01761654
244	0xbdab57b1	-0.08366335
245	0xbdbfa72d	-0.09358058
246	0xbdee21d8	-0.11627549
247	0xbd2b057d	-0.04175328
248	0x3dc4ab05	0.09602932
249	0x3d1fcf7e	0.03901624
250	0x3da94bf1	0.08266438
251	0xbd7e5e8a	-0.06210188
252	0xbd7d3284	-0.061815754
253	0xbdc43439	-0.09580273
254	0x3dc70e0a	0.097194746
255	0xbc2c8dde	-0.010531871

net.3.lin1.bias f4 [64]
0	0xbe03df44	-0.12878138
1	0xbc8e640a	-0.017381687
2	0x3da00e9f	0.07815289
3	0xbd740607	-0.05957606
4	0xbda82c3b	-0.08211561
5	0xbbb05dc0	-0.0053822696
6	0xbdd8e7de	-0.105911
7	0xbd6e2da7	-0.058149006
8	0x3c079d35	0.008277227
9	0xbd85d26e	-0.06534277
10	0xbd1e3745	-0.038626928
11	0x3d8b0281	0.06787587
12	0xbd58060c	-0.05274014
13	0x3e07e3f9	0.13270558
14	0xbd88fb1a	-0.06688519
15	0xbde86577	-0.11347478
16	0x3d4d1c8c	0.050076053
17	0xbdb34ad4	-0.08754507
18	0xbd0ca6d4	-0.034338787
19	0xbd3e83bb	-0.046512347
20	0x3cb85e38	0.022505865
21	0x3d9c34c7	0.07627254
22	0xbda8433a	-0.082159474
23	0xbdeabe12	-0.11462034
24	0x3ccf4827	0.02530296
25	0xbc96c5a6	-0.018404793
26	0x3cd63e3b	0.02615272
27	0xbe0795b4	-0.13240701
28	0x3d704955	0.058663685
29	0x3d5575d2	0.052114315
30	0xbca8730a	-0.020562667
31	0xbc9fff6a	-0.01953097
32	0x3d3b4a9a	0.045725442
33	0x3da738bc	0.08165118
34	0xbd04cdb8	-0.03242275
35	0xbdf1c749	-0.11805589
36	0xbd86d448	-0.06583458
37	0x3d5224d7	0.051304664
38	0x3d0eaff4	0.03483577
39	0x3dfcefed	0.1235045
40	0x3d611889	0.05495504
41	0x3d868f0e	0.06570254
42	0x3d8bb161	0.06820942
43	0x3df4619b	0.11932679
44	0xbde01752	-0.10941948
45	0xbd6cbcf5	-0.05779739
46	0xbda06df3	-0.07833471
47	0xbde8a898	-0.11360282
48	0xbd1d2212	-0.03836257
49	0x3d9e8774	0.077406794
50	0xbd5862da	-0.052828647
51	0xbd83b2f8	-0.0643062
52	0xbce8b3a2	-0.028405968
53	0xbdc67f35	-0.096922316
54	0xbdebab5a	-0.11507292
55	0x3ccbf003	0.02489472
56	0xbcdd85da	-0.027041364
57	0xbd2c1cea	-0.042019762
58	0x3d8c5c9e	0.06853603
59	0x3cc9a608	0.024615303
60	0x3c5fd829	0.013662376
61	0x3dde3439	0.108498044
62	0x3cd36868	0.02580662
63	0xbd4bc2e6	-0.049746417

net.3.lin2.weight f4 [64, 64]
0	0x3ccb8126	0.024841856
1	0x3dcf7978	0.1013059
2	0xbdeb27f0	-0.11482227
3	0x3d899eda	0.06719752
4	0x3e03f8ac	0.1288783
5	0xbd437d60	-0.04772699
6	0xbd89eb0e	-0.06734286
7	0xbbef9988	-0.0073120035
8	0xbd8f2c6d	-0.069908954
9	0xbc721d42	-0.014777483
10	0x3d9b197f	0.07573222
11	0x3cb05180	0.021523237
12	0x3e094312	0.13404492
13	0x3dddba6c	0.10826573
14	0xbc9ca07d	-0.019119496
15	0xbc046bbf	-0.008082329
16	0xbd18d648	-0.03731373
17	0x3de7b12e	0.11313091
18	0xbd0d6380	-0.03451872
19	0xbde81591	-0.113322385
20	0xbd450a48	-0.048105508
21	0x3d0b1a37	0.033960547
22	0xbd95b2c4	-0.073094875
23	0x3dc90ae8	0.09816533
24	0x3db67ce8	0.08910543
25	0xbd8b20f0	-0.06793392
26	0xbd10c89f	-0.035347577
27	0x3dae8c0c	0.085228056
28	0x3bc2efc1	0.005948991
29	0xbc307803	-0.0107708005
30	0xbdd6bd95	-0.10485379
31	0xbdc4ee77	-0.09615796
32	0x3d83c755	0.06434504
33	0x3dc880ef	0.09790217
34	0xbdc7c6e1	-0.0975473
35	0x3ce6353a	0.028101552
36	0x3dda6d64	0.10665396
37	0x3d8976ad	0.06712089
38	0x3de2061a	0.1103632
39	0x3c5b5708	0.013387449
40	0xbd131311	-0.035906855
41	0x3d8a9d5f	0.067682974
42	0xbc800bf8	-0.015630707
43	0x3dc69e5d	0.09698174
44	0x3dbdf3c2	0.09275009
45	0x3dfc91ab	0.123324715
46	0xbcfb61b3	-0.030686235
47	0x3d7d2b1c	0.06180869
48	0xbc3dd2f0	-0.011585936
49	0xbdde9bef	-0.10869586
50	0x3dfd283e	0.12361191
51	0x3d294d39	0.04133341
52	0xbd850f13	-0.06497016
53	0xbba9eeab	-0.005185922
54	0x3dd423dc	0.10358402
55	0x3d4f80fc	0.05066012
56	0xbd2b8491	-0.041874472
57	0x3c83442c	0.016023718
58	0x3dc8aeab	0.0979894
59	0xbd22b7ef	-0.039726194
60	0x3d42ece7	0.04758921
61	0x3c9b02ce	0.018922236
62	0xbdbd38c9	-0.092393465
63	0x3cd00f6d	0.02539798
64	0xbd9d5c4e	-0.07683621
65	0xbdad97a5	-0.084761895
66	0x3cb5842a	0.022157747
67	0xbd764f04	-0.06013395
68	0x3d3a2665	0.045446772
69	0x3d971ca3	0.07378509
70	0x3dcd13e7	0.10013562
71	0x3d3c7a54	0.0460151
72	0xbd254d62	-0.040357
73	0x3cf41f3f	0.029800056
74	0xbda73ad5	-0.08165518
75	0xbe01a02b	-0.12658755
76	0x3d698e4b	0.057020467
77	0xbd516b55	-0.05112775
78	0xbdb4f25b	-0.08835288
79	0xbc809416	-0.015695613
80	0xbdbb66af	-0.09150445
81	0xbd0cef9c	-0.034408197
82	0x3d40a57c	0.04703282
83	0xbcd65065	-0.026161382
84	0xbacf8cd1	-0.0015834813
85	0x3de65a1f	0.11247658
86	0x3dc78c58	0.09743565
87	0x3d9527d8	0.0728299
88	0x3d30715c	0.043076858
89	0xbcc9fc30	-0.024656385
90	0x3d924bf3	0.071433924
91	0xbbead87c	-0.00716692
92	0xbd0a04b0	-0.033695877
93	0x3d9b18d8	0.07573098
94	0x3d86d99e	0.06584476
95	0xbdc5eb2b	-0.09663995
96	0x3bce045d	0.0062871412
97	0xbdd1743d	-0.10227249
98	0xbc45e037	-0.012077383
99	0xbdcf213a	-0.10113759
100	0x3d9a3318	0.075292766
101	0x3d4b8720	0.049689412
102	0x3deb65a5	0.114939965
103	0x3dd6ec6b	0.10494312
104	0x3dc63f9d	0.09680102
105	0xbdb4db10	-0.08830845
106	0x3d7e144e	0.062031083
107	0xbd28f6ea	-0.0412511
108	0xbe07cf47	-0.13262664
109	0xbcfe8c66	-0.031072807
110	0xbdeb47c5	-0.11488298
111	0x3d43c5fd	0.04779624
112	0xbded127a	-0.1157579
113	0xbdcf39b6	-0.10118429
114	0x3db4fffa	0.08837886
115	0xbd7b740d	-0.06138997
116	0xbd8c7439	-0.06858105
117	0xbcae8bf3	-0.021306967
118	0x3d9b2bed	0.075767376
119	0xbddb5786	-0.10710053
120	0xbde22272	-0.11041726
121	0x3da29eaa	0.07940419
122	0xbd72c40f	-0.059269007
123	0xbda4bb63	-0.08043554
124	0xbd119868	-0.035545737
125	0x3d8b266b	0.06794437
126	0xbdd3135d	-0.10306428
127	0x3debbcc4	0.115106136
128	0x3c178139	0.009247118
129	0x3dbe2284	0.09283927
130	0x3c65ffa5	0.014038001
131	0xbdae40d2	-0.08508457
132	0xbd5a5de3	-0.053312194
133	0x3d9ab2ef	0.0755366
134	0xbdf388d6	-0.11891334
135	0x3daab866	0.083359525
136	0xbdd3270b	-0.10310181
137	0xbd3d90c3	-0.046280634
138	0xbcfe00e2	-0.03100628
139	0xbde9c743	-0.11414959
140	0xbd81a033	-0.06329384
141	0xbcc4b925	-0.024014065
142	0xbd4c7db9	-0.049924586
143	0xbd5faf88	-0.05461076
144	0xbdbec6f8	-0.09315294
145	0x3da38a00	0.07985306
146	0x3d7c871c	0.061652288
147	0x3b2e00a0	0.0026550665
148	0xbddd7b7d	-0.10814569
149	0xbc61c123	-0.013778958
150	0xbdcbad7c	-0.09945199
151	0x3d7a864b	0.061163228
152	0x3ddca3b0	0.107734084
153	0x3d119364	0.035540953
154	0xbdc6fe5a	-0.097164825
155	0xbb13005a	-0.002243063
156	0xbdecd319	-0.11563701
157	0x3d271dc0	0.040799856
158	0xbc969d5e	-0.018385585
159	0x3d80ee96	0.06295507
160	0xbd3bb435	-0.045826156
161	0x3bb94e1c	0.0056550633
162	0x3dd96e0f	0.10616695
163	0xbddd43dd	-0.108039595
164	0xbd3f66d6	-0.04672893
165	0xbda04125	-0.07824925
166	0xbd14650d	-0.036229182
167	0xbd0faece	-0.035078816
168	0x3cb93a6a	0.022610862
169	0xbcb9f728	-0.022700861
170	0x3d87f9ca	0.0663944
171	0xbd9f958c	-0.07792196
172	0xbddb26af	-0.10700738
173	0xbd0ea54c	-0.034825608
174	0xbcaddcd8	-0.02122347
175	0xbd2b27a4	-0.04178585
176	0xbbd25380	-0.0064186454
177	0xbd702344	-0.058627382
178	0xbd8dc7d5	-0.069228806
179	0xbdf6f6f4	-0.12058821
180	0xbc32c35c	-0.010910835
181	0xbdffd008	-0.12490851
182	0xbdfac36b	-0.12244304
183	0x3de1f8da	0.11033793
184	0xbdb4bdcc	-0.088252634
185	0x3d7d5216	0.06184586
186	0xbcc49ac7	-0.023999585
187	0xbda19b52	-0.07890953
188	0x3dc23c54	0.09484163
189	0x3dbd43e5	0.092414655
190	0x3bcc4ce2	0.006234751
191	0x3b4fd781	0.0031714144
192	0xbd4f9c3f	-0.050686117
193	0xbdc5c344	-0.096563846
194	0x3c8b6a50	0.017018467
195	0xbd9a1e8d	-0.07525358
196	0x3cbf455c	0.023348503
197	0xbdcb3506	-0.09922223
198	0xbdbf822d	-0.09351001
199	0xbdb3049a	-0.08741112
200	0xbde6908c	-0.11258039
201	0xbc979df3	-0.018507933
202	0xbdb2fe9e	-0.087399706
203	0xbd7a58a6	-0.061119698
204	0xbca988d5	-0.02069513
205	0x3d55d1b4	0.05220194
206	0xbda9f8ca	-0.08299406
207	0x3d9d4926	0.076799676
208	0x3d136049	0.035980497
209	0x3c8c0873	0.017093873
210	0x3d9e3c46	0.0772634
211	0x3de00bf2	0.109397784
212	0x3c66bd09	0.014083155
213	0xbc92391b	-0.017849496
214	0x3ddf7c83	0.109124206
215	0x3d904c7a	0.07045837
216	0x3cf97ae5	0.030454108
217	0x3de7ac15	0.11312119
218	0x3ddf1f11	0.10894597
219	0x3d0bf9f9	0.03417394
220	0xbd2f8367	-0.042849924
221	0xbdb2e9a7	-0.08735972
222	0x3d82a108	0.063783705
223	0xbddada3e	-0.10686158
224	0xbdc5d076	-0.096589014
225	0x3d8624c0	0.06549978
226	0x3cbfc35f	0.02340859
227	0x3cbf3c3f	0.023344157
228	0xbd71ce1a	-0.059034444
229	0x3dc32ded	0.09530244
230	0xbd222894	-0.03958948
231	0xbd7538ac	-0.0598685
232	0xbcabef90	-0.020988256
233	0xbcf97a3f	-0.0304538
234	0xbdea7c85	-0.114495315
235	0xbc206298	-0.009789132
236	0x3c4b0a16	0.012392541
237	0x3d5c4895	0.053780157
238	0xbe02d6f9	-0.12777318
239	0xbbd64f0c	-0.006540185
240	0x3dd7e22d	0.105411865
241	0x3dcf5465	0.10123519
242	0x3d25fbc0	0.04052329
243	0xbd17831e	-0.036990277
244	0x3cadc8e3	0.021213954
245	0x3d0f45bf	0.034978624
246	0x3d98f8e4	0.07469347
247	0x3da026ab	0.07819875
248	0xbd715b34	-0.05892487
249	0x3db1e532	0.08686294
250	0x3d773037	0.060348716
251	0x3dfba1a7	0.12286692
252	0xbdd27f4a	-0.10278185
253	0xbdbbfe77	-0.09179395
254	0x3d9a753f	0.07541894
255	0x3da27be7	0.07933789

net.3.lin2.bias f4 [64]
0	0xbd52b2c4	-0.051440015
1	0xbddc67b7	-0.107619695
2	0xbc2be474	-0.010491479
3	0xbd5f7b70	-0.05456108
4	0x3cd49f8e	0.025954988
5	0x3d95a4b8	0.07306808
6	0xbd88cdb5	-0.066798605
7	0x3dd6e390	0.10492623
8	0xbdaec639	-0.08533902
9	0x3b7fa3ea	0.0039007613
10	0x3d16530a	0.036700286
11	0x3de4316e	0.111422405
12	0x3cd9d9e2	0.026593152
13	0xbd7a0011	-0.06103522
14	0xbc9137e6	-0.01772685
15	0x3c437a10	0.011930957
16	0xbca85396	-0.02054767
17	0xbd98ddeb	-0.074642025
18	0x3c4b59a2	0.012411507
19	0x3dfe7e97	0.12426489
20	0x3cb62c7d	0.02223801
21	0x3dd42dfe	0.10360335
22	0xbb9befb8	-0.0047588013
23	0xbdd69387	-0.10477357
24	0xbd8c7818	-0.068588436
25	0x3e03266c	0.12807626
26	0x3d446008	0.047943145
27	0xbdbfbf58	-0.09362668
28	0xbdc39853	-0.09550538
29	0x3bb4acd0	0.005513765
30	0x3de7ac90	0.113122106
31	0xbca2024b	-0.019776484
32	0xbc50b183	-0.012737635
33	0x3d9d0a43	0.07667973
34	0xbd2875c0	-0.04112792
35	0x3dd3bf7c	0.10339257
36	0xbd5c0475	-0.053715188
37	0x3db801fd	0.08984754
38	0x3e018e72	0.12651995
39	0xbb201191	-0.0024424533
40	0xbc6f0bf5	-0.014590253
41	0x3dab732c	0.08371577
42	0xbc684c5c	-0.014178362
43	0xbdbc627d	-0.09198473
44	0xbd66edb0	-0.05637902
45	0x3dd16770	0.10224807
46	0xbd99cf39	-0.07510228
47	0x3d7d32a7	0.061815884
48	0x3d3a8295	0.04553469
49	0x3c5ab6a0	0.013349205
50	0x3dbddd57	0.09270733
51	0xbdb7040f	-0.08936321
52	0x3e038aba	0.12845889
53	0xbe06736a	-0.13129964
54	0xbb8b9575	-0.00425976
55	0xbdaff1a7	-0.085910134
56	0xbdc4a451	-0.09601653
57	0xbd014ec3	-0.031569254
58	0x3d1c311b	0.038132768
59	0xbcb88f9d	-0.022529418
60	0xbc778389	-0.015107044
61	0xbdc267f7	-0.09492486
62	0xbd50e6d7	-0.051001396
63	0x3c670094	0.014099259

net.4.lin1.weight f4 [64, 64]
0	0x3d5a9ffd	0.053375233
1	0xbd13c0fd	-0.03607272
2	0xbdafd6b4	-0.08585873
3	0x3aab5f5a	0.0013074682
4	0xbd4bdfaf	-0.04977387
5	0xbd9f7057	-0.07785099
6	0xbd79abb1	-0.060954753
7	0x3d1f13e1	0.038837317
8	0xbd9f7c97	-0.077874355
9	0x3dde2e92	0.10848726
10	0xbc9cee3d	-0.01915657
11	0xbaa97ffe	-0.0012931821
12	0xbd28a57e	-0.04117345
13	0x3dab7461	0.08371807
14	0x3d8e8fb9	0.06961007
15	0x3d91f07f	0.07125949
16	0xbc66dc65	-0.014090632
17	0xbdd69e4a	-0.1047941
18	0xbe0519fe	-0.12998196
19	0x3de04a65	0.1095169
20	0x3d44a649	0.048010144
21	0xbdb37898	-0.08763236
22	0x3ad6e6f8	0.0016395738
23	0xbd00a5a1	-0.031407956
24	0xbdd84e92	-0.10561861
25	0x3cb40a52	0.021977577
26	0xbcf5d043	-0.030006533
27	0xbd6be15a	-0.05758796
28	0xbaa99f04	-0.0012941067
29	0x3dba5922	0.09099032
30	0x3c0f32cb	0.008740137
31	0xbd67e812	-0.056617804
32	0xbdc0d795	-0.09416119
33	0xbd3014f7	-0.042988744
34	0xbdb22699	-0.08698768
35	0xbd76705e	-0.060165755
36	0xbd494427	-0.04913726
37	0x3ce01489	0.027353542
38	0xbdc3be02	-0.095577255
39	0x3d9a8ded	0.075466014
40	0x3d4bae95	0.04972704
41	0x3dac8d3f	0.08425378
42	0xbd70d8dd	-0.058800567
43	0xbdd23c1e	-0.10265373
44	0x3dcddf16	0.10052316
45	0xbdc2e6f3	-0.09516706
46	0x3d999ce3	0.07500627
47	0x3c6a69ff	0.014307498
48	0x3d751e17	0.05984315
49	0x3dcbe696	0.0995609
50	0xbd9a251b	-0.075266086
51	0x3af72754	0.0018856325
52	0x3d99721e	0.07492469
53	0xbd44979b	-0.047996145
54	0x3d2fb2c5	0.042895097
55	0x3d2eb934	0.042657092
56	0xbd6f763a	-0.05846236
57	0x3d6b6f66	0.057479285
58	0xba5d98bd	-0.0008453241
59	0xbd11aa96	-0.035563074
60	0x3c49bc00	0.012312889
61	0x3d3f874d	0.046759892
62	0xbdd4c1de	-0.1038854
63	0x3c2a039c	0.010376837
64	0x3c6596ea	0.0140130315
65	0xbddeb993	-0.10875239
66	0xbcb3346b	-0.02187558
67	0x3da0537d	0.07828424
68	0x3d9ca1ce	0.07648049
69	0xbd3d1703	-0.046164524
70	0xbdf22356	-0.11823146
71	0xbdc76c4f	-0.09737455
72	0xbd36c196	-0.04461821
73	0xbd49579f	-0.049155828
74	0xbd9a074e	-0.075209245
75	0xbd83d66a	-0.064373806
76	0xbd0bde48	-0.03414753
77	0xbd41c059	-0.047302578
78	0xbc41b52b	-0.011822979
79	0xbc35b5ea	-0.011090735
80	0xbe06132b	-0.1309325
81	0x38144ed0	3.535935e-05
82	0xbd9364ce	-0.07196961
83	0xbc23226c	-0.009956937
84	0xbd9e532f	-0.0773071
85	0xbcb449a8	-0.022007778
86	0xbded6c79	-0.11592955
87	0x3d4233e2	0.04741276
88	0xbd00e22f	-0.031465705
89	0x3d1e984e	0.038719468
90	0x3de4437b	0.111456834
91	0x3d8697cf	0.06571924
92	0x3b1710a2	0.0023050685
93	0xbcabfd2d	-0.020994747
94	0x3d1178fe	0.035515778
95	0xbde6b1ba	-0.112643674
96	0x3dc26b89	0.09493167
97	0x3dad0460	0.084481
98	0x3cb8f93d	0.022579784
99	0xbcf5ec58	-0.030019924
100	0xbca52549	-0.02015938
101	0x3cb3060d	0.021853471
102	0x3d849e0d	0.06475458
103	0xbe03cf2a	-0.12871996
104	0xbda46620	-0.08027291
105	0xbd5b9793	-0.05361135
106	0x3dddd129	0.1083091
107	0xbd52c919	-0.051461313
108	0x3dd104f6	0.10206024
109	0x3d44645b	0.04794727
110	0xbda8ed46	-0.08248381
111	0x3dfe9908	0.12431532
112	0xbdd1b8c6	-0.10240321
113	0xbdb8a15a	-0.0901515
114	0x3dce533e	0.10074471
115	0xbdc99565	-0.09842948
116	0x3da59560	0.08085132
117	0xbd846a1d	-0.06465552
118	0xbc7ee768	-0.015558101
119	0x3cf8928d	0.030343318
120	0xbd5c1daf	-0.053739246
121	0xbaf21b8d	-0.0018471346
122	0xbd6dba24	-0.058038846
123	0x3e034a78	0.12821376
124	0xbb4871c4	-0.0030585388
125	0xbc779a27	-0.015112436
126	0xbc17e35c	-0.009270515
127	0xbdcd2bb9	-0.10018105
128	0xbdf30ca2	-0.11867644
129	0xbdb917df	-0.09037756
130	0x3d837e6b	0.06420597
131	0x3e02cf1d	0.1277432
132	0xbd91cf37	-0.07119601
133	0x3ddf1c4e	0.108940706
134	0xbdba670c	-0.09101686
135	0x3b0d5e80	0.002157122
136	0x3dc3fcde	0.09569715
137	0x3db71a2c	0.08940539
138	0x3de7fc9e	0.1132748
139	0x3dd1a9d6	0.10237472
140	0xbd4d6996	-0.050149523
141	0x3d45c79e	0.048286073
142	0x3da9904c	0.082794756
143	0x3dcf29a4	0.10115364
144	0xbddcc15b	-0.10779067
145	0x3d539bfa	0.051662423
146	0xbc338581	-0.010957123
147	0xbd2ced4b	-0.042218488
148	0x3db8a65d	0.09016106
149	0x3dd3fc5e	0.103508696
150	0xbdc2261d	-0.09479926
151	0x3e023494	0.1271537
152	0x3d96d709	0.073652335
153	0x3df74c6d	0.12075124
154	0xbcdb2118	-0.026749179
155	0xbd774a72	-0.06037373
156	0x3d2b823a	0.04187224
157	0xbad3d6f0	-0.0016162079
158	0xbdcdcfc0	-0.10049391
159	0xbcd2cbf7	-0.025732024
160	0xbd339a43	-0.043848287
161	0x3c83dfdc	0.016097955
162	0x3c99efb3	0.018791055
163	0xbdee1248	-0.116245806
164	0x3bcdd548	0.0062815286
165	0x3d89437d	0.067023255
166	0x3cc1bb30	0.023648828
167	0x3d261706	0.0405493
168	0x3d91d3b7	0.071204595
169	0xbd3400e0	-0.043946147
170	0x3dd03724	0.10166767
171	0xbda1303b	-0.07870527
172	0xb9d7af24	-0.00041138486
173	0x3ccd414e	0.025055554
174	0xbdf3b987	-0.11900621
175	0x3cec1491	0.0288184
176	0xbd2b284b	-0.041786473
177	0xbd2c904e	-0.042129807
178	0xbcd93eb8	-0.026519164
179	0xbdb6c1c6	-0.08923678
180	0xbdaa8f22	-0.08328082
181	0xbc5b793a	-0.013395602
182	0xbdba7ada	-0.09105463
183	0x3cd1f9fe	0.0256319
184	0x3d6f5779	0.05843303
185	0xbd71dbc4	-0.059047475
186	0x3deaa842	0.11457874
187	0xbd8d779e	-0.06907581
188	0xbbc43b36	-0.005988504
189	0x3de91e82	0.11382772
190	0x3d43d26b	0.047808092
191	0xbcffa589	-0.031206863
192	0xbde9a06c	-0.11407551
193	0xbe024761	-0.12722541
194	0xbda250bc	-0.07925555
195	0xbdae771a	-0.085188106
196	0x3d9acd60	0.075587034
197	0x3c82ce1d	0.015967423
198	0x3c504483	0.012711647
199	0xbd3bd2c5	-0.045855302
200	0x3d15ac94	0.036541536
201	0xbdc5075b	-0.096205436
202	0xbda2c995	-0.07948605
203	0xbdc50e62	-0.09621884
204	0x3dbffb81	0.093741424
205	0xbdb0b5ce	-0.086284265
206	0x3dab0e50	0.08352339
207	0xbdc4eaaf	-0.09615075
208	0xbde247ea	-0.11048873
209	0x3d2d2130	0.04226798
210	0x3d9670be	0.073457226
211	0xbc1209fa	-0.008913511
212	0xbe030999	-0.1279663
213	0x3d948731	0.07252348
214	0xbd8df3c4	-0.0693126
215	0xbc1f3f20	-0.00971964
216	0xbdb9264a	-0.09040506
217	0xbc57e93e	-0.013178168
218	0xbd252ec8	-0.040327817
219	0xbdcbd58a	-0.09952839
220	0xbd76e56c	-0.060277387
221	0xbc2da1b7	-0.010597638
222	0x3def84f2	0.11695279
223	0xbdb1a2a1	-0.08673597
224	0x3da326aa	0.07966359
225	0x3d6e560f	0.05818754
226	0x3db7cea6	0.08974962
227	0x3d77fc29	0.060543213
228	0x3dff1464	0.12455061
229	0x3de6f422	0.112770334
230	0xbd5b6fde	-0.05357348
231	0xbdd1e093	-0.10247912
232	0xbd1a83ef	-0.037723478
233	0xbd992931	-0.0747856
234	0x3dbc03f6	0.09180443
235	0xbdb7bd1e	-0.08971618
236	0xbd6194ed	-0.055073667
237	0x3c91cfe0	0.017799318
238	0x3d9337fa	0.07188411
239	0xbd7f947b	-0.06239746
240	0xbde759a3	-0.11296394
241	0x3df374ff	0.118875496
242	0x3dc9c9ea	0.09852965
243	0xbda8d0b9	-0.08242936
244	0xbde7f780	-0.11326504
245	0xbdc3d707	-0.095624976
246	0x3d302213	0.043001246
247	0x3df3930f	0.118932836
248	0x3d6818dd	0.056664336
249	0xbd23431b	-0.03985892
250	0x3c831fe7	0.016006423
251	0xbc805798	-0.015666768
252	0x3d9f0299	0.07764167
253	0xbcf2bd77	-0.02963136
254	0xbdc2d85b	-0.09513923
255	0x3c2d8ef2	0.010593163
