data/trained_models/base_cp_b_resnet.pth (torch, 201882 bytes, 15 tensors)

net.0.weight f4 [64, 374]
00000000: 0b8c 193d 7032 c1bc 620b d33c b4a6 17bd
00000010: dea5 95b9 7be9 d63b 2aa2 5c3d 79bf cdbc
00000020: c4c8 07bd daaa fcbb 9363 10bd 8332 3b3d
00000030: 8f97 293d 9f40 243c f12d f43c 5478 f1ba
00000040: 6dcc 1ebd ca85 5d3d ab2c 7bbb 575a 433c
00000050: ef0f 01bb 282f 183d e676 0f3d 4d38 c13c
00000060: fb21 943c 1a6f cb3b 3cd1 7a3c 0701 84bc
00000070: 2b93 e33a f6e8 4dbc b8dc 43bd bda6 0d3d
00000080: a24d bfbc 712c 463a f099 f6bc cd14 09bd
00000090: 7ae2 803a 93c5 43bc c49d 1c3d 2154 e73c
000000a0: baac 8ebc 0b3d 8abc 2bff 52bb c822 8b3b
000000b0: e1c9 52bd b9eb 073d 37bd 6e3c 19e2 23bd
000000c0: 5f8c 94bb 330e 2f3d 97b6 733c bd01 483d
000000d0: f179 c3bc 251b 0ebd c3e8 f63c 73b0 633c
000000e0: 771d 25bd 1d3d 28bd d9b7 ff3c 357b 2e3d
000000f0: a925 ee3c 6597 e8bc fd1d 643d 0b21 e4bc
00000100: 1ff1 d2bc 2aa0 06ba 6d38 fbba 840f 9b3b
00000110: c737 6a3c 144b 16bd 375d ad3c b19e 093d
00000120: 4c9b 643d 42d1 cbbc 2de3 373d 3423 403d
00000130: 859e 8abc d500 4e3c 816f d3bc 3787 333d
00000140: d8b2 8fba b675 7cbc 0bf5 59ba 6164 333d
00000150: 076d 3abd 99c7 643d 3801 b9bb 396f 513c
00000160: c4da 23bd fead 0cbc 738a 083d 797b 463d
00000170: bec6 53bc 2899 2abd 4387 48bd d963 21bd
00000180: 13cc 0cbd 07b4 5f3c f0ea 683d d1cb 623d
00000190: 2bf5 c4bc fd87 203d bb5f 04bd 6b4c 76bb
000001a0: 2958 323d 6511 eebc 29cc e23c c8e5 81bb
000001b0: 43ec 7abc ff7a 1d3d d20c c5ba e715 403d
000001c0: 8938 013d 527a aeba c054 cf3c 59a8 aabc
000001d0: 8bf5 323d ba67 cbbc 59fc 4e3d 9048 c3bc
000001e0: f430 743b a1fb 333b 8d4f f53c 603a 1dbd
000001f0: 529e 33bd d09a 843c bf98 0a3d b314 74bc
00000200: 3aa4 053d 5fe0 4e3d 9914 e03c db02 04bd
00000210: 43c4 803a bb3f 6fbb 8ccf d13c e6f3 4f3c
00000220: 21e1 463d d5ed b23c 1175 a2bc 25b2 2ebd
00000230: c1a6 cf3c 320a 6abc 6f25 9cbc 10ba 163d
00000240: 4add d7bc fde8 8fbc 7365 453d 38bf 57bc
00000250: 8d8e 39bb 4d6b 53bd 92fb bdbb b226 293b
00000260: 320b 03bb 5f04 313d 807b 37bd c9d5 3bbd
00000270: 84e8 06bd ff6f 813c 5bc2 37bd 0fe8 753c
00000280: f9c1 1a3d 5bb4 52bd 4741 d53c 9a56 13bc
00000290: 0775 9e3c d7af 4a3d 02c0 4fbd 282d 24bd
000002a0: a744 34bd 188a ba3c ea36 4abc 39c1 db3c
000002b0: af87 25bd 0b72 fd39 6a0e d6bc 354d e93c
000002c0: 9692 1bbd c748 2b3d 8ce1 10bd 3450 8fbc
000002d0: 7d4c f93c 09a8 aabc cb82 0bbd 9a90 f2bb
000002e0: 54bd 80bc 22c1 11bd 232e fcbb 8054 32bd
000002f0: 9f61 25bd 823a b53b 145c 84bc 039e 193d
00000300: 7252 a13a 75a8 dd3c c2e8 90bb 1a8d 0dbc
00000310: 38d5 af3c b2fa 453b a952 1e3d a674 c5bc
00000320: 683e 283d 934d b63c f9b9 173d 37dd cf3c
00000330: 81e6 d33c a82c d5bc 4c2a 8a3b eece 0f3c
00000340: 7123 05bc 2bc4 0e3d fd95 a3b9 dc90 21bd
00000350: 3140 fb3c 1cf0 103d 4692 6d3a 7111 0dbd
00000360: 8e52 30bd 4752 23bd f9e7 81bc d51d 4f3d
00000370: 9f98 25bd 1613 453d 1393 503d cb2b 3a3d
00000380: 848c 863c c3b2 fa3b 1371 53bd 458f fcbc
00000390: e63c 2e3c e4e3 a4bc f04f 6e3c 8c9a 853b
000003a0: 1914 2ebc e6d4 f5bc 2599 403d 8209 fcbb
000003b0: 83c2 5d3c 282e a4bc 2e57 0d3d a6c5 8fbc
000003c0: 3e7c db3b ef47 ebbc 8e92 4abd 6bd3 733c
000003d0: fc61 73bd c502 c6bc cec0 8cbd d764 413d
000003e0: 6d70 fe3c f33c dd3c 4b70 d53c 243c f93b
000003f0: 1892 8d3c 6084 e2bc 5312 113d c219 03bb
0.03748707 -0.02358362 0.025762264 -0.037024215 -0.00028543075 0.0065585948 0.05386559 -0.025115715
-0.03315045 -0.007710797 -0.03525121 0.04570247 0.041404303 0.0100251725 0.029807063 -0.0018422701
-0.038769174 0.05408267 -0.0038326185 0.011923394 -0.0019693335 0.037154347 0.0350255 0.023586417
0.01808261 0.0062083127 0.015308674 -0.016113771 0.0017362585 -0.012567749 -0.047817916 0.034582842
-0.023352448 0.0007559723 -0.0301027 -0.033467103 0.000983312 -0.011948961 0.038236395 0.028238358
-0.017416347 -0.01687481 -0.003219555 0.0042460896 -0.051462058 0.033183787 0.0145714795 -0.040010545
-0.004533335 0.04273815 0.014875076 0.048829783 -0.023861857 -0.034693856 0.030140286 0.013897049
-0.040311303 -0.041073907 0.031215595 0.042597968 0.029070692 -0.028392503 0.05569266 -0.027847787
-0.025749741 -0.00051355606 -0.0019166596 0.004732074 0.014295525 -0.036692694 0.021162612 0.033598606
0.055812165 -0.024880055 0.044894386 0.046908572 -0.016921291 0.012573441 -0.025810005 0.043830123
-0.0010963334 -0.015408924 -0.00083144073 0.0437969 -0.045514133 0.055854414 -0.0056458972 0.012782865
-0.040003553 -0.008586405 0.03333516 0.048457596 -0.012925802 -0.041649967 -0.04895712 -0.039401863
-0.034374308 0.013653762 0.05686468 0.055370156 -0.024042686 0.03919219 -0.03231786 -0.003758217
0.043541107 -0.029061029 0.027685242 -0.0039641596 -0.015315118 0.038447376 -0.0015033728 0.046895888
0.031548057 -0.0013311601 0.025308967 -0.020832228 0.0436912 -0.024829734 0.050533626 -0.023838311
0.0037260624 0.0027463215 0.02994516 -0.03838575 -0.043852158 0.016187102 0.033837076 -0.014897513
0.03262732 0.050506946 0.027353572 -0.032229286 0.0009824116 -0.0036506492 0.025611661 0.012692427
0.048554543 0.021841923 -0.019831212 -0.04265036 0.02534807 -0.014284657 -0.019060818 0.036798537
-0.026350636 -0.017567152 0.048192453 -0.013168149 -0.0028313727 -0.051616002 -0.005797812 0.0025810418
-0.0019995687 0.04321706 -0.044795513 -0.04585818 -0.032936588 0.015800474 -0.044863086 0.01500894
0.037782643 -0.05144153 0.026032103 -0.008992815 0.019342912 0.0494841 -0.050720222 -0.040082127
-0.044010784 0.022770926 -0.012342194 0.026825534 -0.0404126 0.0004834089 -0.02612992 0.028479198
-0.037981592 0.041817453 -0.03537135 -0.017494299 0.03043198 -0.020832079 -0.03406028 -0.0074024918
-0.015715279 -0.035584576 -0.0076959296 -0.043537617 -0.0403763 0.0055306563 -0.016157188 0.037504207
0.0012307896 0.027057866 -0.004422278 -0.008639598 0.021463975 0.003020924 0.03865305 -0.024103474
0.04107514 0.022253787 0.03704259 0.025374038 0.025866749 -0.02602227 0.004216468 0.008777363
-0.008126126 0.03485505 -0.00031201533 -0.03944479 0.030670257 0.035385236 0.0009062629 -0.03444046
-0.04304748 -0.039873388 -0.015857683 0.05056556 -0.040428754 0.048113905 0.05092151 0.04545192
0.016424425 0.0076507046 -0.051621508 -0.030830035 0.0106346365 -0.020128198 0.014545426 0.0040772613
-0.010624909 -0.030008744 0.04702105 -0.007691563 0.013535145 -0.02004154 0.03450697 -0.0175503
0.0066981604 -0.028720824 -0.04945617 0.014881949 -0.059419617 -0.024171242 -0.06872712 0.04721531
0.031059468 0.027006602 0.026054522 0.0076060463 0.017281577 -0.027651012 0.035417866 -0.0020004367

net.0.bias f4 [64]
00000000: d9f1 0ebd 1d32 813d 3376 363d b2f3 163c
00000010: f6c4 873d 5b9a 283d c10e 623d 8259 c4bc
00000020: a78d a33c 50e0 6c3c 159f df3c 4218 68bc
00000030: ebb4 1ebd a139 26bc ad1b 6dbc 0da1 d33a
00000040: bf8b 713d 6b50 fd3c ab0c 65bd 701a 2dbd
00000050: 2bf0 8d3c ab78 92bc 0ec4 fb3c e0dd 563d
00000060: debf 743d 34ee 32bc 7f44 1dbc 8da7 983c
00000070: 102f d23c b591 4bbd deda 81bd e20d fabc
00000080: c09d 4cbb e7d1 cc3c 9f90 213d 86b7 ecbb
00000090: 1b7e 583c e462 c2bd 8d81 123d 4d1d 9dbc
000000a0: f5a2 443c 8adc f2bc 39f6 f73c a78c 423a
000000b0: dfde 76bc bdba 9e3d f54b ce3c 55d9 bc3c
000000c0: 1225 a4bc 9966 cbbc 8182 673d 1eff 8b3d
000000d0: 643a 863c dc32 e7ba 3017 55bc 0d82 4ebd
000000e0: f47d 6bbc f224 163d e15f 313d 4e51 043d
000000f0: 6ce2 323d 9e8e 7a3d 02c7 153d 7104 e83c
-0.034898613 0.063083865 0.044546317 0.009213375 0.06629364 0.04116283 0.05518985 -0.023968462
0.019965006 0.014457777 0.027297536 -0.01416594 -0.038746756 -0.010145576 -0.01447193 0.0016146019
0.058971163 0.030922135 -0.055920284 -0.04226154 0.017326435 -0.017879805 0.030733135 0.05245769
0.05975329 -0.01092105 -0.00959885 0.018634582 0.025657207 -0.049699504 -0.06340574 -0.030524198
-0.0031221956 0.025002433 0.039444562 -0.007224026 0.01321366 -0.09491518 0.03576808 -0.01917901
0.012001743 -0.029646177 0.030268775 0.00074214715 -0.015067785 0.07750461 0.025182704 0.02305285
-0.020037208 -0.024829196 0.056520943 0.06835769 0.016385265 -0.0017639059 -0.013006017 -0.050416995
-0.014373291 0.036656328 0.043304328 0.0323041 0.043672964 0.061171167 0.03656674 0.02832243

net.2.lin1.weight f4 [64, 64]
00000000: 184d d4bd 6003 cc3d b72d d73d 82b7 64b9
00000010: fac7 bcbc a9d3 093e bc48 12bd e40a b2bd
00000020: 6425 303d f696 8e3d 38f0 abbb 6c3e d5bd
00000030: 4c6d 60bd 58e8 f2bc b8f4 e3bd bbd1 053e
00000040: ab8f 363d 8cae 57bd a0b0 c8bd 1a5f 2e3d
00000050: a51c 303d 8464 b9ba 2ada b63d cb5c 463d
00000060: d387 c03d 97e9 82bd 1c46 253c 026a 143d
00000070: 0dfd 7dbd 75b9 08bd 4bdf e2bd 0540 55bd
00000080: 624a 8abc f1ae bf3d 6c82 22bd 738c 80bd
00000090: 2707 23bd 9d87 603d 9dd5 41bd 8a88 70bc
000000a0: 6bfc 043d d5b2 b63c 542b 093e 5a7c cbbd
000000b0: 8e41 18bd f5fa 85bd b368 f53d 9ae2 8f3d
000000c0: d31e 16bd ad2e ac3d 7371 12bd f4ff 76bd
000000d0: 04b9 4d3d 17be 223c 9865 b13d 4032 c1bd
000000e0: 4725 e2bd b8ab 0f3d 4e15 0d3e 5384 7fbc
000000f0: b962 66bd 928a dcbd 3024 5d3d 672a a33c
00000100: 5ac7 cdbd 711d ff3d 2b18 053c 2cf9 ad3c
00000110: 9f06 073e 1a87 193d f2fe 68bb a244 2fbd
00000120: d9c8 db3d 41f2 d8bd 6e82 29bd da41 9b3d
00000130: 51eb 26be 479c bdbc 9930 79bd b49e 16bc
00000140: 31d9 a1bd 7042 a2bc 9c0a 813d a58f 22bc
00000150: 994f 113e 324c 223d 5345 d6bc f72e 97bd
00000160: 9ce2 123e f335 ffbd c385 72bd 669f 563c
00000170: 9a12 d83d d606 06be bbf6 7fbc e3ab 86bd
00000180: b046 613a 6da8 583d 9840 ca3d d53c d73d
00000190: 23fc b73d c1e7 80bd 14c5 bfbc a3c1 7b3c
000001a0: 008c ddbd 67e9 b8bd afa1 8a3d 96af 823d
000001b0: bd29 c43d 53c1 5fbd 3b83 a43d 7e53 c6bd
000001c0: 14ee e5bd 2f2f 773d 2e52 f93d c6f4 803c
000001d0: e4e4 753d 7f6e d03d a256 d63c 1452 0f3d
000001e0: 10a0 7e3d d199 363d bbb8 003e b3ff 0bbd
000001f0: 62e9 20bd 937c e03d 9617 053e b0c2 f5bc
00000200: 875b 12bd 9cc9 b9bd f976 273c e463 8bbd
00000210: c5c7 e13d 3983 aabd d81c 48bd edcf 843d
00000220: 0932 93bd 6409 ccbd 940d 9a3d 4366 163d
00000230: e63d 303c da0d a8bd 9ec5 e2bd 0fe0 8a3c
00000240: 8382 81bd efbc fb3d 4a9e 133d c2d8 94bd
00000250: 8b20 513d fb0f 8ebd 8206 053e 5d3f a9bd
00000260: 0216 0d3d a82d b33d 54cd ca3d 43ad 74bd
00000270: 209e f53c 4da2 d53d 805c 9fbc a0da 973d
00000280: 393f adbd 184c c23d 5305 ab3d 503c eb3d
00000290: c182 b33d 767f 6b3d 6737 943d 70e9 c13a
000002a0: 2331 8fbd d63c 9fbb f3df 603c 3b98 c7bd
000002b0: 9349 d93c 3b83 a6bd 49fb 92bd a20f 8a3c
000002c0: 422a 5ebc 320d d8bd 5b6d d43d 39f1 acbd
000002d0: c819 a23d 0257 a3bb caad c83b a61b 80bd
000002e0: 70c5 98bd de12 ed3d 83d2 a13d 9f65 0f3d
000002f0: a612 9bbc 2559 f8bd 8701 fc3d bed4 f23d
00000300: 869c f1bd 401c debd 2007 18be 2c44 bfbc
00000310: f0e2 9fbd 2047 c3bc b392 18bd 726f 41bd
00000320: 1515 8dbd b28b 9e3d cb86 16be 6764 e4bd
00000330: 47d6 f8bc cbcd 1cbd dbfc 033b e5ed b5bd
00000340: 6695 abbd 286f 4fbd 1f0e d23d 41c8 eebd
00000350: 85a9 ffbd 70b2 833d ef3b 1fbd ff6a 253d
00000360: 605c c7bd d076 d03d c9b4 453d cf3d b3bd
00000370: 4eb2 6dbd af55 f53d cf43 f93d caa8 a73d
00000380: b1ce 0fbe a65f afbc 6ed1 933d 9529 683d
00000390: b1d3 fe3d 4f8d c83c cd34 3f3d ca23 b43d
000003a0: e613 01bb ff39 44bd ea34 afbb 2f13 31bd
000003b0: 6684 e53b 3ea2 d0bd 4149 9a3d 4856 0ebe
000003c0: 3053 ec3d f8c1 033d 4905 efbd 56cc 0bbc
000003d0: 0dd1 f4bd ee60 40bd 9879 e2bc 7058 863d
000003e0: b908 8ebb 8c8f 0abe c532 fbbd 51ea 123e
000003f0: 68cc 6cbd 900a c6bd c697 123d 1677 11be
-0.10366267 0.09961581 0.10506766 -0.00021812136 -0.023044575 0.13459648 -0.035713896 -0.086934835
0.04300441 0.06962387 -0.005247142 -0.10412297 -0.054791734 -0.029651806 -0.11130661 0.13068287
0.044570606 -0.052656695 -0.097993135 0.042571165 0.042996068 -0.0014144336 0.0892833 0.048428338
0.094009064 -0.0639221 0.010087516 0.03623391 -0.062008906 -0.03337999 -0.11077746 -0.052063007
-0.016881172 0.09359539 -0.03967516 -0.062767886 -0.039801743 0.05481683 -0.047322858 -0.014680991
0.032467287 0.02230207 0.13395435 -0.099358276 -0.037171893 -0.06542007 0.119828604 0.07025643
-0.03665049 0.0840734 -0.035752725 -0.06030269 0.050225273 0.009933016 0.086619556 -0.094334126
-0.11042266 0.035075873 0.13777658 -0.015595513 -0.056246493 -0.10768618 0.05398959 0.01991768
-0.10047789 0.124567874 0.008123438 0.021236978 0.1318612 0.03748236 -0.003555235 -0.042790063
0.10731668 -0.10593081 -0.041384153 0.075809196 -0.16300704 -0.023145808 -0.060837362 -0.009193111
-0.07902754 -0.01980707 0.06300852 -0.009921943 0.1419052 0.039623447 -0.026156103 -0.07382005
0.14344257 -0.12461462 -0.059209596 0.013099527 0.10550423 -0.13088545 -0.01562279 -0.065757535
0.0008593602 0.052895 0.098756015 0.1050965 0.08983638 -0.062942035 -0.023409404 0.015365991
-0.108177185 -0.09028893 0.0676912 0.063811466 0.095782734 -0.054627728 0.08032843 -0.096838936
-0.112270504 0.060347732 0.12173878 0.015741717 0.06003274 0.101773255 0.026164357 0.034990385
0.062164366 0.044580285 0.12570469 -0.0341794 -0.03928507 0.10961261 0.12997279 -0.03000006
-0.03573182 -0.09071657 0.010221236 -0.06806162 0.11024431 -0.0832581 -0.048855633 0.06484971
-0.07187278 -0.099627286 0.07522121 0.036718618 0.010756945 -0.08205767 -0.11072849 0.016952543
-0.06323721 0.122918956 0.036039628 -0.07267906 0.051056426 -0.06936642 0.12990764 -0.08264039
0.034444816 0.087489426 0.099024445 -0.059735548 0.029982626 0.10431347 -0.019453287 0.07414746
-0.084593244 0.0948717 0.08350625 0.11486113 0.08765174 0.057494603 0.0723713 0.0014794301
-0.06991794 -0.004859547 0.013725269 -0.097458325 0.02652434 -0.08130499 -0.07176835 0.016853157
-0.01355988 -0.10549392 0.103724204 -0.08444447 0.07915074 -0.0049847374 0.006124233 -0.062552735
-0.07459533 0.11575864 0.0790148 0.035009023 -0.01892979 -0.12126378 0.12304979 0.118569836
-0.117974326 -0.10845232 -0.14846468 -0.023347937 -0.07806957 -0.023837626 -0.03724928 -0.047225423
-0.06888787 0.077414885 -0.14699857 -0.11151963 -0.030375613 -0.038282197 0.0020139727 -0.088832654
-0.08378105 -0.050643116 0.102566 -0.11659289 -0.12483505 0.064305186 -0.038875517 0.040385243
-0.09734416 0.10178912 0.048268113 -0.087520234 -0.058031373 0.119792335 0.121711366 0.08186491
-0.1404369 -0.021407913 0.0721768 0.05668028 0.12442721 0.024481444 0.046681214 0.08795889
-0.0019695698 -0.047906872 -0.005346884 -0.043231186 0.0070043085 -0.10187195 0.07533503 -0.13900101
0.11539304 0.032167405 -0.1167093 -0.008532604 -0.11953936 -0.04696744 -0.027645871 0.06559837
-0.004334536 -0.13531321 -0.12265543 0.14347197 -0.057812124 -0.096699834 0.035789274 -0.14205584

net.2.lin1.bias f4 [64]
00000000: 2450 8bbd 2827 393d 302b 603d 98ba 913d
00000010: 1a3e c33c f7b5 423d 3326 babb 4536 ab3c
00000020: 8153 fc3d 6365 8a3d 49b3 873d c2a1 703d
00000030: 853d 963d df71 80bd 7907 d6bd a642 b83d
00000040: 27e9 04be e2a3 a73d bb17 883d 29d2 f03d
00000050: 45fb a23d efd7 d4bd c9f9 aabd b638 71bd
00000060: ff3d 06be c08e a1bd a25a 433d dd20 2ebb
00000070: 0b0d 10bd 5f78 0dbd 5bf7 a23d 2709 4d3d
00000080: a56f 7c3c ad5f 8fbd 4714 03be 393c c7bc
00000090: 201c 44bd 8944 4c3d 3a3e 863d 889c e13c
000000a0: e399 a83d 9d56 86bd 0a12 d63b 2741 e6bd
000000b0: baab 54bd d304 d1bd fe3b 1c3d ab63 0b3c
000000c0: 12ae f7bd fb28 96bc 9095 bcbc 0240 233e
000000d0: b1ce d3bd 9dad 08be 9235 ec3d e7b7 2f3d
000000e0: 5f2a d63d 713c 113e a4a3 af3d d1eb 553d
000000f0: 8ce4 543d 5480 21bd 11de 853d 6df0 a439
-0.06802395 0.045203358 0.054728687 0.07115668 0.023833323 0.047536816 -0.0056808232 0.020899901
0.123206146 0.06757619 0.06625993 0.058748014 0.07335953 -0.06271719 -0.10450644 0.08997087
-0.12979566 0.08185555 0.06645151 0.11758835 0.07958082 -0.103927486 -0.08348424 -0.058891974
-0.13109587 -0.078885555 0.047693856 -0.002656988 -0.03516869 -0.034538623 0.079573356 0.050057556
0.0154074775 -0.070006706 -0.12800704 -0.024320709 -0.047878385 0.049870048 0.065548375 0.02754046
0.082324766 -0.06559489 0.006532912 -0.112428956 -0.051921584 -0.10205998 0.03814315 0.008507649
-0.12093748 -0.018330088 -0.023020536 0.15942386 -0.10342158 -0.13347478 0.11533655 0.042899992
0.104573004 0.14183213 0.08576134 0.052226845 0.05197577 -0.039429024 0.065364964 0.0003145965

net.2.lin2.weight f4 [64, 64]
00000000: 589f e7bd 33a9 bb3d 67b9 ff3d d710 5a3d
00000010: a78c e8bc 26f9 6fbd 22da aebc 7fae 0b3d
00000020: ec4f 7bbd 6038 953d 315a 6dbd 6a6b 783d
00000030: 0de2 cdbc cd3e 03be 11e0 53bd 2e62 bb3d
00000040: ad89 2d3d 1c00 043d 046b d43d a6b8 bcbc
00000050: 0706 193e 6eb9 34bc d90d 113d 30f7 dbbc
00000060: f362 44bd af41 dfbd e11a 4bbc fc7f 2b3c
00000070: cb62 db3d 89b2 75bd 6163 8fbc 5174 903d
00000080: e0a2 6ebd afe3 dcbb 844c 06bc eec3 31bc
00000090: 0ccf debd f2d7 8e3d e98b eebd 016d d33d
000000a0: d93c 21bc 932f f8bd db03 843c c4a3 f7bd
000000b0: dd3e a8bd 30b9 2bbd f276 af3c df28 c9bd
000000c0: 47fd 87bb 57ed 0cbd 394d bf3d ef3d 9cbc
000000d0: d257 193d 03e3 bc3c b647 8b3d 6cfe 943d
000000e0: 149c a1bd 03ca 3a3c 12bd 853d bd97 e5bd
000000f0: f5e2 d73c 77e3 7c3d 9aa0 e7bd 9953 9e3c
00000100: 6d9c 10bd b2b1 0c3e a678 d2bd 8d4f 70bd
00000110: 0f88 8e3d 6db4 283b e7ba babd 5a9b 573d
00000120: b656 c73d 9636 8dbd 6398 bb3d c97a 863d
00000130: 7a4b 9c3d 3a23 c23d 1b98 fbbd 3e45 093d
00000140: 97df 26bd eb29 b93d fc14 103d 0c6c 963c
00000150: 551c f73d 6d60 8b3d cd85 babd a48e 02be
00000160: 6276 043d ffbb 8c3d df69 bebd 007e ddbc
00000170: c929 f23d 1a61 c5bc 8065 dc3d ac84 b6bc
00000180: 0e51 76bd fd47 0ebe c6e6 90bd 0461 823c
00000190: cefb c1bd f16e 2b3b baff 1fbe d0c0 a1bd
000001a0: 494a 9d3b 889f e0bd bdac 09bc c1ac 033d
000001b0: b7d0 adbc c495 0bbe 0153 4d3d c753 cd3b
000001c0: b473 a4bc 306d 14be a80f 18be dd78 cc3d
000001d0: 4978 193d 151b c5bd 456f ab3d 7170 e83c
000001e0: 9cd2 78bd 39c2 c4bd 3975 c93d cf9b a0bc
000001f0: a45f 7f3d c752 ac3d 063d f53c 8db1 40bc
00000200: 8523 f53c e445 aa3d c1fd e93b 9b1a 65bc
00000210: 087b fb3d 435e e13a 1452 4fbd 01e4 00be
00000220: c410 0bbe f095 c8bd c00b b33d 22f6 b4bc
00000230: fcf6 7e3d 3dcd ab3d 8c61 f5bb 2e85 c33d
00000240: 78a6 e2bd 297b 83bd c602 69bd 73b1 00be
00000250: 0616 24bd 9314 c4bd a721 babc c5a2 dfbd
00000260: fc99 46bd c762 3d3d fe54 f33d 3a78 023e
00000270: ebef 01be 118a 363d feb4 4f3d 741b 833d
00000280: b748 7fbc bc31 023c 08b5 743d d25c c5bd
00000290: a5ad ed3d 5b1e 7dbd 21aa f6bd b4f2 d7bc
000002a0: 2340 8abd 68ba 033e 4682 ebbd 9a2e 61bb
000002b0: 1e20 b4bd 78d1 c9bd 9b2b e93d a9bb acbd
000002c0: ad9b 84bc 0aa4 37bc 4fd3 833d 52f1 a83c
000002d0: bc71 71bd 8761 24bd 7bd4 47bc 6faf 963d
000002e0: 9a1f d53d e3c0 d3bd 87e7 3ebd e3a1 b13d
000002f0: 0dfd 353d 03ad 84bc 98bf f4bc 1cd9 07bd
00000300: 9b7e 983d e595 09be ec6a ffbb 1f69 81bd
00000310: c3bf f33d 839f 98bd 8533 d8bd 70c7 7e3d
00000320: 275b 3b3c f330 5abd ed74 013e b0c1 d83d
00000330: f155 a33b e1f5 ccb9 374d 21bd 3b0d 2dbd
00000340: 12ea 2ebd 4539 20bd 0734 8bbd 8ffd 01be
00000350: 1bdd 8cbd e452 dd3d a894 e73d a65f a33d
00000360: 99e2 713d 84a7 7abc d192 513d bb83 a83a
00000370: 1d8b 6ebd e5fb ed3c 8860 b13b 005d e93c
00000380: 71c7 143d be29 f33d 289f 383d 323b 4fbd
00000390: f166 d53d 1b2e c6bc 7188 d9bd cf09 bd3d
000003a0: 5b3c 623c 2369 b63d 7eaf 0c3d 2e0c f03d
000003b0: c798 3cbd 50e4 593d c377 01bd 7614 c0bd
000003c0: 460a 2fbd 813e 913c 1e8e 81bd 0691 b2bd
000003d0: 6dda d7bc 3315 9bbc 2dfc 273d 3162 ab3d
000003e0: e448 5abd a9ed b23d 5d80 b33b 8020 c0bd
000003f0: 6837 cdbd cfaa fabd ffbf ba3d a756 fc3d
-0.11309689 0.091631316 0.124865346 0.053238716 -0.02838738 -0.058587216 -0.021344248 0.03410196
-0.061355516 0.07286143 -0.05794734 0.060649313 -0.025132203 -0.12816925 -0.05172736 0.09149586
0.042367626 0.032226667 0.10371974 -0.023037266 0.14943705 -0.011030538 0.035413597 -0.026851267
-0.047945928 -0.109012 -0.012396545 0.010467526 0.10712203 -0.059984718 -0.017503442 0.070534356
-0.0582608 -0.006741009 -0.008196954 -0.010849936 -0.10879335 0.06974782 -0.116477795 0.10323525
-0.009841167 -0.12118449 0.01611512 -0.12091783 -0.08215115 -0.041924655 0.021419022 -0.09822249
-0.004150066 -0.034406032 0.09340901 -0.019072501 0.037437268 0.023057466 0.06800787 0.072750896
-0.07891098 0.011400702 0.06530203 -0.112105824 0.026353339 0.061740365 -0.11309929 0.019326972
-0.03530543 0.1373966 -0.10276918 -0.058669616 0.06959545 0.0025742308 -0.0911768 0.05263839
0.09733336 -0.06895177 0.09159925 0.06566388 0.076315835 0.09479375 -0.12284871 0.0335133
-0.040740576 0.09041198 0.035176262 0.018362068 0.12065951 0.06805501 -0.09107552 -0.12749726
0.03233946 0.06871795 -0.09297537 -0.02703762 0.11824376 -0.024094153 0.10761547 -0.02228006
-0.060135894 -0.13894649 -0.070752665 0.015915401 -0.09471856 0.0026158656 -0.15624896 -0.07898104
0.0048001152 -0.10967928 -0.008403 0.032147173 -0.021217687 -0.1363135 0.050127987 0.0062660906
-0.020074703 -0.14494777 -0.14849722 0.0998399 0.03746823 -0.09624306 0.08370832 0.028373929
-0.060747728 -0.096073575 0.098368116 -0.019605545 0.06234707 0.08414226 0.029936325 -0.011761081
0.029924164 0.08314112 0.0071408455 -0.013983394 0.12279326 0.001719423 -0.050615385 -0.12586977
-0.13580614 -0.09794223 0.087424755 -0.022090022 0.06224726 0.083887555 -0.007488435 0.095468864
-0.11066908 -0.06419975 -0.05688741 -0.12567692 -0.040060066 -0.09574237 -0.022721125 -0.10919718
-0.048486695 0.04623678 0.11881445 0.12741175 -0.12689178 0.044565264 0.050709717 0.06401721
-0.015581301 0.007946428 0.059742957 -0.09636845 0.11605386 -0.061796527 -0.12044168 -0.026360847
-0.06750514 0.12864077 -0.11499457 -0.0034360052 -0.08795188 -0.09854406 0.1138527 -0.08434231
-0.016187513 -0.011208544 0.06436788 0.020622883 -0.058946356 -0.04013207 -0.012196655 0.0735768
0.10406418 -0.103395246 -0.04660752 0.086734556 0.04443078 -0.01619578 -0.029876515 -0.033166036
0.07446023 -0.13436086 -0.0077947285 -0.063188784 0.1190181 -0.074522994 -0.105567016 0.062201917
0.011435307 -0.053269338 0.1264226 0.10583818 0.0049846102 -0.00039093106 -0.03938028 -0.042248946
-0.042703696 -0.039117116 -0.06797033 -0.12694381 -0.0687811 0.10806826 0.11307651 0.07977228
0.05905399 -0.015298728 0.051165406 0.0012856642 -0.058238138 0.029050777 0.0054131187 0.028486729
0.036323015 0.11873196 0.04507366 -0.050593562 0.10420025 -0.024191907 -0.10621727 0.092303865
0.013808335 0.08906772 0.03434705 0.11721073 -0.046044137 0.05319625 -0.031608354 -0.093789026
-0.042734407 0.01773 -0.06325935 -0.08719067 -0.02634927 -0.018931007 0.041011978 0.08368338
-0.05329217 0.08736736 0.0054779486 -0.09381199 -0.100203335 -0.122396104 0.091186516 0.12321215

net.2.lin2.bias f4 [64]
00000000: 611f e03d 5ce0 46bd a41b 09be 8a96 a4bd
00000010: 475d f43c 707a 093e 7bfb d93d c52f ca3d
00000020: cd40 723d df26 953d 5506 7b3d 4af1 ccbd
00000030: 9651 053d 38cc 683d 2ab0 40bd 5940 bb3c
00000040: 177b 88bd dbba a83d 2dbd 83bd 9360 3e3c
00000050: c4e8 9c3d 9f09 5dbd ba94 bebc 1347 0bbc
00000060: dcca ca3d 2e93 e1bd 79a4 bb3d 118a 71bd
00000070: da50 b93d dd97 edbc b689 debc e616 01be
00000080: 8611 34bc f30e adbd 7aef dfbd 4388 06bd
00000090: d7f5 a7bd f343 613d 8b55 97bd f47a d9bd
000000a0: 5eec ff3c ef2c c4bd 77de c8bd 8f58 e9bd
000000b0: b85e 80bd a091 293d a8a5 0d3e 6969 d6bc
000000c0: a7bf 2a3d f4b0 a83c bcea 19bc 5d7c 003e
000000d0: 3536 d5bd c00e 5cbc 75e6 3cbd 77e2 f23d
000000e0: c2d5 ef3d 5688 b93d 11f7 f03d 838d aabd
000000f0: c271 123e 3d60 aa3d a35a b7bd 763d 093e
0.10943485 -0.04855381 -0.1338945 -0.080365255 0.029829634 0.13425612 0.10643669 0.098723926
0.05914383 0.07282805 0.061285336 -0.1000696 0.03254851 0.056835383 -0.047043003 0.022857832
-0.066641025 0.08238765 -0.06432567 0.011619705 0.07661584 -0.053964254 -0.023264278 -0.008500832
0.099019736 -0.110144004 0.0916223 -0.05896956 0.09048624 -0.029003078 -0.027165275 -0.12606391
-0.010990506 -0.08450117 -0.109343484 -0.032844793 -0.08201187 0.054996442 -0.07389363 -0.106191546
0.031240638 -0.09578883 -0.09808057 -0.11393844 -0.06268066 0.041398644 0.13832724 -0.02617331
0.04168668 0.02059219 -0.009394344 0.12547441 -0.1041073 -0.013431251 -0.04611822 0.11859601
0.11710693 0.09059207 0.11765874 -0.083277725 0.14301208 0.08319137 -0.089528345 0.13402352

net.3.lin1.weight f4 [64, 64]
00000000: 595e d7bc 2dce 1fbd 03c4 eebd 694c 4ebd
00000010: b250 f3bd 5be1 203c 8430 2dba 710f 8e3d
00000020: 1323 173d dad7 7ebd f711 1fbe 675a 5bbd
00000030: ac67 853d d002 01bd 3492 4f3c 482c 9bbd
00000040: 72e3 84bd 75ef 4c3d 5197 c9ba 442a bd3c
00000050: 9fc8 b93c 6c5e ef39 c375 933d f42e 12be
00000060: 1224 3dbc 43e0 72bd 8486 dcb9 9d85 b63d
00000070: a15a be3d 4a01 b9bd 474c fc3d c132 26bd
00000080: bbd7 d3bd 41e0 3fbd d87d ec3d 81dd 533d
00000090: c3b5 843d 58f7 813d 9f3e b43d 73bd 9cbc
000000a0: 452f ea3d c58b d13d 0ec0 893d b21c b8bd
000000b0: ab3e fd3d d97f fabd 9f77 f5bd 4efd ca3d
000000c0: aab8 1e3d 548c 93bd 9731 ed3c f923 aabd
000000d0: d844 b1bc 9262 f1bd 2b2e 0cbe fa20 5d3d
000000e0: f7c6 3cbd a891 14be 6a8b ebbd 081e bc3c
000000f0: 1eb1 02bd 8ea5 43bd 95f4 fcbc 63bb b33b
00000100: b866 07bd 9bf6 a23d 59c7 14be 25e9 613d
00000110: fa59 08be 441b 9fbd def4 913d 759d 0a3d
00000120: eb90 c2bd b661 b4bc 4c0e f2bd bc72 4dbd
00000130: 439d a03d 9243 14be b301 063e 7015 c5bd
00000140: f95f a1bc a9d3 bdbd fb45 44bc e7e9 85bd
00000150: 7160 bcbd 9a9f a43d d7a2 b8bd 00a2 e2bd
00000160: 5556 aa3d 9f5e b8bd 3388 0bbe 80a6 0cbd
00000170: 3373 78bd ce62 d93c 269f 9f3d 7c72 533d
00000180: 3466 d83b f0a1 e2bd 793a 8cbd 2eeb 9dbd
00000190: 9927 c83d 5c9d 15bc d167 17bd 7464 a83b
000001a0: 9ec5 cb3d 29bc a73d 9e3b 29be c968 c23c
000001b0: d413 a53d 7ea2 c1bd 1835 b03d 5fd0 82bd
000001c0: c4d2 083e 2e56 873d 4aae afbb 468b dd3d
000001d0: 5134 c7bd ac72 013e f84c 653b d601 043e
000001e0: 655e 813d e29e 6e3b 50d3 0dbd 274c b83d
000001f0: 0cd8 9b3d 6c0a ce3d b631 3ebb 8ee9 7a3d
00000200: 6ef8 ab3d adaf 9c3d f3f1 e9bd 5850 65bd
00000210: 1162 193e 3569 6cbd 9cc6 383c a260 8a3c
00000220: fd5f ca3d 2b5e 13bd 76c8 413d 446a 523d
00000230: 143f 1bbd c48b e83d 99c8 af3d e642 f53d
00000240: 817e a23d a921 bebd 82a0 013e 7dd5 dabd
00000250: 15dc 9f3c 02ba 3c3c 5aa3 9e3c bc49 71bd
00000260: 3093 6bbd c17a 883d 8853 833d 7393 603d
00000270: da1a d0bc a559 a13d 0c3f 15bc f71f f5bd
00000280: b6c5 d63d a372 6c3d 1c05 abbd c7f7 8bbd
00000290: 7fe1 26bd 073e bebd 7cde 403d ec61 31bd
000002a0: 2c5a 00be 4ef4 0fbd d0bf 99bd ce32 cebd
000002b0: 30fe 86bd 2e67 7a3d ac97 143d 5bf6 853c
000002c0: facf 05be ac9f a8bd 9a92 d73b 3fbc b03d
000002d0: 6f4d 393d f72d 963d ecfb 6a3d 326e 8abc
000002e0: 8f08 603d 08b4 013d ef4c 3dbd 4414 953d
000002f0: 9564 cbbd 1342 803d fc24 c43d 0e4c 063e
00000300: 8353 b7bd 696f d73d 1a67 31bd 7757 01be
00000310: 4866 3cbc 34d9 82bc 3500 3d3d 0aae e13c
00000320: 382a 7fbb d57a efbd b81a dfbd 8a42 5abd
00000330: ff43 123d 5f03 a83d 40a0 7a3c ec70 d43d
00000340: f58c d7bc 0fae b63b 2e5e 7cbc 4a59 b63d
00000350: bc7a b13d 05eb b03d c3e6 99bc e712 a43d
00000360: f1b2 8e3d e557 903c 5ce8 a6bd b107 dbbc
00000370: 1a68 8fbc 4b3a 04bd c0d7 e53d 419a 9cbd
00000380: 9216 dcbd 4435 963d b3fe c2bd 5b1e da3d
00000390: 9c7f db3c 6e00 8e3d be76 143d a90f c83d
000003a0: dc6f 333d b93a 03bd 94a0 8cbd 3743 353d
000003b0: d265 de3d 67be db3d 334e 64bd 9f35 18bd
000003c0: e3c9 4bbd f628 bf3d e5fd 04bd a262 c53b
000003d0: d61e cb3d 8c1f 983c b3f2 f43d bbbb 0e3d
000003e0: c579 cebc e395 b73c df82 8cbd 41b8 513d
000003f0: e23e d23d bbef 7c3d 4a45 dbbd ac4f 263d
-0.026290106 -0.039014984 -0.1165848 -0.05036584 -0.11880626 0.009819354 -0.00066066557 0.06936539
0.036898684 -0.06221757 -0.15534197 -0.05355301 0.065139145 -0.031496823 0.012669135 -0.07576805
-0.06488694 0.05003305 -0.0015380179 0.023091443 0.022678671 0.00045655982 0.07200196 -0.14275724
-0.011544244 -0.059295904 -0.00042061892 0.089122035 0.0929463 -0.09033449 0.12319236 -0.040575746
-0.10343882 -0.046844725 0.1154744 0.051724914 0.06479981 0.06346005 0.088010065 -0.019133305
0.11434797 0.10231737 0.06726085 -0.08989848 0.123654686 -0.12231416 -0.119857065 0.09911595
0.038750328 -0.072045 0.02895431 -0.083076425 -0.021639273 -0.11786379 -0.13689487 0.053986527
-0.046088185 -0.14508688 -0.115012005 0.022963539 -0.031907193 -0.047765307 -0.030878345 0.0054849847
-0.033056945 0.079571925 -0.1452917 0.055153985 -0.13315573 -0.077688724 0.07126783 0.03384157
-0.09500297 -0.022019248 -0.11819133 -0.050158247 0.07842495 -0.14478901 0.13086586 -0.096232295
-0.019699084 -0.092688866 -0.011979575 -0.06538754 -0.09198082 0.08038254 -0.09015434 -0.11066055
0.08317248 -0.090024225 -0.13626175 -0.034338474 -0.060656738 0.026536372 0.07794027 0.051622853
0.0066039804 -0.110660434 -0.0684709 -0.077108726 0.09773178 -0.009131756 -0.03696424 0.005138928
0.09949802 0.081901856 -0.16526648 0.023731606 0.080604225 -0.09454821 0.08603877 -0.063874
0.1336165 0.06608234 -0.005361353 0.1081758 -0.097267754 0.126414 0.0034988504 0.12891325
0.063168325 0.003641062 -0.03462535 0.089989 0.07609567 0.100605816 -0.002902133 0.06125789
0.083969936 0.07650695 -0.11423101 -0.055984825 0.14978816 -0.05771752 0.011277821 0.016891781
0.098815896 -0.035978477 0.047310315 0.051370874 -0.037901953 0.11354783 0.08583183 0.119756505
0.07934285 -0.09283764 0.12658885 -0.10685251 0.019514123 0.011518957 0.019365001 -0.05890821
-0.057513416 0.066640384 0.06412417 0.05482812 -0.025403429 0.078784265 -0.00910927 -0.119689874
0.10486929 0.057726514 -0.08350584 -0.06834369 -0.040742394 -0.092891745 0.047087178 -0.043306276
-0.12534398 -0.035145096 -0.075072885 -0.10068284 -0.06591451 0.061133556 0.036277458 0.016352823
-0.13067618 -0.0823358 0.0065787556 0.08629655 0.045239862 0.07332986 0.057369158 -0.016898248
0.054695662 0.03166583 -0.046215948 0.07279256 -0.09931294 0.06262603 0.09577367 0.1311495
-0.089514755 0.10519297 -0.043311216 -0.12631021 -0.011498995 -0.015972711 0.046142776 0.027548809
-0.0038935076 -0.1169335 -0.10893768 -0.053286113 0.035709377 0.08203768 0.015296996 0.10373101
-0.02631233 0.0055749486 -0.015403314 0.08903749 0.08665988 0.086385764 -0.018786794 0.08011418
0.06967724 0.017620036 -0.08149788 -0.026737066 -0.017505694 -0.032282155 0.11222792 -0.07646609
-0.107464924 0.07334378 -0.09521236 0.10650321 0.026794247 0.06933676 0.036246054 0.09768612
0.04380785 -0.032038424 -0.06866565 0.044253554 0.108592644 0.10729676 -0.05573864 -0.037160512
-0.04975308 0.093339846 -0.032468695 0.006023721 0.09917991 0.01856973 0.11960354 0.034847002
-0.025204549 0.022410339 -0.06860899 0.05120111 0.102659 0.061752062 -0.10706575 0.040603325

net.3.lin1.bias f4 [64]
00000000: e376 d1bd 9bfc 3ebd 3df1 1b3d ea26 c33d
00000010: 59ec 18be 5afe 08bd 8718 9abd 87c7 bf3c
00000020: 84b5 803d 3e04 43bd 9478 823d 9f89 bdbc
00000030: 3a93 6f3d 2e2c 633d b800 17be 4a6d cebc
00000040: 6059 003e fa31 af3d 5d2e 1cbe 98e2 c0bd
00000050: 845c ccbd 2298 83bd 27f6 be3d b4d8 d43d
00000060: 7075 613d c75c 6abc f1bc d93d 9b93 ec3d
00000070: 3cf2 f2bc 25d1 a8bd dd9c 51bc 07fe 56bd
00000080: aba7 d5bd 719d 90bc 2085 a0bd e3a7 a1bd
00000090: f88f af3b 29a3 633c 0633 19bc 597c 303a
000000a0: 1ee0 c1bd 14aa f5bd f5f1 c23d aa55 d23d
000000b0: 19be 703d 2b77 10bd c309 a73d 598e 633d
000000c0: 3b7e 6abd 661a e3bd 17b6 a83d 9458 99bd
000000d0: dfe2 913d 45a3 e8bd f8ef 4a3d 98d9 883d
000000e0: c15c 25bd 7813 c23c 473a 80bd c425 e23c
000000f0: 4922 a9bd d79d 1f3d 0e58 e23d 6a5e 253e
-0.10227754 -0.046627622 0.03807186 0.09528907 -0.1493391 -0.033445694 -0.075242095 0.023410572
0.06284621 -0.047611468 0.06370655 -0.023136912 0.058490016 0.055462055 -0.14746368 -0.025198597
0.12534094 0.08554454 -0.15252061 -0.09418219 -0.099785835 -0.064255014 0.093242936 0.10392895
0.055043638 -0.014304346 0.10631741 0.11551591 -0.029656522 -0.08243016 -0.012793747 -0.052488353
-0.10432371 -0.017653199 -0.078378916 -0.0789335 0.0053577386 0.013893881 -0.009350544 0.00067323964
-0.09466575 -0.119953305 0.09518806 0.102702454 0.05877504 -0.035269897 0.08156159 0.055555675
-0.05724929 -0.110890195 0.08237856 -0.07487598 0.0712335 -0.11359266 0.04954526 0.06682128
-0.04037166 0.023690924 -0.062611155 0.027605899 -0.082584925 0.038968887 0.11051951 0.16149297

net.3.lin2.weight f4 [64, 64]
00000000: 7ab5 0fbe cd52 153c 4819 c13b 9af5 513d
00000010: 608b a33d 154f d9bd 7ce8 ff3b c8de a1bb
00000020: a33b b23d c044 cf3d f3c8 2ebc c7c9 13bd
00000030: f4d8 843b 19be db3d cdf1 be3c c390 f73c
00000040: 1e3f 11be 05aa 5fbc a9c4 5a3c b8c2 c13d
00000050: 7ef7 c73d 4498 8fbc 8fbd 8d3c 3832 76bd
00000060: ae50 ed3c 5069 823d 55ca bfbc ff6b 9ebd
00000070: 999e ce3d 52f3 813d bd3f 063d 4834 b1bc
00000080: 13bb 90bd 7716 7cbc 8339 67bd 626f 9b3d
00000090: d440 3dbd 888c 8b3d b418 5d3d d406 12bd
000000a0: aeed c0bd 582f 0dbe 2921 333d 42ed 613d
000000b0: e151 94bd 7393 a5bd 9c32 073e 88fd 33bc
000000c0: ef8e da3c 4c4b 98bd a1ee cd3d 9ecb c6bc
000000d0: ac4d f5bd e0cd 503d a425 e7bb 4ae9 b1bc
000000e0: 622a a83d 8916 01bd 8460 213d c45e 63bd
000000f0: e8c5 e53d a018 363d 3463 513d 388a 303d
00000100: d173 01be ee40 a1bc db72 d7bc 3941 843d
00000110: 0736 3abd 146a d9bd 648f f13c 352d 3cbd
00000120: 2627 c93d 7785 a53d 7ce4 f6bd 8a8a abbc
00000130: 8dec b93c aa63 f8bc 2891 d03d ccb7 083d
00000140: 4dc5 0fbe 424e 56bd 58ae 15be e3bd 953d
00000150: 2903 cc3c 88d9 debd 4863 eebd ff02 3e3d
00000160: 714e 43bc 7ada e2bc a9d7 5e3d 097e 033e
00000170: 7f7b ffbd 553e 823d 627e b73d b8c3 03be
00000180: 8f63 bb3d cc99 b43a aeb8 9e3d ee97 6fbd
00000190: bdca 333d 0deb febd 3494 a13d 2a0c 2e3d
000001a0: f40c d6ba 0489 f1bd 9efb 623d ced5 9abd
000001b0: 8d25 bb3c 544b b33d 1ba7 84bd 6a44 b23d
000001c0: 77a5 86bd d321 963d 4a26 813d f8d8 eb3b
000001d0: 0f7c 403d 7a0f ee3d 6151 f73d 3439 1cbd
000001e0: f2af b53d f4b6 b33d 4e95 e03d 2228 debb
000001f0: b078 8c3d 0cc8 02be 95ee 703b 0523 b3bd
00000200: edf8 b2bc 3307 633c d0f3 1e3d 1f1a 513d
00000210: 5251 4c3d dd9d c23c e012 23bd d5af 193d
00000220: 72bd b9bd 9add 5a3d b866 3cbb b260 2bbd
00000230: a9d4 d73d 3ff1 73bd 07a3 7a3c 1fd5 6e3c
00000240: 7e67 25bc f732 d33c 75e8 0bbd 3c7f a93d
00000250: 6705 a8bb a1f3 8e3d 8ade edbc 4d80 e03d
00000260: dcf2 b9bd 2cc3 d73a ed90 4dbd dfa9 a4bc
00000270: 9a68 edbd 04ef 2b3d 51a3 46bd 104d 3fbd
00000280: e85d 45bd 4702 08bd 3efe 97bb db7d 7e3c
00000290: 07df 85bd f77b ad3d f114 e53d 037b 3bbd
000002a0: 207a cd3d 6e30 003e 0c22 f7bd 17b4 3cbb
000002b0: f393 84bd 85bc febd 55e1 93bd 1a6d 99bd
000002c0: d7f5 fa3c 1080 a03b 456c bebd e94f 95bd
000002d0: 58ec 56bd 5439 353c fa39 a13d ea2b 7b3d
000002e0: aea1 87bc 5823 babd a371 c338 d255 a63d
000002f0: ed0e cdbd 556c f2bd e878 0dbd cd39 95bd
00000300: ea04 7b3d 25ac 99bd 82f6 13bc 5afd 81bc
00000310: 578b bd3b 416b a93d 9a11 683d a488 4ebd
00000320: 056f 9cbc 28ef 0cbc c862 6abd 8102 79bc
00000330: 8f24 df3d 7cb7 1fbd e3e8 d9bc 9e97 9e3d
00000340: 3f20 a3bd 0f5e d43d c0d9 67bd a4aa 8f3d
00000350: eeaa f83b 96f1 403d c3ab c23d 24c5 d63d
00000360: c354 fbbd e1d9 e23d ac25 323d e664 e13c
00000370: 5875 36bd 5f71 9fbd 826a dabd 3a5a d2bd
00000380: 6bad 703d 693d bb3d 4492 763d fd64 d13d
00000390: 4b6c 8f3c 1731 00bd 8a53 a0bd ff52 7a3d
000003a0: cfc7 8bbc 0800 a5bd 1276 09bd a1a3 34bc
000003b0: 4740 9fbb 64d1 603d ca8a 9b3c 0e1c de3d
000003c0: 7a40 8abd d861 8dbd f783 143e b038 fbbd
000003d0: 8ed4 8b3d 424b 9abd 973a cb3d 5dc8 423d
000003e0: ac05 363d c707 443d 41b4 3bbd 08d9 973c
000003f0: 65cc cfbd e5bd c53b 211b c53d 2531 a43b
-0.14034072 0.0091139795 0.0058929063 0.051259615 0.07985568 -0.10610787 0.0078096967 -0.0049398877
0.08702781 0.10120535 -0.010668027 -0.0360811 0.004054183 0.107296176 0.023308659 0.030220395
-0.14184234 -0.013651376 0.0133525515 0.09460968 0.09764002 -0.01752866 0.017302303 -0.060106486
0.028969135 0.06367743 -0.02341191 -0.07735442 0.10088844 0.06345238 0.03277563 -0.021631375
-0.070669316 -0.015386215 -0.05645133 0.07589604 -0.046204403 0.068139136 0.053978637 -0.035651043
-0.09420334 -0.13787591 0.043732796 0.055157907 -0.0724218 -0.08084764 0.132029 -0.0109857395
0.026679484 -0.07436237 0.100552805 -0.024267014 -0.11977705 0.050977588 -0.0070540477 -0.021717686
0.08211209 -0.03151563 0.039398685 -0.055510297 0.11219388 0.044457078 0.051119998 0.043100566
-0.12641837 -0.019684281 -0.026299885 0.06457753 -0.04546168 -0.10615936 0.02948732 -0.04594155
0.0982192 0.08082097 -0.12055299 -0.020940084 0.022695804 -0.030320961 0.10183936 0.033378407
-0.14040108 -0.052320726 -0.14617288 0.07311609 0.02490385 -0.108813345 -0.1164003 0.046389576
-0.011920557 -0.027692068 0.05440489 0.12841047 -0.12474727 0.06359545 0.089596525 -0.1286763
0.09149849 0.0013778745 0.077500686 -0.0584945 0.04389452 -0.12447176 0.07889596 0.04249207
-0.0016330765 -0.11793712 0.055415742 -0.07560311 0.022845054 0.08754602 -0.06477185 0.08704455
-0.06574529 0.0733067 0.06306131 0.0071974955 0.04699331 0.11624046 0.12076069 -0.03814049
0.088714495 0.0877513 0.109659776 -0.0067796865 0.06858957 -0.12771624 0.00367633 -0.08746914
-0.021847213 0.013856697 0.038806736 0.0510503 0.04988224 0.023756916 -0.039812922 0.037521202
-0.09069337 0.053433992 -0.0028747749 -0.041840263 0.105386086 -0.059556242 0.015297658 0.014577179
-0.010095475 0.025781138 -0.034157235 0.08276221 -0.005127597 0.06980062 -0.029036779 0.109619714
-0.09079525 0.0016461364 -0.05018704 -0.020100532 -0.11592217 0.04197599 -0.048495594 -0.046704352
-0.04818526 -0.033205297 -0.0046384623 0.015532936 -0.0653668 0.0847091 0.11185635 -0.04577161
0.10033059 0.12518474 -0.12067041 -0.0028793865 -0.064735316 -0.12438301 -0.07220713 -0.074915126
0.030634804 0.0048980787 -0.092979945 -0.07290632 -0.05247149 0.011061031 0.07872386 0.061321177
-0.016556587 -0.090887725 9.319491e-05 0.08121838 -0.100126125 -0.11837069 -0.034539133 -0.07286415
0.061283983 -0.07503537 -0.00903094 -0.015867878 0.005784433 0.0827241 0.05665741 -0.05042328
-0.019095907 -0.008601941 -0.05722311 -0.015198351 0.10895645 -0.038993344 -0.026600307 0.077437624
-0.07965135 0.10369503 -0.056604147 0.07014969 0.007588736 0.047105394 0.09505417 0.1048682
-0.122720264 0.11076713 0.043492958 0.027513932 -0.0445455 -0.07785296 -0.10664846 -0.102711156
0.058759134 0.091425724 0.060198084 0.1022434 0.017507693 -0.031296816 -0.07828434 0.061114307
-0.01706305 -0.080566466 -0.033559866 -0.01102534 -0.0048599574 0.05488719 0.018987078 0.10845195
-0.06750579 -0.06903428 0.14503466 -0.12266672 0.06827651 -0.075338855 0.099232845 0.047554363
0.044439003 0.04785898 -0.0458262 0.018536106 -0.10146407 0.0060346 0.09624315 0.0050107413

net.3.lin2.bias f4 [64]
00000000: 0749 fb3d c296 ad3d d1fb 3a3d 7456 b73d
00000010: d612 f33d f2c4 1dbd b8a8 b3bd 42af 123e
00000020: 2e97 153d cbec c6bd b63e ff3a 42c1 5ebd
00000030: f7eb 1dbe 308b b4bd a282 c03c a833 683d
00000040: fbeb 80bd 11e8 f63d 8da6 0bbe d1e8 a93c
00000050: 51fa 4a3b c1cf fd3d 0dcb c3bc 4b3c 0c3e
00000060: 28ab 9d3d e380 eebd 2b92 9e3d a197 bebd
00000070: 4dc1 83bd 0e4f 82bc 6100 edbc 1c92 84bd
00000080: 98a4 cd3d 7a8e 123e 1f7a ab3d cf86 cf3d
00000090: 6bc6 28bd b8d6 3ebc 44df c3bc c13f 713d
000000a0: 334f 62bd 08a9 893d f3e0 94bd ae11 4fbd
000000b0: c2f5 1f3d 4752 f03d 5e14 85bc 4d08 0f3e
000000c0: 0e40 0abd 7dcf 0b3e bff8 14bd 58c1 f33b
000000d0: eae9 80b8 c54b 263d 61d6 74bd 7d62 863d
000000e0: 4290 93bd e48f fb3c 6b5e 103d 8b26 5f3d
000000f0: abc8 9f3d 2e3e af3d c685 843d 314d 0a3e
0.12269788 0.084760204 0.045650307 0.089520365 0.11868827 -0.0385179 -0.08772415 0.14324668
0.03652113 -0.097131334 0.0019473645 -0.054383524 -0.15422045 -0.088156104 0.02349979 0.05668989
-0.0629501 0.12055982 -0.13637753 0.020740898 0.0030971954 0.123931415 -0.023900533 0.13694875
0.07698661 -0.11645677 0.07742723 -0.09306265 -0.064333536 -0.015906837 -0.028930845 -0.06473181
0.100411594 0.14312163 0.08372902 0.101331346 -0.04120485 -0.011647873 -0.023910172 0.05889869
-0.05525131 0.06721693 -0.07269468 -0.05055397 0.039052732 0.11734443 -0.016245063 0.1396801
-0.033752494 0.13653369 -0.036370035 0.00743882 -6.1470855e-05 0.040599603 -0.05977476 0.06561754
-0.07205249 0.03070826 0.035246294 0.054480117 0.07801946 0.08556782 0.06470828 0.13506009

net.4.lin1.weight f4 [64, 64]
00000000: fd70 0e3d 204b 88bd bfe9 f8bd 0ce0 f2bd
00000010: 1834 6f3d 68cd aebd f640 df3d 4f79 693c
00000020: 784a 71bc 5304 113c 1be7 0c3e 8942 eebd
00000030: dd12 02be 2ac9 d4bd 558f 113d aecf 28bc
00000040: 6009 fc3d 1d8c 2b3d bfcc a23c 27e9 5b3b
00000050: 011b e33d 4998 50bd 2362 d63d 97fc 5f3c
00000060: 3470 93bd 450e be3d 6e48 ad3d 590f cbbd
00000070: 9ee2 11be 6942 e5bc c723 16be cacc 83bd
00000080: 806c 4c3d c5dd 88bb 608c e5bc 6d71 b93c
00000090: 435c 66bd afb8 16be 2892 543b be3b d2bc
000000a0: 92bf 8d3d e52f 213d 6319 e23d 0f53 bebd
000000b0: 59ae 4c3d be55 643d 940c 0dba 67d1 813d
000000c0: 9abd 403d e897 553d a59c 013e 298b 063d
000000d0: cb03 f3bc 002f 55b9 5882 c5bd 2318 e03c
000000e0: 32d8 02be 45f4 abbd 2cee 64bd d903 f4bd
000000f0: 6593 b33d 4509 943d b48d 0cbd e100 3a3d
00000100: b408 143d abe4 2b3d c6f0 a33d 33f6 c53d
00000110: 2f84 b63d 0ba2 82bb c189 633d c099 443d
00000120: 71e4 5fbd 3bef 963d 7e71 a53d 7773 d33d
00000130: 24c7 a33b 44f6 fcbd f3a8 13be c97a 5cbd
00000140: aa66 b23d 753e 9ebd a250 adbd bf6e 533b
00000150: bfe8 153d 1ed8 403d b717 0ebc 0b5f 703c
00000160: ec3c 883d b77c eabd baa7 19bc 2502 3bbd
00000170: d7f9 bcbc d0c5 dc3c e79d 12be 333c b3bc
00000180: be35 163b 6286 6b3d cfb7 a2bd a65f 89bd
00000190: 2524 653c 9766 efbd 7959 ee3c 95d0 71bd
000001a0: 6f5e d1bd ee8d dfbd 0821 b03d 6afe 0dbe
000001b0: 5036 673c cecd b53d cc53 93bc 95d1 bdbd
000001c0: 38a1 363b bfa4 30bc 105f e33c 1b67 f9bd
000001d0: f817 1d3d fc78 38bd e4b9 853d 8597 11bd
000001e0: 0ff0 e5bd 04f9 f03b 3b77 523c 2a97 eabc
000001f0: e84a 713d ab8d d4bd fca5 febb 56ae d8bc
00000200: 54ca e93d abcc dcbb 322a 36bd 0f76 89bd
00000210: c56f ac3d f5f7 87bd 6808 c73d 80b2 ac3d
00000220: d30a 4d3c 7bc2 df3d e9f7 cebd 3c84 cabd
00000230: d54c 0c3d b5b8 943b 7053 40bd 6b2e 0ebe
00000240: 854d d9bd 41e8 c0bd c3f0 543d 30ae ecbc
00000250: 46e8 79bd 6277 a63d e4b0 6e3a 6047 ac3d
00000260: a53d 993c 7a6f 7e3d fb97 173d f9e0 de3d
00000270: 1f5f 993d 99ca b0bc cba7 b6bd 4514 be3a
00000280: 5367 a6bb e389 a5bd 8ca4 e5bd 13ed c7bd
00000290: 6834 83bd 8aee fe3d 9b46 e33d e5b2 643d
000002a0: 2d6a 803d 4160 44bd f437 0c3d 6c16 0ebb
000002b0: 9dfd d03d 0e6a 12be 779e 15bd de9f 52bd
000002c0: 1d44 4c3d 0ed5 6ebd a6ff 643b ceab f53c
000002d0: b0e6 08bd b5ef 113e 4af5 aebc ccdb c93d
000002e0: 20ae d03d 7e6c dabc ef15 e3bd 7677 903c
000002f0: dc76 b03d 8674 95bc 33dd 29bc 53a4 0ebe
00000300: 734b e6bd 9ad8 473d b4c8 fbba 1330 02be
00000310: bbff 983d 5762 0ebd f053 743d a6b6 c6bd
00000320: ce6b c33d f45e 40bd 4546 0b3e 90cc 83bd
00000330: c910 a33d 89bb ebbd 9b80 a13a 3ee6 a7bc
00000340: 748f 853d e663 0a3d e08c c53d a027 a63d
00000350: c0b2 c23d ddd3 123d 17ca fc3d efe2 65bd
00000360: 4786 6c3d 839e 983d affc 16bd 6b24 88bd
00000370: 1a7d 673c 9bd8 423d 952f a63d 85b9 563c
00000380: 3267 053e 21b5 8c3d 73e5 ccbd 8f62 5ebd
00000390: e354 f7bd 7221 153d bde4 6abd 5f3b 81bc
000003a0: 796d 3c3d ef2c 313d 4171 5fbd 3960 4ebc
000003b0: a190 2cbb c059 8a3c 1366 fbbd 832d 81bc
000003c0: d4c6 29bc 7073 973d fcd6 9dbd 410f c7bc
000003d0: d7a5 803d 0704 823b 52e0 e63d 9af6 9bbd
000003e0: c66a ce3d 46e0 f63d 9892 933d 781b 873c
000003f0: 1162 b93d 09fe b9bd 9805 98bd 2b24 813a
0.034775723 -0.06654954 -0.121539585 -0.1185914 0.05839929 -0.08535272 0.10901062 0.014250114
-0.014727227 0.008851129 0.13760035 -0.11633784 -0.12702508 -0.103899315 0.035537083 -0.010303421
0.12306476 0.04188167 0.019873021 0.0033555718 0.11089135 -0.05092648 0.10467937 0.013671062
-0.071991354 0.092800654 0.084610805 -0.09915037 -0.14246604 -0.027985768 -0.14662085 -0.06435545
0.04990816 -0.0041768276 -0.028021038 0.022637093 -0.05624033 -0.14718889 0.0032435749 -0.025663253
0.06921305 0.039352316 0.110399984 -0.09293186 0.04997096 0.055745833 -0.00053805974 0.063387685
0.04705582 0.052146822 0.12657411 0.032847557 -0.029664895 -0.00020330772 -0.09644002 0.02735526
-0.12777784 -0.083962 -0.0558912 -0.119147964 0.08768348 0.072283305 -0.034314826 0.045410994
0.036141112 0.04196612 0.08004908 0.096660994 0.08911931 -0.003986602 0.055551294 0.04799819
-0.054661218 0.07369848 0.080782875 0.103247575 0.0049981046 -0.12351659 -0.14419918 -0.053828035
0.08710988 -0.077267565 -0.08462645 0.0032262055 0.036598917 0.047081105 -0.008672646 0.0146710975
0.06652245 -0.11449569 -0.009378368 -0.045656342 -0.023068352 0.026949793 -0.14318047 -0.021879291
0.0022920216 0.057501204 -0.07945215 -0.067076966 0.013985668 -0.11689489 0.029095398 -0.05903681
-0.1022309 -0.10915743 0.0860005 -0.13866583 0.01411207 0.08877145 -0.017984293 -0.0926849
0.002786709 -0.010781466 0.02775529 -0.12177869 0.038352937 -0.045037255 0.065295964 -0.03554489
-0.11227428 0.0073539037 0.01284581 -0.028636534 0.058909327 -0.103785835 -0.0077712517 -0.026450317
0.11415544 -0.0067382655 -0.044473834 -0.06711971 0.08419756 -0.06639091 0.097184 0.08432484
0.012514788 0.10925766 -0.10105879 -0.09888503 0.03425296 0.0045386204 -0.046954572 -0.13884895
-0.10610489 -0.09419299 0.05198742 -0.028891653 -0.06101253 0.08128239 0.0009105338 0.08412051
0.018706152 0.06211803 0.037010174 0.10882754 0.07488846 -0.021580981 -0.08918723 0.001450189
-0.005078235 -0.080829404 -0.112130255 -0.09762015 -0.0640648 0.124478415 0.11097451 0.05583467
0.062702514 -0.047943357 0.03423305 -0.0021680845 0.10204623 -0.14298269 -0.036528077 -0.051421992
0.049869645 -0.058308654 0.0034942417 0.02998915 -0.033423126 0.14251597 -0.021357197 0.09856376
0.10189462 -0.026663061 -0.11088168 0.017635088 0.086164206 -0.01824404 -0.010367679 -0.13929872
-0.112448595 0.04879055 -0.0019209594 -0.12713651 0.07470652 -0.034761753 0.05965036 -0.09702806
0.095420465 -0.046965554 0.13601024 -0.064355016 0.07962186 -0.11510379 0.0012321653 -0.02049553
0.06521502 0.033786677 0.096460104 0.081130266 0.0950675 0.03584658 0.12343233 -0.056124624
0.057745244 0.07452109 -0.03686207 -0.06647571 0.014128948 0.047569852 0.08114544 0.013105755
0.13027647 0.06870485 -0.100047015 -0.05429321 -0.12076738 0.03640885 -0.057347048 -0.01577538
0.04600284 0.043255743 -0.054551367 -0.012596183 -0.0026331323 0.0168885 -0.122753285 -0.015768772
-0.010362346 0.07395065 -0.07707021 -0.024299266 0.062816314 0.0039677653 0.112732545 -0.07615395
0.10078959 0.120544955 0.07205695 0.01649259 0.09051908 -0.090816565 -0.07422942 0.0009852698

net.4.lin1.bias f4 [64]
00000000: c6c7 103e c0e5 6e3d bff4 88bd 90df 013e
00000010: 74bb 05be 8dc5 ee3d 0209 f2bd 5417 8e3c
00000020: 281a 4d3d 4cc7 363d cae5 953d f572 ed3d
00000030: a900 a73d 3b90 1abd 563e 14be 53ea db3d
00000040: eead 9a3d 26a6 a9bd e6a0 cf3d 7f34 bfbc
00000050: 956c d43d caef 16be 6829 e53d f09a a6bd
00000060: efdb b7bd 572f cbbd 6d4c bdbd c157 0b3e
00000070: fe0d e4bd 328d d23d 8e0d b6bd 3c5c d63c
00000080: 1352 ac3d 34fd 9f3d 4fcb e1bd 5835 fe3d
00000090: 720f 063e 47ed d83d c72f 033d 0a78 14be
000000a0: 33f1 b6bc af5b c3bd 070c 193d b618 6e3d
000000b0: 7642 b23d 0db2 d7bd a132 333c 0ae3 ec3d
000000c0: 985f 90bd 3ee1 ae3d 029b 4ebc b217 60bd
000000d0: c150 4e3d 24e0 0b3b e18e 1cbc 69fc d33d
000000e0: 8dc5 763d c1e0 05be 3ab4 ed3c ac0d 773d
000000f0: 4a55 b23d 442c a9bd d650 723d d3b6 92bd
0.14138708 0.058324575 -0.066873066 0.12682939 -0.13059789 0.116587736 -0.11818124 0.017345108
0.050073773 0.044623658 0.073192194 0.11594192 0.08154423 -0.037735205 -0.14476904 0.10738053
0.07552706 -0.082836434 0.10138111 -0.023340462 0.10372273 -0.1473991 0.11189538 -0.08135021
-0.08977496 -0.09921139 -0.09243093 0.13607694 -0.11135481 0.10280837 -0.08889304 0.026167028
0.08414092 0.078119665 -0.11025106 0.12412518 0.1309183 0.10592132 0.032027986 -0.14498916
-0.02233181 -0.09538972 0.037364986 0.058129035 0.08704083 -0.10532007 0.010937364 0.11566742
-0.07049483 0.08539055 -0.012610199 -0.054710098 0.05036998 0.0021343315 -0.009555549 0.10350878
0.060246993 -0.13074018 0.029016603 0.060315773 0.08707674 -0.08260396 0.059159122 -0.07163777
