data/trained_models/base_mu2_b_resnet.pth (torch, 201902 bytes, 15 tensors)

net.0.weight f4 [64, 374]
0	0x3d279537	0.040913787
1	0x3c08aa50	0.008341387
2	0x3cb97949	0.022640841
3	0x3cd84f34	0.026404954
4	0xbcb645c9	-0.022250073
5	0xbbd7b614	-0.0065829847
6	0xbd4c8594	-0.049932078
7	0xbc9af222	-0.018914286
8	0xbccc0876	-0.024906378
9	0xbd08c3c8	-0.033389837
10	0x3d00cf8f	0.031447943
11	0xbd2be42e	-0.041965656
12	0x3caa6680	0.020800829
13	0x3ba5051c	0.0050360095
14	0xbb058093	-0.0020370826
15	0x3d35111b	0.044205766
16	0x3b0555ca	0.0020345324
17	0x3c83e0e0	0.01609844
18	0x3c12e10a	0.008964786
19	0xbd38307c	-0.044968113
20	0xbcc83615	-0.02443985
21	0x3c98622b	0.018601498
22	0xbcba985d	-0.02277773
23	0xbd2bc9a5	-0.04194035
24	0x3c149899	0.009069585
25	0xbd116d30	-0.03550452
26	0x3cdef952	0.027218495
27	0xba308f68	-0.00067352364
28	0x3a14077a	0.0005646866
29	0xbd030833	-0.03199024
30	0xbcfbef12	-0.030753646
31	0x3d0de8dd	0.034645904
32	0x3d62a7d2	0.055335827
33	0xbc458b3a	-0.01205712
34	0xbcc49e0b	-0.024001142
35	0x3ca4e59e	0.020129021
36	0x3d2ec3a7	0.042667057
37	0x3c4131af	0.011791631
38	0xbd2721c9	-0.040803704
39	0xbcf15c6f	-0.029463021
40	0xbd5a5af8	-0.05330941
41	0x3d04b1d4	0.032396153
42	0x3d24542c	0.040119335
43	0xbd473fc9	-0.048644815
44	0xbce5a6b7	-0.028033597
45	0x3d270d7f	0.040784355
46	0x3c07daf6	0.00829195
47	0xbd035d21	-0.032071237
48	0xbd611503	-0.05495168
49	0x3ca1b2d8	0.0197386
50	0x3b8da66a	0.0043228166
51	0x3ab8f871	0.0014112127
52	0x3c8d6dc6	0.017264258
53	0xbd244d85	-0.04011299
54	0x3c637989	0.013883957
55	0x3d31867d	0.04334115
56	0xbd07d6bf	-0.033163782
57	0xbd155a2c	-0.036462948
58	0x3b40c7ba	0.0029415921
59	0xbc958df0	-0.018256158
60	0xbd356e55	-0.044294674
61	0x3d4af0b1	0.049545947
62	0xbd5165ca	-0.051122464
63	0x3ac9097a	0.0015337907
64	0x3c97862a	0.018496592
65	0xbcfa121c	-0.030526213
66	0x3ccf1cad	0.025282228
67	0xbc980b3c	-0.018560044
68	0x3cae71a8	0.02129443
69	0xbc0488c2	-0.008089246
70	0xbca65782	-0.020305399
71	0xbd234615	-0.039861757
72	0xbc34894e	-0.011019064
73	0x3c023f56	0.007949671
74	0x3c1f2176	0.009712568
75	0xb8ef2940	-0.000114040915
76	0xbaa1c824	-0.0012342972
77	0xbd350552	-0.044194527
78	0xbcbf1d33	-0.023329353
79	0xbd499bed	-0.049220968
80	0xbd0195a1	-0.031636838
81	0x3bca305e	0.0061703166
82	0x3d07e3ef	0.03317636
83	0x3bf826e9	0.007572998
84	0xbc81de24	-0.015852995
85	0xbd4f81cf	-0.050660904
86	0x3d13b3a5	0.036059994
87	0x3c889fb7	0.01667772
88	0x3cc21170	0.023689955
89	0x3d4ed221	0.050493363
90	0xbb8ada72	-0.0042374665
91	0x3ca4e768	0.020129874
92	0x3d18bf13	0.037291598
93	0x3d3eb8c7	0.046562936
94	0xbc67dd07	-0.014151818
95	0x3ce3a2fd	0.02778768
96	0xbc813884	-0.015774019
97	0x3cc68ae0	0.024236143
98	0x3c89d533	0.016825294
99	0xbd17a6cb	-0.0370243
100	0x3cf5c3fd	0.030000681
101	0x3cc34f80	0.02384162
102	0x3d04f003	0.032455456
103	0xbc901fd4	-0.017593302
104	0xbd25bf23	-0.040465485
105	0xbcede6cd	-0.029040718
106	0xbb5dd5d6	-0.003384938
107	0x3cb8ff1c	0.022582583
108	0x3d036181	0.03207541
109	0xbd1368e6	-0.03598871
110	0x3c927046	0.017875802
111	0x3c3338c6	0.010938829
112	0x3cbed6fc	0.023295872
113	0x3cc42348	0.023942605
114	0xbcd88422	-0.026430193
115	0x3c623028	0.013805427
116	0x3b9dfc9a	0.004821372
117	0xbd38484b	-0.04499082
118	0x3b5a7be7	0.0033338012
119	0xbd198883	-0.037483703
120	0xbc5fe935	-0.013666441
121	0xbcd741ff	-0.026276587
122	0xbbf6c1ff	-0.0075304504
123	0xbd348a89	-0.04407743
124	0xbc59127b	-0.013249035
125	0xbc7e1437	-0.015507749
126	0x3d2bc7f1	0.041938726
127	0xbcdec1f6	-0.027192097
128	0x3b84e91d	0.0040561096
129	0x3ba2e50a	0.0049711512
130	0xbcf8e368	-0.030381873
131	0xbc35ed50	-0.011103943
132	0xbd0a53dd	-0.033771385
133	0x3d30e439	0.0431864
134	0x3d198581	0.037480835
135	0x3c3489c6	0.011019176
136	0x3d1f18a3	0.038841855
137	0x3ce79d8e	0.02827337
138	0xbbace666	-0.005276489
139	0x3d3ce45b	0.046116214
140	0x3ca48bb4	0.020086147
141	0x3c398819	0.011323952
142	0x3ca58fca	0.020210166
143	0xbd4649e4	-0.04841031
144	0xbd2d1e22	-0.042265065
145	0x3bdb8aa6	0.006699878
146	0x397233f7	0.00023098277
147	0xbc8fead7	-0.017568035
148	0x3ccde54c	0.025133751
149	0xbc86c354	-0.016450562
150	0xbc41234e	-0.011788202
151	0xbd1da257	-0.038484897
152	0x3d4110f5	0.047135312
153	0x3bc3e3d3	0.0059780865
154	0xbc8f80df	-0.017517505
155	0x3aed46b7	0.001810274
156	0xbcfef968	-0.031124786
157	0xbd498b00	-0.049204826
158	0x3ce6aa91	0.028157504
159	0x3d0120b3	0.031525325
160	0x3d3247af	0.043525394
161	0x3c224c9e	0.009905962
162	0xbbca163c	-0.0061672013
163	0xbd2ddf68	-0.042449385
164	0x3d08d0f6	0.033402406
165	0xbd4c50ea	-0.049881853
166	0xbd01b063	-0.031662356
167	0x3bddbdf7	0.0067670303
168	0xbcc4a940	-0.024006486
169	0xbae53617	-0.0017487434
170	0xbd081266	-0.03322067
171	0xb9af7c7a	-0.00033471343
172	0x3bf1c32f	0.007378004
173	0x3d1a9ae1	0.03774536
174	0x3cfc7779	0.030818688
175	0xbcaca532	-0.021074865
176	0x3cf09e25	0.029372284
177	0x3cb6f7e4	0.022335
178	0xbd1439df	-0.036188003
179	0x3aec4d37	0.0018028383
180	0xbc2b6dfe	-0.010463236
181	0x3bdabc1f	0.006675258
182	0x3c457a2e	0.012053056
183	0x3cbde7f0	0.023181885
184	0xbb9ff5c2	-0.0048815915
185	0xbd4cc01a	-0.04998789
186	0xbce56ee9	-0.028006988
187	0x3d0a9fb1	0.0338437
188	0x3d464799	0.048408125
189	0xbd4b9cbb	-0.049710017
190	0x3ce6412d	0.02810725
191	0xbbb8e11a	-0.0056420686
192	0xbb8d8022	-0.004318253
193	0xbb7f2697	-0.0038932913
194	0x3d31c2c5	0.043398637
195	0xbd46b1dc	-0.048509464
196	0xbaf648d7	-0.0018790019
197	0x3d53037d	0.051517
198	0x3d075db7	0.033048358
199	0xbbb588db	-0.005539996
200	0x3ce9048a	0.028444547
201	0x3c83918e	0.016060617
202	0x3c9ffe33	0.019530391
203	0xbc419930	-0.011816308
204	0xb88ea620	-6.802031e-05
205	0x3cfdd683	0.030986076
206	0xbbaed325	-0.005335229
207	0x3cf92fec	0.030418359
208	0x3c9a2826	0.018817972
209	0x3cf5a035	0.02998362
210	0xbd29ff37	-0.041503157
211	0xbd09f9c4	-0.03368546
212	0xbccb712a	-0.024834234
213	0xbc6724cb	-0.014107893
214	0xbd5b9d1e	-0.053616636
215	0xbd0eb86f	-0.03484386
216	0xbcdc6cca	-0.026907343
217	0xbce886b0	-0.028384537
218	0xbd618c03	-0.055065166
219	0x3b17733a	0.0023109452
220	0xbcdb92ca	-0.026803393
221	0x3cb801d2	0.022461805
222	0xbc2ef153	-0.010677653
223	0xbd5035b3	-0.05083246
224	0x3c8d66a8	0.017260864
225	0x3c2d617e	0.010582326
226	0x3c1c96a2	0.009557398
227	0xbc928958	-0.017887756
228	0x3bf515c9	0.0074794036
229	0xba877b5a	-0.0010336444
230	0xbc7907b6	-0.015199592
231	0xbccb139a	-0.02478962
232	0x3c6c0cfb	0.014407392
233	0xbd1fd3bc	-0.039020285
234	0xbc92031e	-0.017823752
235	0x3ca4bba0	0.020108998
236	0xbd2b47a0	-0.041816354
237	0xbd3322f7	-0.043734517
238	0xbc6e0b49	-0.014529058
239	0xbd17194c	-0.03688936
240	0xbc0882d0	-0.008331969
241	0x3b6464ce	0.0034850123
242	0xbc354356	-0.011063417
243	0xbc214079	-0.009842032
244	0xbcae18b6	-0.021252017
245	0xbcaf13fc	-0.021371834
246	0x3c9c9642	0.019114617
247	0x3b680987	0.003540607
248	0xbcf2586e	-0.029583182
249	0x3d2c9105	0.04213049
250	0x3ccf7c2b	0.025327763
251	0xbd426616	-0.047460638
252	0x3d3b07d7	0.045661774
253	0xbcd3c227	-0.025849415
254	0x3c2eaf1e	0.010661868
255	0xbcaa6bbd	-0.020803327

net.0.bias f4 [64]
0	0xbcfc3d4b	-0.030790946
1	0xbce54a00	-0.027989388
2	0xbbe5f9a5	-0.0070182853
3	0x3cf4f0f2	0.029900048
4	0xbce484c9	-0.027895348
5	0x3b09e13b	0.002103879
6	0xbd466d6d	-0.0484442
7	0x3c1d4b33	0.009600448
8	0xbd2c3788	-0.042045146
9	0x3c06a3c3	0.008217755
10	0x3d2b5ae1	0.041834716
11	0x3ce3e232	0.02781782
12	0x3d28546e	0.041096143
13	0x3cc5ccf2	0.024145577
14	0x3c70d5c0	0.0146993995
15	0x3c97f167	0.018547727
16	0xbaf3ac27	-0.0018590734
17	0x3d117c98	0.035519212
18	0x3d2e7ed6	0.04260143
19	0xbd194386	-0.03741791
20	0xbd1abdd5	-0.037778694
21	0xbd2cfe36	-0.042234622
22	0x3d259261	0.0404228
23	0xbc1b87c4	-0.009492818
24	0x3cdc6a89	0.026906269
25	0xbd5717c1	-0.052512888
26	0x3d5184a6	0.051151894
27	0xbb7ebf71	-0.0038871432
28	0xbcaaa9a8	-0.020832852
29	0xbd4bd800	-0.04976654
30	0x3ccd67a2	0.02507383
31	0xbd126f29	-0.03575054
32	0x3bfd3345	0.007727059
33	0x3af7beaa	0.0018901427
34	0x3a71a3d8	0.0009217835
35	0x3d2b3072	0.041794248
36	0x3d3b1e52	0.045683213
37	0xbd11044a	-0.03540448
38	0x3ca1b45e	0.019739326
39	0xbd3c023f	-0.04590058
40	0xb9884a68	-0.00025995378
41	0x3d2766fb	0.040869694
42	0x3ced71e2	0.028984968
43	0x3d1f1c74	0.038845494
44	0xbcc7d674	-0.024394251
45	0x3be50080	0.006988585
46	0x3c53435c	0.012894478
47	0xbcaa3d18	-0.020781085
48	0xbc95c047	-0.018280162
49	0x3c3d8f10	0.011569753
50	0xbcc517c8	-0.024059191
51	0x3b2174c4	0.0024636248
52	0x3cf0930d	0.029366994
53	0x3d01a543	0.031651746
54	0xbc1d537a	-0.009602422
55	0x3ca40bdc	0.020025186
56	0x3cfc5962	0.03080434
57	0x3c7c6328	0.0154045
58	0xbcf08ecb	-0.029364964
59	0x3d084661	0.033270244
60	0xbd38100d	-0.044937182
61	0x3d3e7842	0.046501406
62	0xbcf121b8	-0.029435024
63	0x3d3562b3	0.04428358

net.2.lin1.weight f4 [64, 64]
0	0xbd6ec168	-0.058289915
1	0xbdd5b31e	-0.104345545
2	0xbda64bcb	-0.08119925
3	0xbdda0b19	-0.10646648
4	0xbbe029bb	-0.006840912
5	0xbc8009b6	-0.01562963
6	0x3ca88f1b	0.02057605
7	0x3d9ccb53	0.076559685
8	0x3c877313	0.016534364
9	0x3b0c918a	0.0021449053
10	0xbde9c5c3	-0.11414673
11	0x3cea446b	0.028597077
12	0xbde6b60a	-0.1126519
13	0xbd82e23c	-0.06390807
14	0xbc913fd3	-0.01773063
15	0x3d5c7213	0.053819727
16	0x3d2c2b12	0.042033263
17	0x3de5e6fc	0.112256974
18	0x3da41e31	0.08013571
19	0xbd68d841	-0.05684686
20	0xbd99a844	-0.07502797
21	0x3d91581a	0.07096882
22	0x3e046043	0.12927346
23	0xbd2087b7	-0.039191928
24	0xbdccae27	-0.099941544
25	0xbdf45a3c	-0.11931273
26	0x3e035471	0.1282518
27	0x3d93dad3	0.07219472
28	0x3dd91ea7	0.106015496
29	0xbcbdf494	-0.023187913
30	0xbca15c6d	-0.019697392
31	0xbe02c110	-0.1276896
32	0xbd4497cb	-0.047996324
33	0xbd31c5c5	-0.0434015
34	0xbdd878f2	-0.105699435
35	0x3ccccaef	0.02499911
36	0xbdbf244c	-0.09333095
37	0xbbe4fce3	-0.0069881543
38	0x3dc719ac	0.097216934
39	0xbdf89ed0	-0.12139666
40	0x3ae7db51	0.0017689263
41	0x3db781ad	0.089602806
42	0xbd55bbec	-0.05218117
43	0xbd50ef46	-0.05100944
44	0x3dbd93ca	0.09256704
45	0xbd79d4a7	-0.060993817
46	0xbd28c01a	-0.041198827
47	0x3da426c8	0.080152094
48	0x3d989758	0.074507415
49	0x3c27c170	0.01023899
50	0x3a561850	0.0008167075
51	0xbd661fdd	-0.05618273
52	0x3d5fb788	0.05461839
53	0xbd5c181a	-0.053733923
54	0x3c9db9fe	0.019253727
55	0x3df4e002	0.119567886
56	0xbd1b953d	-0.03798412
57	0x3d4a5fe0	0.04940784
58	0x3c472024	0.012153659
59	0xbcaa51c1	-0.020790936
60	0xbc71ba82	-0.01475394
61	0xbdaf98c3	-0.08574059
62	0xbc468d1b	-0.012118603
63	0xbd317ce2	-0.04333199
64	0xbd08da14	-0.0334111
65	0xbdf5e356	-0.120062515
66	0xbd3453fb	-0.044025403
67	0xbddc0fd1	-0.10745204
68	0xbd1f1f06	-0.038847946
69	0x3d3006e7	0.042975333
70	0xbdc576ac	-0.096417755
71	0xbd9672eb	-0.073461376
72	0x3ccd0d7b	0.025030842
73	0xbb0d6ef5	-0.0021581028
74	0x3ca99f44	0.020705827
75	0xbde61aee	-0.11235605
76	0x3d869c7d	0.065728165
77	0x3daa6b5c	0.083212584
78	0x3d0cea8c	0.03440337
79	0xbdf1f2de	-0.11813901
80	0xbdc9036c	-0.09815106
81	0xbd90ef28	-0.070768654
82	0x3dc2e45f	0.095162146
83	0xbcd33e82	-0.025786642
84	0xbd824ed2	-0.0636269
85	0xbae0c68a	-0.0017149013
86	0xbd292e06	-0.041303657
87	0xbdf0e1c4	-0.117618114
88	0xbca3bca4	-0.019987412
89	0xbdb87f8c	-0.09008703
90	0x3dc60888	0.09669596
91	0x3c61b331	0.013775633
92	0xbdf4498c	-0.119280905
93	0xbdd57372	-0.1042241
94	0x3de628f8	0.11238283
95	0x3dc01413	0.09378829
96	0x3dbc2cd3	0.09188237
97	0xbe059b94	-0.1304763
98	0xbd1f4a58	-0.03888926
99	0x3bf15e9c	0.0073660146
100	0x3df43924	0.11924961
101	0x3dc4ce3a	0.09609647
102	0xbd2dfa4c	-0.04247503
103	0x3c980c78	0.018560633
104	0xbcc68f4f	-0.024238257
105	0x3d284fdc	0.041091785
106	0x3decd1d4	0.11563459
107	0x3c3e0433	0.011597681
108	0x3d14c25b	0.036318164
109	0x3cc80486	0.02441622
110	0xbc850f4d	-0.016242648
111	0x3d439325	0.04774775
112	0x3deed9a8	0.116626084
113	0x3dbe74ea	0.09299643
114	0xbd8a2043	-0.06744435
115	0xbd79f56e	-0.061025076
116	0x3db30d94	0.08742824
117	0xbdd55f74	-0.10418597
118	0x3df33aac	0.11876425
119	0xbdbcb7de	-0.092147574
120	0x3da69ab4	0.08134976
121	0x3d3f2d6c	0.046674177
122	0xbbc09ad1	-0.0058778306
123	0xbdb4173f	-0.08793496
124	0xbd56bfe3	-0.05242909
125	0x3dd5b3b6	0.10434668
126	0x3da0d0f4	0.07852355
127	0xbd1aab02	-0.037760742
128	0x3d55c464	0.052189246
129	0xbc61b8e3	-0.013776991
130	0x3d714e65	0.058912653
131	0x3de4a82f	0.11164891
132	0xbc8a1b98	-0.01685886
133	0xbcb5c5d3	-0.022189057
134	0xbcf27d21	-0.029600682
135	0x3d0e4731	0.034735862
136	0xbda5d21c	-0.08096716
137	0x3dbcb982	0.0921507
138	0x3db54c9f	0.08852505
139	0x3de03216	0.10947053
140	0xbd10fdc6	-0.035398267
141	0xbcc2898f	-0.023747234
142	0xbbebd06e	-0.0071964776
143	0xbdeb33ac	-0.11484465
144	0xbe046cb8	-0.12932098
145	0x3df88bbc	0.12136027
146	0x3d5682da	0.052370884
147	0x3dd11074	0.10208216
148	0x3d14b5d1	0.036306206
149	0x3df3fd07	0.119134955
150	0x3de23ec2	0.11047126
151	0xbd0962dc	-0.033541545
152	0xbd53320e	-0.051561408
153	0x3d9bb8c9	0.07603604
154	0xbdd3bbc5	-0.103385486
155	0xbdf0470e	-0.117323026
156	0xbcb77a28	-0.022397116
157	0xbccc6a6e	-0.024953093
158	0xbd273039	-0.040817473
159	0x3dce5a79	0.1007585
160	0x3c4f98d7	0.012670717
161	0x3df648f9	0.12025637
162	0x3ab77e76	0.001399948
163	0x3dd34829	0.10316498
164	0x3df21573	0.11820497
165	0xbdbb92ad	-0.091588356
166	0x3c864c71	0.016393872
167	0x3d0e6aed	0.03476994
168	0x3d9291ff	0.07156753
169	0x3d725f3b	0.05917285
170	0x3c1fe272	0.009758579
171	0xbbcaa0af	-0.0061837058
172	0x3dccafc9	0.09994466
173	0x3c62688a	0.013818869
174	0x3dd1facd	0.102529146
175	0xbcff27e2	-0.031146947
176	0x3e02ba45	0.12766369
177	0x3af57dac	0.001872947
178	0xbdc7a727	-0.09748679
179	0xbdcceb7d	-0.10005853
180	0xbd786b18	-0.060649008
181	0xbd9f21eb	-0.07770141
182	0xbd153f65	-0.03643741
183	0xbdb7542b	-0.08951601
184	0xbd9dc49a	-0.077035144
185	0xbb1692be	-0.0022975649
186	0xbd8e9b1d	-0.06963179
187	0xbdc0bc9f	-0.094109766
188	0x3d1479b2	0.03624887
189	0xbcffd773	-0.031230664
190	0xbb99cdf0	-0.004693739
191	0x3da3bdbb	0.079951726
192	0x3d3832b9	0.044970248
193	0x3c5cc562	0.013474794
194	0xbdce5a78	-0.10075849
195	0xbc9e2841	-0.019306304
196	0xbded640c	-0.11591348
197	0x3c98da64	0.018658824
198	0x3ade5e22	0.001696531
199	0x3d8f11a1	0.06985784
200	0x3df2a315	0.11847512
201	0x3cb35414	0.021890678
202	0x3db3dbf5	0.08782188
203	0xbcbe9bcc	-0.02326765
204	0xbb397310	-0.0028297342
205	0x3de17f61	0.11010624
206	0x3df5cf3d	0.12002418
207	0x3dfde290	0.12396729
208	0x3cb5814b	0.022156378
209	0xbb8e582c	-0.004344007
210	0x3dd08ed4	0.10183492
211	0xbd736b4d	-0.059428502
212	0xbd167cba	-0.036740042
213	0xbd92e5ea	-0.07172759
214	0xbde6cc8d	-0.11269484
215	0x3d727f7a	0.059203602
216	0x3d5ba1bd	0.053621043
217	0xbd2be56c	-0.04196684
218	0x3d9f2af5	0.07771865
219	0xbd2861f3	-0.041109037
220	0xbdd18d52	-0.10232033
221	0x3dd2a674	0.10285655
222	0xbca9d9e9	-0.02073379
223	0xbd73796c	-0.05944197
224	0xbd3b07e2	-0.045661815
225	0xbd69f4d1	-0.05711824
226	0xbd94c06d	-0.07263265
227	0x3db5748a	0.08860119
228	0xbc9ec25a	-0.019379783
229	0x3cf3f4b9	0.029779779
230	0x3dedd221	0.116123445
231	0x3cf5ea3c	0.030018918
232	0x3d3493ba	0.044086196
233	0x3dc66817	0.09687822
234	0x3a8189ba	0.0009882965
235	0x3d303772	0.043021627
236	0x3d2d2e8a	0.04228071
237	0xbd5c601d	-0.0538026
238	0xbb8d42f6	-0.004310961
239	0xbdbe3a8d	-0.092885114
240	0x3d3bd8a3	0.045860898
241	0xbdd26c24	-0.102745324
242	0x3da3fcae	0.08007179
243	0x3c445c28	0.011984862
244	0x3d93df3d	0.07220314
245	0xbdd62921	-0.104570635
246	0xbd97623e	-0.07391785
247	0x3aa5dbc2	0.0012653994
248	0x3be9cf63	0.007135318
249	0xbd8973da	-0.0671155
250	0x3cd24400	0.02566719
251	0xbcd59279	-0.02607082
252	0x3d7aceca	0.061232366
253	0x3d1aeb1a	0.037821867
254	0x3defff4b	0.11718615
255	0x3de960a4	0.11395386

net.2.lin1.bias f4 [64]
0	0xbd59cb65	-0.053172488
1	0x3df7c958	0.1209895
2	0xbbf52863	-0.007481621
3	0x3dd3c2df	0.10339903
4	0xbd9ec995	-0.077532925
5	0x3c8cf630	0.017207235
6	0xbc271b61	-0.010199399
7	0xbcce135c	-0.025155716
8	0x3e0462ab	0.12928264
9	0xbd9b2b24	-0.07576588
10	0x3dc83265	0.09775237
11	0x3ced0686	0.028933775
12	0xbdfcc15a	-0.123415664
13	0xbdcd676a	-0.1002949
14	0xbd49fcc0	-0.049313307
15	0x3d9df0a3	0.077119134
16	0xbdf49407	-0.119422965
17	0x3de3d6d6	0.11124961
18	0x3e05b347	0.1305667
19	0xbdf7a56d	-0.12092099
20	0xbc8da3fc	-0.017290108
21	0xbdccc365	-0.09998206
22	0x3d0a4796	0.033759676
23	0x3cd7c524	0.026339121
24	0x3c06b2d1	0.008221344
25	0xbd5e01df	-0.054201003
26	0x3df1b9a8	0.11802989
27	0x3d92825a	0.07153769
28	0xbe0191ea	-0.12653318
29	0xbd44a24b	-0.048006337
30	0x3dafc7e5	0.08583049
31	0x3c381e10	0.011237636
32	0x3d84168d	0.06449614
33	0x3d8a3f64	0.06750372
34	0x3dd5cb00	0.1043911
35	0x3d749367	0.059710886
36	0xbdbf8595	-0.093516506
37	0xbd0f0339	-0.034915183
38	0xbdc469fe	-0.09590529
39	0x3dd3952e	0.10331188
40	0xbe025631	-0.12728192
41	0x3cf8f09e	0.030388173
42	0x3dcecef7	0.10098069
43	0x3cf4bf95	0.02987651
44	0x3dcf76e5	0.10130099
45	0xbc0b1444	-0.008488718
46	0x3dfad082	0.12246801
47	0x3ddb7858	0.10716313
48	0x3c09c36e	0.0084084105
49	0x3d9cd406	0.07657628
50	0x3d357cc3	0.044308435
51	0xbd9fd80e	-0.07804881
52	0xbdf07e53	-0.117428444
53	0x3d5ebd17	0.05437955
54	0xbd84e785	-0.06489471
55	0x3de5a723	0.112135194
56	0xbb22870b	-0.002479973
57	0x3dceacd8	0.10091561
58	0x3c8d2f43	0.01723445
59	0xbd6ec412	-0.058292456
60	0xbd79a377	-0.060946908
61	0xbd3ef589	-0.04662088
62	0xbd31adf4	-0.043378785
63	0x3dae08b5	0.084977545

net.2.lin2.weight f4 [64, 64]
0	0x3df1dcc4	0.11809686
1	0x3dc91bd2	0.098197594
2	0x3dddb6c6	0.10825877
3	0xbc846221	-0.016160073
4	0x3da202fc	0.079107255
5	0xbdc78ad8	-0.09743279
6	0x3d23588f	0.039879378
7	0xbdb0bc54	-0.08629671
8	0xbd9795f7	-0.074016504
9	0x3d71f4e5	0.05907144
10	0xbdcb50b5	-0.09927503
11	0xbc8e4a0f	-0.017369298
12	0xbdb46907	-0.08809095
13	0x3db41ce4	0.08794573
14	0x3c411671	0.011785136
15	0x3d58c64e	0.052923493
16	0x3df2ecb7	0.11861556
17	0x3d9b4c75	0.075829424
18	0xbdb49609	-0.088176794
19	0xbdcb5fab	-0.099303566
20	0xbdfcf9d8	-0.123523414
21	0x3ca42610	0.02003768
22	0x3dd9f348	0.10642105
23	0x3d51255d	0.051061023
24	0xbdecf896	-0.115708515
25	0xbdb7d9d5	-0.08977095
26	0xbd859186	-0.06521897
27	0x3d6d71a9	0.057969723
28	0xbd860850	-0.06544554
29	0xbcc2a8c9	-0.023762124
30	0x3c3efb78	0.0116566345
31	0x3d9fb4fb	0.07798191
32	0xbd4b59db	-0.04964624
33	0xbdfbdbe1	-0.12297798
34	0x3bb1adda	0.005422336
35	0xbd219aab	-0.039454143
36	0x3d1f60c8	0.038910657
37	0x3d7d1ecb	0.061796945
38	0x3dcbe187	0.09955125
39	0xbd146892	-0.03623254
40	0xbda9b1f6	-0.082858965
41	0xbbfe12ea	-0.0077537196
42	0xbc555043	-0.013019624
43	0x3df08cac	0.11745581
44	0x3d9627f3	0.073318385
45	0xbdfa3609	-0.12217338
46	0xbdfa5e90	-0.122250676
47	0xbd5b8657	-0.053594913
48	0x3d9229ef	0.071369044
49	0x3cc0b5ac	0.023524128
50	0xbda791ab	-0.08182081
51	0xbc9bdf22	-0.019027296
52	0x3db950ee	0.09048639
53	0x3ddfdabc	0.10930392
54	0xbd0be6f2	-0.034155793
55	0xbc6ff288	-0.014645226
56	0xbd8b40fa	-0.06799503
57	0xbcaab626	-0.020838808
58	0x3d98615f	0.07440447
59	0xbd2ebcd7	-0.04266056
60	0x3d772305	0.06033613
61	0x3c687c0e	0.014189733
62	0x3d3f7d60	0.046750426
63	0xbd85241b	-0.06501027
64	0x3d14f069	0.036362085
65	0xbd10ca4a	-0.035349168
66	0xbded1fd8	-0.11578339
67	0x3d6b19dc	0.05739771
68	0x3d876356	0.06610744
69	0x3ccddc7b	0.025129547
70	0x3dd2504c	0.10269222
71	0xbdd3ca13	-0.10341277
72	0xbda50649	-0.080578394
73	0xbcdfeea4	-0.027335472
74	0xbd88bc98	-0.066765964
75	0x3d9d34b1	0.07676066
76	0xbdddb970	-0.10826385
77	0x3b4bbaf2	0.003108677
78	0x3dd22930	0.10261762
79	0x3d7f9ba8	0.062404305
80	0xbc6d6022	-0.014488252
81	0xbdf29751	-0.118452676
82	0x3dc6505e	0.096832976
83	0x3da22148	0.07916504
84	0x3d8621a0	0.06549382
85	0x3df313ac	0.118689865
86	0xbda79a09	-0.08183677
87	0xbbd36116	-0.0064507825
88	0xbda6b059	-0.081391044
89	0x3cedd798	0.029033467
90	0xbdc3772b	-0.09544214
91	0xbd5b3953	-0.053521466
92	0x3d2f1dbd	0.04275297
93	0xbbaa5e99	-0.005199265
94	0xbd2c5012	-0.04206855
95	0xbcea502d	-0.028602684
96	0x3d8060ba	0.06268449
97	0xbdffe5f8	-0.12495035
98	0x3d92240c	0.07135782
99	0xbd9a8dfa	-0.07546611
100	0xbe045b6c	-0.129255
101	0x3d4b089a	0.04956875
102	0x3d96ac7e	0.07357119
103	0x3da9121a	0.08255406
104	0x3db6a4f2	0.089181796
105	0x3bd542f6	0.0065082265
106	0x3dbd2c1b	0.09236928
107	0x3d0f53b0	0.03499192
108	0xbdd26406	-0.10272984
109	0xbdb33f58	-0.08752316
110	0x3d390337	0.04516908
111	0x3c81607b	0.015793076
112	0x3d3714fb	0.044697743
113	0x3ded6f09	0.11593444
114	0x3db29857	0.08720463
115	0xbd766381	-0.060153488
116	0xbc640647	-0.013917512
117	0xbdd9f8ec	-0.10643181
118	0x3d914aec	0.07094368
119	0x3e032c27	0.12809812
120	0xbd05560b	-0.03255276
121	0xbd4a2059	-0.049347255
122	0x3dd57f4a	0.10424669
123	0xbd04cd1b	-0.032422166
124	0xbde3dc93	-0.111260556
125	0x3c130c83	0.008975151
126	0x3d8cafe6	0.068694875
127	0x3debd010	0.11514294
128	0xbd45f1d2	-0.04832632
129	0x3d18e06e	0.037323408
130	0xbddf1197	-0.10892027
131	0xbcf98e31	-0.03046331
132	0xbda49fa5	-0.08038262
133	0x3d927bf9	0.07152552
134	0x3d1d155c	0.038350448
135	0x3de345db	0.11097308
136	0x3da2dfe2	0.079528585
137	0xbb8893dc	-0.004168017
138	0x3dbbbe2d	0.091671325
139	0xbc7b17bd	-0.015325484
140	0x3de74be7	0.11293774
141	0xbd59046a	-0.052982725
142	0xbd82ce1e	-0.0638697
143	0x3d8ff8f6	0.070299074
144	0x3d7c959e	0.061666124
145	0x3d5d30be	0.054001562
146	0x3df62a42	0.12019779
147	0xbcbaad5e	-0.022787746
148	0xbd3f5e6f	-0.04672092
149	0x3d3764b9	0.04477379
150	0x3bb11c3a	0.005404976
151	0xbdcd5885	-0.100266494
152	0x3d0a68b7	0.03379127
153	0x3d17422a	0.036928333
154	0x3b1b2d2f	0.0023678055
155	0xbdde2e65	-0.10848693
156	0x3dc057e4	0.09391764
157	0x3b2bb635	0.0026201133
158	0x3c16534d	0.009175134
159	0xbd37790a	-0.044793166
160	0xbc62bb5f	-0.013838618
161	0x3d77e59a	0.0605217
162	0x3dc75154	0.09732309
163	0xbe040e55	-0.12896092
164	0x3d15b3c3	0.036548387
165	0xbdbfef81	-0.093718536
166	0xbdf0a5d7	-0.117503814
167	0xbdf1cf45	-0.11807112
168	0xbd5eda75	-0.054407556
169	0x3dc3973b	0.09550329
170	0x3e038d9d	0.1284699
171	0xbdc5fd61	-0.09667469
172	0x3deb5f0c	0.11492738
173	0x3dc87452	0.09787811
174	0xbc66ce24	-0.014087234
175	0x3d6c34d5	0.057667572
176	0xbd231f9d	-0.03982507
177	0xbd6b7722	-0.05748666
178	0xbd3d647d	-0.04623841
179	0x3d67002d	0.056396652
180	0xbd46e1ae	-0.04855507
181	0x3c551429	0.013005295
182	0x3d428384	0.047488704
183	0xbd1d6cf2	-0.038433976
184	0x3d588d9a	0.052869417
185	0x3da3bf94	0.07995525
186	0xbdec7beb	-0.11547073
187	0x3d590028	0.052978665
188	0xbd0243b3	-0.031802844
189	0xbdd68dfc	-0.104763
190	0x3dd4a48a	0.10382946
191	0xbbda3089	-0.006658618
192	0x3ddbef63	0.10739019
193	0x3dd23e0d	0.102657415
194	0x3b1cea95	0.0023943533
195	0xbd15619d	-0.036470044
196	0x3cb003af	0.021486131
197	0xbc6dfad2	-0.014525132
198	0x3df71f65	0.12066535
199	0x3d42a926	0.047524594
200	0xbdee1653	-0.11625352
201	0xbd9e980c	-0.077438444
202	0xbddd0357	-0.10791653
203	0x3d02414a	0.031800546
204	0xbd7de75f	-0.06198823
205	0x3dbb79f0	0.09154117
206	0xbd9a6343	-0.07538464
207	0xbdc500b1	-0.096192725
208	0x3ca456aa	0.020060856
209	0x3da4e9a9	0.0805238
210	0x3df07fab	0.11743101
211	0xbd3f82de	-0.046755664
212	0x3c07c69a	0.008287096
213	0xbd43a2dc	-0.047762737
214	0xbceb92eb	-0.02875658
215	0x3df31ea7	0.11871081
216	0xbc51249e	-0.012765078
217	0x3dc53b19	0.096304126
218	0x3c863f4e	0.016387608
219	0xbdb2ad00	-0.087244034
220	0x3dbbeb93	0.091757916
221	0x3c2f455b	0.010697688
222	0xba8180d0	-0.0009880308
223	0x3d42f220	0.04759419
224	0xbde42f52	-0.11141838
225	0x3d0936ea	0.033499636
226	0x3db5db34	0.088797
227	0x3d82ff82	0.063963905
228	0xbd00394c	-0.031304643
229	0x3dc50cd2	0.09621586
230	0xbd905212	-0.07046904
231	0x3deb44af	0.1148771
232	0x3ca20f7b	0.019782772
233	0x3dd1174d	0.102095224
234	0xbdccef79	-0.10006613
235	0x3dd8a0fa	0.10577579
236	0x3d8e2aec	0.069417804
237	0x3d035020	0.032058835
238	0x3e05387e	0.13009831
239	0xbc71d175	-0.014759411
240	0x3d4afb18	0.049555868
241	0x3d079c1a	0.033107854
242	0x3d977ab0	0.07396448
243	0x3c93b904	0.018032558
244	0xbdf20d51	-0.11818946
245	0xbd09827e	-0.033571713
246	0x3d76ec3c	0.060283884
247	0x3d5f1121	0.054459695
248	0xbc473f5c	-0.012161102
249	0xbddd8f27	-0.1081832
250	0xbd08f1ab	-0.033433598
251	0xbd314bbf	-0.043285128
252	0x3de32ad5	0.11092154
253	0x3d642acd	0.05570488
254	0x3c69e0b7	0.014274768
255	0xbdf6c89a	-0.120499805

net.2.lin2.bias f4 [64]
0	0x3d70685a	0.058693267
1	0x3dd8ba54	0.10582414
2	0xbd483a45	-0.048883695
3	0xbd677988	-0.056512386
4	0xbd07891a	-0.033089735
5	0xbcdde2dd	-0.027085716
6	0xbde17cfa	-0.110101655
7	0xbd6c71fb	-0.057725888
8	0x3d60f87b	0.05492447
9	0x3a8fce8a	0.0010971588
10	0xbdf8d2a1	-0.12149549
11	0x3d6c2fda	0.057662822
12	0x3d9b328d	0.07578001
13	0x3da6284e	0.08113156
14	0x3d8fbebe	0.07018803
15	0x3e05feda	0.130855
16	0x3cf84936	0.030308347
17	0x3d3fa11c	0.046784505
18	0xbdbce19c	-0.09222719
19	0x3d19199c	0.03737794
20	0xbcbd6c86	-0.023123037
21	0x3d818a7a	0.063252404
22	0x3de60c94	0.11232868
23	0xbccec134	-0.02523861
24	0xbcdf0cd1	-0.027227791
25	0x3d999335	0.07498781
26	0xbd82e04a	-0.06390436
27	0xbbdf99e4	-0.006823765
28	0xbdd12a33	-0.10213127
29	0x3df1ba5f	0.118031256
30	0x3d3a8a4a	0.04554204
31	0xbda6b0b9	-0.08139176
32	0xbdd24ffd	-0.10269163
33	0x3d8545c7	0.065074496
34	0x3ddd1f00	0.107969284
35	0xbdf0e46a	-0.117623165
36	0x3af36708	0.0018570134
37	0xbd008b67	-0.031382944
38	0x3d8cab5f	0.06868624
39	0x3cc4213c	0.023941629
40	0x3c7dd261	0.015492053
41	0xbde1d8a2	-0.110276476
42	0xbda1cc9e	-0.07900356
43	0xbd361f77	-0.0444636
44	0xbd8c3f28	-0.068479836
45	0x3df1845d	0.117928244
46	0x3d8d1ae8	0.068898976
47	0xbcb602d5	-0.022218147
48	0xbdb7b166	-0.08969383
49	0x3deff393	0.1171638
50	0x3d8afb3c	0.067862004
51	0xbd9bfd42	-0.076166645
52	0x3cc67b63	0.024228757
53	0xbd96d3be	-0.07364605
54	0x3dc4b47b	0.096047364
55	0x3dc67f48	0.09692246
56	0xbdde3b0c	-0.10851106
57	0xbd9f80db	-0.07788249
58	0xbd94f071	-0.07272423
59	0x3cc0a52f	0.023516266
60	0xbc66a5bb	-0.014077599
61	0xbd7284cf	-0.059208687
62	0x3d61666d	0.05502932
63	0xbd9aab36	-0.07552187

net.3.lin1.weight f4 [64, 64]
0	0x3de3b89a	0.11119194
1	0x3dc9f67a	0.09861465
2	0x3dda7907	0.106676154
3	0x3dd6a643	0.10480931
4	0xbd12e68d	-0.0358644
5	0xbd122318	-0.035678
6	0xbd27f302	-0.041003235
7	0x3c9430a6	0.018089604
8	0x3dfd4a98	0.12367743
9	0xbce84bd0	-0.028356463
10	0x3d4a36c4	0.049368635
11	0xbd88b0a3	-0.06674316
12	0x3db6f60a	0.08933647
13	0x3dd4cd8a	0.10390766
14	0xbd81cef2	-0.063383
15	0x3dde866d	0.108654834
16	0x3d7d57f5	0.06185146
17	0x3d408c86	0.047009014
18	0xbdf5dafc	-0.120046586
19	0x3d92abd7	0.07161682
20	0xbc290fc9	-0.010318705
21	0x3d21aa52	0.03946907
22	0x3dd02e5b	0.101650916
23	0xbcb3b88a	-0.021938581
24	0x3d787ddf	0.060666915
25	0x3d991766	0.07475166
26	0x3d257545	0.04039504
27	0x3d3da4fd	0.046299923
28	0x3d873d22	0.06603457
29	0x3dee3989	0.11632068
30	0x3d27e893	0.040993284
31	0xbd7f6fe8	-0.06236258
32	0xbc3b61f1	-0.011436925
33	0xbe022297	-0.12708507
34	0x3d94809d	0.072510935
35	0xbd93c254	-0.072147995
36	0xbdcdc24f	-0.10046827
37	0xbde43c39	-0.11144299
38	0xbdbaccc3	-0.091210864
39	0x3cd0fdfb	0.025511732
40	0xbdb6c2fb	-0.08923908
41	0x3dd9cffb	0.10635372
42	0xbcdca8df	-0.026935993
43	0xbd2c7eae	-0.042113
44	0x3a0a4bdd	0.0005275587
45	0xbd4c169a	-0.049826242
46	0x3b977c4d	0.004622972
47	0x3db22460	0.08698344
48	0xbdc8e25b	-0.09808799
49	0x3c2c9ab5	0.010534932
50	0x3c21f74d	0.009885621
51	0xbbbdfe3e	-0.0057981303
52	0xbd75289a	-0.059853174
53	0x3d7f1d69	0.062283907
54	0x3de8088f	0.113297574
55	0x3d7c932c	0.06166379
56	0xbd3d0af4	-0.046153024
57	0xbba91fde	-0.0051612696
58	0xbd69753d	-0.056996573
59	0xbb0b7794	-0.002128099
60	0x3dae0ee9	0.08498938
61	0x3ba15881	0.0049238806
62	0x3ddc8220	0.10767007
63	0xbcc1dced	-0.023664916
64	0xbdbf9327	-0.09354239
65	0xbd6e7098	-0.058212847
66	0xbd082391	-0.033237044
67	0xbbb0736b	-0.0053848526
68	0xbd7e87f1	-0.062141363
69	0xbd06d84d	-0.032921124
70	0xbd874abb	-0.066060506
71	0xbd2f277d	-0.04276227
72	0x3d659641	0.056051496
73	0x3dd1744c	0.1022726
74	0xbdaf638b	-0.08563908
75	0xbdf0cfd5	-0.11758391
76	0xbb9dfc14	-0.00482131
77	0xbb87069d	-0.0041206614
78	0x3d872c26	0.066002175
79	0x3db3d024	0.08779934
80	0x3e023243	0.12714486
81	0xbd95c90e	-0.07313739
82	0x3dfb5470	0.122719646
83	0xbcff4db8	-0.031164989
84	0x3d2cac4f	0.042156514
85	0x3dacd5c1	0.08439208
86	0xbde3f3be	-0.111304745
87	0x3aa0183d	0.0012214255
88	0xbdba64eb	-0.0910128
89	0xbdaae296	-0.08343999
90	0x3ccc8e46	0.024970185
91	0xbd9b8932	-0.07594527
92	0x3d9a47de	0.07533239
93	0x3ce6f2c8	0.028191939
94	0x3d87f6a9	0.066388436
95	0x3d99c70e	0.0750867
96	0x3e019fc6	0.12658605
97	0xbdee1332	-0.11624755
98	0xbdea763d	-0.114483334
99	0x3cbb3783	0.022853618
100	0xbdae3568	-0.0850628
101	0x3dd8880e	0.10572825
102	0xbd8cde46	-0.06878333
103	0x3d4de85d	0.050270427
104	0x3c3c825e	0.011505691
105	0x3db08dd4	0.086208016
106	0x3d260936	0.040536128
107	0xbd3b0e0a	-0.045667686
108	0xbdc84a63	-0.09779813
109	0x3dce9f3a	0.10088964
110	0xbda0d6ee	-0.078534946
111	0xbde56f5b	-0.1120288
112	0xbdb0a40d	-0.0862504
113	0xbd96b922	-0.0735953
114	0x3d64d9d8	0.055871814
115	0x3d927c32	0.071525946
116	0xbde08d41	-0.10964442
117	0x3cb92f4b	0.022605559
118	0x3d8822c7	0.06647258
119	0xbc883ede	-0.01663154
120	0xbde025d3	-0.109447144
121	0x3d245550	0.040120423
122	0x3d52ad3e	0.051434748
123	0xbd0b189c	-0.033959016
124	0xbdc9bc7e	-0.09850405
125	0xbd6ef359	-0.058337543
126	0xbdca2519	-0.09870357
127	0x3dc5b879	0.09654326
128	0xbddcd3bd	-0.10782573
129	0xbd484c15	-0.048900682
130	0xbd26c669	-0.040716562
131	0x3cdc948a	0.026926298
132	0xbd7c8f51	-0.061660115
133	0xbdc21df9	-0.09478373
134	0xbb3a426c	-0.0028420938
135	0x3e010c5e	0.12602374
136	0xbcbc6746	-0.022998463
137	0x3d5b6a25	0.053568024
138	0x3d117f1f	0.035521623
139	0xbdcd3026	-0.10018949
140	0x3d40d3b1	0.047076885
141	0x3de11c35	0.10991708
142	0xbdd75230	-0.10513723
143	0x3d4e13c7	0.05031183
144	0x3d928665	0.0715454
145	0x3c9435d6	0.018092077
146	0xbddff579	-0.10935492
147	0xbc22ab54	-0.009928543
148	0xbddf0600	-0.10889816
149	0xbcaa4bbd	-0.020788068
150	0xbd570feb	-0.052505415
151	0xbd6be058	-0.057586998
152	0xbda6f5dd	-0.081523634
153	0xbdbad394	-0.091223866
154	0xbd9a86ee	-0.07545267
155	0x3d62df9c	0.05538903
156	0xbd5ee960	-0.054421782
157	0x3c6e3c9c	0.014540818
158	0x3db5e827	0.0888217
159	0xbd80b25d	-0.0628402
160	0x3dfab1c9	0.12240941
161	0x3de23fdc	0.110473365
162	0xbbfd1fa9	-0.0077247215
163	0xbdd6d0d9	-0.10489053
164	0xbdbeb474	-0.093117625
165	0xbde186fd	-0.11012075
166	0x3d71016a	0.05883924
167	0x3dc2e6d3	0.095166825
168	0x3e0313a9	0.12800469
169	0x3dca3fda	0.0987546
170	0x3d616798	0.055030435
171	0xbd3d3785	-0.046195526
172	0xbdaecc36	-0.08535044
173	0xbc5144ea	-0.012772778
174	0xbdf1849a	-0.1179287
175	0xbc1fa38d	-0.009743583
176	0x3d83bb1e	0.06432174
177	0xbd23d64e	-0.0399993
178	0x3cfd0255	0.030884901
179	0xbd86d6f1	-0.065839656
180	0x3db50c65	0.08840255
181	0xbd571994	-0.052514628
182	0xbdf1f79c	-0.11814806
183	0x3dcf011e	0.10107635
184	0xbdf0c100	-0.11755562
185	0x3c4ae25a	0.012383068
186	0x3de0eeae	0.109830245
187	0xbd35b842	-0.044365175
188	0xbdc44579	-0.09583563
189	0x3ca177d0	0.019710451
190	0xbdac6ce3	-0.08419206
191	0xbd8ecde8	-0.06972867
192	0x3e0115a3	0.1260591
193	0x3d241567	0.040059473
194	0xbd3ada1b	-0.045618158
195	0x3c0ab011	0.008464829
196	0xbd836d5a	-0.064173415
197	0x3d85d528	0.06534797
198	0x3d5789c7	0.05262163
199	0xbdb40721	-0.08790422
200	0x3dd932a7	0.10605364
201	0x3d5179a3	0.051141392
202	0x3da0823c	0.0783734
203	0x3d1565ca	0.036474027
204	0x3dc4e8b8	0.096147
205	0xbda0deaa	-0.0785497
206	0xbb9eac22	-0.004842297
207	0x3c138764	0.009004448
208	0x3db05b19	0.086111255
209	0xbcdace45	-0.026709685
210	0x3da0c3c9	0.07849843
211	0xbd9ce46b	-0.07660755
212	0xbc343bfe	-0.011000631
213	0xbdc7cd39	-0.0975594
214	0xbdc850a1	-0.09781004
215	0x3cdc5a84	0.02689863
216	0xbe020b8f	-0.12699722
217	0xbdf4bdad	-0.1195024
218	0xbdb9df9d	-0.09075854
219	0x3d976c8e	0.07393752
220	0xbd1cf6af	-0.038321193
221	0xbd9aff41	-0.07568217
222	0xbd606a38	-0.054788798
223	0xbcd9c755	-0.026584307
224	0xbdf5f7b6	-0.12010138
225	0xbbb4be81	-0.005515874
226	0xbbfc64fe	-0.007702469
227	0xbdf47846	-0.11937003
228	0x3d0cfb63	0.03441943
229	0xbdbc9660	-0.09208369
230	0x3c875376	0.01651929
231	0xbdb33135	-0.0874962
232	0xbdddcc3e	-0.10829972
233	0x3d836713	0.06416144
234	0x3d5b0672	0.053472944
235	0x3df98c0e	0.121849164
236	0xbdd81484	-0.10550788
237	0x3d17ff19	0.037108514
238	0xbd94d22c	-0.072666496
239	0x3de97f9c	0.11401293
240	0x3da77c8f	0.081780545
241	0xbc422cb4	-0.011851478
242	0xbdd4db87	-0.10393434
243	0x3c2a861a	0.010407949
244	0xbd767e0c	-0.0601788
245	0xbc0f2d15	-0.008738776
246	0xbdf8aad4	-0.12141958
247	0xbd240637	-0.04004499
248	0x3cff09c3	0.031132584
249	0xbc8639d0	-0.016384989
250	0xbd07f170	-0.033189237
251	0xbd057126	-0.03257861
252	0x3cb9e8dc	0.022694044
253	0x3d5497a5	0.051902432
254	0xbd8bd5e1	-0.068279035
255	0xbc2d10c6	-0.010563081

net.3.lin1.bias f4 [64]
0	0xbdbbb80e	-0.09165965
1	0x3dcaf68a	0.09910305
2	0x3d01eb56	0.031718574
3	0x3d37b151	0.044846836
4	0xbd692d25	-0.05692782
5	0x3c8ed68e	0.017436292
6	0xbd60b25f	-0.054857608
7	0xbdf50967	-0.11964684
8	0xbdf81867	-0.121140294
9	0xbd7d2c29	-0.061809693
10	0xbd81dcf6	-0.06340973
11	0xbdc4da22	-0.09611918
12	0xbb8ebece	-0.004356242
13	0x3d29dfd1	0.041473214
14	0xbe02cb6c	-0.12772912
15	0x3cf6ecff	0.030142305
16	0x3c6a346b	0.014294724
17	0x3dd399a0	0.10332036
18	0x3d257a46	0.040399812
19	0x3cac1c1f	0.021009503
20	0xbdb38101	-0.0876484
21	0xbd819ca2	-0.063287035
22	0x3d8d0ac8	0.06886822
23	0x3c6ddaef	0.01451753
24	0xbd974d24	-0.0738776
25	0x3b596691	0.0033172707
26	0x3dcbec4f	0.09957182
27	0x3c8ded65	0.017325113
28	0x3d4a0140	0.0493176
29	0x3c9a7057	0.018852396
30	0x3d8b0508	0.06788069
31	0x3d6fabb4	0.05851336
32	0x3da91da6	0.08257608
33	0xbce5faef	-0.028073756
34	0x3ba040d8	0.0048905425
35	0xbd4fba5d	-0.05071484
36	0xbd38b7c9	-0.045097146
37	0x3d83c0fc	0.06433293
38	0xbc290a43	-0.010317388
39	0xbdd7d251	-0.105381615
40	0xbd4fd1f9	-0.050737355
41	0x3dd80370	0.10547531
42	0xbd8acd2f	-0.06777417
43	0xbdff894d	-0.1247736
44	0xbbca2d9d	-0.0061699883
45	0xbda874ab	-0.08225378
46	0x3dfa3fd0	0.122192025
47	0xbda485fb	-0.08033367
48	0x3d1264c2	0.03574062
49	0xbd78c523	-0.06073488
50	0xbde9618d	-0.113955595
51	0xbd2141c5	-0.039369363
52	0x3dd6b77b	0.10484215
53	0x3d18e3cf	0.03732663
54	0x3d80b232	0.06283988
55	0x3d9aff5c	0.07568237
56	0xbc7749d2	-0.015093284
57	0xbdcebd52	-0.10094704
58	0xbdf17132	-0.117891684
59	0x3ce14ca5	0.027502367
60	0x3cb84f5b	0.022498777
61	0xbd3d8f1c	-0.046279058
62	0xbd627dce	-0.055295758
63	0xbdd731bc	-0.10507533

net.3.lin2.weight f4 [64, 64]
0	0xbd4e6c17	-0.05039605
1	0x3df5d297	0.120030575
2	0x3db376e3	0.0876291
3	0x3cf29e83	0.0296166
4	0xbb5098f3	-0.0031829446
5	0xba2bc698	-0.0006552725
6	0x3d45f490	0.048328936
7	0xbd66521f	-0.05623066
8	0xbd6e2a27	-0.05814567
9	0x3cd1e913	0.025623834
10	0x3dbd2056	0.09234683
11	0xbc67314e	-0.014110876
12	0x3d872a79	0.06599898
13	0xbd90a773	-0.070631884
14	0x3d36593d	0.044518698
15	0xba865b08	-0.0010250518
16	0x3c90ef22	0.017692152
17	0xbd63f53c	-0.055653796
18	0xbdd8d00a	-0.10586555
19	0xbe01bc3b	-0.1266946
20	0x3ca0f272	0.019646857
21	0x3d89c45d	0.067269064
22	0xbd8f94c8	-0.070108
23	0xbdc22122	-0.09478976
24	0xbd8083a3	-0.06275108
25	0x3bda3588	0.0066592135
26	0xbd2b7cb8	-0.041866988
27	0xbdf3d92b	-0.11906656
28	0x3d266773	0.040626
29	0xbd82e900	-0.063920975
30	0x3ddcc5bb	0.107799016
31	0xbdac5773	-0.08415117
32	0x3cff4c36	0.03116427
33	0x3de37b71	0.11107529
34	0xbdb8d7a0	-0.09025502
35	0x3d23f7bc	0.04003118
36	0x3d542bb1	0.05179948
37	0x3d89e533	0.067331694
38	0xbdccc108	-0.09997755
39	0x3da1a2ae	0.07892357
40	0x3d7cc71d	0.061713327
41	0xbdf10157	-0.11767834
42	0xbd2ecdfd	-0.042676914
43	0x3d3f4b9c	0.046702966
44	0x3c9cdff6	0.019149762
45	0x3db1c241	0.08679629
46	0xbdf180f2	-0.117921725
47	0xbd21fc49	-0.03954724
48	0x3d332892	0.043739863
49	0xbdbbc30a	-0.0916806
50	0xbc06661b	-0.008203055
51	0xbd892670	-0.066967845
52	0x3d3bd046	0.045852922
53	0xbda68bfa	-0.08132167
54	0xbdc10680	-0.09425068
55	0x3de1db08	0.11028105
56	0x3d48ae17	0.04899415
57	0x3cf35138	0.029701814
58	0x3d9cbe62	0.076535
59	0xbdeb6471	-0.11493767
60	0x3d966a20	0.073444605
61	0xbd86bea3	-0.0657933
62	0xbbf832d2	-0.0075744176
63	0x38225b40	3.8708793e-05
64	0x3d15be65	0.036558527
65	0x3da9fade	0.08299802
66	0xbd9c9e14	-0.076473385
67	0xbbd48123	-0.006485121
68	0x3afbf988	0.0019224146
69	0x3dc51e0a	0.0962487
70	0xbc95919f	-0.018257914
71	0xbdd9c29d	-0.10632823
72	0x3dd130f2	0.10214414
73	0xbdbc22de	-0.09186338
74	0xbd010890	-0.031502306
75	0xbd629e57	-0.055326786
76	0x3bec085b	0.0072031445
77	0xbd2d7660	-0.04234922
78	0xbdaf7f53	-0.08569207
79	0x3db8f1a9	0.09030468
80	0x3a2dec3d	0.00066346285
81	0x3d66a6cd	0.056311417
82	0x3e01d619	0.12679328
83	0xbdad6ae1	-0.08467651
84	0x3c0cec4a	0.008601258
85	0xbda8dbe0	-0.08245063
86	0x3ce22bae	0.027608719
87	0x3d617812	0.05504615
88	0x3d5d2d25	0.05399813
89	0x3c84393f	0.016140578
90	0x3da479ff	0.080310814
91	0xbd711930	-0.05886191
92	0xbdc7ff38	-0.09765476
93	0xbd940359	-0.07227201
94	0xbcf3b0b6	-0.029747348
95	0xbd90b3cd	-0.07065544
96	0x3a6ddecc	0.0009074032
97	0xbd39f200	-0.045396805
98	0x3c7004f4	0.014649618
99	0x3da466e6	0.08027439
100	0x3e042e8f	0.12908386
101	0x3da7c708	0.08192259
102	0x3ddf0188	0.10888964
103	0xbdf9725e	-0.12180017
104	0xbe04ab39	-0.12955941
105	0xbd86fd5a	-0.06591292
106	0xbd8aeb18	-0.06783122
107	0xbcf04d7a	-0.029333819
108	0xbc3b646c	-0.011437517
109	0xbd8c9dbe	-0.068660244
110	0xbd90d6f8	-0.07072252
111	0x3de18323	0.110113405
112	0xbd45cebe	-0.048292868
113	0x3d9d4732	0.07679595
114	0xbd82f7f4	-0.063949496
115	0x3df36c76	0.11885922
116	0xbadb2fc4	-0.0016722609
117	0x3d98f0cf	0.074678056
118	0x3c995725	0.018718312
119	0xbda5febe	-0.08105229
120	0x3d6eb133	0.05827446
121	0x3cb3052c	0.021853052
122	0xbd9f9c1a	-0.07793446
123	0xbdc7c580	-0.09754467
124	0xbcad1b3c	-0.02113115
125	0x3c8d6b09	0.017262952
126	0xbd5e7f15	-0.054320414
127	0xbc947671	-0.018122884
128	0x3d53766b	0.051626604
129	0xbd617810	-0.05504614
130	0xbde83a7a	-0.113392785
131	0xbd93ce10	-0.07217038
132	0xbd1b4a02	-0.037912376
133	0xbddf74b6	-0.10910933
134	0x3b233e49	0.002490895
135	0x3d5c83e8	0.053836733
136	0x3d6dd557	0.058064785
137	0x3ddd5514	0.10807243
138	0xbd31732e	-0.043322735
139	0x3d8ae7b8	0.06782478
140	0xbd70a625	-0.058752198
141	0xbd556f23	-0.05210794
142	0xbdbdc0ab	-0.09265264
143	0x3d445d5c	0.047940597
144	0x3d5830c3	0.052780878
145	0xbd3a2c81	-0.0454526
146	0xbd9212b7	-0.07132476
147	0xbdfc7076	-0.12326138
148	0x3cd82f29	0.026389675
149	0x3cce6463	0.025194352
150	0xbde339be	-0.11094998
151	0xbde6f7d9	-0.11277742
152	0xbdf1c8a6	-0.11805849
153	0x3c7375bc	0.014859613
154	0xbddb9dd1	-0.107234605
155	0xbd1f8519	-0.03894529
156	0xbdbcc872	-0.092179194
157	0xbc3551fa	-0.011066908
158	0xbd8025fa	-0.062572435
159	0xbda9fa8c	-0.08299741
160	0xbd9d6037	-0.07684367
161	0xbd75853c	-0.059941515
162	0x3c9d1c85	0.019178638
163	0xbd4a5fec	-0.049407884
164	0x3d3e352d	0.04643743
165	0xbd419775	-0.04726358
166	0x3d246e50	0.040144265
167	0x3d98f4a3	0.07468536
168	0x3d503431	0.050831024
169	0x3cf49c5f	0.02985972
170	0xbcc3fa6d	-0.023923123
171	0x3c7c5b85	0.015402679
172	0x3c6cc2f6	0.014450779
173	0x3da8e1be	0.08246182
174	0xbd83f410	-0.064430356
175	0xbdbe9bae	-0.09307037
176	0x3cd12132	0.025528524
177	0x3bd3d755	0.0064648786
178	0xbd1389f5	-0.036020238
179	0x3db57a68	0.08861238
180	0x3c028018	0.00796511
181	0x3d8f1d1c	0.06987974
182	0xbc18bbc2	-0.009322109
183	0xbd181a7c	-0.037134632
184	0xbbfd8dd0	-0.0077378526
185	0xbc8ea117	-0.017410798
186	0xbd3b29bd	-0.0456941
187	0xbd921053	-0.0713202
188	0x3da6ba4e	0.081410035
189	0xbc444f0b	-0.011981736
190	0xbd00e4e5	-0.03146829
191	0xbbe9cca2	-0.00713499
192	0x3dc4ab80	0.096030235
193	0x3bd56ca8	0.006513197
194	0x3d072d93	0.033002447
195	0xbbaf4b64	-0.0053495634
196	0x3dfa0d7a	0.12209602
197	0x3cad6445	0.021165976
198	0x3ddd2bda	0.1079938
199	0xbd9c9137	-0.07644885
200	0x3dee6d44	0.116419345
201	0xbd78c32f	-0.060733017
202	0xbc8f2ac4	-0.017476447
203	0xbda7e265	-0.08197478
204	0xbdfe5b1d	-0.12419722
205	0x3de126fe	0.10993765
206	0x3d19f20c	0.03758435
207	0xbdb79527	-0.089639954
208	0xbddb4162	-0.1070583
209	0x3c5e3e57	0.013564668
210	0xbd013563	-0.031545054
211	0xbd60409d	-0.05474912
212	0xbc7b45c5	-0.015336459
213	0x3ceffe67	0.029296113
214	0xbdd3ad62	-0.103358045
215	0xbb9bec21	-0.0047583734
216	0xbcdb63a9	-0.02678092
217	0xbdb17f3d	-0.08666847
218	0xbd9cd982	-0.07658674
219	0xbb05ef8b	-0.0020436968
220	0x3d933837	0.071884565
221	0x3c5afdf1	0.013366208
222	0x3d1a5e06	0.037687324
223	0xbdc7ccff	-0.09755897
224	0xbd2ab3f0	-0.041675508
225	0x3d9c1ed0	0.076230645
226	0xbd43dca9	-0.04781786
227	0x3a954368	0.0011387886
228	0x3da61720	0.081098795
229	0x3d0a5804	0.033775344
230	0x3d586665	0.052832026
231	0x3d2e1058	0.042496055
232	0xbd991f73	-0.074767016
233	0xbdddc648	-0.10828835
234	0x3dd68066	0.10473709
235	0xbd9d1da9	-0.07671673
236	0x3d832282	0.06403066
237	0x3d28c36f	0.041202005
238	0xbd322488	-0.04349187
239	0x3dc52ba3	0.09627464
240	0x3d3a38ae	0.04546421
241	0xbd495aa6	-0.049158715
242	0xbd57447a	-0.05255554
243	0xbcdcf32e	-0.026971426
244	0x3d4cef4f	0.05003291
245	0xbd84baa3	-0.06480911
246	0x3c1c3106	0.0095331725
247	0xbc924dcf	-0.017859368
248	0x3d4ae0c5	0.049530763
249	0xb9fcc288	-0.00048210123
250	0x3dec2028	0.11529571
251	0x3d1455c0	0.03621459
252	0xbce8017d	-0.028321022
253	0x3dc791a4	0.097445756
254	0x3d233abc	0.039850935
255	0x3dfdc6e7	0.12391453

net.3.lin2.bias f4 [64]
0	0x3dfbff76	0.12304585
1	0xbd0ae708	-0.033911735
2	0xbcf87c19	-0.030332612
3	0xbd9c7a2a	-0.076404884
4	0x3d92deeb	0.071714245
5	0x3db87b0c	0.09007844
6	0x3d8ead1e	0.06966613
7	0x3d5ed4bd	0.0544021
8	0xbdb5e631	-0.08881796
9	0x3c93492b	0.017979225
10	0xbda50ed2	-0.080594674
11	0xbc21aa18	-0.009867214
12	0xbddc0d70	-0.107447505
13	0xbd12559f	-0.035726186
14	0xbc5d0fb6	-0.013492515
15	0xbda82cc9	-0.08211667
16	0x3d04eba4	0.032451287
17	0x3df87ef3	0.12133589
18	0xbd9d2cd5	-0.07674567
19	0x3c3c78dd	0.011503425
20	0xbd3b1a23	-0.045679223
21	0xbcb566b6	-0.022143703
22	0xbd9ab850	-0.07554686
23	0xbd257021	-0.040390138
24	0x3b28227a	0.0025655315
25	0xbd2d5024	-0.042312756
26	0x3dae0e12	0.084987774
27	0xbddb7543	-0.10715725
28	0xbdb5e0dd	-0.0888078
29	0x3dca63c0	0.09882307
30	0xbc021abd	-0.007940945
31	0x3d97dd4e	0.074152574
32	0xbd0f88a5	-0.035042424
33	0xba61a0f8	-0.0008607055
34	0xbd04d481	-0.032429222
35	0x3ab259d0	0.0013607088
36	0x3c8a3a53	0.016873514
37	0xbc8abaa8	-0.016934708
38	0x3b9b662a	0.0047424035
39	0x3ddd6046	0.10809378
40	0x3df1f8ea	0.11815055
41	0x3d1ed203	0.0387745
42	0x3d64ea67	0.055887606
43	0xbdad52b7	-0.08463042
44	0x3d55d770	0.05220741
45	0x3d135a96	0.03597506
46	0x3d32c19b	0.043641668
47	0xbdc90f98	-0.098174274
48	0x3dff87fd	0.124771096
49	0xbdf69e12	-0.12041868
50	0xbcb95559	-0.022623705
51	0xbd93d7ce	-0.07218896
52	0xbc68c709	-0.01420761
53	0xbd20fa63	-0.039301287
54	0xbb0b7f1b	-0.0021285478
55	0xbdb3c08b	-0.08776959
56	0x3df09080	0.11746311
57	0xbcd0a4ee	-0.02546927
58	0xbd41d891	-0.047325674
59	0xbd5de062	-0.054169066
60	0x3cf9c5da	0.03048985
61	0x3c28d722	0.010305198
62	0xbc1eb9a7	-0.009687818
63	0x3dd9f260	0.106419325

net.4.lin1.weight f4 [64, 64]
0	0xbdcd690d	-0.100298025
1	0x3de2d761	0.110762365
2	0xbc8deb09	-0.017323988
3	0x3c108fc4	0.008823339
4	0xbdceecf1	-0.10103787
5	0xbdef2924	-0.11677769
6	0xbdb95438	-0.090492666
7	0xbd3e6552	-0.046483345
8	0xbd8ef419	-0.06980152
9	0x3dab61ec	0.083682865
10	0xbcf505ae	-0.029909935
11	0xbddba6ac	-0.107251495
12	0xbd609f8d	-0.05483966
13	0x3dc16e25	0.094448365
14	0xbd921f5e	-0.07134889
15	0xbd1d2901	-0.038369182
16	0x3dd0fc5f	0.10204386
17	0xbd9d49d1	-0.07680095
18	0xbd63d15f	-0.055619594
19	0xbd338261	-0.04382551
20	0xbd53275a	-0.0515512
21	0xbde23c3b	-0.11046644
22	0x3c8f0d50	0.017462403
23	0x3d8f4638	0.06995815
24	0x3b75198a	0.0037399256
25	0xbdf9d3b8	-0.12198585
26	0x3d65399b	0.05596314
27	0x3d72c551	0.059270207
28	0x3d6363a5	0.05551495
29	0x3dc8705c	0.09787056
30	0xbdb55dc1	-0.08855773
31	0xbd8ca024	-0.06866482
32	0xba827d38	-0.0009955531
33	0xbdb20c59	-0.086937614
34	0x3b0ed9f5	0.0021797393
35	0xbde7441d	-0.112922885
36	0x3c8d658a	0.017260332
37	0x3c4814a3	0.012211951
38	0x3c60d731	0.013723181
39	0xbddbb7c2	-0.107284084
40	0x3d99af99	0.07504196
41	0x3d7b7262	0.06138838
42	0x3de2b76b	0.110701405
43	0x3d5be7d9	0.053687904
44	0xbdcf6bc9	-0.1012798
45	0xbdb335cf	-0.087504975
46	0x3e03c4a2	0.12867978
47	0x3d885008	0.0665589
48	0xbdeb3b1c	-0.114858836
49	0x3db76d72	0.08956422
50	0x3dd4944c	0.10379848
51	0x3de0848b	0.109627806
52	0xbcd1f9e2	-0.025631849
53	0xbd40dacf	-0.047083672
54	0xbd09eb9e	-0.033671968
55	0xbddbc766	-0.107313916
56	0xbc67110d	-0.014103186
57	0x3c54b7a5	0.012983237
58	0xbd1cbecb	-0.03826789
59	0xbd434272	-0.04767079
60	0xbd7840ef	-0.0606088
61	0xbce4ff19	-0.027953671
62	0x3d6f1947	0.058373716
63	0xbd509c15	-0.0509301
64	0x3d963738	0.07334751
65	0xbb18767a	-0.0023263977
66	0xbcea7047	-0.028617991
67	0x3d7cb8bf	0.061699625
68	0x3dbaf08c	0.09127912
69	0xbd3f2cbe	-0.04667353
70	0xbcb178da	-0.021664072
71	0x3c862e2a	0.016379435
72	0xbd419912	-0.04726512
73	0xbdd37c30	-0.10326421
74	0xbd0253d2	-0.03181822
75	0x3b7d4777	0.0038647333
76	0xbcef3837	-0.02920161
77	0x3db990b8	0.09060806
78	0x3d1c021e	0.038087957
79	0xbd922ff2	-0.07138051
80	0xbd758be3	-0.05994786
81	0xbde658c7	-0.11247402
82	0xbdd49738	-0.10380405
83	0xbd9dc7ee	-0.07704149
84	0xbd5d057b	-0.053960305
85	0x3d4c64fa	0.049900986
86	0x3d51451a	0.05109129
87	0x3b4a0dfa	0.0030831085
88	0x3da5c764	0.08094671
89	0xbcba14f2	-0.022715066
90	0x3df238bd	0.11827228
91	0xbd19a4d6	-0.037510715
92	0xbdb53bde	-0.088493094
93	0xbdcbf6de	-0.099591956
94	0xbda0a53a	-0.078440145
95	0x3da46c96	0.080285236
96	0x3d48aa66	0.04899063
97	0x3dc131ca	0.09433325
98	0xbd79b593	-0.06096418
99	0x3dc3316e	0.09530912
100	0x3d676bf7	0.056499448
101	0x3c0669fa	0.008203978
102	0xbdbd8eae	-0.092557296
103	0x3dc3abd2	0.095542565
104	0x3bc7881a	0.0060892226
105	0x3caa6d32	0.020804022
106	0x3dc580b8	0.09643692
107	0xbdd9f02d	-0.10641513
108	0xbdea14b5	-0.11429731
109	0xbd95b466	-0.07309799
110	0x3cdddcd7	0.027082844
111	0xbae238f7	-0.0017259408
112	0xbd8a9c90	-0.06768143
113	0xbda500b0	-0.08056772
114	0xbcab0e6a	-0.020880897
115	0x3d52206a	0.051300444
116	0xbdd2ce28	-0.102932274
117	0xbc1c346a	-0.009533981
118	0x3dd6607d	0.104676224
119	0x3d03699e	0.032083146
120	0x3dda852d	0.106699325
121	0xbb9c0efa	-0.0047625275
122	0x3c9f3e9a	0.01943903
123	0xbd43dcea	-0.047818102
124	0x3cc2543a	0.023721803
125	0x3db4842a	0.08814271
126	0xbdbb8614	-0.09156433
127	0xbd1e692e	-0.038674526
128	0xbdb4a815	-0.088211216
129	0xbdeb1c6c	-0.114800304
130	0x3de35bdd	0.11101506
131	0xbd3e3d9f	-0.046445485
132	0xbd89a07f	-0.06720065
133	0xbcde28da	-0.027119089
134	0x3dc814ab	0.09769567
135	0xbd535610	-0.051595747
136	0x3be8e577	0.0071074325
137	0x3da19782	0.07890226
138	0x3d8bcba7	0.06825953
139	0x3c43e088	0.011955388
140	0xbd8bc0d2	-0.06823887
141	0x3deeeb15	0.11665932
142	0x3de7c6a4	0.113171846
143	0x3d91ffc3	0.07128861
144	0xbc6d7b67	-0.014494753
145	0x3d9f8ffa	0.07791133
146	0xbdc83cb7	-0.097772054
147	0xb9f1631e	-0.0004604095
148	0x3de55c7a	0.11199279
149	0xbdf02e53	-0.11727586
150	0x3dc18b37	0.09450381
151	0x3dcc1cdd	0.09966443
152	0x3de18cef	0.11013209
153	0xbd8de482	-0.0692835
154	0xbde65a2f	-0.1124767
155	0xbd4216b1	-0.04738492
156	0x3dda833d	0.10669563
157	0xbd849488	-0.064736426
158	0x3d2622e3	0.040560614
159	0xbce79a5a	-0.028271843
160	0xbdd6d2d8	-0.10489434
161	0xbc91ee3a	-0.01781379
162	0x3d66cbb4	0.05634661
163	0x3da862d3	0.08221974
164	0x3de07d23	0.10961368
165	0xbd7b816e	-0.06140273
166	0xbd5ab02a	-0.05339066
167	0xbdb53c0d	-0.088493444
168	0x3e005cde	0.12535426
169	0xbdc0899c	-0.09401247
170	0x3df6d706	0.12052731
171	0xbddaf288	-0.106907904
172	0x3de21393	0.1103889
173	0x3d689ced	0.05679028
174	0xbdb7c73c	-0.08973548
175	0xbdadc819	-0.08485431
176	0xbd1b7b18	-0.03795919
177	0xbd612c33	-0.054973792
178	0x3d4ab7fb	0.049491864
179	0x3d7b0784	0.061286464
180	0xbcec5786	-0.028850328
181	0x3de3fa7d	0.11131761
182	0xbda69e1a	-0.08135624
183	0x3da27819	0.07933063
184	0x3a70091c	0.0009156631
185	0xbdd973d9	-0.10617799
186	0xbd4f5d20	-0.05062592
187	0xbdf639b4	-0.12022725
188	0xbda77ffb	-0.08178707
189	0xba978121	-0.0011558869
190	0xbdd309af	-0.103045814
191	0x3c8b8517	0.017031236
192	0xbdcf5ec1	-0.10125495
193	0xbd27dba7	-0.04098096
194	0xbdbef715	-0.09324471
195	0x3d4cd767	0.05001011
196	0x3dec1d11	0.115289815
197	0x3d9afd9b	0.07567903
198	0x3d814bd7	0.063132934
199	0xbd50bc74	-0.050960973
200	0x3d96f806	0.073715255
201	0xbdef2e36	-0.11678736
202	0xbddd8b0e	-0.10817538
203	0xbdfc305f	-0.123139136
204	0x3cc78d70	0.024359435
205	0x3d572eed	0.052534986
206	0xbc5ac840	-0.013353407
207	0x3cc07298	0.023492143
208	0xbd978ecd	-0.07400284
209	0x3cd84cbc	0.026403777
210	0x3da8ac33	0.082359694
211	0xbdb3c414	-0.08777633
212	0xbd7814b1	-0.060566608
213	0x3d09746f	0.033558305
214	0xbd36e623	-0.04465307
215	0x3cbeaff2	0.023277257
216	0x3ddab429	0.10678894
217	0xbe05034c	-0.12989539
218	0x3deeca94	0.116597325
219	0xbd60ff57	-0.05493101
220	0x3d58d111	0.052933756
221	0xbc9cb251	-0.019127997
222	0xbc63b5a6	-0.013898289
223	0xbdd2dad4	-0.102956444
224	0xbdc22e88	-0.094815314
225	0x3dcd4e4c	0.100246996
226	0xbdd8e01c	-0.105896205
227	0x3d85be89	0.06530482
228	0xbd81d824	-0.06340054
229	0x3ddafe63	0.10693052
230	0x3d6fd609	0.05855373
231	0xbda54524	-0.08069828
232	0x3d84ef6e	0.0649098
233	0xbdb4c941	-0.08827449
234	0x3d5ece9a	0.05439625
235	0xbd4d7159	-0.050156925
236	0x3da86da6	0.08224039
237	0x3d4b72d0	0.04967004
238	0xbdd5da3d	-0.10442016
239	0xbc428813	-0.011873263
240	0xbd3f2742	-0.0466683
241	0xbe054389	-0.13014044
242	0x3d9a1ba2	0.07524802
243	0x3d8d909b	0.06912347
244	0x3dbf3316	0.09335916
245	0xbdd5ef80	-0.104460716
246	0xbcf28bd5	-0.029607693
247	0xbdf312c0	-0.11868811
248	0x3df9b5d4	0.12192884
249	0xbd8162db	-0.06317683
250	0xbd5c3ad8	-0.053767055
251	0x3d3e811b	0.046509843
252	0x3d07eb2f	0.033183273
253	0x3cf777ac	0.030208431
254	0x3cd83de3	0.026396697
255	0xbba54868	-0.005044032
