data/trained_models/base_k_a_resnet.pth (torch, 201862 bytes, 15 tensors)

net.0.weight f4 [64, 374]
000000 e5 0a 80 bc 18 ef 89 3c 13 62 0a 3d 07 2d 1e bd
       -0.015630195 0.016837642 0.033784937 -0.03861716
000010 d4 9a 30 3d eb 75 6c bc 22 11 9b 3c 28 09 92 3c
       0.043116406 -0.014432411 0.018929068 0.017826632
000020 7e 6b 87 3c 25 b7 f2 bc ba 88 4f 3d 2a 7b 58 3d
       0.016530748 -0.029628346 0.050667502 0.052851833
000030 52 10 29 3c f2 82 31 3d ff 81 49 3d 4c 96 0c bd
       0.0103188325 0.04333777 0.04919624 -0.03432302
000040 3a aa 2b bd 3f 05 69 3a 88 5f 9b 3c 30 e6 be 38
       -0.041910388 0.00088890264 0.018966451 9.102782e-05
000050 ec 89 c0 bc 2e 7c a8 bc 58 0a 68 3d ba 1d 36 3d
       -0.023503266 -0.020567026 0.05665049 0.044461943
000060 9d 8c 32 3c 5a 89 98 bc b5 70 7a bc 16 a6 a2 3b
       0.010897783 -0.018620182 -0.0152856605 0.0049636466
000070 1f 47 e8 bb 4a 75 97 bb d8 3c d6 bc 70 40 d7 bc
       -0.0070885564 -0.0046221362 -0.02615206 -0.026275843
000080 27 17 fb bc c6 e9 fd 3c 48 1f 33 3d 53 70 5c bc
       -0.030650688 0.03099526 0.043731004 -0.013454515
000090 2d c9 c2 ba 2d 8b 17 bd 55 41 11 bd 4c f5 e3 3c
       -0.001486098 -0.036997963 -0.035462696 0.027826928
0000a0 38 8c 37 bd ef 4b 0b 3d 6e 8b 3e bc 4c 20 88 3c
       -0.044811457 0.034007963 -0.011629922 0.016616963
0000b0 dc 0e e1 bc 7b 5a cf bc c7 20 39 bd 53 a1 1a bd
       -0.027472906 -0.0253117 -0.045197275 -0.037751507
0000c0 76 c2 80 3c ec 65 08 3d f0 7a f0 bc cf 39 44 3c
       0.015717726 0.033300325 -0.029355496 0.011976673
0000d0 9d ac 9e 3c 3c b5 9e 3c 20 06 83 bc d6 a9 12 3d
       0.019369418 0.019373529 -0.015994132 0.0358065
0000e0 d1 43 da 3c 50 b2 3a bd ea 3d 98 bb 85 da 4e 3d
       0.026643666 -0.04558021 -0.0046460526 0.050501365
0000f0 73 ba 1b 3d b6 6b 42 bc c0 53 38 bb fa 60 46 ba
       0.03801961 -0.011866501 -0.002812609 -0.0007567551
000100 cd 21 2d bd 77 f1 8d 3c b0 3f 2a 3d e2 b6 24 3c
       -0.042268563 0.017327053 0.041564643 0.010053368
000110 aa f8 81 bb 96 8b 22 3c 5a de ae 3b 80 ed 3a bd
       -0.0039664106 0.009920975 0.005336565 -0.045636654
000120 65 34 3c bc 7a 76 c0 39 01 04 36 bc 20 e0 8c 3b
       -0.011487101 0.00036709366 -0.011109353 0.0042991787
000130 40 e7 00 3d 10 64 ec bc 61 70 e2 3c 3c 4c d3 3c
       0.031470537 -0.028856307 0.027641477 0.025793187
000140 05 c6 01 3d ba 0b 01 3d c7 de 3a 3d a0 6d 0c 3c
       0.031682987 0.031505324 0.045622613 0.0085710585
000150 d8 31 cc bc a0 6b fc 3b 5b 0a f0 bb c3 1f 39 3d
       -0.024926111 0.0077032596 -0.007325453 0.045196306
000160 f2 42 a3 3b 5a df 0b bd 56 91 08 bd ab fb 76 3c
       0.0049823457 -0.03414855 -0.03334173 0.015074651
000170 28 48 aa 3c 56 b7 50 3c 34 c2 41 bd b5 0e 36 3d
       0.02078636 0.012739023 -0.047304347 0.04444762
000180 15 e4 f5 3c b8 6f b8 bc 3c af ec 3c f8 e7 19 bd
       0.030015985 -0.02251421 0.028892152 -0.03757474
000190 55 bd 2d 3d 47 8e d7 3b f1 2b ce 3c 36 92 40 bc
       0.04241689 0.00657824 0.025167437 -0.011753609
0001a0 36 04 78 3c 9e 4f 26 3a 1c 71 b9 bc bf 7f 2d 3d
       0.015137723 0.00063442613 -0.022636943 0.042358156
0001b0 dc 46 05 bd ef fd 45 3d 45 7c ba 3c c0 0c 30 bd
       -0.03253828 0.048337873 0.022764334 -0.04298091
0001c0 35 39 3d 3d 0a cc 49 bb 32 15 18 bc d9 fd 33 3c
       0.046197135 -0.0030791783 -0.009282397 0.010985815
0001d0 a3 1c 1d 3d 25 63 82 3c c4 0d 9f bc ee 7b 38 3d
       0.03835739 0.015916416 -0.019415744 0.045040064
0001e0 2d 48 8e 3c b9 cf 56 bd 58 79 86 3c e5 a5 34 3d
       0.0173684 -0.052444194 0.016415283 0.04410352
0001f0 4c e6 cc bc 50 8a 9c bc b6 4b 13 bc 03 48 7b 3c
       -0.025012158 -0.019108921 -0.008990219 0.015336993
000200 71 2c 1b bc d3 37 39 3d 33 9e 64 bc 95 80 e1 ba
       -0.009471045 0.045219254 -0.013953733 -0.0017204458
000210 a9 cd 90 bc ca 8e 01 bd 66 fa a7 bc 7c cd c2 3c
       -0.017676191 -0.031630315 -0.020505141 0.023779623
000220 1d d7 38 3d d0 bf ee 3b 07 87 4f 3d fa f3 3d b8
       0.045127023 0.0072860494 0.05066588 -4.5288332e-05
000230 50 8a b5 3c 3c 92 58 3c 89 8a ec bb c9 e5 91 3c
       0.02216068 0.013218459 -0.007218663 0.017809765
000240 d8 46 82 3c ab 31 89 3c fa 16 ee bc 6f 07 f1 bb
       0.015902922 0.016747316 -0.02906369 -0.0073556225
000250 d4 f7 4d bc cf 85 da bb 45 87 b5 bc eb df 44 bd
       -0.012571294 -0.0066687833 -0.022159228 -0.048065107
000260 ec e6 bc bc c2 3f 55 3d 1a 84 08 3d 1a 66 a3 3b
       -0.02305933 0.052062757 0.033329107 0.0049865367
000270 b1 6c cb 3b 33 c5 f6 3c 1a 0a ea bc 79 2d e0 3c
       0.0062080254 0.030123329 -0.02856927 0.027365433
000280 b8 3c 30 bd 46 d2 02 3c a7 87 39 3d 21 43 d9 3c
       -0.043026656 0.007984703 0.045295384 0.026521267
000290 53 26 19 bd a8 8e 57 3b fc 92 8d 3c 05 09 12 3d
       -0.037390064 0.0032891426 0.017282002 0.035653133
0002a0 fa 3c 85 3a 46 6d 49 3c 46 21 11 bc aa 23 18 3c
       0.0010165267 0.012294119 -0.008858031 0.009285847
0002b0 fa f3 4a bd 94 4d 1c bd f1 99 fb 3c ad 59 15 3d
       -0.04954908 -0.03815992 0.030713053 0.036462475
0002c0 96 c1 4a 3c 32 db 6f ba 71 20 25 bd 1d 6f 51 bd
       0.012375256 -0.0009149789 -0.04031414 -0.051131357
0002d0 6e 2e ad bc 72 c0 3c bc 83 0d e2 bc f0 44 99 bc
       -0.021140303 -0.011520492 -0.027594334 -0.01870963
0002e0 d7 5e ea 3b 6e e6 a5 bc 9d 38 3d 3d a5 52 31 3d
       0.007152419 -0.020251479 0.04619657 0.043291707
0002f0 17 08 fb bc 3d 7f df 3c 0c b5 f9 bc 10 b3 c7 3c
       -0.030643506 0.027282352 -0.030481838 0.024377376
000300 b6 ce e5 bc cd a8 1e 3d 5f aa 32 3d d0 69 09 bd
       -0.028052669 0.0387352 0.04361951 -0.033548176
000310 4e 80 86 bc fc 12 1d bd 65 a4 56 3d a9 2e 38 bd
       -0.016418602 -0.038348183 0.052402873 -0.044966374
000320 7b 7b 70 3c 87 a2 30 3d d8 d8 f9 3c 7e 43 75 bc
       0.014677878 0.04312375 0.030498907 -0.014969705
000330 38 b5 df bc 12 cd 64 3d a6 23 1b 3b c7 69 a8 bc
       -0.027308092 0.055859633 0.0023672371 -0.020558251
000340 20 1f 2c bd 51 b6 db bc 1f 93 6a bc 3b 5a b4 bc
       -0.04202187 -0.026820334 -0.014317303 -0.022015681
000350 90 22 be 3c f4 6a 8a 3c 60 66 b9 bb 5d ec 59 bc
       0.02320984 0.016896702 -0.005657956 -0.013300982
000360 09 41 37 bd 26 ab db bb 19 42 a5 3c aa cb d6 bb
       -0.044739757 -0.006703752 0.02017312 -0.0065550404
000370 f0 9f e4 bc ee 6f 29 bd 43 b0 2b 3d 17 1f 31 bd
       -0.027908295 -0.04136651 0.041916143 -0.04324254
000380 6e e6 23 3c 47 7c 33 3d f7 27 67 b9 da 34 ac 3a
       0.010003669 0.043819692 -0.00022044765 0.001313831
000390 6c a8 0f 3d ac 8b b0 3c 47 7d 27 bc 22 07 e2 bc
       0.03507273 0.021550976 -0.01022274 -0.027591292
0003a0 33 69 bd 3b de ee 51 3d 5d 57 dd bc 3b a9 68 3a
       0.005780363 0.051253192 -0.027019197 0.0008875315
0003b0 b4 ab 62 3c b2 8e dd bb 90 8e 05 bc 62 50 4d bc
       0.0138348825 -0.0067613954 -0.008151665 -0.012531372
0003c0 82 76 60 bc bf 5e 9c bc c9 58 5a bc c4 f4 bb 3c
       -0.013700129 -0.019088147 -0.013326832 0.022943862
0003d0 c8 8c 44 bd f4 8e 5e 3d 0f 11 e5 3b c6 c9 49 3c
       -0.047985822 0.05433555 0.006990559 0.012316173
0003e0 68 2b 4a bd 7e 5f c2 3a 98 8e 27 bd cd dd 25 bd
       -0.0493578 0.0014829484 -0.040907472 -0.04049473
0003f0 10 9a 91 bc d3 59 30 3d ff b3 43 bd 06 20 40 3c
       -0.017773658 0.043054413 -0.04777908 0.011726385

net.0.bias f4 [64]
000000 7d 75 67 3c 43 b6 03 3d 1d 0f 19 bd e4 72 54 3d
       0.0141271325 0.03215624 -0.03736793 0.05186738
000010 7c 6c 06 bd a0 24 da 3b fc 66 87 3c 5f df 26 3d
       -0.032818303 0.006657198 0.016528599 0.040740367
000020 8f ac 19 3d e3 29 d6 bc 27 f7 63 3d 6e 7c 30 bd
       0.03751808 -0.02614302 0.055655625 -0.043087415
000030 90 75 a8 38 b8 c0 9d bc 3e a8 c0 ba 76 69 30 3b
       8.032762e-05 -0.019256935 -0.0014698578 0.0026918328
000040 20 3c 33 3c c5 03 5d bd c9 6f 9e 3c c3 f0 05 bd
       0.010939628 -0.053958673 0.019340413 -0.03270031
000050 50 42 18 ba 3f 07 d1 3c c2 5b 58 bd f4 ef 5a 3c
       -0.0005808221 0.02551615 -0.052821882 0.013362873
000060 9b 41 26 bd 72 b5 85 3c 0e 6e 01 bd 15 d6 e3 bc
       -0.04058991 0.016321871 -0.031599097 -0.027812043
000070 f0 1a cc bb 61 8e a2 3c 0f 2e 08 bd a1 e6 46 3d
       -0.006228797 0.019843282 -0.03324705 0.04855979
000080 50 03 15 bd 3b d9 2b bc b2 d6 11 3d 11 31 e3 bc
       -0.036380112 -0.0104888035 0.03560514 -0.027733358
000090 f3 5f 52 bd 22 a9 d5 bb 3c 87 b5 bc c8 3c a8 bb
       -0.051361036 -0.0065204063 -0.022159211 -0.005134199
0000a0 84 ef 1f bb cc 4e 15 3d 4b db 46 3c 26 67 b4 3c
       -0.0024404237 0.0364521 0.012137244 0.022021841
0000b0 a2 75 88 3c 34 2f b3 bc 98 52 23 3d 6f 70 24 3d
       0.016657654 -0.021873094 0.03987369 0.040146288
0000c0 66 60 22 3d ad d1 41 bc 9e d5 eb 3c 94 ea 8e 3c
       0.039642714 -0.011829776 0.028788384 0.01744584
0000d0 64 01 c3 bc e8 de e6 3b ab 22 2d 3d de 6d 44 3b
       -0.023804374 0.0070456155 0.04226939 0.0029972713
0000e0 88 1e 47 3a 68 1f db bc 78 02 29 3d 4f d8 09 bd
       0.0007595797 -0.026748374 0.04126212 -0.033653554
0000f0 7a 61 87 3b 02 e8 2b 3b 64 3a 18 bb dc 0a 86 3c
       0.004131493 0.0026230817 -0.0023228163 0.0163626

net.2.lin1.weight f4 [64, 64]
000000 5f 64 91 bd a0 f6 ff 3b f4 8c d3 bd 67 47 f6 3d
       -0.070992224 0.0078113824 -0.10329619 0.12025338
000010 90 77 91 3d 1a b1 ec bd 66 be 96 3d a3 21 9a bd
       0.07102883 -0.11557217 0.07360534 -0.07525947
000020 22 d5 7e bb 47 a0 2a bd 8c 8c 95 3d 0c f3 b5 bc
       -0.0038884361 -0.04165676 0.07302198 -0.02221062
000030 81 d5 70 bd f3 45 b9 3c f9 70 d1 bd 0b 24 c4 3c
       -0.058797363 0.022616362 -0.10226626 0.023942968
000040 9f 66 ef bd fd 94 d1 bd 8d bd eb bc db 11 17 bd
       -0.11689495 -0.102334954 -0.028776908 -0.036882263
000050 ab ae 5c 3d dc 1a 73 bb 40 27 05 be 3f 86 ab 3d
       0.053877514 -0.0037094867 -0.13003254 0.08375215
000060 b4 ad bb 3c c1 c6 f1 3d 10 32 a6 bd 14 20 00 be
       0.022909977 0.118054874 -0.081150174 -0.12512237
000070 7a 95 05 bd 46 44 d0 3d f0 0a f1 3c 4b 0d 45 bd
       -0.032613255 0.10169272 0.02942416 -0.04810838
000080 ce d2 e2 bd 21 b2 ae 3d d5 52 ba 3d 78 60 c6 3d
       -0.11075364 0.08530069 0.0909783 0.09686369
000090 44 4b 6e bd 9b 16 84 bd 5a 3c 0b bd 84 c3 ec bd
       -0.058177248 -0.06449624 -0.033993103 -0.11560729
0000a0 5f b6 e3 bb ea 38 54 3d 80 1b 56 3d 74 20 8b bd
       -0.0069492306 0.05181209 0.05227232 -0.06793299
0000b0 e0 6b e7 bd 53 8b 86 bd 9e e4 8b 3c 58 f1 03 bd
       -0.112998724 -0.06569543 0.017076787 -0.032212585
0000c0 9c 8d 66 3b ca cf 9b bd 6b 9d d8 3b ba b0 ac bc
       0.003517962 -0.07607992 0.0066105626 -0.021080364
0000d0 d0 37 cc 3d 1b f6 ad bd 79 75 8e 3d 6b 3f 96 bd
       0.09971583 -0.084942065 0.06956 -0.07336315
0000e0 1e 27 92 bd e8 07 59 bd ae 53 6f bc a7 5a a2 bd
       -0.07136367 -0.052986056 -0.014607353 -0.07927447
0000f0 e4 74 2f 3d a4 7a ff 3d 54 cf a1 bb 1c a3 ff 3c
       0.042836085 0.12474564 -0.0049380455 0.031205706
000100 b5 68 dd 3d 32 22 22 3d 6e 8c da bd d2 84 5e bd
       0.10810987 0.039583392 -0.10671316 -0.054325886
000110 fa 47 a8 3d 40 1f 5b 3b 0a 62 5b bb e4 39 ed 3b
       0.082168534 0.0033435374 -0.0033475184 0.007239567
000120 32 66 8a 3d a1 a2 ea 3d c9 d7 a3 bc 77 b1 ad bd
       0.067577735 0.114568 -0.020000355 -0.08481114
000130 4f 93 93 bd 82 96 df bd 68 f0 ca 3d 10 7a c7 bc
       -0.07205831 -0.10917379 0.09909135 -0.024350196
000140 3b 4b 91 bc 99 34 88 bd 15 5c 6f bc 84 18 ff 3d
       -0.017736068 -0.06650657 -0.014609356 0.12455848
000150 e2 c7 e3 3d 06 f4 81 3d c5 93 e7 3c 4d 15 b2 3d
       0.11122109 0.06345372 0.028268704 0.08695469
000160 50 d7 f8 bd a0 1c a9 3d 81 bd 91 bb 3e c5 89 bc
       -0.121504426 0.08257413 -0.0044476395 -0.016817685
000170 e4 99 84 bc 4c 69 d7 3d 0e 1c 95 bc 7f 52 82 3d
       -0.016186662 0.10518131 -0.018201854 0.06363391
000180 7e ac d9 bd 0c e1 cc 3d 46 2e 7f bd 02 a3 e1 3d
       -0.106286034 0.10003862 -0.06229999 0.110174194
000190 1c 68 8d bd 26 e8 10 bb bd 57 a9 3d e1 e6 b5 bd
       -0.06904623 -0.0022111028 0.08268688 -0.08881927
0001a0 a5 46 fd bd e1 32 d5 3d 0f d6 ec bd 74 16 53 3d
       -0.1236699 0.10410095 -0.11564266 0.051535085
0001b0 5d c7 bc 3c ab 6a 98 3d b9 75 b8 bc f3 a6 cc bc
       0.023044283 0.0744222 -0.022517072 -0.024981951
0001c0 18 3c 13 bc b7 b0 eb bd 08 aa a9 39 85 55 9d bd
       -0.008986495 -0.11508315 0.00032360875 -0.07682327
0001d0 80 e1 82 3d 3a a5 a0 3d 8f a0 b8 3d 59 89 ce 3a
       0.06390667 0.078440145 0.09014999 0.0015757486
0001e0 0c 25 c4 3d 31 4a 9c bd f0 13 89 3d 68 cb 33 3d
       0.09577379 -0.076313384 0.06693256 0.043895155
0001f0 1d fa bd 3d e4 94 d4 3d 95 c8 0e bd ae 1c d8 bd
       0.09276221 0.10379961 -0.03485926 -0.10552345
000200 a2 11 95 bd 75 ab 54 bd a1 45 eb bd 4e 2d ec 3d
       -0.07278754 -0.051921327 -0.1148789 0.11532079
000210 ef 40 3a 3d e8 c2 65 3d bc 90 f2 bd 1a cc 59 3d
       0.04547208 0.05609408 -0.11844012 0.053173162
000220 7d e7 02 3e 18 29 c0 3c e6 f7 72 bc f2 d5 f3 3d
       0.12783618 0.023457095 -0.014829611 0.11906041
000230 61 ea 65 bc cc c9 36 3d 06 e9 b7 bb c4 e6 72 3d
       -0.014032931 0.044626042 -0.0056124954 0.059302106
000240 9c ca 7a bd 9d f2 90 3c d6 6d db bc 43 a1 1b bd
       -0.06122838 0.017693812 -0.026785772 -0.037995588
000250 2f c9 c8 bd eb 98 b0 3d e0 b1 93 bd a2 ff 47 3b
       -0.09803998 0.08622917 -0.07211661 0.003051736
000260 cb 81 8b 3d 9d 50 ec 3c 6c f4 9c 3d a0 77 b5 bd
       0.068118654 0.028847033 0.07663807 -0.08860707
000270 9a ac 7e 3c a2 57 95 3c 35 e2 8a bd 3a 3e 0c bd
       0.015544081 0.018230263 -0.06781427 -0.03423903
000280 72 9f 92 3d a1 81 10 bc 5d f2 cb bd 5e e3 82 3d
       0.07159318 -0.008819968 -0.099583365 0.06391023
000290 5f 46 ee 3d 19 07 5f bd 3c cf 31 3c 9d 94 9d bd
       0.11634516 -0.05445013 0.010852631 -0.07694361
0002a0 2f dd 87 bd 66 2f 3c 3d e8 12 bb 3d 86 f8 5d 3d
       -0.06633984 0.04594364 0.091344655 0.05419209
0002b0 6d d6 9c bd c9 ef b8 bc 0d dc b4 bd 8d b5 02 3d
       -0.07658086 -0.022575276 -0.08831034 0.03191142
0002c0 60 d7 21 3c 5f 1e c4 3d 2a 1c 9b bc be dd 96 bd
       0.00987801 0.09576105 -0.018934328 -0.07366513
0002d0 7b 86 7d bd 8e c3 b3 3d 62 5e 05 3e 56 8b 22 3d
       -0.06189583 0.087775335 0.13024285 0.039683662
0002e0 44 29 ed 3d f2 f0 46 3d 97 0b eb 3d 26 0b d5 3d
       0.115801364 0.048569627 0.1147682 0.10402517
0002f0 d8 2e aa 3d 7d 2d 72 bd 24 12 a3 3d 93 40 bd 3d
       0.08309716 -0.059125412 0.079624444 0.09240832
000300 e0 42 61 bd 4e 14 a8 bd 80 03 d0 bb cb dd e5 bd
       -0.054995418 -0.08206998 -0.0063480735 -0.11223944
000310 42 25 8b bd b8 34 40 3d a5 0c 67 3b 61 55 bf bc
       -0.06794216 0.046925277 0.003525534 -0.023356142
000320 d7 c2 e9 bd 88 6b c4 3d 5e 8c a2 3d b0 da 20 3c
       -0.11414116 0.095908225 0.07936929 0.009817764
000330 16 f9 0e bd d9 f5 70 3d 6b f5 b3 3c 4f ca dd 3c
       -0.034905516 0.05882821 0.02196761 0.027074007
000340 6c 44 22 3d b3 12 da 3d 5d dc a4 bd 7a 89 ae 3d
       0.039616033 0.10648098 -0.080498435 0.08522315
000350 0e 81 d2 3d 9a 16 c9 bd 52 81 b5 3d 90 bf 0d bc
       0.102785215 -0.09818764 0.088625565 -0.008651629
000360 17 8b 1d 3c 9f d8 69 3d 4a 14 e3 bd b1 9a 01 be
       0.009615681 0.05709135 -0.11087854 -0.12656666
000370 64 f9 10 3c 8b 0b b8 bd 73 e9 13 bd 10 ac 7f bd
       0.008848522 -0.08986577 -0.036111306 -0.06241995
000380 e1 d9 bd 3b fd 55 f8 3d 0c 82 45 3d 82 ff 00 be
       0.0057937955 0.12125776 0.048219725 -0.12597468
000390 f7 7d f9 3d 3e ff 23 3d e6 09 e5 bd 15 88 6a bd
       0.12182229 0.04003834 -0.111835286 -0.057258684
0003a0 ad 6a 30 bc a8 ed 9d 3a c6 7c 00 3e 3e 35 8b bc
       -0.010767621 0.0012048976 0.12547597 -0.016993161
0003b0 eb 52 b2 3d 03 f9 fe 3d f1 f0 ed 3b 0a 46 72 3d
       0.087072216 0.12449839 0.0072613885 0.059148826
0003c0 29 de 76 bd 2b eb 26 bd 55 46 95 3d 39 ad ce 3c
       -0.060270462 -0.040751617 0.072888054 0.025229083
0003d0 80 6b 10 bc 27 41 11 3d 9e 7c 1f 3b 13 25 6c bd
       -0.0088146925 0.035462525 0.0024335752 -0.057652544
0003e0 39 57 9a bc c7 a6 05 3e 13 74 0d bc 8b 1c e2 3d
       -0.01884042 0.13051902 -0.008633631 0.110406004
0003f0 2e c2 f2 3d 9c 9e 65 bb 31 ef 59 3d ea 34 6f bd
       0.11853443 -0.0035037166 0.053206626 -0.058400072

net.2.lin1.bias f4 [64]
000000 e9 00 9f 3d a5 7a 03 be 77 5f fe 3d 1b 31 ad bb
       0.077638455 -0.12839754 0.12420552 -0.005285395
000010 3f 09 6c bb 99 b8 50 bd 3f 8c fb 3d 47 19 95 3b
       -0.0036016253 -0.050957296 0.12282609 0.0045501324
000020 c2 4e a7 bd 1b e5 94 bd d6 a8 3c bd 52 c7 34 bd
       -0.08169319 -0.07270261 -0.046059452 -0.0441354
000030 6d 62 c3 3d 78 64 70 bd c3 ad 9a 3d 16 50 2f bd
       0.095402576 -0.058689564 0.07552674 -0.042800985
000040 6e 30 83 3d fc f9 00 3e a1 f2 d0 bd 22 7c b7 bb
       0.064057216 0.12595361 -0.10202528 -0.0055995146
000050 de c4 22 bc 9a e5 8e 3d f4 76 5d 3d fb 58 93 3d
       -0.009934632 0.06977387 0.05406852 0.07194706
000060 5f ed 21 bd fa 3f ed bd 34 92 e0 3b db 13 37 bd
       -0.039533015 -0.11584468 0.0068533663 -0.04469667
000070 db a7 72 bc a7 4e 50 3d 5c 28 de 3b c5 9e 04 be
       -0.014810528 0.05085626 0.0067797136 -0.12951191
000080 22 af 4e 3b 47 27 0a 3d 23 73 c4 3c 5d 0c bf 3d
       0.0031537493 0.033728864 0.023980683 0.0932853
000090 5b 0d d6 bd 53 36 9d 3c e6 c2 19 3d 6f 1e e4 bc
       -0.10451766 0.019190943 0.037539385 -0.027846543
0000a0 0f dd d6 bd 94 d6 ab bd ed ed 9e 3d f3 08 fe bd
       -0.10491382 -0.08390537 0.077602245 -0.12404051
0000b0 e8 14 0b 3d f2 d7 99 3d 30 6b 1a 3d fa 12 3d 3b
       0.033955485 0.075118914 0.03769988 0.0028850422
0000c0 ab 3b aa bd 49 d6 dc 3d e2 e8 5c 3d 06 cc af 3d
       -0.08312162 0.10783059 0.05393303 0.08583836
0000d0 b8 08 8b bd 41 ce c3 bd d3 cd 86 bd c2 80 04 3d
       -0.06788772 -0.09560824 -0.065822266 0.032349356
0000e0 b9 a4 d3 3d f0 eb dd 3d be 33 1e 3d 70 7e 3c bc
       0.10334153 0.10836017 0.038623564 -0.011504754
0000f0 5d fd 73 bd d3 e1 04 3e 32 36 0c 3d 4d 5e 9a 3d
       -0.059567798 0.1297677 0.034231372 0.07537518

net.2.lin2.weight f4 [64, 64]
000000 b9 35 d0 bd d2 75 d4 3d 8f e9 9b bb e5 75 4c 3d
       -0.10166497 0.10374035 -0.004758067 0.04991712
000010 31 50 c8 bd af 45 e3 bd e6 7d c6 bd e5 37 83 3d
       -0.0978092 -0.110972755 -0.09691982 0.064071454
000020 d7 5c 28 bd c4 a6 99 3d dc 4e fc 3d 06 2e e2 bc
       -0.041104164 0.07502511 0.12319729 -0.027609836
000030 62 62 48 bd 1a 1e ec 3d f7 db b9 3d 03 a3 c4 bd
       -0.04892195 0.11529179 0.09075158 -0.096014045
000040 3f 44 9e 3d b8 e4 fe 3c 0d 6e 4a 3d 78 f3 5f bd
       0.07727861 0.031114921 0.04942136 -0.05467555
000050 86 b6 b2 3d cb b3 25 3d 42 57 74 bd 38 d2 9a 3c
       0.0872622 0.040454667 -0.059653528 0.018899068
000060 61 cc 5a bd 90 d8 e2 3d a4 46 84 bd da 28 7d 3d
       -0.053417567 0.11076462 -0.06458786 0.061806537
000070 e2 16 a2 bd b1 6b 30 bb 8f 4d 10 3c 91 ca 64 3c
       -0.07914521 -0.0026919658 0.008807554 0.013964311
000080 80 78 9b 3c b9 a1 eb 3d 48 52 3c 3d dc cc 4a 3d
       0.018978357 0.115054555 0.045976907 0.049511775
000090 39 17 60 bd 2f 88 b5 3d 7a c9 88 bc 50 b5 a3 3d
       -0.054709647 0.088638656 -0.016697634 0.07993567
0000a0 70 7d 5c 3d c3 73 25 3d e5 10 c5 bd ae ce 01 3e
       0.053830564 0.040393602 -0.09622363 0.12676498
0000b0 06 e2 eb bd b6 72 b8 bd 98 48 bb 3d 61 d1 5d bc
       -0.1151772 -0.090062544 0.091447055 -0.013538689
0000c0 44 16 97 3c a6 67 bd 3d b0 6e 83 3d 06 9c ff bc
       0.018443234 0.09248285 0.06417596 -0.031202327
0000d0 76 71 e5 bd 11 35 4a 3c f5 85 98 bd c8 d3 3c bb
       -0.112032816 0.012341754 -0.07447425 -0.0028812755
0000e0 5d 73 e4 bd 2c 74 cf bd 0c 4f 4c 3c 34 bd 6b b9
       -0.11154816 -0.1012958 0.012470018 -0.0002248183
0000f0 3a 70 ce bd b7 48 55 bd 00 e1 cc bb df ca 61 bd
       -0.10079999 -0.0520713 -0.006252408 -0.055125114
000100 fc 20 2f bc 40 01 db bd 4c b0 66 3d 5f 74 ce 3d
       -0.010689016 -0.10693598 0.056320474 0.1008079
000110 dd 62 d6 bd c6 09 d7 3d 4c fa 6b 3c 36 ab 97 bd
       -0.104680754 0.10499911 0.014402937 -0.07405703
000120 06 23 a9 3d 66 9c 2f bd 15 0d 81 bd 38 35 81 3d
       0.08258633 -0.042873763 -0.06301323 0.06308979
000130 8d 5c a8 ba fc 75 a9 3c f2 73 f8 3c 33 0a ec 3d
       -0.0012844965 0.020686142 0.030328725 0.11525383
000140 67 5a c6 3d 50 8f cc 3d 2a 9f 3c 3c 2b bc 94 3c
       0.09685212 0.09988272 0.011512557 0.018156132
000150 be ed f3 bd 69 0b 8e 3d 4f f3 f6 bc 64 cc 81 3d
       -0.1191058 0.0693577 -0.030145315 0.063378125
000160 e5 35 c3 3d e0 e7 b9 bd 11 34 cc 3d 32 eb 05 3e
       0.09531764 -0.0907743 0.099708684 0.13078001
000170 8b a6 6b bd c6 96 a9 bc 06 ee 9c 3c ac df 98 3d
       -0.057531875 -0.020701777 0.019156467 0.07464537
000180 aa 59 16 bb 1c 41 81 bb 88 5d a2 bd e3 db cc bc
       -0.0022941628 -0.003944529 -0.07927996 -0.025007194
000190 09 51 8f bd cc 3a d3 3d 5c 07 cb bd d9 7b 8e 3d
       -0.06997878 0.10313949 -0.09913513 0.06957216
0001a0 b4 7e 96 bd 80 1c f6 bd 6c 8c b1 bc 66 86 5f 3d
       -0.073483855 -0.12017155 -0.021673404 0.05457153
0001b0 d1 6c 51 bd 64 2e 05 bd 52 af f1 bd 97 3c 5c bd
       -0.051129166 -0.032514945 -0.11801018 -0.05376872
0001c0 45 b5 04 bd e2 b7 e6 3c 82 62 80 3d a0 df 76 bc
       -0.032399435 0.028163854 0.06268789 -0.015067965
0001d0 37 c8 56 bd 66 a1 9a bd 35 99 eb bd c2 c2 f5 bb
       -0.052437034 -0.075503156 -0.11503831 -0.0075000236
0001e0 14 46 07 bd 98 10 0a 3c b0 0f d7 bc 22 27 c5 bd
       -0.033025816 0.008426808 -0.026252598 -0.096266046
0001f0 70 d9 2f bd 86 f8 42 3d 65 38 89 3c 96 05 a6 bd
       -0.042931974 0.04760029 0.016750524 -0.08106534
000200 e8 62 8c bd 7a c3 9d bd 50 34 ef 3d 0a 81 fa bd
       -0.06854802 -0.077033 0.116799 -0.122316435
000210 33 ec 17 bb 45 75 db 3c b8 e5 32 bd c0 be 62 bd
       -0.0023181557 0.026789317 -0.043676108 -0.055357695
000220 06 d5 52 bb a3 c5 f3 bc 76 31 b6 bb be 14 d7 3c
       -0.003217043 -0.029757326 -0.0055600954 0.026255008
000230 5e aa 06 3d 4b 05 a1 3c 02 bf fe 3c 2a a4 3b 3d
       0.03287732 0.019655844 0.031096939 0.045810856
000240 ed e6 6f 3d d8 de 5e 3d aa 9f dc bc fd 45 9c 3d
       0.058569837 0.05441174 -0.026931603 0.07630537
000250 d5 61 d0 3d 9d 8c ee bd 9e a8 9d 3d f9 79 2c bd
       0.1017491 -0.116479136 0.07698177 -0.04210851
000260 05 b1 c1 bd ea 10 6e bd ee 78 7e 3d af 65 31 3c
       -0.09457592 -0.0581216 0.062127046 0.010827466
000270 d5 24 a3 bd b3 07 02 be 38 bb eb bc 8d bc e6 bd
       -0.079660095 -0.1269825 -0.028775796 -0.11266432
000280 2a a2 d1 bd 07 0e 8a 3d f5 ca 10 bd 57 97 55 bd
       -0.102360085 0.06740957 -0.035349805 -0.052146282
000290 b8 7a 63 bd 4d 47 e0 3d fd 54 ce bd ee f3 c0 3c
       -0.055536956 0.109510995 -0.10074804 0.023553815
0002a0 8f 8f a7 bc 63 96 d8 bd 44 4f 94 bb 32 12 b8 3c
       -0.020454196 -0.10575559 -0.0045260508 0.022469614
0002b0 30 5e b0 3d 92 89 e6 3d 33 8a 81 bd f0 43 8e 3d
       0.08611715 0.11256708 -0.063251875 0.06946552
0002c0 07 8a 84 3d 2f ae d3 3c 7e 90 3c bd 2d 91 76 bd
       0.06471639 0.025839893 -0.046036236 -0.060197044
0002d0 81 18 f2 bc 30 07 42 bd a1 b6 3f bd 01 fe c2 bd
       -0.0295527 -0.047370136 -0.046805028 -0.09521104
0002e0 40 16 9f 3d 2e fc d2 bd ee 88 84 bd 7c 17 64 bb
       0.07767916 -0.10302006 -0.0647143 -0.0034804037
0002f0 24 6d 99 bd 6c 97 41 3c 7d f1 51 bd 2f 60 a7 bd
       -0.0749152 0.011815887 -0.05125569 -0.081726424
000300 79 5c 45 3d 63 f9 93 3b 2e a8 a0 bd 71 e8 19 3d
       0.048183892 0.004515813 -0.07844578 0.03757519
000310 9c 13 28 bd 21 1f 46 3d c9 88 eb 3d 55 b2 7d bd
       -0.041034326 0.04836953 0.11500699 -0.06193765
000320 94 97 4b 3d e7 9b 0e bc 5a ed c4 3d 32 e3 dc 3d
       0.049705103 -0.008704162 0.09615584 0.107855216
000330 53 08 5e 3c 26 ea 94 bd 3f 68 8b 3d d4 db c9 bd
       0.013551789 -0.07271223 0.06806993 -0.09856382
000340 5c 8c 83 3d 2a 93 b7 3d 32 6a e7 bd 7a 9c 03 be
       0.06423256 0.08963616 -0.11299552 -0.1285266
000350 b2 de 81 3c 31 1d 81 bd 93 ff 85 3b 7e ab 00 bd
       0.01585326 -0.06304396 0.0040893047 -0.031413548
000360 ec f1 b7 3d 6d 7f ec 3d b4 32 cd 3c 78 ff 96 bd
       0.0898169 0.11547742 0.025048591 -0.073729455
000370 52 44 f7 3d b5 b9 b7 bc 84 ec 88 3d f8 78 21 bd
       0.12073578 -0.02242742 0.06685737 -0.039422005
000380 cf 2d 90 3a ba 46 c4 3d a8 2b 10 3d c6 8b 7b 3d
       0.001099998 0.095838025 0.035197884 0.061412595
000390 19 92 5f 3d 42 69 a0 3a f7 61 9a 3d 0b ba 3d bd
       0.05458269 0.00122384 0.075382166 -0.046320003
0003a0 fc 8b dd 3d 5b ef d7 3d 8b 25 be bc 68 66 84 bd
       0.108177155 0.105437 -0.023211261 -0.06464845
0003b0 a9 8b ce 3d db 2d c1 3d cf e7 90 bb 17 75 a7 bd
       0.10085232 0.09432574 -0.004422165 -0.0817663
0003c0 1a 18 76 bd 88 85 a7 3d ee ba b5 bb 41 40 87 3c
       -0.06008158 0.08179766 -0.0055459654 0.01651013
0003d0 52 3f ba bd 10 a6 6e 3c cb 37 78 3d 12 54 49 3d
       -0.09094109 0.01456596 0.060600083 0.04915244
0003e0 c1 17 7c bd 9b 79 d3 bd 6b 13 c6 bc af 12 97 3d
       -0.06154609 -0.10325929 -0.024179181 0.073766105
0003f0 80 2d c7 3c f8 ce 92 bb f2 17 19 bd 61 f1 53 3d
       0.024313688 -0.004480239 -0.03737635 0.05174387

net.2.lin2.bias f4 [64]
000000 a7 0f ab 3d be f0 17 bd 11 70 74 3d 16 66 d9 3d
       0.08352595 -0.037094824 0.059677187 0.106151745
000010 6f 8f fe bc 77 e3 db 3d 28 51 91 bd 86 20 90 3c
       -0.031074254 0.10736745 -0.070955575 0.017593633
000020 11 41 9d 3c bc d4 4a 3d dc 4b 77 3c 45 01 a2 bc
       0.019196065 0.049519286 0.01509377 -0.019775996
000030 8d b2 85 bb a9 dc 95 bd 8e d9 48 bd 72 d6 8b 3d
       -0.004080123 -0.07317478 -0.0490356 0.068280116
000040 8e b0 cb 3d de d9 da 3c a1 f1 a0 3d f6 09 e9 bc
       0.099457845 0.026715215 0.07858587 -0.028447133
000050 26 2f 20 bd 9c cf db 3d 71 96 ec bd 5d 62 d4 bd
       -0.039107464 0.10732958 -0.11552132 -0.10370324
000060 29 9e cd 3d ae e2 9b 3c 2c e5 1c 3d fc b1 c1 bd
       0.10039932 0.019028988 0.038304493 -0.09457776
000070 b3 9a 45 3d bd 96 7a bd 95 57 3e 3d f0 49 3c 3d
       0.048243236 -0.06117891 0.046470243 0.04596895
000080 56 b2 93 bd 84 d9 0b 3c 9c 39 45 3d 73 fb cd bd
       -0.07211749 0.0085357465 0.048150644 -0.10057726
000090 26 2c fb bd be f4 98 3d f8 5f e5 3d 91 5b 74 3d
       -0.1226428 0.07468556 0.11199945 0.059657637
0000a0 86 7e 84 bd bc ba d7 bd 5c 74 05 3d e6 ec 8e bd
       -0.06469445 -0.10533664 0.032581672 -0.069787785
0000b0 d4 0c 83 3b 56 0e d7 3d 19 7e c3 3c b5 b5 5e 3d
       0.003999332 0.10500781 0.023863839 0.054372508
0000c0 77 c6 30 bd d7 93 b1 bb 53 10 2b bd 87 9d 44 bd
       -0.04315802 -0.005419235 -0.041763615 -0.048001792
0000d0 67 a4 7a 3d aa 4a 47 bd 20 9d bf 3d 76 cc 53 bc
       0.061191943 -0.04865519 0.09356141 -0.012927165
0000e0 63 e7 1a 3d 8f 46 06 3d d2 c3 ab bd d8 4e cf 3c
       0.037818324 0.032782134 -0.08386959 0.02530615
0000f0 ef 19 88 bd 7b 1c 97 bd dc f2 dc 3c 52 e5 ad bd
       -0.066455714 -0.07378479 0.026971273 -0.08491005

net.3.lin1.weight f4 [64, 64]
000000 cd 23 5c bc 45 fd 3f 3d 9f ca 60 3d d5 78 a4 bc
       -0.01343627 0.046872396 0.054880735 -0.020077148
000010 bb df 06 3d ab dd 77 bd c4 1b bc bd 35 47 a6 3d
       0.03292821 -0.060514133 -0.091849834 0.081190504
000020 ab 9d ad 3d 7a a4 4a 3c c5 13 b5 bc 6a 90 98 3c
       0.084773384 0.012368316 -0.022104153 0.01862355
000030 78 fd bb 3d fa e8 45 bd 8c 59 34 bd 5b 80 9b 3c
       0.09179205 -0.048317887 -0.04403071 0.018982103
000040 af a9 e5 bc 57 42 fe 3b 73 20 6b 3d 91 0c b1 bc
       -0.028035013 0.007759373 0.057403993 -0.021612437
000050 e0 0b 32 3d 3c 98 ff 3d 7a 99 ef 3c 90 61 82 3d
       0.043468356 0.12480208 0.029247988 0.06366265
000060 ca 84 5d bc 94 2d c7 3d 8e 48 90 3c 90 47 04 be
       -0.013520429 0.0972549 0.017612722 -0.12917924
000070 0e 08 7d bd 1c fa 82 bd 74 6b f6 bd aa 4c 23 bd
       -0.06177526 -0.06395361 -0.12032214 -0.039868034
000080 f7 ca af bd 82 6d bf 3a 73 f5 2b 3c 20 10 0b bd
       -0.08583634 0.001460478 0.010495531 -0.033950925
000090 bb 62 83 bd b2 67 a8 bd 6e 55 62 3c 7c 09 8f 3d
       -0.06415316 -0.08222903 0.013814313 0.06984231
0000a0 67 04 d3 bc 88 dd ca 3d be 3e d3 bd 0b 72 ea 3d
       -0.025758935 0.09905535 -0.103147015 0.11447533
0000b0 d5 ae aa bc c9 b9 e7 3d db 7c 2f 3d 5c b7 73 3d
       -0.02083532 0.113147326 0.04284368 0.059501037
0000c0 6b 69 83 bd 41 f5 80 bd 97 ef b8 3d d8 bc b9 bd
       -0.06416591 -0.062967785 0.09030073 -0.09069222
0000d0 3d fc ec bc 5e 13 88 bd ed 34 8b 3d a4 62 8a 3d
       -0.02892887 -0.06644319 0.06797204 0.067570955
0000e0 b8 21 28 bd de e3 81 3d b0 9d dd ba b7 35 d3 bd
       -0.04104778 0.0634229 -0.0016907956 -0.1031298
0000f0 8d b2 36 bc 2b 66 a4 bc f5 15 92 3c a7 48 e2 3b
       -0.011150968 -0.020068249 0.017832736 0.0069056335
000100 e4 f9 e2 bc e3 5c 4b 3d 13 d5 aa 3d 27 d1 ec bd
       -0.027707048 0.04964913 0.08341422 -0.1156333
000110 3c 86 0e 3d 3b 80 ce bb 38 f3 a2 bc aa 94 62 3d
       0.034795985 -0.0063019074 -0.019891366 0.05531756
000120 96 70 d0 bd bc 1e ff bb 59 d4 a5 3d d8 df ff bd
       -0.10177724 -0.0077856462 0.08097143 -0.12493867
000130 31 05 a7 bd 60 c9 fa 3d df 9e a2 3d 78 99 63 bd
       -0.08155287 0.122454405 0.079404585 -0.05556628
000140 82 de b0 3d 52 b0 01 3d f7 6b e0 bc aa 35 17 3c
       0.0863619 0.031662293 -0.027395232 0.009229103
000150 cf da 7b bd 3d fb cb 3d c5 3e b2 bd 17 94 a2 3d
       -0.06148797 0.09960029 -0.087033786 0.07938402
000160 49 cb 41 3d 06 de cd bc dc cf 9e 3d 5f af f9 3d
       0.04731301 -0.025130283 0.0775449 0.121916525
000170 ce 71 0c 3d b3 97 8d bc 37 f4 a5 3d 55 9a 42 bd
       0.03428822 -0.01728425 0.08103221 -0.047510464
000180 b0 7b e5 3c 7c 7e 98 3d 80 77 e1 3d 27 4e a3 3d
       0.02801308 0.07446 0.11009121 0.07973891
000190 f0 35 cb bd c2 81 36 3d 44 d1 33 bd 7f 41 5b 3d
       -0.09922397 0.04455734 -0.043900743 0.05352926
0001a0 83 77 bc bd 19 8c 26 3c 00 40 c8 3d 6f b2 d5 bd
       -0.092024826 0.010165238 0.09777832 -0.10434424
0001b0 53 0b d5 3c ea 80 b9 3d 0e ec 6c 3d c6 56 db bd
       0.026006376 0.090577915 0.057842307 -0.1070991
0001c0 b6 33 a0 bd 86 be 7d bd a6 31 e9 3d 34 72 c6 bc
       -0.07822363 -0.061949275 0.11386423 -0.024224378
0001d0 7b 2f 07 3d c7 9a 92 3c e8 7c b9 3a 5a fb cd bd
       0.033004265 0.01789607 0.0014151605 -0.10057707
0001e0 de 3d cf bb aa e1 e1 3d 30 ca f2 bd cd 4b 86 3d
       -0.006324514 0.1102937 -0.118549705 0.065574266
0001f0 1d 27 8d 3d 46 9b 6d 3b 8f 1d 20 bb 2d 11 a7 bd
       0.06892226 0.003625588 -0.002443168 -0.08157573
000200 21 4c a6 bc 2f 04 3a 3d 1a 73 6d 3c ee 3e bd bd
       -0.020299973 0.045414146 0.014492774 -0.092405185
000210 8d ae 3f bd e5 4f ce 3d 98 48 e6 bc a5 3a 02 be
       -0.046797324 0.100738324 -0.028110787 -0.12717684
000220 ac 5d d0 bd c5 5e aa 3d 78 36 4c 3d 6e 0f a6 3d
       -0.101741165 0.08318857 0.049856633 0.08108412
000230 80 62 ae bd f4 f0 53 bd 5b 3c f9 bd e1 7b ca 3d
       -0.08514881 -0.051743463 -0.12169715 0.09886909
000240 0b 39 06 3d 53 37 f2 3d 31 b5 91 bd ab 04 38 bc
       0.032769244 0.118269585 -0.07114638 -0.011231582
000250 aa 65 13 3d ee aa 92 3d 0f 00 e2 bd 20 91 10 3a
       0.035985626 0.071615085 -0.110351674 0.00055147894
000260 d7 35 20 3d 94 41 b0 3d 25 e1 04 bc a5 bb 65 bd
       0.039113846 0.08606258 -0.008110319 -0.056087155
000270 ce 54 30 bb ed 98 b9 3d 74 78 ca 3d d3 f3 d0 3d
       -0.0026906016 0.090623714 0.09886256 0.10202756
000280 37 10 d1 3d 0e 05 7b bd 07 7d b4 bd b1 5e be bd
       0.10208171 -0.061284117 -0.088129096 -0.09295405
000290 6b 16 9b 3d ed 6f fc bc b8 ff 3a 3d 06 dd 9d bc
       0.07572635 -0.03081509 0.04565403 -0.019270431
0002a0 9d f4 bc bd 1a c0 66 bb 5b 66 b3 3d 5d 0c b8 bd
       -0.09226344 -0.0035209716 0.08759757 -0.08986733
0002b0 73 3d 11 bb ad fa b7 3d 1b 77 69 bd 8a 82 9f 3c
       -0.002216187 0.089833595 -0.056998353 0.019471426
0002c0 08 53 94 bd b0 7a 99 bd 09 e9 88 3d fe be a9 3d
       -0.072423995 -0.07494104 0.06685073 0.08288382
0002d0 04 54 e2 3d 69 95 29 3d 0f 9c c4 3b 60 01 20 bc
       0.11051181 0.041402254 0.006000049 -0.009765953
0002e0 ed f7 9f bd b7 13 b9 3d fb 31 b1 3d 2b c4 5d 3d
       -0.0781096 0.090369634 0.08652111 0.05414216
0002f0 24 9e cf 3d 9a 94 60 bd 1e b0 f1 bc c8 34 85 3d
       0.10137585 -0.054829217 -0.029502925 0.06504208
000300 ba 04 96 3d 30 12 e8 3c 04 06 e9 bd 85 f1 9b 3d
       0.0732512 0.028328985 -0.113781005 0.076144256
000310 ce e1 45 bd 35 4b ed 3d 28 d5 9a 3d 7e 69 e3 3d
       -0.048311047 0.1158661 0.075601876 0.111041054
000320 74 97 55 bc c4 b4 d9 bc bd 9c ac 3d 75 db 03 be
       -0.0130365975 -0.026575454 0.08428333 -0.12876685
000330 94 a3 af 3d 57 eb 22 bd a6 35 ae bd 69 1a d5 3d
       0.08576122 -0.03977522 -0.085063264 0.10405428
000340 5c 11 a0 3d 73 bf 18 bd d2 78 0b 3d 0a cb 6c bd
       0.07815811 -0.037291955 0.03405077 -0.05781082
000350 e7 4e 5f 3d aa bf e3 3d 3c 18 f6 3a f0 ee 27 3d
       0.054518607 0.111205414 0.0018775533 0.040999353
000360 f7 04 92 bd f7 8e 04 bd 46 e3 80 3d bc aa 4f bd
       -0.07129853 -0.032362904 0.06293349 -0.050699934
000370 ae 4f 5f bd 6b c4 3e bc 39 c1 bd bd bf 0d 9c 3d
       -0.054519348 -0.011643509 -0.0926537 0.07619809
000380 4b 9a 14 3c 3d 6b b2 bd 1e 90 06 bd ad 96 a8 3d
       0.009069989 -0.0871186 -0.032852285 0.08231864
000390 53 b9 82 bd e6 86 3f bc 66 84 a6 3d 61 16 13 3d
       -0.06383004 -0.011689877 0.08130722 0.035910014
0003a0 68 66 f6 3b 2a ff 71 bd 8e ce 8d bd 2a 6c e0 3c
       0.007519532 -0.059081234 -0.06924163 0.027395327
0003b0 1f b2 e5 bd 85 07 aa bd 06 7e a4 3d 54 54 84 bd
       -0.112156145 -0.083022155 0.080318496 -0.06461397
0003c0 dc 08 6a 3d bc df e6 bd 59 c9 d8 3d 60 7a 85 bd
       0.057137355 -0.11273143 0.10585279 -0.06517482
0003d0 69 97 a8 bd 06 e9 a5 bd 1a f9 e7 bd d1 6c c7 3d
       -0.08232004 -0.08101086 -0.11326809 0.09737552
0003e0 56 e3 d2 bd c2 cf 3d 3d 75 c8 18 3d 18 2c a3 3d
       -0.10297267 0.04634071 0.037300546 0.079673946
0003f0 06 34 79 bc 45 50 e6 3d ce 5c 55 bd d2 2d e4 3d
       -0.015210157 0.11245779 -0.05209046 0.11141552

net.3.lin1.bias f4 [64]
000000 4d 81 9d bd 8d 15 c9 bc 54 3c bc 3c 54 2d f1 3d
       -0.07690678 -0.024546409 0.022977985 0.11776224
000010 d9 07 69 3d f4 68 d2 3d 9b 92 7f bd a2 a6 67 3d
       0.05689225 0.102739245 -0.062395673 0.056555398
000020 c4 86 c8 bc 30 55 da bc 72 48 00 3d 11 a3 89 3d
       -0.024478324 -0.026651949 0.03131909 0.067205556
000030 ff 71 c4 bd 53 b2 af bd b8 cc dc bd 32 23 11 3d
       -0.095920555 -0.085789345 -0.107812345 0.035433955
000040 07 14 9c 3c ee ad cb 3d 5c 04 3f 3d ea e3 d8 bd
       0.019052519 0.09945284 0.046635017 -0.10590346
000050 e2 10 20 bd 34 9b 67 bb 13 18 04 3e b9 1d 42 bb
       -0.0390786 -0.003534031 0.12899809 -0.0029619767
000060 1b f3 a1 3c 93 14 73 3d a3 6c c8 bb 06 44 b9 bb
       0.019769242 0.059345793 -0.006116466 -0.005653861
000070 e2 81 e1 bd 1b b0 86 bc 66 b8 ff 3b 8a 63 a6 3c
       -0.11011101 -0.016441396 0.0078039644 0.020311136
000080 fe 41 b2 3d 68 c0 a5 ba f0 4f 95 3d 22 71 04 3c
       0.08703993 -0.0012645843 0.072906375 0.008083614
000090 05 5e 8b bd b0 98 72 3c 14 6f 68 3d 2c 2d f3 3d
       -0.06805042 0.014806911 0.056746557 0.1187385
0000a0 a3 28 fc 3b 7d 2b 9f 3c 52 2e 09 3d 98 be f9 3c
       0.007695274 0.019429917 0.03349144 0.03048639
0000b0 05 79 d0 3c db 0a 53 bd 86 f5 cd 3d 4f ce b8 3d
       0.025448332 -0.051524024 0.100565955 0.09023725
0000c0 e7 46 bd bd fc e2 d6 3d c7 1c 27 3c d3 68 d7 3d
       -0.09242039 0.104925126 0.010199732 0.105180405
0000d0 82 71 1b 3d 39 4e c7 ba 7b b4 6c bc 27 29 53 3d
       0.037950046 -0.0015205807 -0.014447327 0.051552918
0000e0 7c b2 b9 3d 88 30 03 3e 40 6b 64 3d 2a 9c cb bd
       0.09067246 0.12811482 0.055766344 -0.09941895
0000f0 63 03 9a bd aa 8a e8 3d ef e1 f2 bd 96 4b 91 3b
       -0.07520177 0.11354573 -0.118595 0.0044340594

net.3.lin2.weight f4 [64, 64]
000000 6d a9 53 bb 19 bb 9a 3d 99 d4 c8 3d 30 bc 96 bc
       -0.003229703 0.07555217 0.09806175 -0.018400282
000010 65 8c 1f bd c0 e2 d1 bd bb fc a4 ba 7d 13 44 bd
       -0.03895225 -0.10248327 -0.0012587527 -0.047870148
000020 32 3b 1f 3c 69 6b e0 3d 50 c2 77 bd 99 81 c9 3d
       0.009718703 0.10957987 -0.060488045 0.09839172
000030 fc 47 1f 3d 27 6a be bc ce ae e2 bd 6c 68 8e 3d
       0.03888701 -0.023243977 -0.110684976 0.06953511
000040 b1 f3 b4 bd c2 83 b5 3c 28 5f 85 3c b6 1d af 3b
       -0.08835543 0.022157554 0.016280726 0.005344118
000050 e3 2a da 3d fe 35 de 3d 8a ba 9d bd c1 df 47 bd
       0.10652711 0.10850142 -0.07701595 -0.048797373
000060 eb b7 ec bd c6 24 bc 3d ae f2 81 3c 76 74 97 bb
       -0.11558517 0.091867015 0.015862789 -0.0046220375
000070 74 76 0f bd 06 83 9f 3d df d2 eb 3d b1 7e b6 3c
       -0.035025075 0.077886626 0.1151483 0.022277208
000080 b2 0f 9b 3d 59 fb e1 3d 3c ca 8b bd 24 a3 50 3c
       0.07571353 0.11034269 -0.068256825 0.012734208
000090 4c 89 97 3d 39 43 fe 3b 93 4c 92 bd c5 03 92 3d
       0.07399234 0.0077594784 -0.071435116 0.07129625
0000a0 73 01 aa bd 50 4a ef 3d 69 72 ff bd 72 ce 9c 3b
       -0.08301058 0.11684096 -0.12472994 0.0047853524
0000b0 bb 57 97 bc 7e 68 26 bd fe a0 0b 3d ff 9a f1 3d
       -0.01847445 -0.040626995 0.03408908 0.11797141
0000c0 44 3c bb bd da ce fd 3b d7 0d 77 3d 47 1d 83 3d
       -0.09142354 0.007745606 0.060315933 0.064020686
0000d0 c9 e8 d9 3d 3d e0 ae 3d e4 de 8f 3b 1c d8 1d 3c
       0.10640103 0.08538864 0.0043905843 0.009634044
0000e0 59 dc c5 bd 69 19 e3 3d 4c dc a0 3c cc bb 9a 3d
       -0.096611686 0.11088831 0.019636296 0.07555351
0000f0 7a 1c 61 bd 46 6f 05 be c1 d7 a9 bd 32 17 ae 3d
       -0.054958798 -0.13030729 -0.08293105 0.08500518
000100 d4 ea 93 3d 54 cd f2 bd c8 9e 0f 3c 0e af 73 bb
       0.07222524 -0.118555695 0.008765884 -0.0037183198
000110 f8 28 d5 bb a8 87 65 3d b1 a9 f4 3d a6 ef f3 3d
       -0.006505128 0.056037575 0.119464286 0.11910944
000120 a1 41 79 bd 00 60 37 bd ca 64 5e 3c ab 11 c0 3d
       -0.060853604 -0.044769287 0.013573835 0.0937837
000130 f3 55 3e bc 0d e0 f6 bd 45 b9 98 bd 4a 62 84 3c
       -0.011617172 -0.12054453 -0.07457212 0.01616015
000140 f4 46 08 bd 88 ae 02 bd 10 73 ea 3d 16 ce 79 bd
       -0.03327079 -0.031904727 0.11447728 -0.060987554
000150 51 7b 40 3c e6 d3 94 3d c9 da 81 3d 74 d6 05 bd
       0.011748151 0.07266979 0.06340558 -0.03267522
000160 43 48 6f bd 07 79 9f 3b dd 6e f3 3d 23 d9 0d 3c
       -0.058418524 0.0048667225 0.1188638 0.008657726
000170 46 67 ca bd 7b f7 69 3d f5 71 71 3d e3 c7 e8 3d
       -0.09882979 0.05712078 0.05894657 0.1136625
000180 f3 93 93 bd 46 6b 94 bd 81 e0 b5 bd 5a 4d f2 3d
       -0.072059534 -0.07247023 -0.08880711 0.1183116
000190 65 50 c4 3d ec a5 bf 3d 1b 04 ed 3d 48 8b bf bb
       0.095856465 0.09357819 0.11573049 -0.005845461
0001a0 c4 c3 95 bd 5e 97 c5 3d 3f 32 f7 3d 59 da 72 bd
       -0.0731273 0.096480116 0.120701306 -0.059290264
0001b0 d8 2b b3 bc 94 fd d9 3d f1 c0 0e 3d c5 02 29 bd
       -0.021871492 0.10644069 0.034851972 -0.041262407
0001c0 0b 0b a7 bd 67 e2 91 3d 2e 40 c3 ba 93 38 56 3d
       -0.08156403 0.07123261 -0.0014896446 0.052300047
0001d0 1f 27 8d 3d 16 73 94 bd 1c f8 3c 3d da 52 11 3d
       0.068922274 -0.072485134 0.046135053 0.035479404
0001e0 bb 72 7e bd 5f 59 f2 3d 8f 15 4a bd 32 3a e1 bd
       -0.062121134 0.118334524 -0.049336966 -0.10997428
0001f0 23 d2 93 3d 08 5f ee bc 39 42 23 bd 17 ad 69 3d
       0.07217815 -0.029098049 -0.039858077 0.057049837
000200 81 fc 9d bd f3 be dc 3d e7 54 c1 bd 7b 92 1b 3c
       -0.07714177 0.10778608 -0.09440022 0.009495373
000210 31 3f b8 bd b0 11 80 bd 3e af c9 bd 0c dd 0a 3c
       -0.08996428 -0.062533736 -0.09847878 0.008475553
000220 ec 4c b1 3d f0 b0 5a 3d 4a 70 cf 3d 10 ca 9a bd
       0.0865725 0.053391397 0.10128839 -0.075580716
000230 ce 36 f1 3d e8 fe 64 bd a4 b4 82 3d a6 11 07 3d
       0.11778031 -0.05590716 0.06382111 0.032975815
000240 e3 49 5b bd c3 63 87 3a ea bb 13 bd 8e 6b a6 3d
       -0.05353726 0.0010329414 -0.03606788 0.08125983
000250 76 91 78 bd 8a ff 2d 3b a5 1b bf 3d 4b 22 ac bd
       -0.060685597 0.0026550018 0.09331445 -0.08404978
000260 1a d9 90 bd 26 db a1 bc c9 82 5f bd 24 96 91 3d
       -0.07072659 -0.019757818 -0.054568086 0.07108715
000270 69 10 ec bd 4b d2 ac 3d 97 3c f5 3d bb 06 f4 bd
       -0.115265675 0.08438548 0.11974447 -0.11915346
000280 20 7b 17 bc b8 27 e9 bd 7e 83 cb 3d 10 2b ec 3d
       -0.009245664 -0.11384529 0.099371895 0.11531651
000290 95 b6 58 3d 71 f6 97 3d b1 a0 98 bd 40 52 df 3d
       0.0529085 0.07420052 -0.074525245 0.1090436
0002a0 8c 31 76 bd 27 c4 a8 bd 87 0a 7c bd 07 bc cf bb
       -0.060105845 -0.08240538 -0.061533477 -0.0063395533
0002b0 0d 82 9f 3d bb d6 cc 3d ae 5b bc 3c 54 e0 93 bd
       0.07788477 0.10001894 0.022992935 -0.072205216
0002c0 40 37 e4 3d dd 86 ef bd e9 7e 9e bd e1 c1 ec bd
       0.111433506 -0.11695645 -0.0773905 -0.11560417
0002d0 ac b6 92 3d ea 83 a4 3b bb 87 a1 3d 18 cd 3b 3d
       0.07163748 0.005020608 0.07887217 0.04584989
0002e0 60 9b e6 3d b8 f4 86 bd 2d a3 48 bd de a5 09 bc
       0.11260104 -0.06589645 -0.04898374 -0.008401362
0002f0 61 6c d7 3d a8 e6 d2 3c ff ce bf 3d 80 1a 88 3d
       0.105187185 0.025744751 0.09365653 0.066456795
000300 52 ae 36 bd ba cf 82 3a fa 12 80 bc 3c f2 63 3d
       -0.04459984 0.000998012 -0.015634049 0.055650935
000310 1a 16 40 3d 56 3d 14 3d 37 6b 1c bd 7a 87 d6 3d
       0.046896078 0.036191307 -0.038188186 0.10475059
000320 6d 48 db 3d 23 80 dc bd be 48 98 bd 61 2d 8e bd
       0.107071735 -0.10766628 -0.074357495 -0.06942249
000330 64 fd 89 bc 48 c7 e2 bd 59 3e 8a bd 1e 82 90 bd
       -0.016844459 -0.11073166 -0.06750173 -0.07056068
000340 0b 1f bd bd fe 7d e1 bd d9 95 f3 3c 25 0a 12 bc
       -0.092344366 -0.11010359 0.029734539 -0.008913551
000350 d0 0b 5b bc f4 f7 e1 bd 93 68 d4 3d 17 62 97 bd
       -0.013369516 -0.110336214 0.103715084 -0.07391756
000360 2b f4 e3 3b 2d 8c 7c bd 13 e2 b7 bd 53 24 ff 3d
       0.0069565973 -0.06165712 -0.08978667 0.124581
000370 96 1d a1 3d b2 d4 e6 bb 2e a7 87 3d 31 be 8f 3d
       0.07866971 -0.007044398 0.06623684 0.07018698
000380 a9 82 ea bd 5b 11 9b 3d 7c 65 31 3d b6 9c 19 bd
       -0.11450703 0.0757167 0.043309674 -0.037502967
000390 17 97 96 3d d4 af c8 bc 2d 50 8d bd c7 1e 31 bd
       0.07353037 -0.024497904 -0.06900058 -0.043242242
0003a0 84 fa 43 bd cb 76 f9 3d 75 29 9c bd dc 84 bb 3d
       -0.047846332 0.12180861 -0.07625095 0.091562
0003b0 81 b3 00 3c ef 59 c2 bd 9f f4 cb bd 6d 58 6b 3d
       0.007855297 -0.0948981 -0.09958767 0.057457376
0003c0 f6 e6 cc 3d 08 4f dc bd ab b8 a6 3d 9a e3 06 3d
       0.1000499 -0.107572615 0.08140691 0.0329319
0003d0 52 77 e7 3d 3c f1 b4 bd c9 56 8b 3c c3 d6 f1 bd
       0.113020554 -0.08835074 0.017009156 -0.11808541
0003e0 4f 33 52 bd be c4 9e bd 03 d6 28 3c 3a b2 f5 bd
       -0.051318463 -0.07752369 0.010304931 -0.11996885
0003f0 61 04 48 3d 7d 93 2a 3d 74 7b ca bc b9 86 9e 3d
       0.0488323 0.041644562 -0.02471707 0.0774054

net.3.lin2.bias f4 [64]
000000 84 44 d7 bd 18 85 80 b9 61 b9 5c 3d b0 29 35 bb
       -0.10511115 -0.00024513225 0.05388773 -0.0027643256
000010 9c 99 5f bd e7 1f 42 bd 7e 6f e7 3d 0a 8b bf bd
       -0.054589853 -0.047393706 0.11300562 -0.093526915
000020 09 eb 91 bc 40 e5 ed bb 4f 24 ee bd e2 c9 6b 3d
       -0.017812269 -0.0072599947 -0.11628019 0.057565577
000030 2e a6 a2 bd 2e 3e e4 bd 7f ba 0a bd b0 60 eb 3d
       -0.079418525 -0.11144672 -0.033869263 0.11493051
000040 20 dc 86 3d 68 f7 09 3c e0 28 e6 3b ae 26 28 3d
       0.06584954 0.008420803 0.0070239156 0.041052513
000050 d4 21 d2 3d b7 5d 35 bd c6 14 2d 3d 33 db ea 3d
       0.102603585 -0.044278827 0.04225614 0.1146759
000060 3d 31 4b bd fb 5f 6e bb f9 a8 18 bd 32 49 bb 3c
       -0.049607504 -0.0036373127 -0.03727052 0.02286205
000070 64 92 c1 3d df 23 66 bd 5e 7b cf bd 1d 94 8d 3d
       0.0945175 -0.056186553 -0.10130952 0.06913016
000080 d8 ba 72 bc 17 fa d9 3d b6 84 4e 3d 08 d6 ea 3c
       -0.014815055 0.10643404 0.05041953 0.028666511
000090 e5 57 7c 3d 7f 9d 36 3d e9 a5 a3 bd 41 61 d0 bd
       0.06160726 0.044583794 -0.07990629 -0.101748
0000a0 ae 30 93 3d af 2a 61 bc c5 c2 54 bd 62 82 23 3d
       0.07187019 -0.013743087 -0.05194356 0.039919265
0000b0 eb 81 05 bb 84 18 05 3e 6b 1c 37 3d 45 76 e2 3d
       -0.0020371627 0.12997633 0.044704836 0.110577144
0000c0 43 7a be bd 36 eb 5d 3d 80 3e 4b b8 95 93 9a 3d
       -0.09300663 0.054179393 -4.845718e-05 0.0754768
0000d0 fb 8f 1b bc df 4b 2f 3d 53 9b ab 3d ad 71 14 bd
       -0.009494777 0.042796966 0.08379235 -0.036241222
0000e0 f6 7b 70 3c f6 ac 02 be df 87 0b 3d 30 dc 60 3d
       0.014677992 -0.12761292 0.034065124 0.054897487
0000f0 fa 19 8d 3c 78 19 8c 3d d4 f8 3e 3c 7a c4 a1 bd
       0.0172243 0.06840795 0.011656005 -0.07898803
